ML-Game/results/MLBrain3/MLGameTest1.onnx (onnx, 233811 bytes, 6 tensors)

network_body._body_endoder.seq_layers.0.weight f4 [128, 315]
00000000: b9e3 e7bc a777 2c3e 5ab9 be3c 2767 67bd
00000010: 0b65 e43d 0b8c 1f3c 4d85 02be 37fb 053e
00000020: cdbb 05bd abce 92bc 07a7 b03c 07c1 63bd
00000030: 6358 64bd 7c12 2a3e fb61 cabd cba0 853c
00000040: 0dab 4f3d fa92 88bd f092 90bd 5cdb 1d3e
00000050: d940 afbd 8a7a 06bd da05 703d 86f3 66bd
00000060: 4968 153d 37a8 153e dc90 8abd bc0d 80bd
00000070: eebc 21bd 706c d8bc 0730 a2bd 8531 123e
00000080: 795c a03c ebf1 483d 9b46 43bc aadf 8abd
00000090: fdfc b83d f011 093e c827 993d c726 b43d
000000a0: bbdb abbd 5f7b debd df32 48be f9d4 313e
000000b0: fa69 893d 12b6 1b3e 763d 9bbe 83ba b9bc
000000c0: 9523 1d3d 7fb9 aabb 352c b3bd 0b5f 543e
000000d0: fae7 85be 232b 14be db42 773d 5212 f2bc
000000e0: c773 8ebd 73d8 c13d f3cb acbd b6c4 153d
000000f0: df30 3e3e 8d4c 553c 60d0 56bd c4cb 5bbd
00000100: 24a9 28bd 5db7 ffbd cd48 51bc c62e 93bd
00000110: 9b00 11be 483a 873d db2d 643b 827b b8bc
00000120: 8cb0 f9bd 7e71 193e 95fe efbd 5635 1c3d
00000130: f72b 2bbc 1338 11be 2042 0a3c db36 9bbc
00000140: 0513 ddbc 49e9 2d3d b2be 283d 610e 16bd
00000150: db87 edbd 028a 823b 20b4 b63c 3cfd 1cbc
00000160: 452e e73d f979 a53c 1f71 0dbc 494d fd3d
00000170: bcfb 5d3e 6e75 87bd 5f5d f53b 430b 75bd
00000180: 154d 16be 7ec2 d83c 12d8 b53d 4fcd fdbc
00000190: 78ea d43b 3868 92bc 8d89 eabd 7e6b 023e
000001a0: aba4 6e3e 2790 863d e50e 85bd 74f6 49bb
000001b0: 0cdf c73d dfe0 7cbd d662 d33d 3bf7 8d3a
000001c0: 7ef7 2ebc f93e 56bd 2e2e a3bc 154e 323d
000001d0: f477 0b3e fb1f d33d e656 ecbd 0aa2 cc3c
000001e0: c1e3 f2bd 9edf 613d 2066 27bc 4650 babd
000001f0: 0162 c83b cbcf 08be 0a3f 63bd 884c 513e
00000200: 4af5 7e3d fe7c 6ebe 6669 6e3e 5496 a6bc
00000210: 2b78 c9bd a9ad 523d 6438 603d 2572 d9bd
00000220: 8a99 a63d 5696 353e 78de c2bc d6a9 133e
00000230: f829 6c3d 4dc5 2fbc 298b 81bd 0a55 aa3b
00000240: a4fd 173d 0a7d 833d c6bc 193e ff4d ea3c
00000250: 3630 763d 6408 cf3d ee01 13be fd45 583e
00000260: ce7c 923e e37c fd3d 3a56 7ebe 9cf9 aa3d
00000270: fe75 50bd ca88 563e db28 af3d 2b4a ea3c
00000280: 0039 e3bd 7805 413e 6f76 2ebe 861f 2b3e
00000290: ac55 d93d 0a13 40be 54b5 0c3e f9d1 813e
000002a0: 0122 f4bd ce6c 88bd a4fc 4bbd c73a 69bb
000002b0: 31e9 b8bc be2a 093e fc34 27bd c1ee e4bc
000002c0: 745b 9abd f62d 74bd 7a2c 283e 8012 063e
000002d0: 26a3 803d 8ce7 1abd 2afa 4bbd b8a7 04be
000002e0: d86a 4a3e 934d 003e f50f 00bb 712e a63c
000002f0: 583f ce3a f705 573d e002 d5bd 07d9 003d
00000300: 790f eebb 61ba 40be 657c 533d 7192 3ebd
00000310: b85b 0e3e 4a39 c63d 8877 17bd 9894 3c3b
00000320: 1432 1e3d 0824 ffbc fd8d a9bd 96cf 30bd
00000330: ba75 573c 7fce 23bd bd33 9e3d 22a2 8dbd
00000340: dc1c abbd ebd1 8abd 8c6b 15bd 740b c3bd
00000350: defa a33d f232 a1bd 2c65 0a3d 903f cb3b
00000360: afdc e03d ae05 4e3d fe33 303e 1a38 2abe
00000370: a631 ab3e 715d 3c3e 31a9 e73d d900 f1bd
00000380: cb41 893d a9b0 5abe affe 2f3e 17f6 363e
00000390: 6a56 da3d c08b 113d 1a2d d33d 49b5 c4bd
000003a0: 0fab ea3d 9947 3d3d 04d7 7dbd 4f36 7b3e
000003b0: 9cc1 343e 6720 e53c 64df 103c 2488 1b3d
000003c0: d6e0 4bbd e15c 833c dc2e 123e 6d0a 693e
000003d0: eefa 51be e9fd 023c 32e6 83be 6e20 643e
000003e0: 7c32 4f3e ce65 e83e f91f 86be bdf8 953c
000003f0: 7208 363d ae5b 97be efb3 58bd c42f f3bc
-0.028306829 0.16842519 0.023281742 -0.056494858 0.11152085 0.009737979 -0.12746163 0.13084112
-0.032649804 -0.017920813 0.02156402 -0.055604007 -0.055748355 0.16608614 -0.098819695 0.016312024
0.050700236 -0.066686586 -0.07059276 0.1541571 -0.085572906 -0.032831706 0.05859933 -0.056384586
0.036476407 0.1461495 -0.06765911 -0.062526196 -0.039486818 -0.026418895 -0.07919317 0.14276703
0.019575344 0.049058836 -0.011918689 -0.06780942 0.09032629 0.13385749 0.07478291 0.08796459
-0.0839152 -0.10863375 -0.19550656 0.17366399 0.067096666 0.15206173 -0.30320328 -0.022671944
0.03836401 -0.005210101 -0.08748666 0.20739381 -0.26153547 -0.1446958 0.060366493 -0.029549751
-0.069556765 0.094651125 -0.08437338 0.03656455 0.1857333 0.013018739 -0.052444816 -0.053661123
-0.04117693 -0.12486146 -0.012773705 -0.07186656 -0.14160387 0.06602913 0.003481737 -0.02251983
-0.12191877 0.149847 -0.117184795 0.038136803 -0.010447494 -0.14181547 0.008438617 -0.018947056
-0.026986608 0.042458806 0.041197486 -0.036634807 -0.11598178 0.003983737 0.022302687 -0.00958186
0.11288122 0.020199763 -0.008632927 0.123682566 0.2167806 -0.06614195 0.0074879373 -0.059825193
-0.14677842 0.026459929 0.08879103 -0.030981688 0.0064976774 -0.017871961 -0.11452017 0.12736318
0.23305003 0.06570464 -0.064969815 -0.0030817064 0.0975934 -0.06173789 0.10321586 0.0010831127
-0.010679124 -0.05230615 -0.019919481 0.043531496 0.13619977 0.10308834 -0.11540012 0.02497961
-0.11859847 0.0551449 -0.01021722 -0.09097342 0.0061151986 -0.13360517 -0.05548004 0.2043935
0.062245645 -0.23289868 0.23282394 -0.020335354 -0.09837373 0.051435146 0.05474128 -0.106174745
0.08134754 0.1773313 -0.023787722 0.14420256 0.057657212 -0.0107281925 -0.06325371 0.0051981257
0.037107125 0.06420334 0.15013418 0.028601645 0.06010457 0.10109022 -0.14356205 0.21120448
0.28610843 0.12377336 -0.2483758 0.083483905 -0.050893776 0.20950618 0.085527144 0.02859982
-0.11094856 0.18849742 -0.17037366 0.16711244 0.10612044 -0.18757263 0.13741046 0.2535551
-0.11920548 -0.06661378 -0.049801484 -0.0035588013 -0.022572132 0.13395211 -0.040822014 -0.027945878
-0.075369745 -0.059614144 0.16423216 0.13092995 0.06281118 -0.037818477 -0.049799122 -0.12954605
0.1976732 0.12529592 -0.001954076 0.020285817 0.0015735431 0.052495923 -0.10400939 0.031456973
-0.007265028 -0.18821098 0.051632304 -0.046526376 0.13902175 0.09678896 -0.03697923 0.0028775092
0.038621977 -0.03114511 -0.08279035 -0.04316672 0.013150627 -0.039991852 0.07724712 -0.0691569
-0.08355114 -0.0677832 -0.036479518 -0.09523669 0.080068335 -0.07871045 0.03378789 0.0062026456
0.10979592 0.050298385 0.17207333 -0.16622964 0.33436316 0.1839502 0.113115676 -0.1176774
0.06702002 -0.21356453 0.17186998 0.17867313 0.106610134 0.035533667 0.10311337 -0.0960489
0.11458408 0.04621086 -0.061972633 0.24532436 0.17651981 0.027969552 0.008842323 0.03797163
-0.049774967 0.016035499 0.14275688 0.22757883 -0.20505878 0.007995107 -0.25761563 0.22277996
0.20234102 0.4539017 -0.26196268 0.018307084 0.044441648 -0.29562134 -0.052905973 -0.029685862

network_body._body_endoder.seq_layers.0.bias f4 [128]
00000000: 1acc 88bd eba4 bebd 3d39 ca3d 4c58 8abd
00000010: 351f d23c 2294 303b 5aba 0abb 90d9 923c
00000020: b7e4 c93c 51b1 b6bd bffb 4abd c93a 153d
00000030: 465b 5a3d c87a c3bc 1973 50bd 05f0 2cbd
00000040: f725 4abc ce88 7dbd 699d 2e3d d03c 83bc
00000050: 93aa 233d 4c9c 15bd 7077 4fbd ad08 9bbd
00000060: 44ea 3a3d 427e 2c3d 95b2 683d 550a 833d
00000070: c26b 0a3e ba91 60bd b60f 3f3d 896b cb3b
00000080: 770a debc 5ec7 233d d14d b43d 6b3f a1bd
00000090: cb1b 533b 68a9 05bd 0a24 adbd 6561 30bd
000000a0: 2f9c 6a3d aeca 843d 8c13 0f3c 79ae 0fbc
000000b0: 21bd 353d aa04 4ebd 7838 bd3c a7e9 b5bd
000000c0: d7ab 153d a333 9a3c af38 1739 5993 7dbd
000000d0: 5877 50bd 240f fd3c 86a4 13be 821d 083d
000000e0: 33ab 843d 88d9 e439 334f ab3d acd5 0f3d
000000f0: bc06 74bc 2e6a bd3b adcc 9e3c 5eba 49bd
00000100: 4450 d7bb b58e cc3b 2103 0f3d 73c1 a33c
00000110: f9db 81bd 77cc a43c 11d1 943d 5b0a dd3c
00000120: c2da 1b3c 713d 33bd 3ed0 7f3d 672e 37bb
00000130: c0b6 353d 880c 9cbd 5503 31bd 0218 383d
00000140: f292 97bd 3936 e4bd 16c0 5b3d c4c5 f9bc
00000150: af82 99bb a510 93bb f78b b9bd 41ec cd3d
00000160: 5ce0 823d aa7b b6bc 99da 44bd 835d c13c
00000170: 4040 26bd 2fd8 543d 4eee 85bd a19a b6bc
00000180: f8e4 823d 8abb 7ebd e565 6abd b888 5d3d
00000190: ae13 c13d 2f92 aebb 81ea a5bc ffb9 0d3d
000001a0: 42c9 e2bd 975b 01be 2ae6 8c3c e35b 3d3d
000001b0: 92c9 36bd a651 dfbb 07be 453c 51f8 643c
000001c0: 2169 bc3c d9f2 d7bd cdb5 503d c4d6 7b3a
000001d0: 3e1b 27bc f38b 96bd d83c c9bd ba31 753d
000001e0: d743 a73d a087 cfbd 6652 c9bc e27c d0bc
000001f0: 1d6d 853d 44dd ca3c ec3a c93c 47be 8f3c
-0.06679554 -0.09308799 0.098741986 -0.067551225 0.025649646 0.0026943763 -0.0021168203 0.017926008
0.024645193 -0.08920539 -0.04955649 0.036433015 0.0533097 -0.023862258 -0.050891016 -0.042221088
-0.012338153 -0.061898045 0.042630587 -0.016020209 0.039957594 -0.03652601 -0.050651014 -0.07570014
0.04563357 0.042112596 0.056810934 0.06398455 0.13517669 -0.054826476 0.046645842 0.0062078875
-0.0271046 0.039985053 0.08803905 -0.07873424 0.003221261 -0.03263226 -0.084541395 -0.043061633
0.057277855 0.064839706 0.008732688 -0.008769625 0.04436982 -0.050297417 0.023098215 -0.08882456
0.036540832 0.01882345 0.00014421598 -0.0619081 -0.050895065 0.030891009 -0.1441823 0.033231266
0.06477966 0.00043649622 0.083647154 0.035115883 -0.014894184 0.00578048 0.019384706 -0.04925
-0.0065708477 0.006242598 0.034915093 0.019989705 -0.063407846 0.020117028 0.07266439 0.026982477
0.009512605 -0.043759767 0.062454455 -0.0027951242 0.044363737 -0.07619578 -0.04321607 0.04494477
-0.074010745 -0.11143155 0.053649984 -0.03048981 -0.004684768 -0.004488068 -0.09059899 0.100548275
0.063904494 -0.022275764 -0.048060033 0.02360416 -0.040588617 0.05196398 -0.06539594 -0.02229053
0.063913286 -0.06219057 -0.05722608 0.054085463 0.09427582 -0.005327485 -0.020253422 0.034601208
-0.11073543 -0.12632595 0.017199595 0.046230208 -0.044625826 -0.006815153 0.012069232 0.013975219
0.022999348 -0.105443664 0.05095463 0.00096068927 -0.010199366 -0.07350912 -0.09826058 0.059861876
0.08167236 -0.1013329 -0.024575423 -0.025450174 0.06514952 0.02476371 0.024564229 0.017546786

network_body._body_endoder.seq_layers.2.weight f4 [128, 128]
00000000: 5c07 323e 2ef9 e63d 2ff1 70bd 5cdb 84be
00000010: dd7e 283e ddcd 5ebe 353d 02be 8b08 cc3d
00000020: 2ee1 33be 2b00 313d 9a28 a5bc e647 413e
00000030: 814f 24bd cf2c f5bc 3fed 08bd 3fd4 2cbd
00000040: 94da 86bd 4cc6 b0bd 7a86 9fbe cbaf 5dbe
00000050: 09b9 633e 987e 303e 5fe0 6bbd c927 76be
00000060: 7c36 3d3d d43e 4fbb 2e53 303e 9d75 a03e
00000070: 8cc4 6f3e 42f1 37be 4391 0b3e 78f5 7b3e
00000080: 5c82 113e a1bc 2abe 10f0 86bb d170 16be
00000090: 2ed1 363e 2672 56bd 451a 9bbe 822e 003c
000000a0: f68a ae3d c9c1 82be be4e 883d fcca ccbe
000000b0: 7d7e d9bd 7656 94bd 6a01 a53b 933b 93bd
000000c0: d3f5 d43d 7bc3 34be 9ff3 e03d 4c5f 4fbe
000000d0: 5244 08be 3ae0 133e 53ba df3d 34cc 8bbe
000000e0: a033 5dbe e7ae 79be 5ab6 19bd 6f20 72be
000000f0: 0066 7dbe 1fa5 89be f6b7 17be 5b58 e3bd
00000100: cb95 153d c550 2e3e 1ddf 60be d947 3bbe
00000110: dc50 0ebd 7413 dd3d 0db4 833d 800b edbd
00000120: 2132 52be 91a0 f4bd 215a ddbe 0fb3 063e
00000130: 99f3 23be dfc0 343e 4504 8dbe 534f 973d
00000140: 1ca0 27be d35f 01be 3db7 5dbe 5cc3 51be
00000150: 5f8b 213d b5a3 30be adcc 1ebe 5653 9d3e
00000160: b1c6 99be 8226 07be 3e36 a2bd 31bc e73d
00000170: 2231 893e c9c2 253d 075d b4bd 9d1a c0be
00000180: 5e4d 26be 61dc 90be dd22 84bd b6c9 803d
00000190: bb61 a73e 355a 163e 40bd d83c b267 493e
000001a0: df42 243c ec70 333e 1fe1 02be 9bbb 16be
000001b0: 72e0 723e d9b2 8bbe 4a78 76bd 1a83 29be
000001c0: 3f1c 563c e364 20be 9b52 013d 5e19 3fbe
000001d0: b1d8 833d e3e2 eabd 754e 19be d606 a9bc
000001e0: a7d7 d03e ed3b c1bd 6977 913d b8a6 083e
000001f0: d145 583d f396 f8bd dc41 d1bd 417f b43b
00000200: 219e 9fbd 88af d2be 28b3 9b3e 6ded 0fbc
00000210: 1432 a2be e6b1 e7bd d7e6 c23d 375f 4bbe
00000220: e5ee 95bd 905a 45be fb9a 38bd 2aaa 253e
00000230: 0817 a3bd 60b8 843d 42a0 4dbe bb09 493e
00000240: c175 25be 2e6a 2e3d f36d 30be bfc0 9ebe
00000250: e7c4 41be e991 e2bd 3a43 e2bc cb3e d2bc
00000260: d9cd 4dbd 2cc8 c93e 01a4 c4be d02a 93be
00000270: 9e4b f13d c3fa 1cbe 0f7d 0ebe 0e51 80be
00000280: 5fbd 71be 8022 8fbe c503 403c f603 39bd
00000290: f159 43be d319 d83e f520 353d 54bc dabe
000002a0: b310 1cbe 0f7d 86be 8303 813d 300a d3bc
000002b0: c82d d53e 971b 8cbd 8aae 713d d3b2 463d
000002c0: 2509 9b3e 1f90 43bc 432d 40be 09ca f3bd
000002d0: c1d6 2c3d c3c7 e7be e958 c7bd 9c0f 7b3c
000002e0: 6668 7dbe 3ca0 9fbe 70ac a23e 0bef 9fbe
000002f0: 1ed0 e0be 839c cf3c 379e 2e3d 02b1 0ebe
00000300: 7d5a e43c f4e9 e03c 4dc3 48be 876a 0f3e
00000310: 8fa0 3ebe ea2b c7bd 5a0e 7abe 4b5d f93d
00000320: 641a 81bd 8864 1f3d 995a 273d 670e a83d
00000330: f48b 23be d550 82be c8e5 92be 3eed 31ba
00000340: 7e87 55bd ea17 97bd ab8c 0b3e ca6d 34be
00000350: d8c5 98bd 8599 e4bc 9730 173d 0f6b c63e
00000360: bc43 49be 7b3b d8be 12b2 2cbd e146 62bd
00000370: df6d adbe c1b5 e8bd 9eaa a1be 6bfa 70be
00000380: 06ed f53d d272 41be 2606 f4bd b5c8 ce3d
00000390: 5ccd 993e 464c 71be 4632 36be 324a f9bd
000003a0: 829c 09be 1d06 35be c0c1 e0be 3a1f f53e
000003b0: 9890 303d 12d5 1dbe e316 3d3e e439 acbd
000003c0: ffdc 7bbe e142 b4be cc46 adbe c125 8dbd
000003d0: 2df0 cdbe 5ef0 d9bc 9f3a f9bd 2e51 503e
000003e0: 6289 a6bd 994e d53c 3c9d fbbd 8fd5 ed3b
000003f0: 1d7f d9bd 722f d93d ae2f e93d d6da 32be
0.1738562 0.11277996 -0.05882376 -0.25948608 0.16454645 -0.21758218 -0.12718661 0.09962567
-0.17566368 0.04321305 -0.020160962 0.18875083 -0.040114883 -0.029928593 -0.03342938 -0.0421946
-0.06584659 -0.08631572 -0.31157285 -0.21649091 0.22238554 0.17235792 -0.057587024 -0.24038614
0.04619454 -0.0031623142 0.1721923 0.31339732 0.2341482 -0.17963126 0.13629632 0.24605358
0.14209884 -0.16673519 -0.004117973 -0.14691474 0.17853233 -0.052354954 -0.3029348 0.007823588
0.085225984 -0.2553847 0.06655644 -0.39998615 -0.10619829 -0.072430536 0.005035569 -0.07189097
0.1039845 -0.17652695 0.10983967 -0.20251197 -0.13307312 0.14441004 0.109242104 -0.27304232
-0.21601725 -0.24383126 -0.03752742 -0.23645185 -0.24745941 -0.2688379 -0.1481627 -0.11100837
0.036519807 0.17022999 -0.21960111 -0.18289126 -0.034745082 0.10794726 0.06430826 -0.11574459
-0.20526935 -0.11944688 -0.43232825 0.13154243 -0.16010894 0.176517 -0.2754232 0.07388177
-0.1636967 -0.1263421 -0.21651931 -0.2048468 0.039439555 -0.1724995 -0.15507765 0.30727643
-0.30034402 -0.13198283 -0.07920502 0.113151915 0.26795298 0.040468965 -0.08806806 -0.37520304
-0.1624045 -0.28293136 -0.06451962 0.06288473 0.3269175 0.14682849 0.026457429 0.19668463
0.010025709 0.17523545 -0.1278119 -0.14720003 0.23718432 -0.27284887 -0.06017331 -0.16553918
0.013068258 -0.15663485 0.03157292 -0.1866202 0.06437815 -0.114690565 -0.14971335 -0.020633142
0.4078953 -0.09435258 0.07102854 0.13344848 0.052800957 -0.12138166 -0.1021764 0.005508334
-0.077938326 -0.41149545 0.30410123 -0.008784634 -0.31678832 -0.11313228 0.095166855 -0.1986054
-0.07320956 -0.19272828 -0.045069676 0.16178194 -0.07963377 0.06480479 -0.20080665 0.19632618
-0.16158201 0.04258173 -0.17229442 -0.3100643 -0.18922769 -0.110629864 -0.027619947 -0.025664708
-0.05024514 0.39410532 -0.38406375 -0.287436 0.11782001 -0.15330033 -0.13914894 -0.2506184
-0.23607396 -0.2795601 0.011719649 -0.045169793 -0.19077279 0.42207202 0.044220883 -0.42721808
-0.15240745 -0.26267287 0.06299498 -0.025761694 0.4163649 -0.068412 0.059004344 0.048510384
0.30280414 -0.011936217 -0.18767266 -0.119037695 0.042196993 -0.45269594 -0.09733755 0.015323546
-0.24746856 -0.31176937 0.31772184 -0.31237063 -0.4390878 0.025343185 0.042631354 -0.1393471
0.02787518 0.027455308 -0.19605751 0.1400548 -0.18615936 -0.09725173 -0.24419537 0.12175997
-0.06303862 0.038914233 0.040857885 0.08205872 -0.15971357 -0.25452295 -0.28690934 -0.0006787366
-0.05213117 -0.07377608 0.1362788 -0.17620006 -0.07459611 -0.027905235 0.036911573 0.38753554
-0.19654745 -0.4223288 -0.04216201 -0.055243377 -0.33872887 -0.11362792 -0.31575483 -0.23533027
0.12008099 -0.18891457 -0.11915235 0.100968756 0.3003949 -0.23564252 -0.17792615 -0.12172355
-0.13438609 -0.17678113 -0.4389782 0.47875386 0.043106645 -0.15413311 0.18465762 -0.08409479
-0.24596022 -0.35207275 -0.33843076 -0.068919666 -0.40222302 -0.026603874 -0.12169384 0.20343468
-0.081316724 0.026038455 -0.122858495 0.007258124 -0.10619948 0.106047526 0.11386047 -0.17466292

network_body._body_endoder.seq_layers.2.bias f4 [128]
00000000: e0b2 aa3c 9611 693d f2d0 0e3d 839e d53c
00000010: a426 d3bd cf93 243d 47db 7d3d 7c23 7abd
00000020: afcf 6f3d e9d6 9ebd ffb9 253d 891a 8bbd
00000030: fc04 983d 3bc6 f0bd e47a 88bd 65a4 813e
00000040: dded 093e 2336 74be c020 91bd da56 223e
00000050: 09f0 24be f9fa 8a3c bab4 1a3e 7dc8 513d
00000060: 0bcf e7bb 4fd8 4dbd b442 b53c 1726 3b3e
00000070: 7152 483e b665 7c3d 1f82 1fbe eb62 2ebe
00000080: 64aa 213e fdca 8b3d 9bc9 c23d c26a 163e
00000090: 4b16 ca3d 5806 11bd 14d1 9e3c 88a5 123e
000000a0: e7a1 a3bd 5764 68be 9f18 eabc 173c 363e
000000b0: 8003 22be 3311 f93d 974b ebbd 65a5 69bd
000000c0: 58de 4c3d 3cf1 373b 0d52 77bc 5502 693d
000000d0: 5df1 eebd fcd5 e4bd 2812 76be 509e 653e
000000e0: 94d8 683a bfa1 6cbd b837 c8bd c70b edbd
000000f0: 4f3d e4bd d73d 89bd b810 43bd 32f2 8dbd
00000100: 5cbb 85bd 7015 9d3d 47cd 4dbe dfcd 65bd
00000110: 3886 64be ba28 cbbd bbf8 503d ef9f e0bd
00000120: 6c7a bf3d 6ef4 a3bd df46 b03c 7415 6ebd
00000130: 86e8 683d e4c2 17be 0efb 3f3e 9b25 483c
00000140: fbe4 273d da97 e23c 53ea 093e e01f a63d
00000150: bc61 583e 8b2b 273e 0927 193e 8690 f1bc
00000160: 41bd 193e df39 043e 0923 693c c94c f43d
00000170: dcc7 553d a82b 193e 1ddb b93c 53dd 2f3e
00000180: d571 49be e7d0 743c 55f8 7a3d 158b e4bc
00000190: 73c3 16be d0ad cf3d 6325 d1bd bd84 793b
000001a0: 2719 2e3e cfe3 8b3d 7f08 493d f6ff 4fbe
000001b0: 67a9 aabc a760 433e e772 2ebc 7543 26be
000001c0: 92df 15bd bd7e 04bb 3f5f 3fbd 4009 64be
000001d0: 41ce e9bc 53cf 703e 7af0 143e f64e c3bd
000001e0: 831b b8bd fd83 95bd 08e0 803d 386f 64be
000001f0: 12a5 95be ae2d 56bd 0441 20be 68d3 9fbd
0.020837247 0.056901537 0.034867235 0.02607656 -0.103101045 0.040180024 0.061976697 -0.061068997
0.058547672 -0.077558346 0.040460583 -0.067921706 0.07422826 -0.117565595 -0.066640645 0.25320736
0.13469644 -0.23848777 -0.07086325 0.15853444 -0.16107191 0.016965376 0.15108004 0.05121659
-0.007074242 -0.050255116 0.022126533 0.18276249 0.19562699 0.061620437 -0.15576981 -0.17029922
0.15787655 0.06825826 0.095111094 0.14689162 0.09867533 -0.03540644 0.019386806 0.14320958
-0.07989865 -0.22694527 -0.028576193 0.1779636 -0.15821648 0.121614836 -0.11489027 -0.0570425
0.05001673 0.002806737 -0.015095246 0.05688699 -0.1166713 -0.11173627 -0.24030364 0.22423673
0.00088823703 -0.05777144 -0.097762525 -0.11574512 -0.11144506 -0.06701248 -0.047623366 -0.06930961
-0.065298766 0.076701045 -0.20097838 -0.056104537 -0.22316825 -0.09919877 0.051018458 -0.10968005
0.09349522 -0.08005606 0.021518169 -0.058125928 0.056862377 -0.14820439 0.18748114 0.012215997
0.040989857 0.0276603 0.13468294 0.081115484 0.21131033 0.16325204 0.14956297 -0.02948786
0.15013601 0.12912701 0.014229544 0.11928708 0.052192554 0.1495806 0.02268749 0.17174272
-0.1967233 0.014942384 0.061271984 -0.02789835 -0.14722995 0.10140574 -0.10212209 0.0038073503
0.17001782 0.068305604 0.049080368 -0.20312485 -0.02083273 0.19079839 -0.010647512 -0.1623667
-0.036590166 -0.0020217143 -0.046721693 -0.22269154 -0.028540732 0.23516588 0.1454486 -0.09536545
-0.089896224 -0.073005654 0.062927306 -0.22308052 -0.292275 -0.052289657 -0.15649801 -0.078039944

action_model._discrete_distribution.branches.0.weight f4 [2, 128]
00000000: 3a86 0dbe 880b 4e3e d402 7cbd e141 433d
00000010: 45fa 57be c257 3f3d de08 13be c893 53bd
00000020: 002c a73d 7a8d c9bc a149 93bc 4b87 44bd
00000030: 6dbc 83bd b2fa 9d3d 4b5a a3bd 432b 583e
00000040: 006b 25be 4049 dd3c eee4 7cbd f7bc 883e
00000050: f077 123d bcc3 783d baae bf3d 502b aa3d
00000060: ff97 16bd 3d9e dcbc 4a64 323d e1ab fa3d
00000070: 893a f63d ee10 1bbe 479e 233e 2fd8 d2bd
00000080: d492 0d3e e7c4 debd 1e56 433d d2b7 ffbd
00000090: 1d6c a13d 4a45 24bc 3d90 afbd 3169 253e
000000a0: 4d35 99bd 7235 3b3d 04bc 6abd f277 563e
000000b0: 674c 103d 3dd6 72bd 0958 3c3d a222 bcbd
000000c0: 100a ab3d dd79 dbbd b6de 9c3d ab10 2a3d
000000d0: 8dd3 a83b 314e 10bd 1399 f6bd b0bf 0e3e
000000e0: 781b e33d e186 23bd 5f52 a1bd cba5 13be
000000f0: 710f 26bd d9c4 5ebd 71c4 a6bd 9882 8539
00000100: 5343 51bc 331c d83d 0629 bd3b 4fbc de3c
00000110: eddf f3bd d8df b73d ec29 ffbd 8520 f9bc
00000120: fbb4 87bd 5e5a 023d 7b81 cfbc de75 6a3d
00000130: 0867 903d de0a 9c3d 054f af3d 3ee9 4abe
00000140: 5272 2e3e 2e43 c8bd ece3 7f3e b054 a23c
00000150: 3eeb 573e d40a f53d 3236 323e fb93 30bd
00000160: 353f df3d 112f a4bd 050f 10be 85ec e63d
00000170: 80f2 36be 5e14 e03d 2907 443d d192 143e
00000180: 820f e8bd 81bc 7fba 2dee c63d 8859 2cbc
00000190: 8dfe 523a 3239 303d 237b 4ebd 0dc1 5a3d
000001a0: 7c3f 763e 63eb abbd 7a8e 15be 74a5 98ba
000001b0: 9c76 ddbd d77f d9bd bd39 ea3d d10c ee39
000001c0: 5e27 c7bd 589f 8a3b e3f3 55bc 9a92 aabd
000001d0: cab7 cbbd 5055 213e 2961 ea3d 6f7b d33d
000001e0: bce3 06be e80e 09be 5313 c4bd 16f3 dc3c
000001f0: 5e5e 4e3b d986 56bc 2b26 123a 5a56 89bd
00000200: ebb3 033e e966 5abe f889 893d 925b 27bd
00000210: a024 4d3e 4e1a 50bd b764 263e f403 4a3d
00000220: ffe1 97bd 5646 41bb e511 f33c 0b3f 593d
00000230: 0a4c 653d 7d30 45bd 8254 a13d 4d27 64be
00000240: 4a5a 0f3e 419a b4bc 16a0 613d 9cbf 7ebe
00000250: db07 28bd a8d7 5abd a1fd 9cbd f6c2 9bbd
00000260: 736a 123d 604c d63c e231 57bd c5a1 eebd
00000270: 0bed f0bd c9b2 1d3e bdf9 23be 0883 ba3d
00000280: d153 fcbd 795d d93d 503a 00bd 1d8f fb3d
00000290: c046 cabd a468 7e3c 1741 943d 2872 1abe
000002a0: 6297 a83d fb53 14bd 8660 7b3d 437c 66be
000002b0: af24 adbc 7eaa 253d 048e 3bbd 799a 993d
000002c0: 7e96 a7bd 51f2 ee3d 5a55 92bd 5b05 3abd
000002d0: faee 893c cdea a43c 180e dc3d 592e 0dbe
000002e0: 6951 06be 44c6 1c3d 8ffa c23d ca96 153e
000002f0: fd26 263d 55e8 713d 1d16 bc3d c4de 553c
00000300: e1a3 2dba 13ca cdbd 09d7 67bc fc56 ecbc
00000310: 886f cb3d 395c cdbd 998a f73d d502 bd3c
00000320: bc51 353d 96d2 30bd 6bd8 023d d695 8ebd
00000330: bfcd 74bd e3ac c1bd 02ee babd 7da7 543e
00000340: 4ac8 23be d3a0 a73d 039f 7abe 1ddc f5bc
00000350: 1e9e 40be 2e11 fdbd 4d39 26be 97e2 343d
00000360: 216f d3bd bb3d 803d c7bd 033e ae66 d1bd
00000370: 658e 2e3e eb4e c8bd badb 72bd b8fe 13be
00000380: 20f1 f63d 2376 11bc 6035 e2bd f2bb f53b
00000390: 0525 103c cd20 b0bc 3377 863d 9947 26bd
000003a0: 01a7 6ebe a227 8f3d 715b 073e 3681 beba
000003b0: 5b0d c23d 019f dc3d 08ca edbd e88a aebb
000003c0: 5999 c33d 1150 e9bb 72d8 ea3b 4fdc c83d
000003d0: 140f 933d 9c90 12be 5633 eebd 145c e2bd
000003e0: ee5c 0a3e d291 003e 8f89 a33d 6010 fbbc
000003f0: 943f c0bb 81c9 4a3c f9cb 47bc 5353 903d
-0.13820735 0.20121586 -0.061526135 0.04767025 -0.21091564 0.04671455 -0.14358851 -0.051654607
0.08162689 -0.024603594 -0.017979445 -0.047980588 -0.06432424 0.07713832 -0.079762064 0.21110253
-0.16154099 0.027012467 -0.061741762 0.2670667 0.035758913 0.06073354 0.09359498 0.083090425
-0.03676605 -0.026930923 0.043552674 0.122398145 0.120228834 -0.15143177 0.15978347 -0.1029514
0.13825542 -0.108774 0.04768955 -0.12486233 0.07881949 -0.010026285 -0.08572433 0.16153409
-0.074808694 0.045705266 -0.057308212 0.20944193 0.035229113 -0.059286345 0.045982394 -0.09186293
0.08351529 -0.10716603 0.07659666 0.041519802 0.005152172 -0.03523082 -0.12040915 0.1394031
0.110892236 -0.039923552 -0.07877039 -0.14418714 -0.04054207 -0.054386947 -0.08142937 0.00025465037
-0.012772399 0.105522536 0.0057727126 0.027189402 -0.11907945 0.08978242 -0.12459168 -0.030411014
-0.06626316 0.031824462 -0.025330296 0.057241313 0.07050902 0.0761926 0.08559994 -0.19815537
0.17035797 -0.097784385 0.24989289 0.019815773 0.21085832 0.11964956 0.17403486 -0.043109875
0.10900728 -0.0801679 -0.1406823 0.11275581 -0.17865944 0.10941385 0.04785839 0.14509131
-0.11331083 -0.00097555673 0.09713397 -0.010519393 0.0008048795 0.043023296 -0.0504104 0.053406764
0.24047655 -0.08394506 -0.14605132 -0.0011645989 -0.108136386 -0.10620087 0.11436794 0.00045404446
-0.097243056 0.004230421 -0.013058635 -0.08328743 -0.09947164 0.157552 0.11444313 0.103262775
-0.13172811 -0.13384593 -0.09573998 0.026971381 0.0031489353 -0.013093674 0.00055751455 -0.067059234
0.12861602 -0.2132832 0.067157686 -0.040858813 0.20033503 -0.050806336 0.16249357 0.049320176
-0.07416152 -0.0029491386 0.029671619 0.053038638 0.05598072 -0.048141945 0.07877447 -0.22280617
0.13999286 -0.02204621 0.05508431 -0.2487778 -0.041023117 -0.053428322 -0.076655634 -0.07605545
0.03574605 0.026159465 -0.052537806 -0.11651949 -0.11763962 0.15400232 -0.16013236 0.091070235
-0.12320674 0.106135316 -0.03130561 0.12283156 -0.09876776 0.015527878 0.072389774 -0.1508261
0.08231999 -0.036212903 0.06137135 -0.2250834 -0.021135656 0.040445797 -0.045789734 0.075001664
-0.08183001 0.11667312 -0.07145186 -0.045415264 0.016837586 0.020131493 0.10744876 -0.13787211
-0.13116993 0.03827502 0.095204465 0.14608303 0.040564526 0.05905946 0.09183905 0.0130536
-0.0006623846 -0.10048308 -0.0141503895 -0.028850071 0.09933382 -0.10027356 0.12086982 0.02307264
0.0442674 -0.04316958 0.031944674 -0.06962173 -0.059766527 -0.09456804 -0.09127428 0.20767017
-0.15994373 0.08184972 -0.2447472 -0.030012185 -0.18810317 -0.123567924 -0.16232796 0.044161405
-0.103239305 0.06261774 0.12865363 -0.10224663 0.17046507 -0.097806774 -0.05929158 -0.14452636
0.1205771 -0.008878264 -0.11045337 0.0074992115 0.008797889 -0.021500016 0.06565704 -0.040595625
-0.23305894 0.06989981 0.13218476 -0.0014534357 0.094752036 0.10772515 -0.116108 -0.0053266175
0.09550733 -0.0071201404 0.0071669156 0.098076455 0.0718061 -0.14312977 -0.11630885 -0.11052719
0.13512012 0.12555626 0.079852216 -0.030647457 -0.005866954 0.012377144 -0.012194627 0.07047143

action_model._discrete_distribution.branches.0.bias f4 [2]
00000000: 4b82 003d e37f 00bd
0.031374257 -0.031371962
