ML-Game/results/MLBrain2/MLGameTest1.onnx (onnx, 233811 bytes, 6 tensors)

network_body._body_endoder.seq_layers.0.weight f4 [128, 315]
000000 4f 8e 3f bc ba 39 b9 3d a6 44 9c 3c cf 91 18 bd
       -0.011691644 0.090442136 0.019075703 -0.03724843
000010 26 31 25 3d e8 70 08 3d 99 da d3 bd ad 9f 13 3d
       0.040330075 0.0333108 -0.103444286 0.03604095
000020 d6 d3 8b bc 32 28 c5 bc dc fc bf bb f5 0b 16 bc
       -0.017068785 -0.024067018 -0.0058590006 -0.009158124
000030 2e de 45 bd 5f 0a b5 3d f0 29 7f bd e7 0b 53 3c
       -0.04830759 0.08839869 -0.062295854 0.012881256
000040 ea 9e 87 3d b5 ff 0a bd 71 b0 9d bd f3 3d b2 3d
       0.06622107 -0.033935267 -0.07699669 0.08703222
000050 76 83 2e bd cd b9 f0 3b b2 3c 6e bd 6f 58 a1 bd
       -0.04260584 0.007346368 -0.058163352 -0.078781955
000060 78 19 2f 3d e2 bb 70 3d 2a 41 80 bd bd aa 54 bd
       0.0427489 0.05877293 -0.06262429 -0.05192064
000070 28 dd 9b bd 03 49 4a bc 1e 2c 73 bd 0e fa c0 3c
       -0.076105416 -0.012346509 -0.059368245 0.023556735
000080 52 f3 98 bc 86 00 1a 3d ac 3a a1 3b 05 c9 1f bd
       -0.018670712 0.037598155 0.0049203243 -0.039010067
000090 6d b0 e4 3d 7b f6 3d 3c 5d f1 de 3c 26 c8 70 3d
       0.11166463 0.01159441 0.0272147 0.058784626
0000a0 91 28 fb bc 51 f6 91 bd d0 17 5e be 3c 0c f7 3d
       -0.030658992 -0.07127059 -0.21688771 0.120628804
0000b0 7e ba 4c 3d a7 f2 9a 3d 26 1d 1e be 0d fd 45 3d
       0.04998254 0.075658135 -0.15440807 0.04833703
0000c0 14 59 49 bc df 95 aa bb 43 f3 bb bd c6 7e df 3d
       -0.012289304 -0.0052058543 -0.09177258 0.10912852
0000d0 f3 db 87 bd ac 3b 86 bd bd 09 0c 3c 45 f4 3c bd
       -0.06633749 -0.0655435 0.008547244 -0.04613139
0000e0 b7 b3 96 bd 3b 29 72 3b 9a 54 57 3d 4c 07 be 3d
       -0.07358497 0.0036950845 0.052570917 0.092787355
0000f0 c2 9d 14 3e ee 38 b7 bc d7 90 64 bd dc 2d 8e bd
       0.14513305 -0.022366013 -0.055802193 -0.06942341
000100 2c 5b 7a bd 65 97 cf bd cf 9b 11 bd 3c df 16 bd
       -0.061122105 -0.10136298 -0.03554898 -0.036833987
000110 87 49 e7 bd f1 80 11 3d 9a c6 3c 3b c0 1f a7 bc
       -0.11293321 0.03552336 0.00288049 -0.020400882
000120 a5 90 f3 bd 3d 7f 0c 3e 6d 81 ce bd ac df 47 3b
       -0.11892823 0.13720413 -0.1008328 0.003049831
000130 8d 66 bd bc 78 4e 14 be 5e 86 1a bb 23 8c d5 bc
       -0.02312019 -0.14483058 -0.0023578624 -0.026067799
000140 26 bd 07 bd c7 3a c5 bb d9 72 6a 3d 57 2c b0 bc
       -0.03313937 -0.0060189697 0.057238434 -0.021505518
000150 5b 8d 11 be 81 67 fe 3b ff a6 9d bb 13 95 0b bc
       -0.14214079 0.0077638035 -0.0048111673 -0.008519429
000160 50 19 94 3d d4 7a 69 3c b2 65 02 3d 8a d7 1a 3a
       0.072313905 0.014250476 0.031835265 0.00059067516
000170 b8 28 03 3e 65 ae 39 bd 4d 10 83 bd 90 8a b2 bd
       0.12808502 -0.04533233 -0.063995935 -0.08717835
000180 a7 3c f7 bd f1 e5 c8 bc 31 20 c5 3c cb 92 16 3b
       -0.120721154 -0.024523707 0.024063202 0.002297568
000190 30 aa 93 bd 44 93 65 bd d8 78 a4 bd 0f ee 45 3d
       -0.07210195 -0.056048647 -0.080308616 0.048322733
0001a0 d6 68 24 3e 3c 69 50 3d 5e b3 b1 bd 17 b7 28 bc
       0.16055617 0.05088161 -0.0867679 -0.010297558
0001b0 0a 7d b6 3d e8 e2 94 bd a6 d4 51 3d 8f 0a 0b bd
       0.08910568 -0.072698414 0.051228188 -0.033945616
0001c0 4f b2 74 bc e1 36 44 bd a1 30 b7 3a 0a 29 50 bd
       -0.01493509 -0.0479039 0.0013976285 -0.050820388
0001d0 f7 6d 70 3d 61 ff 90 3d d0 f8 de bd da 96 02 3c
       0.05869862 0.0707996 -0.10887301 0.007970536
0001e0 49 dd f8 bd 51 25 4f 3c c7 95 6a bd f9 d8 92 bd
       -0.12151582 0.012643174 -0.057271745 -0.071702905
0001f0 16 ab f1 bc 9e a8 30 be c0 cb 9b 3c 59 a7 85 3d
       -0.029500525 -0.17251822 0.019018054 0.0652606
000200 d0 9a 18 3d 88 ff 0b be 93 3e d8 3d 42 dd 86 bd
       0.037257016 -0.13671696 0.1055881 -0.0658517
000210 39 c5 94 3c 35 a7 0b be 2c 95 a9 bb ba 65 87 bd
       0.01816045 -0.13638003 -0.0051752534 -0.066112
000220 5e 3d fc 3c e9 36 0d 3e 99 08 b6 38 2a 95 cd 3d
       0.03079098 0.13790478 8.680038e-05 0.100382164
000230 68 e7 41 3d 0c 70 b6 bd 31 24 47 3d 9a d0 ce 3c
       0.047339827 -0.0890809 0.0486185 0.025245953
000240 38 64 34 3d 89 26 dd 3c 8f e9 11 3e 98 4d 30 3d
       0.04404089 0.026995914 0.14249252 0.04304275
000250 08 cd a3 bb 46 7a 7a 3d 32 63 ec bd 3e 17 30 3e
       -0.004998807 0.061151765 -0.115423575 0.17196366
000260 6f 92 8e 3e 9a 42 b6 3d ca 50 5f be 8b 96 88 3d
       0.27846095 0.08899422 -0.21808162 0.06669339
000270 d9 87 29 bc a2 5f 10 3e 80 de 4c 3d ca e1 e8 ba
       -0.01034733 0.14098981 0.05001688 -0.0017767486
000280 52 b0 5e bd e1 f2 2d 3e f6 82 0b be d8 3d d5 3d
       -0.05436737 0.16987182 -0.13624176 0.104121864
000290 e8 88 b2 3d ed b1 01 be bf 1a 4e 3d 7b 77 33 3e
       0.08717519 -0.1266553 0.050318476 0.17526047
0002a0 cf 58 48 be d1 c9 c8 bc d7 c0 ea bc f2 08 eb 3c
       -0.19565128 -0.024510296 -0.028656406 0.028690789
0002b0 64 74 88 bd c5 4f a9 3d c2 fd a6 bd be 99 96 bc
       -0.06662825 0.08267168 -0.08153869 -0.018383857
0002c0 ef 42 9d bd 6d 39 5c bd cf 7f 22 3e 37 0b ca 3d
       -0.07678782 -0.053765703 0.15869068 0.0986542
0002d0 bd 3e 98 bb fe ea 46 bc 87 7e 69 bd 03 30 de bd
       -0.004646151 -0.012140987 -0.05700543 -0.10849001
0002e0 69 c9 36 3e 74 9a a9 3d ff cd 6c bd f8 88 24 3d
       0.1785027 0.08281413 -0.05781364 0.040169686
0002f0 80 a3 44 bc eb 3c 1b 3d 93 ac 33 bd e0 77 ad 3d
       -0.012001872 0.037899893 -0.04386575 0.0847013
000300 30 eb 3e bd f0 00 99 bd cb 56 ce 3d 19 41 50 bc
       -0.04661101 -0.07470882 0.10075148 -0.012710833
000310 5b c5 3e 3d cb 0a d5 3d b0 56 1c bd 32 8b 11 3d
       0.04657493 0.10402449 -0.03816861 0.035533138
000320 79 a2 35 3d 64 eb 32 bc 31 bc f2 bd ea dc be bc
       0.0443444 -0.010920379 -0.11852301 -0.0232987
000330 72 77 ce b9 61 c2 2b 3d 6c 55 90 3d 46 45 0c bd
       -0.00039380376 0.04193342 0.07047543 -0.03424575
000340 44 c7 e9 bd b7 8a 83 bd cf 38 f2 bd f0 20 00 3d
       -0.1141496 -0.06422942 -0.11827242 0.03128141
000350 c3 32 b7 3d e7 fa 76 bb d5 96 86 bd 90 74 dd bc
       0.08945229 -0.003768617 -0.06571738 -0.02703312
000360 27 de 2f 3d 00 94 e6 3d 0e c9 29 3e 1d 72 22 bd
       0.04293647 0.112586975 0.16580603 -0.03965961
000370 cc a3 57 3e 2f 34 0b 3e 97 1a 2f 3d a6 c4 5a bd
       0.21058577 0.13594125 0.042749967 -0.053410195
000380 2a b9 5d 3d bd 0f 11 be fe b1 cd 3d 96 36 1e 3e
       0.054131664 -0.1416616 0.10043715 0.1545051
000390 ad e3 b6 3c 60 aa ae 3d 06 f1 9d 3d 94 e7 77 bd
       0.022325361 0.0852859 0.07711987 -0.060523584
0003a0 8d 7c c9 3d 13 c0 2e 3d d5 37 d2 3c f5 26 15 3e
       0.09838209 0.042663645 0.025661388 0.14565642
0003b0 36 e5 9f 3d 50 c1 73 bc 56 10 40 3d 48 0b 82 3d
       0.078073904 -0.014877632 0.04689058 0.06349808
0003c0 49 c1 2a bd ab 4f 3a bc 5a 02 bf 3d 7c 11 47 3e
       -0.041688237 -0.011371533 0.093266204 0.19440264
0003d0 6c f9 2d be 5b 9e 2a 3d 53 85 d9 bd 49 2c 03 3e
       -0.16989678 0.041654926 -0.10621133 0.12809862
0003e0 da ff 07 3e 87 7c 97 3e c9 80 1b be 59 e2 ad 3d
       0.13281193 0.29587194 -0.15185846 0.08490438
0003f0 72 36 d2 3c 57 3c 14 be 6a e9 20 3c 43 63 23 bd
       0.025660727 -0.14476143 0.009821275 -0.039889585

network_body._body_endoder.seq_layers.0.bias f4 [128]
000000 f1 bf 80 bd 20 cd 5c bd 2e c5 bf 3d 4a 9d 0e bd
       -0.0628661 -0.05390656 0.09363781 -0.03481797
000010 0b 89 89 3b c2 75 2a 3d bb ec ae 3c 5f 82 16 3d
       0.004197245 0.04161621 0.021353116 0.036745425
000020 d9 26 03 bc 84 a8 9c bd ba 3b fe bc 69 8c 39 3d
       -0.0080048675 -0.07649329 -0.03103434 0.04529992
000030 bb 56 26 3d a9 8b 72 bc cf 86 d6 bc 6f 5c fe 3c
       0.040610056 -0.014803805 -0.026187329 0.031049935
000040 03 b5 b1 bc 7a 38 11 bd 1c eb 14 3d c7 e6 b0 3b
       -0.021692758 -0.03545425 0.03635703 0.0053986046
000050 4d 4f 1c 3d 12 1f bc bc d4 07 2a bd 4e 1a 73 bd
       0.038161565 -0.022964034 -0.04151137 -0.059351258
000060 04 f3 72 3c ef 67 f4 3c d3 df d7 3c 97 6c 57 3d
       0.014828447 0.029834716 0.026351845 0.052593794
000070 6f 59 e0 3d f2 71 54 3c 0a db d8 3c ec db 9f bc
       0.10954558 0.01296662 0.026471633 -0.019514047
000080 03 57 df bc b6 37 26 3d 25 1f 78 3d 97 4e 80 bc
       -0.02726317 0.040580474 0.060576577 -0.015662475
000090 31 05 0a bc 44 f5 47 bd 36 55 09 bd 38 7d 4a bc
       -0.008424089 -0.048817888 -0.03352853 -0.012358956
0000a0 a8 1d 3d 3d 6d cf 37 3d a2 cf 01 3d fd 4c 75 bb
       0.04617086 0.04487555 0.031692155 -0.0037429922
0000b0 ed a9 0f 3d ca 05 f9 bc 24 b6 27 bd fc 15 70 bd
       0.035074163 -0.030398268 -0.040945187 -0.058614716
0000c0 e4 26 1f 3d 18 14 18 3c b2 cc 41 bc 7f 6c 80 bd
       0.03885545 0.0092821345 -0.011828588 -0.06270694
0000d0 91 0f 43 bd ba 5d c0 3b 7d 43 f1 bc 2c 8f 04 3d
       -0.047622267 0.005870548 -0.029451126 0.0323631
0000e0 33 d4 8e 3d c0 b1 27 bc 69 a6 74 3d 91 b1 08 3d
       0.069740675 -0.01023525 0.059729014 0.033372466
0000f0 be 70 5b 3c c0 bb 30 bd ed 7b 96 3c 42 1e e2 bc
       0.013393579 -0.043147802 0.01836964 -0.027602319
000100 17 19 de bb be 0c 54 bb b9 f7 e9 3c af 25 4c bc
       -0.0067778933 -0.0032356228 0.028560506 -0.012460156
000110 e3 92 1a 3d 13 25 ca bc fe f1 43 3d cb 9f 21 3c
       0.03773774 -0.024675881 0.047838204 0.009864758
000120 70 1e e0 3b fb 9b 8d bc 1f fe 78 3d 6e 48 82 bc
       0.006839566 -0.017286291 0.060789224 -0.015903678
000130 97 e0 8f 3d 56 cf 50 bd 9a f7 22 bd d5 05 11 3d
       0.07025259 -0.05097898 -0.039786913 0.035405952
000140 b0 19 94 bc 9c b2 65 bd 5e 9a 3b 3d 01 6a bb bc
       -0.018078655 -0.05607854 0.045801513 -0.022877695
000150 6a 91 c4 3c 06 51 82 3c a2 6e 24 bd 77 b7 87 3d
       0.02399512 0.015907776 -0.04014457 0.0662679
000160 b3 50 3b 3d 53 5d 40 bd be ea ff bc 6b 82 02 3d
       0.045731258 -0.046964 -0.031239863 0.031862658
000170 7f 84 1a bd 0e c4 0a 3d 91 f7 02 bd 35 19 1d bd
       -0.037724014 0.03387838 -0.03197438 -0.038354117
000180 85 51 4b 3d 81 3d 11 bd 02 0c 4f bd ae 5b 35 3c
       0.04963829 -0.035459045 -0.05054856 0.011069221
000190 ab b5 bd 3d 06 f0 83 bb a3 8f 78 bc cb 74 a7 3c
       0.09263166 -0.0040264158 -0.015170964 0.020441433
0001a0 ed 27 b9 3c ba 38 53 bd 23 f0 c7 3c 41 b6 27 3d
       0.022602046 -0.05156777 0.024406498 0.040945295
0001b0 c5 31 4e bd de 32 a3 bc bb d2 ea 3c 5f 0c 3b 3d
       -0.050340433 -0.019921716 0.028664937 0.045666095
0001c0 f5 78 35 3c 28 47 bf bd 6f 76 05 3d ff d7 4c 3d
       0.011076202 -0.09339744 0.03258365 0.050010677
0001d0 0e 3d 4b bd 35 e8 9e bd 97 f4 9a bd 91 07 76 3c
       -0.049618773 -0.07759134 -0.07566183 0.015016452
0001e0 db 8e 1d 3d 9f 7a 80 bd 67 13 1b 3c 7f b1 b6 bc
       0.038466316 -0.06273388 0.009465075 -0.022301434
0001f0 4f 22 52 3d 83 84 82 3c 4b 4a 19 3d 4f af f0 3a
       0.05130225 0.015932327 0.037424367 0.0018362793

network_body._body_endoder.seq_layers.2.weight f4 [128, 128]
000000 14 5a e5 3d 09 de a1 3d 5d 47 14 be 46 d5 03 be
       0.11198822 0.07903678 -0.14480348 -0.12874326
000010 de 76 54 3e af 83 3d be d2 99 b7 bd 86 36 05 3d
       0.20748469 -0.18507265 -0.08964886 0.0325227
000020 cb e5 8a bd 70 48 b8 3d d7 0e 8b 3c b4 6a 52 3e
       -0.06782111 0.08998191 0.01697485 0.20548517
000030 73 37 57 bd 6c 56 1a be 86 7f 7c 3c 2d 4f 6e 3b
       -0.052543115 -0.1507203 0.015411263 0.003636311
000040 86 50 9d 3b 9d 18 7d 3c f5 6f 16 be e9 06 1f be
       0.004800859 0.015447763 -0.14691146 -0.1552998
000050 2e 60 88 3c cd 2c 95 3d 72 ad 8b 3d 44 75 87 be
       0.016647425 0.07283936 0.068201914 -0.26456654
000060 c7 e0 4a 3d c2 ff 50 3b 47 51 37 3e 22 51 a2 3e
       0.04953077 0.0031890725 0.17902099 0.31702524
000070 89 b7 1c 3e d4 fb 48 be 6b 2a b3 3d da ab 81 3e
       0.15304388 -0.19627315 0.08748325 0.25326425
000080 53 a0 16 3e bf b2 c8 bd d2 db ee 3c bd 6c e3 bd
       0.14709596 -0.09799718 0.029157553 -0.111047246
000090 c1 d8 41 3e 18 b7 73 bb 3c 60 1a be bd 76 05 3d
       0.18930341 -0.003718799 -0.15075773 0.03258394
0000a0 fb a6 94 3d 85 c4 51 be 9e a3 fc 3d f2 45 90 be
       0.072584115 -0.20485123 0.12335895 -0.28178364
0000b0 0b 3e 8f bd 01 82 a9 bd 8a 25 52 3d 8d 81 35 bd
       -0.06994256 -0.082767494 0.05130533 -0.044313002
0000c0 15 38 89 3d a6 91 0c be e5 d6 5e 3d a1 4f 4e be
       0.0670015 -0.13727435 0.05440416 -0.20147564
0000d0 60 20 27 bd d3 53 10 3e 4c a4 7d 3d 5b 5d 7e be
       -0.04080236 0.14094476 0.061924264 -0.248403
0000e0 51 00 c7 bd d7 48 f2 bd 4e 2f 05 bd 2c 1b 30 be
       -0.09716857 -0.11830299 -0.032515816 -0.17197865
0000f0 03 f2 44 be 90 34 05 be 76 02 c0 bd 8a 23 42 bd
       -0.19232945 -0.13008332 -0.093754694 -0.047397174
000100 07 1f 70 3e 1d 72 1b 3e 03 fa 31 be 84 00 ef bd
       0.23449336 0.1518025 -0.17380528 -0.1167002
000110 ab 87 27 bd 04 94 f5 3d c7 3e 08 3d 48 79 30 be
       -0.040900867 0.11991122 0.033262994 -0.17233765
000120 3a a1 b4 bd 9d f8 a1 bd 64 ac aa be 90 fd 94 3d
       -0.08819814 -0.07908747 -0.3333465 0.07274926
000130 96 ed 94 bd dc e4 07 3e 4f e7 cd bd fd 4b 4b 3c
       -0.072718784 0.13270897 -0.10053884 0.012408254
000140 6e f3 ef bd d7 88 3a be 30 25 6c be 0c 90 4d bd
       -0.117163524 -0.18216263 -0.23061061 -0.050186202
000150 7e da 9e bb 8a 87 fa bd f2 67 1e bd 18 d4 95 3e
       -0.0048478236 -0.12232883 -0.03867335 0.29263377
000160 09 16 66 be 1d 1f c8 bd 5d 90 dd 3c 13 3d 99 3c
       -0.22469343 -0.097715594 0.027046377 0.01870588
000170 99 44 66 3e 2d 46 bc 3c 21 16 84 bd 03 65 9c be
       0.22487105 0.022982681 -0.06449533 -0.30545816
000180 46 a7 44 bd d6 c3 1b be bc fe b6 bd e2 e9 cb bc
       -0.048011087 -0.15211424 -0.089353055 -0.024891797
000190 e0 41 52 3e e3 1f c0 3d ee ba 8a 3b 2b 43 6c 3e
       0.20532942 0.09381082 0.0042337095 0.23072498
0001a0 5c 55 ff 3c 97 91 43 3e 23 eb 76 bd 4e 74 e7 bd
       0.031168632 0.19098507 -0.060282838 -0.1130148
0001b0 4a e0 f3 3d 93 74 22 be fa 74 3a bd 27 f0 62 be
       0.11908014 -0.15864782 -0.045521714 -0.22161923
0001c0 04 c9 97 3c e0 44 03 be 15 fc 64 3d f1 e1 42 be
       0.018528469 -0.12819242 0.055904467 -0.19031502
0001d0 04 79 16 3d f3 1b b8 bd 45 6d 43 be 01 c8 ba bc
       0.036736503 -0.08989706 -0.19084652 -0.022800447
0001e0 8a 55 88 3e 93 c0 ac bd d4 1c e9 3d a0 70 27 3d
       0.2662776 -0.08435168 0.11382452 0.040878892
0001f0 08 e8 9f b9 e5 70 10 be 78 a5 c9 bd 9b 86 3c bd
       -0.0003049972 -0.14105566 -0.09846014 -0.046026807
000200 99 d2 22 3d e5 25 84 be f5 07 d3 3e 03 4e fd b9
       0.039751623 -0.2581016 0.41217008 -0.00048314044
000210 22 ee 99 be d2 a8 66 bd d2 dc 4d bc 4c 85 38 be
       -0.30064493 -0.056313343 -0.012564855 -0.18019599
000220 de 58 2c bb 90 c6 03 be b9 21 a8 bd 8d 06 08 3e
       -0.0026298086 -0.12868714 -0.08209557 0.13283749
000230 2d b5 9a bc 5d 98 60 3d 3b 4d f3 bd 74 d1 ec 3d
       -0.01888522 0.054832805 -0.11879965 0.115633875
000240 5d 27 1e be 38 b3 0e ba 3d 75 c3 bc 39 a2 1c be
       -0.15444703 -0.0005443576 -0.023859615 -0.15296258
000250 ed 54 88 be e3 bf df bd 08 79 21 3c 87 16 8e bb
       -0.26627293 -0.10925271 0.009855516 -0.0043361816
000260 6a 38 26 bc 1d 8d 99 3e d7 63 96 be 6d b0 88 be
       -0.010145286 0.29990473 -0.29373047 -0.26697102
000270 91 99 4c 3d 21 6f a5 bd 94 78 f9 bd f5 8f 8d be
       0.04995114 -0.08077837 -0.121812016 -0.27648893
000280 59 a2 4c be 9b 6e fe bd 77 6b e9 3d a0 5a 85 bd
       -0.19983806 -0.1242344 0.113974504 -0.06511426
000290 c0 9e 25 be e7 6a a8 3e 55 8f a7 3d 0b f2 94 be
       -0.1617384 0.3289406 0.08181635 -0.29090914
0002a0 d9 1b a4 bd 49 e0 33 be cf 19 05 3d cd 84 71 bc
       -0.08013124 -0.17566027 0.032495316 -0.014741135
0002b0 3a ed a0 3e d2 03 1d 3d e0 73 3d bd bf 7a b9 3d
       0.3143099 0.03833372 -0.046253085 0.09056615
0002c0 36 c3 60 3e 15 de 24 3d 23 4b 2f be cf cc e1 bc
       0.21949467 0.040250856 -0.17118506 -0.02756348
0002d0 88 4d 14 bc c5 d3 e8 be 43 83 ca bc dd 5a 51 3e
       -0.009051688 -0.45474067 -0.024720794 0.20444818
0002e0 41 da d8 bd 1b ae a5 be 00 e7 a8 3e 04 11 1a be
       -0.10588504 -0.32359394 0.3298874 -0.15045553
0002f0 ec 7c 80 be 29 44 1e bd d1 e9 85 bd c8 72 b0 bd
       -0.25095308 -0.03863922 -0.065387376 -0.08615643
000300 33 2b eb bb 18 e0 db 3d 1a 14 af bd 77 ab 19 3e
       -0.0071767806 0.10736102 -0.08548756 0.15006815
000310 fc d1 55 be 05 d4 5f bd df 1a 44 be 90 07 21 bd
       -0.20880884 -0.054645557 -0.19150876 -0.039313853
000320 94 0d 65 bd 68 45 ca 3d ab 34 9d 3d 19 77 05 3e
       -0.055921152 0.098765194 0.07676061 0.13033713
000330 63 48 9b bd 0a d8 45 be c8 ff 82 be 58 31 26 3e
       -0.07582166 -0.19320694 -0.2558577 0.1622976
000340 e5 9f 3a bc 27 d3 be bc b8 3a d0 3d 55 73 31 be
       -0.011390661 -0.023294045 0.1016745 -0.17329152
000350 6e 5f e1 bd 4a 34 cd 3c 93 f3 e0 bc f1 bb b0 3e
       -0.1100453 0.025049347 -0.027459895 0.34518388
000360 8b f1 20 be 2f ca be be 16 3f 32 bc d1 1f 4c bd
       -0.15717141 -0.3726363 -0.010879299 -0.04983503
000370 60 7b a7 be 77 76 ba bd 16 f5 69 be a2 fd e8 bd
       -0.32711315 -0.091046266 -0.22847399 -0.113765016
000380 ee e5 f9 3d 24 6a 6a be 6c 99 29 be 67 d6 09 3e
       0.12202059 -0.22892052 -0.16562432 0.13460694
000390 a7 d0 9b 3e a9 a2 7e be ec e5 34 be b6 1a 9e be
       0.30432627 -0.24866737 -0.17665833 -0.30879754
0003a0 53 3e 29 bd 6a e4 29 be c1 a1 9a be 29 59 c8 3e
       -0.041319203 -0.1659104 -0.30201533 0.39130524
0003b0 86 ae 7e 3d f6 55 28 bd 4b 4d 55 3e 5a e4 67 be
       0.062178157 -0.041097604 0.20830266 -0.22645703
0003c0 70 c0 00 3d d0 c3 46 be ef 93 5c be 27 92 ce bd
       0.031433523 -0.19410634 -0.21540807 -0.1008647
0003d0 98 da 78 be ba 39 a0 3d 7d 0a 7f bc b5 7c 80 3e
       -0.24302137 0.078235105 -0.015566465 0.25095144
0003e0 f5 de d1 bc 6f e1 cd 3d 11 73 2c 3c f0 92 ea 3c
       -0.02561901 0.10052764 0.010525481 0.028634518
0003f0 6e a2 d8 bd 95 6d 83 3d b2 a5 8f 3d 59 d5 05 be
       -0.10577856 0.064173855 0.07014026 -0.13069667

network_body._body_endoder.seq_layers.2.bias f4 [128]
000000 8f 80 fe bb 76 ba e9 3d e1 3c e2 3c 3f 3f 07 bc
       -0.00776679 0.11412518 0.02761692 -0.008254825
000010 37 44 93 bd 08 83 cb 3d 08 42 29 3c df 6c 38 bd
       -0.07190745 0.099371016 0.0103306845 -0.045025703
000020 5f 73 bc 3b 80 98 55 bd 98 51 c1 3c 28 44 c6 bc
       0.005751058 -0.05214739 0.023598477 -0.024202421
000030 fc d3 6b bc 1e 8b 0b be 12 64 0a 3d a5 86 d9 3d
       -0.014393803 -0.13627288 0.03378684 0.106213845
000040 43 14 26 3d 35 3d cf bd 6e 75 23 bd de b9 e0 3d
       0.040546667 -0.10119096 -0.03990691 0.10972951
000050 45 1e 05 be b1 bc 8d bc a1 fa e0 3d aa 51 97 3d
       -0.12999828 -0.01730189 0.10985304 0.07388623
000060 1f 14 47 3d e2 9b ac bd ea 40 54 3c c5 32 cb 3d
       0.048603173 -0.0842817 0.01295493 0.09921793
000070 6b 3b a8 3d e8 e7 2e 3d 73 dc 59 be 88 23 b0 bd
       0.08214458 0.04270163 -0.21275501 -0.08600527
000080 4b 0e b6 3d db 32 af 3c c8 1a eb 3d be a1 ec 3c
       0.08889445 0.021386554 0.114797175 0.028885718
000090 82 e7 a9 3d 06 ec bb bc f8 71 64 3d 74 00 78 3d
       0.0829611 -0.022939693 0.05577275 0.060547307
0000a0 36 ef 6d bd 2d 86 57 bd 40 55 40 bc a5 52 c2 3d
       -0.058089457 -0.052618194 -0.011739075 0.094884194
0000b0 05 bb 4a be 13 7d b9 3c 52 9c f2 bd 60 a3 42 bd
       -0.19797905 0.022642648 -0.11846222 -0.047519088
0000c0 37 30 0e 3d c2 31 d8 3c a5 0e 1e 3d f0 72 ed 3d
       0.03471395 0.026390914 0.038588185 0.11594188
0000d0 47 40 ab bd 87 2b a0 39 ea 09 b0 bd 90 62 0a 3e
       -0.08361869 0.00030550009 -0.08595641 0.13514161
0000e0 3c 21 53 3c c8 d5 9d bc 65 c3 f6 bd 1c 4f 06 be
       0.012886342 -0.019266978 -0.12048987 -0.13116115
0000f0 b1 d0 00 be cc 58 56 3c ac 9c 85 3d c9 60 b1 bc
       -0.1257961 0.013082694 0.065240234 -0.021652596
000100 cb 1a 02 3d 57 cf 5f 3d 9b b6 01 be d2 c9 0c 3c
       0.031763833 0.054641094 -0.12667315 0.00859304
000110 3f 87 21 be 0c b5 91 bc e9 4f 94 bb b3 48 a3 bd
       -0.15774249 -0.017786525 -0.0045261276 -0.07972851
000120 57 90 0e 3d 75 c4 0b bd f0 a8 fb 3d c3 b5 f6 3c
       0.034805622 -0.034122903 0.12288082 0.030115968
000130 d5 46 02 3d a2 72 ba bd ee 45 06 3e bb e0 13 bd
       0.031805832 -0.09103896 0.13112614 -0.03610299
000140 45 73 fe 3c f2 c7 d3 bc 65 7a 89 3d 56 1c 44 3d
       0.031060824 -0.025852177 0.06712798 0.047878586
000150 da 36 27 3e 64 0f 14 3e db b1 30 3d 3b 5b 6f 3d
       0.16329518 0.14458996 0.043138366 0.058436614
000160 cc 55 31 3d 91 91 38 3e 29 23 7b 3a b8 79 c2 3c
       0.043294713 0.18024279 0.00095801294 0.02373968
000170 00 07 4d 3d 20 c1 ba 3d 15 2a a1 3d 0d f4 48 3d
       0.050055504 0.09118867 0.07869355 0.04906087
000180 04 93 95 be 12 64 89 3a f1 07 14 3d 28 70 93 bc
       -0.29213727 0.0010482094 0.036140386 -0.017997816
000190 e2 a2 0e 3d 0f 43 60 3d b6 c9 a6 bd fd ce fb 3d
       0.034823306 0.054751452 -0.08143942 0.12295339
0001a0 1d 14 ce 3d 3a 34 e2 bb 28 49 de 3c 8c 15 f1 bc
       0.1006243 -0.0069031985 0.027134493 -0.02942922
0001b0 2a c0 98 bc fe 80 a4 3d 9a 16 58 3c c8 2f 59 3d
       -0.018646318 0.08032416 0.013188982 0.053024083
0001c0 03 bf 87 3d 4d ab b1 bc ed 4d 96 3d f9 58 61 be
       0.066282295 -0.021688128 0.07339082 -0.22006597
0001d0 51 0a bf bc 81 02 37 3e 50 0e 81 3d 08 d3 d7 bd
       -0.023320349 0.17872049 0.06301558 -0.10538298
0001e0 94 fb 8c bd d5 ce e4 bc b5 8a bc 3b 16 d5 15 be
       -0.06883922 -0.027930656 0.00575384 -0.14632067
0001f0 59 81 83 bd 42 54 33 bd 63 19 22 bd 22 9f 28 bd
       -0.064211555 -0.043781526 -0.039574992 -0.041167386

action_model._discrete_distribution.branches.0.weight f4 [2, 128]
000000 88 fc ac bd ce f5 74 3e 35 34 d8 bd 9c a1 06 bd
       -0.08446604 0.23921892 -0.10556833 -0.032868966
000010 81 99 38 be fe 63 e0 3d 7e 69 f7 bd db 8b d1 bc
       -0.18027307 0.10956572 -0.12080668 -0.025579384
000020 c6 c9 a8 3c f7 ae 6e bd 81 c1 a7 bd 8f e3 5c bd
       0.020604026 -0.05827233 -0.08191205 -0.053927954
000030 5c fe 92 bd bf 66 02 3d 3e b6 05 bd 69 6a 1c 3e
       -0.071774215 0.031836268 -0.032644503 0.15274967
000040 75 54 21 be 79 1c 0d bd 44 2c 66 bd c6 2c 40 3e
       -0.15754874 -0.03445098 -0.05619456 0.1876708
000050 9b 93 01 3c 4c 41 cd 3d 0e 0a 21 3e 6a 05 bf 3d
       0.007908727 0.1002222 0.15726492 0.093272045
000060 d2 aa 97 3c a8 88 40 bd 5e e5 5e 3d 7a 3c 06 3e
       0.01851407 -0.047005326 0.05441796 0.13109007
000070 e5 e5 73 3d 91 d1 38 be 87 d1 da 3c 70 64 85 bd
       0.059545416 -0.18048693 0.026711239 -0.065132976
000080 77 48 fa 3d 34 50 ee bd 31 03 d8 3d 82 12 fe bd
       0.12220853 -0.11636391 0.10547484 -0.12405874
000090 63 5e bc 3d 5a a7 a2 bc ca b7 00 be bc 48 f9 3d
       0.0919769 -0.01985519 -0.1257011 0.12172076
0000a0 a9 87 9c bd 6d a9 a8 bb 93 41 ef bd e8 bd 1e 3e
       -0.076430626 -0.0051471503 -0.11682429 0.15502131
0000b0 98 2e a1 3b ed 7a c2 bd dc ab 96 3c 75 ee 32 be
       0.0049188845 -0.094961025 0.018392496 -0.17473777
0000c0 a8 ca a7 3d a4 49 0f be 51 e6 a0 3d 36 52 d6 3d
       0.081929505 -0.13992935 0.07856429 0.10464899
0000d0 2a 0e b4 bd cf 3c 24 be 43 34 60 bb ff f3 1a 3e
       -0.08791764 -0.16038822 -0.0034210838 0.1513214
0000e0 b2 b8 07 3d a3 8a 57 b7 73 9b c8 bd 0d 45 79 bd
       0.033135124 -1.28472775e-05 -0.097952746 -0.060856868
0000f0 50 65 40 bd d9 f2 da bd 6a d6 0e 3d be ef 8d 3c
       -0.04697162 -0.10690851 0.03487245 0.017326232
000100 00 81 b9 bd 97 06 d3 3d bf 8c 86 3c 25 f7 78 bd
       -0.09057808 0.10303991 0.016424535 -0.06078257
000110 2c d7 df bc d0 bd e7 bc 64 3a de bd 32 40 bd 3c
       -0.027324282 -0.028288752 -0.10850981 0.0231019
000120 01 bd d4 bd 6a 0e 87 3d 73 0f b9 3c 8a fc 94 bd
       -0.10387612 0.06594546 0.022590375 -0.072747305
000130 0e 64 ba 3d 32 0e 02 bd f2 57 09 3e c0 77 33 be
       0.09101115 -0.03175182 0.13412455 -0.1752615
000140 f9 34 33 3e ad cf f8 bd f8 27 19 3e 8f 0f a7 bd
       0.17500676 -0.12148986 0.14956653 -0.081572644
000150 bc 4b 42 3e 00 23 ab 3d c1 3f d1 3d b6 b9 91 3d
       0.18974203 0.08356285 0.10217238 0.071155
000160 6f 31 6e 3d 9e 6b a0 3d 41 1a 03 be 26 54 8f 3d
       0.058152612 0.07833026 -0.12802984 0.06998472
000170 5f be 38 be 00 33 19 3e a1 12 1b 3e 9d 0c c7 3d
       -0.18041371 0.14960861 0.15143825 0.09719203
000180 fc 9c bb bc 89 99 8a bd 2d 06 86 3d c6 0a 5a bc
       -0.022902004 -0.06767566 0.06544147 -0.013308233
000190 ef 8a c3 bc 9c c5 2b 3d 57 28 2d bd 57 e6 34 3e
       -0.02386996 0.0419365 -0.0422748 0.17665993
0001a0 e3 67 4d 3e 47 21 e0 bd e4 93 26 be f9 7c 1c 3c
       0.20059161 -0.10943847 -0.16267353 0.00955128
0001b0 9d c5 c2 bd 95 af c1 bd f5 60 01 bd ce b3 4e 3d
       -0.09510348 -0.09457318 -0.031586606 0.050464444
0001c0 e5 74 1c 3d 44 f8 32 bd b4 39 35 3d bb e5 4b 3c
       0.038197417 -0.043693796 0.044244483 0.012444909
0001d0 50 2b cc bd 0f 90 32 3e cc 86 16 3e 01 51 73 3c
       -0.09969199 0.17437766 0.14699858 0.014850856
0001e0 92 bc 29 be b0 8c 13 be 6f 59 f8 bd 05 26 61 3b
       -0.1657584 -0.14409137 -0.12126433 0.0034354937
0001f0 9e 54 85 bc 29 cf 64 bd 0e a9 88 bd d1 a3 c0 bd
       -0.0162757 -0.055861626 -0.066728696 -0.094062455
000200 47 56 99 3d c7 a8 80 be 60 bc e3 3d d5 87 22 3d
       0.07487159 -0.25128767 0.11119914 0.03968032
000210 68 c3 2d 3e c7 c6 e8 bd f4 0f 0f 3e 40 65 be 3c
       0.16969073 -0.11366039 0.1397093 0.02324164
000220 7d 52 57 bc 77 a7 fb 3c 12 b3 bf 3d f4 99 71 3d
       -0.013142225 0.030719502 0.09360327 0.05898471
000230 87 e7 81 3d 21 44 3a bb 51 a8 01 3d e5 67 28 be
       0.063429885 -0.0028421956 0.03165466 -0.16445883
000240 8a 43 0b 3e be 73 21 3d 27 e7 4a 3d 1e 75 2d be
       0.13599983 0.03941702 0.04953685 -0.16939208
000250 0d d7 57 bc c5 4c be bd fa b2 0f be e0 9d b0 bd
       -0.013173831 -0.092919864 -0.14033118 -0.08623862
000260 6c 0e a0 bc 81 5f 3d 3d c2 da 81 bd 20 39 00 be
       -0.019538127 0.046233658 -0.06340553 -0.12521791
000270 75 4e 69 bd 2e 73 3b 3e b9 b6 dd bc 36 1d 5a 3d
       -0.056959588 0.18305656 -0.027064668 0.053250514
000280 f5 78 db bd 6d e8 e8 3d 55 75 b6 bd c2 e9 f9 3d
       -0.1071643 0.11372457 -0.08909098 0.12202789
000290 1d 3a e5 bd c0 b6 cf 3c 6e 21 e6 3d fd 5d e3 bd
       -0.11192725 0.025355697 0.11236845 -0.11101911
0002a0 59 e9 ab 3d a1 de 6f 3c 1c 93 f7 3d a6 c2 2e be
       0.08394117 0.014640481 0.12088606 -0.1706644
0002b0 95 4d 16 3c 55 e3 9b 3d 77 17 95 bc 36 aa 21 3e
       0.00917377 0.076117195 -0.018199665 0.15787587
0002c0 eb 57 a4 bd a4 05 19 3e 3d 5d 96 bd 27 4e de bd
       -0.080245815 0.14943558 -0.073420025 -0.1085475
0002d0 d8 15 e1 3d 1d c7 14 3e 43 3b 1c bc 5c 63 19 be
       0.109904945 0.1452908 -0.0095356135 -0.14979309
0002e0 a6 c6 5a bd 64 9d d6 ba 5c 44 ea 3d 22 85 80 3d
       -0.053412102 -0.001637381 0.1143882 0.06275393
0002f0 86 7b 40 3d 80 83 e4 3d 52 7c c8 bc 71 9c 83 bb
       0.0469928 0.11157894 -0.024473343 -0.004016452
000300 05 fd 9d 3d 6e b5 c8 bd 01 31 cb bc 8e 28 72 3d
       0.07714275 -0.0980023 -0.02480364 0.059120707
000310 48 5d f8 3b e2 cb 91 3c 24 9b d6 3d 87 5e f9 bc
       0.0075794794 0.017797414 0.104788095 -0.030440582
000320 f2 af a7 3d 28 4c 9e bd 1d eb 82 bc fa 42 77 3d
       0.08187856 -0.077293694 -0.015981251 0.06036661
000330 75 63 a4 bd 6f 27 5b 3c d5 28 0f be aa 35 3d 3e
       -0.080267824 0.013376101 -0.1398042 0.18477502
000340 a3 8a 28 be 42 2c d8 3d d6 e3 13 be 1d 2d 92 3d
       -0.16459136 0.105553165 -0.14442381 0.07137511
000350 92 ff 2a be 93 2b b3 bd 8c 46 b9 bd c3 92 8f bd
       -0.16699055 -0.087485455 -0.09046659 -0.070104145
000360 d0 98 56 bd 5c 60 c4 bd 92 90 ed 3d d9 9f 73 bd
       -0.052391827 -0.095886916 0.1159984 -0.059478614
000370 d5 59 30 3e 11 51 0d be 5d c8 26 be b2 e8 c5 bd
       0.17221768 -0.13800456 -0.1628737 -0.09663524
000380 a6 25 f7 3c 85 d5 6c 3d cd 4f a1 bd 60 9c 28 3c
       0.03016932 0.057820816 -0.07876549 0.010291189
000390 f9 1c 09 3d 61 3b a7 bc a4 99 6b 3d 64 c9 27 be
       0.033474896 -0.020414056 0.05751957 -0.16385418
0003a0 a2 d1 45 be ac 5d c3 3d 51 60 18 3e ef 5e 47 bc
       -0.1931825 0.09539351 0.14880492 -0.01216863
0003b0 4f 5c a7 3d 6e ce c4 3d b2 81 f4 3c 8f ab 62 bd
       0.08171903 0.09609686 0.029847 -0.055339392
0003c0 eb 94 23 bd 35 1e 27 3d 80 5b 4d bd b0 b6 19 3b
       -0.03993694 0.040800292 -0.05013609 0.0023454838
0003d0 b4 82 93 3d a8 cb 23 be 35 71 18 be b1 2a b5 bc
       0.07202664 -0.15995657 -0.14886935 -0.022115083
0003e0 a0 35 2d 3e a9 0f 0b 3e 21 ce d7 3d e6 12 e9 bb
       0.16914988 0.13580193 0.10537363 -0.0071128486
0003f0 a3 23 5e 3c 76 df 61 3d 2b a8 61 3d 86 9f c7 3d
       0.013558301 0.05514475 0.055092018 0.097472236

action_model._discrete_distribution.branches.0.bias f4 [2]
000000 9e e9 a4 3d fc e8 a4 bd
       0.080523714 -0.08052251
