ML-Game/results/ppo/MLGameTest1/MLGameTest1-903.onnx (onnx, 233358 bytes, 5 tensors)

network_body._body_endoder.seq_layers.0.weight f4 [128, 315]
00000000: deb5 403c 9381 4a3d f22d bd3d c4cb 52bd
00000010: 80ec 85bc a0f1 9abd c0a2 a3bd 09dc 483d
00000020: 79ed ba3b 0b35 153d 066a 82bd 4377 4cbd
00000030: 8c2e d63c 0db5 db3a bc0c 243d cfa0 763a
00000040: ec58 2c3e 9e03 27bb 3237 f7bc cccc a13d
00000050: 0511 a6bb 486a 153d 3764 9d3c ce6c 5ebd
00000060: 27ac abbc b405 de3d 72c4 b73d d675 5bbd
00000070: 05c4 813d c54f 623d b4ef 053b 9a8c c93c
00000080: 60c4 103d d93f 7dbd 0af8 14bc 52be b23c
00000090: 8b8a 90bd f265 a13d 6794 673d 3142 8b3c
000000a0: a26a aebb a484 ecbc 6835 ed3d d51a 9d3d
000000b0: 810b 37bd 5d32 6fbc cb25 03bd 7157 813a
000000c0: 1c91 5ebd 8cbb ccbc 4dde 083d 8810 29bd
000000d0: e438 e23b 058d c6bb dec6 f6bd 6978 a0bc
000000e0: ac6c bc3c df26 3ebd 8e56 5a3d 717e 99bd
000000f0: cc0a 52bd 70c1 833d 931a 243d 3bb6 fb3c
00000100: 125c a4bc 830c 5a3c efff aebd a1f2 53bd
00000110: 9bc1 cbbd 9e92 3cba b7ca 99bc 1257 2abd
00000120: c712 a2bd 27a0 33bd 6110 8abd 8dac 15be
00000130: 53da ae3b af84 593d bc19 a2bc 7acd 493d
00000140: 7055 fa3c e597 da3c 0448 9b3c 9be5 33bd
00000150: 2a81 d9bc 81c7 093d 4f51 1e3d a67a 00bd
00000160: aff2 683c 371d b1ba 2b0c 07be 1482 263d
00000170: b793 7b3c 9b33 673d 21e4 c93d 7b6c 873d
00000180: 005c b6bc 8d3f 4dbb 8931 e93d 1fa7 02bd
00000190: 321a 893d 4440 b73c 161e 973d a8d2 e93a
000001a0: 9f13 14be 0af6 2d3c 225a 1f3d 9d4b c7bc
000001b0: cca0 88bd 5690 b83d 7920 5bbd 0e86 c3bc
000001c0: 1368 713d 09c3 83bd f0af 77bd aac9 b83c
000001d0: bd0f 6dbd 1df4 f5bc d707 1bbd 487c 9f3b
000001e0: 51c5 90bc efb2 9d3d e83b 033d c570 a23c
000001f0: 4388 d73c cf7b 3b3d b4a6 1bbd da7c f63d
00000200: 8afc ecbc a11d b23c b358 99bc e82d 963d
00000210: eada 513d ab20 553d e681 05bc 19b5 983d
00000220: 1a8d 1c3d 4f09 94bd 3081 8a3d 66cc 093d
00000230: ddce 81bd be0f c8bc f824 ed3c 1423 81bc
00000240: 6fd9 433d af01 8b3d fd4e 813d 001e 783d
00000250: d0a2 a6bc b566 d13c a755 ebbd 0da5 b03d
00000260: d082 c4bd f915 043d 66f1 02be ad98 453b
00000270: 7607 e6bd 48c1 863d 505f 673d e694 13bd
00000280: b002 59bd 61e2 19bc 697d a53c f5db be3d
00000290: 1804 30bd 599a af3c 48c4 b93d 256b e5bc
000002a0: ba85 c8bd 6c48 7c3d c0da a43d a240 9d3d
000002b0: 3b70 953d 0bd3 19bd 7c71 fb3c 7cc8 be3d
000002c0: 6772 753d f7ac 1f3d 27e4 803c e493 a0bd
000002d0: 5d37 c2bd 82cb eebc b1e9 f43d 5121 31bd
000002e0: b5dc ec3d d0c7 7abd 14d3 b13d 8fc8 f6bb
000002f0: 2907 c9ba c00e 0e3d 7f72 5abd 0ebc e7bc
00000300: 75ae ee3c f378 c6bc f536 153b 31ca 8bbd
00000310: ed41 4a3c cff8 03bb 7ae6 78bd d592 7cbb
00000320: a7f5 77bc 2333 dbbc ba0f 17ba 61f4 273d
00000330: 4b53 ca3d f24d 823c c214 e6bc e641 9d3d
00000340: 03a6 ef3d 5b94 2b3d ea84 1f3d e4da debd
00000350: 6da2 a33d 6a8e a7bb b514 27bd f913 31b9
00000360: fdc9 a1bc 00d4 5f3d 1e5e 86bd 3600 703b
00000370: 536e 453d 3806 793d 8eea 933d ffdc cfbd
00000380: 9bd4 933d 4786 d3bc 7039 083d 5c42 8b3d
00000390: 1861 afbd 1cbc d13c 9694 b0bd 57fd 31bd
000003a0: cdfa 853c 8cc9 483b ca9a 703d 0622 1dbd
000003b0: fba5 bcbc d50f ce3c 19c4 a33d efdf a13d
000003c0: f130 253e 4e37 d93d e235 04bd b833 733c
000003d0: c577 37bd b82a 0a3c 29e9 b3bd 76f7 d93d
000003e0: d26c 1c3a 8599 29be a863 0b3d cfa1 093d
000003f0: e7b2 963d 0246 1ebd f769 633c d1de dcbc
0.0117621105 0.049439978 0.09237279 -0.051463857 -0.016348124 -0.075656176 -0.079900265 0.049037967
0.0057045785 0.03642754 -0.063678786 -0.049918424 0.026145242 0.0016762331 0.040051207 0.00094081176
0.16830796 -0.0025484334 -0.030177686 0.0790039 -0.005067947 0.03647831 0.019212825 -0.054302983
-0.020956112 0.108409315 0.08973016 -0.053579174 0.06336216 0.055251855 0.0020437064 0.024603177
0.035343528 -0.061828468 -0.00909234 0.021819267 -0.07057675 0.07880773 0.056538012 0.016999336
-0.00532277 -0.028871842 0.11582452 0.076711334 -0.044688705 -0.01459941 -0.032018464 0.0009867979
-0.054337606 -0.024991773 0.033415128 -0.04127553 0.0069037545 -0.0060592913 -0.1204965 -0.019588666
0.023001038 -0.04642379 0.0533052 -0.0749482 -0.051279828 0.0643338 0.040064406 0.030726543
-0.020063434 0.013308647 -0.08544909 -0.05174506 -0.09949037 -0.00071934785 -0.01877342 -0.041586943
-0.07913738 -0.043853905 -0.06741405 -0.14616604 0.005336085 0.053105053 -0.019787662 0.049268223
0.030558318 0.026683757 0.018955238 -0.04392014 -0.026550848 0.033637527 0.03865176 -0.031366967
0.0142180165 -0.0013512735 -0.13188235 0.040651396 0.015355042 0.0564457 0.09857965 0.06612488
-0.022260666 -0.0031318397 0.11386401 -0.03189766 0.066944495 0.022369511 0.07378785 0.001783927
-0.1446061 0.010617742 0.038904317 -0.024328047 -0.066712946 0.09011905 -0.053497765 -0.023867633
0.058937144 -0.064336844 -0.06047052 0.022557098 -0.057876337 -0.030023629 -0.037849274 0.0048671104
-0.017672213 0.077001445 0.032039553 0.019829163 0.026310092 0.04577237 -0.038000777 0.12035532
-0.028929014 0.021742644 -0.018719053 0.07332975 0.051234163 0.052033108 -0.008148646 0.07456417
0.038220502 -0.07228338 0.06762922 0.033642195 -0.06338284 -0.024421569 0.028948292 -0.015763797
0.047814783 0.067874305 0.06313894 0.060575485 -0.020341307 0.02556167 -0.11490946 0.08625231
-0.09595263 0.032247517 -0.12787399 0.0030150816 -0.11231892 0.06579834 0.05648738 -0.036030672
-0.05298108 -0.009392352 0.020201402 0.09319297 -0.042972654 0.021435903 0.09070641 -0.028005192
-0.09791131 0.061592504 0.08049536 0.07678343 0.07296797 -0.037554782 0.030693762 0.09315583
0.059923556 0.03898331 0.015733792 -0.07840708 -0.09483216 -0.029149774 0.119586356 -0.043244664
0.11565534 -0.061225712 0.08682838 -0.0075312327 -0.0015337217 0.034682035 -0.05333185 -0.028287914
0.029135922 -0.024227595 0.0022768353 -0.06825674 0.0123448195 -0.0020137315 -0.060766675 -0.0038539667
-0.015134252 -0.026757782 -0.00057625363 0.041004542 0.09879168 0.015906308 -0.02808607 0.07678585
0.11701586 0.04188953 0.038945116 -0.10881594 0.07989965 -0.0051134126 -0.040791232 -0.00016887476
-0.019749636 0.05464554 -0.0656092 0.003662122 0.048200916 0.060796946 0.07222472 -0.101495735
0.07218286 -0.025820864 0.0332579 0.067997664 -0.08563441 0.025602393 -0.086220905 -0.043454494
0.016354943 0.003063771 0.05874137 -0.038362525 -0.023028364 0.025154034 0.07996387 0.0790404
0.16131951 0.10606252 -0.03227795 0.014843874 -0.044791956 0.0084330365 -0.08784706 0.106429026
0.0005967143 -0.1656247 0.034030586 0.03360158 0.07358342 -0.038640983 0.013880244 -0.026961716

network_body._body_endoder.seq_layers.0.bias f4 [128]
00000000: 0000 0000 0000 0000 0000 0000 0000 0000
00000010: 0000 0000 0000 0000 0000 0000 0000 0000
00000020: 0000 0000 0000 0000 0000 0000 0000 0000
00000030: 0000 0000 0000 0000 0000 0000 0000 0000
00000040: 0000 0000 0000 0000 0000 0000 0000 0000
00000050: 0000 0000 0000 0000 0000 0000 0000 0000
00000060: 0000 0000 0000 0000 0000 0000 0000 0000
00000070: 0000 0000 0000 0000 0000 0000 0000 0000
00000080: 0000 0000 0000 0000 0000 0000 0000 0000
00000090: 0000 0000 0000 0000 0000 0000 0000 0000
000000a0: 0000 0000 0000 0000 0000 0000 0000 0000
000000b0: 0000 0000 0000 0000 0000 0000 0000 0000
000000c0: 0000 0000 0000 0000 0000 0000 0000 0000
000000d0: 0000 0000 0000 0000 0000 0000 0000 0000
000000e0: 0000 0000 0000 0000 0000 0000 0000 0000
000000f0: 0000 0000 0000 0000 0000 0000 0000 0000
00000100: 0000 0000 0000 0000 0000 0000 0000 0000
00000110: 0000 0000 0000 0000 0000 0000 0000 0000
00000120: 0000 0000 0000 0000 0000 0000 0000 0000
00000130: 0000 0000 0000 0000 0000 0000 0000 0000
00000140: 0000 0000 0000 0000 0000 0000 0000 0000
00000150: 0000 0000 0000 0000 0000 0000 0000 0000
00000160: 0000 0000 0000 0000 0000 0000 0000 0000
00000170: 0000 0000 0000 0000 0000 0000 0000 0000
00000180: 0000 0000 0000 0000 0000 0000 0000 0000
00000190: 0000 0000 0000 0000 0000 0000 0000 0000
000001a0: 0000 0000 0000 0000 0000 0000 0000 0000
000001b0: 0000 0000 0000 0000 0000 0000 0000 0000
000001c0: 0000 0000 0000 0000 0000 0000 0000 0000
000001d0: 0000 0000 0000 0000 0000 0000 0000 0000
000001e0: 0000 0000 0000 0000 0000 0000 0000 0000
000001f0: 0000 0000 0000 0000 0000 0000 0000 0000
0.0 0.0 0.0 0.0 0.0 0.0 0.0 0.0
0.0 0.0 0.0 0.0 0.0 0.0 0.0 0.0
0.0 0.0 0.0 0.0 0.0 0.0 0.0 0.0
0.0 0.0 0.0 0.0 0.0 0.0 0.0 0.0
0.0 0.0 0.0 0.0 0.0 0.0 0.0 0.0
0.0 0.0 0.0 0.0 0.0 0.0 0.0 0.0
0.0 0.0 0.0 0.0 0.0 0.0 0.0 0.0
0.0 0.0 0.0 0.0 0.0 0.0 0.0 0.0
0.0 0.0 0.0 0.0 0.0 0.0 0.0 0.0
0.0 0.0 0.0 0.0 0.0 0.0 0.0 0.0
0.0 0.0 0.0 0.0 0.0 0.0 0.0 0.0
0.0 0.0 0.0 0.0 0.0 0.0 0.0 0.0
0.0 0.0 0.0 0.0 0.0 0.0 0.0 0.0
0.0 0.0 0.0 0.0 0.0 0.0 0.0 0.0
0.0 0.0 0.0 0.0 0.0 0.0 0.0 0.0
0.0 0.0 0.0 0.0 0.0 0.0 0.0 0.0

network_body._body_endoder.seq_layers.2.weight f4 [128, 128]
00000000: c135 09be bd4d 823d b982 193b e371 993d
00000010: 5f1a f13d 2516 0fbd 3ec4 42be 674f 1bbd
00000020: 9efd 283d 1857 86bd 2544 c43d f9dd 65bd
00000030: 428a a63d c0db 3b3d 5670 6dbd bb8e db3d
00000040: 055e 523e eb51 f23c c154 b9bd 7ea4 28bd
00000050: b646 dfbc c7bb ba3b 2442 0e3d 5017 bd3d
00000060: 7d49 e13d 2248 b33d 9c6d 46bd c5fa 8c3d
00000070: 878d fabd ba78 eebd 1a3e 713c 515e bfbc
00000080: 39b6 b5bd 2061 ae3d 9c02 f73d 0aaa 1a3e
00000090: 7f01 9c3c 6d18 1d3d 6533 913c c3b4 07bb
000000a0: 108c 14bd 7420 d93c cdda 16bd 226d a13d
000000b0: 1fa7 883d 6b15 053e 8054 37be c7ce 183e
000000c0: 7a86 26bd 6c71 29be 459a 95bb 384f 393d
000000d0: 137a 5cbd 68e4 e13c c783 2f3d 6197 34bd
000000e0: b9e5 753a c838 45bd 0492 a9bc 9474 0c3e
000000f0: 7e58 1b3e 0e89 9bbd e1a1 16bc 78bd 113a
00000100: 666a 23bd 0222 003e 6b38 993d 3f37 c6bd
00000110: fd4b 7f3c 684f 88bd a83f c83d f28d 76bd
00000120: 4dd0 3e3e 9ff2 0e3e 724f 1cbe 121c 41bd
00000130: fd35 123d a8ea ea3c cc8b 8a3d d6d5 b3bd
00000140: 9da1 1e3c 000e 543c 2622 25bd 8964 96bc
00000150: 6c11 373d 0ba9 463e c343 dd3c beed 98ba
00000160: 7749 0d3e 3a75 84bd b893 e5bd 7870 143d
00000170: adfe 35bc cb87 e1bb 6abb 66bc a332 75bd
00000180: b2d0 62be 47ab efbd 4a80 903b ce55 0cbd
00000190: b50a de3c 7c31 703d e7f4 c9bc 199a bf3d
000001a0: 0a9b 70bc e5b4 883d b361 083c 8df6 13bc
000001b0: a0b6 28bc a52d 933d 1d3b 8bbd f31e f73d
000001c0: 681d bdbc 4984 1fbe 6b0a 77bd 7ac3 dd3d
000001d0: 48e8 aa3d 892e 5b3d 78b3 ffbb 7852 82bd
000001e0: 8230 25bc 0558 173e aa2b 28be 8876 88bd
000001f0: b4ef 493d 9b32 fa3d ca2a e83d 36df 92bd
00000200: 7490 db3d 911d 9c3d 70c7 53bc 6bff c73d
00000210: 9fb0 2fbc 0aab ec3c 2edb dfbd f586 4a3d
00000220: 563a ee3c 9f4a c23d 9ab6 41bd 6cd8 103b
00000230: f113 edbd ec62 fd3c 019c 68be 08a4 93bd
00000240: bd64 8abd 4580 19bb 9eaa 8a3d 2623 5bbd
00000250: e26b 8f3d a40c b83c 2528 0abe 5151 7e3d
00000260: b223 333e eb84 b8bc f7c9 8a3d d391 e53d
00000270: 8665 cbbd 3edd 4fbd 1755 8a3d 0702 623d
00000280: 1b1e 6ebe c3ff e23d 2911 c3bc 22f5 9abc
00000290: 491b 0a3e 4a8b 3dbc 6f1f ddbd be91 3ebe
000002a0: fc91 9ebd 34aa 36bd 299e 78bc 71e3 54be
000002b0: 1148 39be 492e 18bd f99b 373d b1f8 38bd
000002c0: 423e 103d 103e 97bd b12d 51be 6e11 ca3d
000002d0: 385e e33d c916 d9bd 7c06 f63d 0809 113d
000002e0: 1f8b efbd bdf1 d83c 4b27 cd3b 10aa 0b3d
000002f0: e4eb c63c d9e3 86bd 6a3d e9bc d30f 783e
00000300: 88e7 d6bd 68a3 473e 40cf 143c b7a2 083e
00000310: d3bd c4bd 928f 9fbb 9f34 95bd b6dd 9e3d
00000320: 9e12 35bd 579c bb3d 8484 d73d f79c 083e
00000330: 4fc5 7bbd d602 98bd b235 233e 46eb aabc
00000340: ebd7 59be 11c1 693c cb9b 433e c4bc 3d3d
00000350: 2d50 7abc 8fa0 99bd a3f6 bebd 6840 1bbc
00000360: b560 433c 2957 233e 5c8b 6b3c 37d7 093d
00000370: 8e27 e03b 0612 4abd f558 bb3d 2c1a 44be
00000380: c4aa 343e d0f6 7f3c c330 ebbd b88c 92bd
00000390: 28de 453d 7054 0f3e 8dce eb3d 53f6 813d
000003a0: 4652 beba 011d f3bc ddaa 443d 1692 eebd
000003b0: c054 2a3c 6421 09be ba71 903d 6fbf 693c
000003c0: 6d06 b8ba 5e8b 15bd 0f2a b2bb e60a 84be
000003d0: 8f77 3f3d 7ea2 623d 4da7 2b3e 5c72 3d3d
000003e0: 0369 debd 1e7f 853d 1477 063d 7564 c83d
000003f0: 6d82 473d 16d7 863d b0be 333e 169b 2abe
-0.13399412 0.06362484 0.0023423864 0.07492425 0.11772608 -0.034933228 -0.19020173 -0.03791752
0.041257493 -0.065595806 0.0958331 -0.056119893 0.08131839 0.045863867 -0.05796846 0.10720583
0.20543678 0.029580077 -0.09049369 -0.041172497 -0.027255397 0.0056986543 0.034731045 0.09232962
0.11000345 0.087539926 -0.048444375 0.06883768 -0.122340254 -0.116441205 0.014724279 -0.023360403
-0.08872647 0.08514619 0.120610446 0.15103927 0.019043682 0.038353372 0.017724702 -0.0020707108
-0.036266387 0.026504733 -0.03682976 0.078821436 0.06672501 0.12996452 -0.17903328 0.1492263
-0.04065559 -0.16547173 -0.0045655095 0.045241565 -0.053827357 0.027574733 0.042850282 -0.04408968
0.00093802396 -0.048149854 -0.020699508 0.13716346 0.15170476 -0.075945005 -0.009193868 0.0005559544
-0.03989639 0.12512973 0.07481464 -0.09678506 0.015582082 -0.066557705 0.097777665 -0.060193963
0.18634148 0.1395974 -0.15264681 -0.04714591 0.03569602 0.028676346 0.067649454 -0.0878102
0.009682086 0.012942791 -0.04031577 -0.018358486 0.04469435 0.19400422 0.02700985 -0.0011667532
0.13797556 -0.06467672 -0.11209816 0.03624007 -0.011108083 -0.006882643 -0.014082769 -0.059862744
-0.22149923 -0.117025904 0.0044098245 -0.034261517 0.027104715 0.058640942 -0.024652911 0.09355564
-0.014685402 0.06675128 0.008324075 -0.00903095 -0.010297447 0.071864404 -0.06798384 0.1206645
-0.023085311 -0.15577807 -0.06031267 0.108283 0.083450854 0.053511176 -0.0078033768 -0.06363386
-0.010082366 0.1477967 -0.16422907 -0.06663233 0.049300864 0.122166835 0.11336286 -0.0717148
0.107209116 0.07622827 -0.012925968 0.09765514 -0.010723262 0.028890152 -0.10930477 0.04944511
0.029080551 0.09486889 -0.047293283 0.0022101654 -0.11576069 0.030930959 -0.22715761 -0.07209021
-0.067574956 -0.0023422402 0.06770824 -0.053500317 0.07002999 0.022466965 -0.13491876 0.062089268
0.17494085 -0.022524318 0.06776803 0.112094544 -0.099314734 -0.050748102 0.06754511 0.055177715
-0.23253672 0.11083939 -0.023811894 -0.018915717 0.13486971 -0.011568854 -0.10797011 -0.18610284
-0.07742688 -0.044595912 -0.015174427 -0.20789887 -0.18093897 -0.037153516 0.04482648 -0.045159046
0.035215624 -0.07384884 -0.20427586 0.09866606 0.11101955 -0.10600049 0.120129555 0.035409003
-0.11696457 0.026482457 0.0062607876 0.03409773 0.024282403 -0.06586427 -0.028471667 0.24224786
-0.1049338 0.19495928 0.009082615 0.13343321 -0.096065186 -0.00486941 -0.07285427 0.07757132
-0.044207208 0.09160679 0.10523322 0.13341127 -0.061467465 -0.07422416 0.15938452 -0.02086414
-0.21273772 0.014267222 0.19102399 0.0463226 -0.015277904 -0.07501327 -0.09324386 -0.009475805
0.011924912 0.15951218 0.014376488 0.03365251 0.006840653 -0.049333595 0.091478266 -0.19150609
0.17643267 0.0156228095 -0.1148391 -0.07155746 0.048307568 0.13997054 0.11514006 0.06345811
-0.0014520369 -0.029676916 0.04801451 -0.116489574 0.010396183 -0.13391644 0.070529416 0.014266833
-0.0014040001 -0.036509864 -0.0054371427 -0.25789565 0.04674488 0.055330746 0.16763039 0.04625164
-0.10859873 0.06518386 0.032828405 0.09784786 0.048708368 0.06583993 0.1755321 -0.16660723

action_model._discrete_distribution.branches.0.weight f4 [2, 128]
00000000: e0a8 6b3c da1e 00bc 9b85 073c 2dd6 043b
00000010: 73ec 5d3a 6398 753b da4a 86bc 41de 0c3b
00000020: 9d36 8bbb 8735 14bc ebab fcbb 5269 163c
00000030: e21b d23b b31a 9cbb 2e1c a33b fb22 753a
00000040: 5b5b 15bc 2f0a ab3b 9813 a339 6238 f73b
00000050: c6f1 3c3b 5c0c 84bb 4a6e 993b f20f 1c3c
00000060: 2353 82bc e36d 1ebc 0fac fdbb 9de6 cd3b
00000070: 16d8 493c 54a4 a73b e2ec d2bb 72d7 08bc
00000080: 759a 213a a7b2 333b 364c c23b 6455 af3a
00000090: db83 e83b e33a 9b3c 7df9 e03b 3609 45bc
000000a0: 904e 04bc 5b14 d2ba fa4a b93b d056 cbbb
000000b0: aa57 eabb a6fe aa3c 0831 063c 1372 0ebb
000000c0: 5e30 1a3c 7645 beb9 b7ad 4dbb ea31 413c
000000d0: 7d6e 01bb 7aaf 90bb da72 18bc f15e bdbb
000000e0: 62c8 e1bb d34c 923b 071d c7bb 38f0 8a39
000000f0: 0b4d 783b 94ae 97bc afdc 8a3b f842 fe3b
00000100: 5caa c9bb f92c 03bb 6772 81bb 8384 383b
00000110: f718 e53b c335 1c38 e099 70bc 75a7 39bc
00000120: 5da1 433c 5f63 a7ba 277c c5bb 9619 8d3b
00000130: eff6 12ba fb4e 26bc b23c 77bc fb66 07bb
00000140: 921f 7b3b 349b 2b3c 5c82 8cbb ba2a 1cbc
00000150: 6ba3 0abc b7be 233c a366 89bb 7891 feba
00000160: b203 4e3c 3056 1abc 4b12 413b 57f3 63bc
00000170: 8f40 183c a50d 0dbc 8438 48bc 189a dd3b
00000180: 3379 373c 2ec4 b43b 3b83 ab3b 9be7 10bb
00000190: 473e 13bb 506c 393b 139c 9b3b 1bb3 983b
000001a0: ea39 8dba 7e8f 4a3c bf7f 5b3b aaaf e5bb
000001b0: a01d c1ba 913e 40bc f188 b9ba 8881 74b6
000001c0: 752a ecb9 957c 1ebc 2545 3d3b 0a04 283c
000001d0: a3a9 3ebb 1c65 49bc f235 293b 3e18 a3bb
000001e0: 0b84 9d3b e4eb 1e3b 7b5c 473b 2384 db3a
000001f0: 2ef3 23bc 13ae 063c 141b 0cbc 8c19 05bc
00000200: cd05 d73b 8cc0 983c 6a01 06bc 9722 19bb
00000210: 55d7 ce3b dd4f e3bb fe19 40bb 8378 da3a
00000220: 154f 873b 8701 56bc 1fdc 9f3b cd4d afb8
00000230: 0d02 d2ba 4e0f 4b3c 6128 2839 93a8 f63b
00000240: 4c50 98bb 7ab6 f4ba e24d d339 5bdb 6abc
00000250: 67ab 57bb 24ee af3a 7f40 28bc c218 35bc
00000260: 6345 743b 8c61 a8bb efc3 15ba dde5 f7bb
00000270: 055e 06bb a11c a93b fb65 c3ba 1fbd 173c
00000280: 2340 b03b 2dfb 5d3b 8b91 75bb a085 af3c
00000290: 06ca 4cbc 978f 993b 8377 603b 5b17 403c
000002a0: 3d2b a33b ed89 4e3c 0c74 c3bb 25d3 b13c
000002b0: 45d5 99bb da32 e73b 040e 1d3c 3ea6 163b
000002c0: 62e3 4fbb 6de6 13bc c5a8 ed3b b69c c73b
000002d0: a1f5 0cbc dfe0 d1bb 6d83 c8bb c780 88ba
000002e0: 5920 2cbc ecbb 3cbc c28d b93b 4057 e1ba
000002f0: 233c 0bbc ca58 553b 6706 b4bb af5b 07bb
00000300: 4f2b 63bc d8fa bcbb 56bb 23bb ddac 33bc
00000310: 0ad9 d1ba 0297 de3b c488 acbb 201d 703a
00000320: c73e d2ba f103 1b3c 155b c7b7 bfcf 32bb
00000330: d56b b33b c502 18bc 4f32 9bbc 3227 9d3b
00000340: 8a7b 6abc fdc7 6d3b f3c4 69b9 9f79 773a
00000350: 0002 b8bb d871 57bb cb13 9f3b cdb7 90bb
00000360: f1ea 18bc bfe8 053b fc8c 3fbb ae9d 2b3c
00000370: 4904 14bc 8fb1 503c ff8e 37ba c591 9cba
00000380: 4cac 8abc 02c5 d4bb 7d90 00bc dd51 7dbb
00000390: bac4 553c 7f29 4abb 2b17 6cbc 88d5 583c
000003a0: f31d afbb 9d01 f5bb b34c 793c 6145 03bc
000003b0: 23fd 72bb 1bda 443b 3ce9 06bb 72c0 e93b
000003c0: 5627 33bb 356c ecbb afd6 97bc 0bca 2fbc
000003d0: 6233 94bc c0da 7bbc 19ad 043b 55f3 7aba
000003e0: 2570 6a3c 51f0 003c f312 893b b722 69bc
000003f0: 8eb3 b73b 3bb0 c5bb c8ad 9d3b c2b9 f33b
0.014383525 -0.007819856 0.0082716 0.002026926 0.00084657146 0.0037474863 -0.016393114 0.0021494778
-0.004248454 -0.009045965 -0.007710924 0.009180384 0.0064120153 -0.004763925 0.0049777245 0.0009351221
-0.009116019 0.00521972 0.0003110438 0.007544563 0.0028830632 -0.0040297937 0.004682337 0.009525286
-0.015908783 -0.009669754 -0.0077414582 0.0062835948 0.012319585 0.005116025 -0.00643693 -0.008352147
0.00061646785 0.0027419718 0.005929495 0.0013376889 0.0070957965 0.018948978 0.006865679 -0.012026122
-0.008075371 -0.0016027795 0.00565469 -0.006205417 -0.0071515637 0.020873379 0.008190401 -0.0021735474
0.009410946 -0.00036291376 -0.003138406 0.011791686 -0.0019749694 -0.0044154497 -0.0093047265 -0.00577914
-0.0068903426 0.0044647246 -0.0060764584 0.00026500388 0.0037887718 -0.018515863 0.0042377333 0.007759448
-0.0061543416 -0.002001582 -0.0039504054 0.0028155155 0.0069915014 3.7243368e-05 -0.014685124 -0.011331429
0.0119403275 -0.0012770704 -0.006026763 0.0043060286 -0.0005606254 -0.010150666 -0.0150901545 -0.0020660746
0.0038318378 0.010474015 -0.004288001 -0.009531671 -0.008461813 0.0099942 -0.0041931435 -0.0019422015
0.012574123 -0.009419963 0.0029460366 -0.013912997 0.009292736 -0.00860921 -0.012220506 0.006762754
0.01119833 0.0055165505 0.0052341498 -0.0022110704 -0.002246754 0.002829332 0.00474883 0.004660023
-0.0010774706 0.012363313 0.003349289 -0.007009466 -0.001473356 -0.011733667 -0.0014155192 -3.643423e-06
-0.0004504506 -0.009673257 0.0028880325 0.010254869 -0.002909281 -0.012292173 0.0025819507 -0.004977255
0.0048070005 0.0024249488 0.0030420113 0.0016747754 -0.010006709 0.008220213 -0.008551378 -0.008123767
0.006561971 0.018646501 -0.008179048 -0.0023366564 0.0063122907 -0.0069370107 -0.0029312368 0.0016667995
0.0041293004 -0.013061888 0.0048785354 -8.359142e-05 -0.001602234 0.012393786 0.00016036771 0.00752742
-0.004648244 -0.0018670105 0.00040303083 -0.014334525 -0.003290856 0.0013422412 -0.010269283 -0.011053266
0.0037272803 -0.0051385816 -0.00057130953 -0.0075652436 -0.0020502817 0.0051608835 -0.0014907712 0.009261399
0.0053787394 0.0033871636 -0.0037470784 0.021426022 -0.012499338 0.0046863067 0.0034250922 0.011724318
0.0049795196 0.012606126 -0.0059647616 0.021707127 -0.004694613 0.0070556225 0.009585861 0.0022987272
-0.0031721224 -0.009027106 0.007252785 0.0060916794 -0.008603484 -0.0064049806 -0.006119183 -0.0010414355
-0.010505759 -0.011519413 0.005662651 -0.001719214 -0.008498224 0.0032554143 -0.0054939273 -0.0020654013
-0.013865306 -0.0057672076 -0.0024983487 -0.010966507 -0.0016010117 0.006792904 -0.005265327 0.00091596134
-0.0016040438 0.009461389 -2.3765062e-05 -0.002728447 0.005475501 -0.009278004 -0.018944887 0.004795932
-0.014311681 0.0036282532 -0.00022293981 0.0009440425 -0.005615473 -0.0032874253 0.0048546544 -0.004416442
-0.009333358 0.0020432917 -0.002922832 0.0104746055 -0.009034225 0.012737646 -0.0007002204 -0.0011945298
-0.01692786 -0.0064932117 -0.007846949 -0.003865353 0.013047392 -0.0030847488 -0.014409821 0.013234504
-0.0053441464 -0.007476999 0.01521604 -0.008012147 -0.003707715 0.0030037228 -0.0020585796 0.007133537
-0.0027336678 -0.0072150477 -0.018534986 -0.010729323 -0.018090907 -0.015371978 0.0020244776 -0.00095730025
0.014308964 0.007869796 0.004183167 -0.014229468 0.0056061214 -0.006032971 0.004811976 0.0074379155

action_model._discrete_distribution.branches.0.bias f4 [2]
00000000: 0000 0000 0000 0000
0.0 0.0
