ML-Game/results/ppo/MLGameTest1/MLGameTest1-903.pt (torch, 465556 bytes, 11 tensors)

network_body._body_endoder.seq_layers.0.weight f4 [128, 315]
00000000: deb5 403c 9381 4a3d f22d bd3d c4cb 52bd
00000010: 80ec 85bc a0f1 9abd c0a2 a3bd 09dc 483d
00000020: 79ed ba3b 0b35 153d 066a 82bd 4377 4cbd
00000030: 8c2e d63c 0db5 db3a bc0c 243d cfa0 763a
00000040: ec58 2c3e 9e03 27bb 3237 f7bc cccc a13d
00000050: 0511 a6bb 486a 153d 3764 9d3c ce6c 5ebd
00000060: 27ac abbc b405 de3d 72c4 b73d d675 5bbd
00000070: 05c4 813d c54f 623d b4ef 053b 9a8c c93c
00000080: 60c4 103d d93f 7dbd 0af8 14bc 52be b23c
00000090: 8b8a 90bd f265 a13d 6794 673d 3142 8b3c
000000a0: a26a aebb a484 ecbc 6835 ed3d d51a 9d3d
000000b0: 810b 37bd 5d32 6fbc cb25 03bd 7157 813a
000000c0: 1c91 5ebd 8cbb ccbc 4dde 083d 8810 29bd
000000d0: e438 e23b 058d c6bb dec6 f6bd 6978 a0bc
000000e0: ac6c bc3c df26 3ebd 8e56 5a3d 717e 99bd
000000f0: cc0a 52bd 70c1 833d 931a 243d 3bb6 fb3c
00000100: 125c a4bc 830c 5a3c efff aebd a1f2 53bd
00000110: 9bc1 cbbd 9e92 3cba b7ca 99bc 1257 2abd
00000120: c712 a2bd 27a0 33bd 6110 8abd 8dac 15be
00000130: 53da ae3b af84 593d bc19 a2bc 7acd 493d
00000140: 7055 fa3c e597 da3c 0448 9b3c 9be5 33bd
00000150: 2a81 d9bc 81c7 093d 4f51 1e3d a67a 00bd
00000160: aff2 683c 371d b1ba 2b0c 07be 1482 263d
00000170: b793 7b3c 9b33 673d 21e4 c93d 7b6c 873d
00000180: 005c b6bc 8d3f 4dbb 8931 e93d 1fa7 02bd
00000190: 321a 893d 4440 b73c 161e 973d a8d2 e93a
000001a0: 9f13 14be 0af6 2d3c 225a 1f3d 9d4b c7bc
000001b0: cca0 88bd 5690 b83d 7920 5bbd 0e86 c3bc
000001c0: 1368 713d 09c3 83bd f0af 77bd aac9 b83c
000001d0: bd0f 6dbd 1df4 f5bc d707 1bbd 487c 9f3b
000001e0: 51c5 90bc efb2 9d3d e83b 033d c570 a23c
000001f0: 4388 d73c cf7b 3b3d b4a6 1bbd da7c f63d
00000200: 8afc ecbc a11d b23c b358 99bc e82d 963d
00000210: eada 513d ab20 553d e681 05bc 19b5 983d
00000220: 1a8d 1c3d 4f09 94bd 3081 8a3d 66cc 093d
00000230: ddce 81bd be0f c8bc f824 ed3c 1423 81bc
00000240: 6fd9 433d af01 8b3d fd4e 813d 001e 783d
00000250: d0a2 a6bc b566 d13c a755 ebbd 0da5 b03d
00000260: d082 c4bd f915 043d 66f1 02be ad98 453b
00000270: 7607 e6bd 48c1 863d 505f 673d e694 13bd
00000280: b002 59bd 61e2 19bc 697d a53c f5db be3d
00000290: 1804 30bd 599a af3c 48c4 b93d 256b e5bc
000002a0: ba85 c8bd 6c48 7c3d c0da a43d a240 9d3d
000002b0: 3b70 953d 0bd3 19bd 7c71 fb3c 7cc8 be3d
000002c0: 6772 753d f7ac 1f3d 27e4 803c e493 a0bd
000002d0: 5d37 c2bd 82cb eebc b1e9 f43d 5121 31bd
000002e0: b5dc ec3d d0c7 7abd 14d3 b13d 8fc8 f6bb
000002f0: 2907 c9ba c00e 0e3d 7f72 5abd 0ebc e7bc
00000300: 75ae ee3c f378 c6bc f536 153b 31ca 8bbd
00000310: ed41 4a3c cff8 03bb 7ae6 78bd d592 7cbb
00000320: a7f5 77bc 2333 dbbc ba0f 17ba 61f4 273d
00000330: 4b53 ca3d f24d 823c c214 e6bc e641 9d3d
00000340: 03a6 ef3d 5b94 2b3d ea84 1f3d e4da debd
00000350: 6da2 a33d 6a8e a7bb b514 27bd f913 31b9
00000360: fdc9 a1bc 00d4 5f3d 1e5e 86bd 3600 703b
00000370: 536e 453d 3806 793d 8eea 933d ffdc cfbd
00000380: 9bd4 933d 4786 d3bc 7039 083d 5c42 8b3d
00000390: 1861 afbd 1cbc d13c 9694 b0bd 57fd 31bd
000003a0: cdfa 853c 8cc9 483b ca9a 703d 0622 1dbd
000003b0: fba5 bcbc d50f ce3c 19c4 a33d efdf a13d
000003c0: f130 253e 4e37 d93d e235 04bd b833 733c
000003d0: c577 37bd b82a 0a3c 29e9 b3bd 76f7 d93d
000003e0: d26c 1c3a 8599 29be a863 0b3d cfa1 093d
000003f0: e7b2 963d 0246 1ebd f769 633c d1de dcbc
0.0117621105 0.049439978 0.09237279 -0.051463857 -0.016348124 -0.075656176 -0.079900265 0.049037967
0.0057045785 0.03642754 -0.063678786 -0.049918424 0.026145242 0.0016762331 0.040051207 0.00094081176
0.16830796 -0.0025484334 -0.030177686 0.0790039 -0.005067947 0.03647831 0.019212825 -0.054302983
-0.020956112 0.108409315 0.08973016 -0.053579174 0.06336216 0.055251855 0.0020437064 0.024603177
0.035343528 -0.061828468 -0.00909234 0.021819267 -0.07057675 0.07880773 0.056538012 0.016999336
-0.00532277 -0.028871842 0.11582452 0.076711334 -0.044688705 -0.01459941 -0.032018464 0.0009867979
-0.054337606 -0.024991773 0.033415128 -0.04127553 0.0069037545 -0.0060592913 -0.1204965 -0.019588666
0.023001038 -0.04642379 0.0533052 -0.0749482 -0.051279828 0.0643338 0.040064406 0.030726543
-0.020063434 0.013308647 -0.08544909 -0.05174506 -0.09949037 -0.00071934785 -0.01877342 -0.041586943
-0.07913738 -0.043853905 -0.06741405 -0.14616604 0.005336085 0.053105053 -0.019787662 0.049268223
0.030558318 0.026683757 0.018955238 -0.04392014 -0.026550848 0.033637527 0.03865176 -0.031366967
0.0142180165 -0.0013512735 -0.13188235 0.040651396 0.015355042 0.0564457 0.09857965 0.06612488
-0.022260666 -0.0031318397 0.11386401 -0.03189766 0.066944495 0.022369511 0.07378785 0.001783927
-0.1446061 0.010617742 0.038904317 -0.024328047 -0.066712946 0.09011905 -0.053497765 -0.023867633
0.058937144 -0.064336844 -0.06047052 0.022557098 -0.057876337 -0.030023629 -0.037849274 0.0048671104
-0.017672213 0.077001445 0.032039553 0.019829163 0.026310092 0.04577237 -0.038000777 0.12035532
-0.028929014 0.021742644 -0.018719053 0.07332975 0.051234163 0.052033108 -0.008148646 0.07456417
0.038220502 -0.07228338 0.06762922 0.033642195 -0.06338284 -0.024421569 0.028948292 -0.015763797
0.047814783 0.067874305 0.06313894 0.060575485 -0.020341307 0.02556167 -0.11490946 0.08625231
-0.09595263 0.032247517 -0.12787399 0.0030150816 -0.11231892 0.06579834 0.05648738 -0.036030672
-0.05298108 -0.009392352 0.020201402 0.09319297 -0.042972654 0.021435903 0.09070641 -0.028005192
-0.09791131 0.061592504 0.08049536 0.07678343 0.07296797 -0.037554782 0.030693762 0.09315583
0.059923556 0.03898331 0.015733792 -0.07840708 -0.09483216 -0.029149774 0.119586356 -0.043244664
0.11565534 -0.061225712 0.08682838 -0.0075312327 -0.0015337217 0.034682035 -0.05333185 -0.028287914
0.029135922 -0.024227595 0.0022768353 -0.06825674 0.0123448195 -0.0020137315 -0.060766675 -0.0038539667
-0.015134252 -0.026757782 -0.00057625363 0.041004542 0.09879168 0.015906308 -0.02808607 0.07678585
0.11701586 0.04188953 0.038945116 -0.10881594 0.07989965 -0.0051134126 -0.040791232 -0.00016887476
-0.019749636 0.05464554 -0.0656092 0.003662122 0.048200916 0.060796946 0.07222472 -0.101495735
0.07218286 -0.025820864 0.0332579 0.067997664 -0.08563441 0.025602393 -0.086220905 -0.043454494
0.016354943 0.003063771 0.05874137 -0.038362525 -0.023028364 0.025154034 0.07996387 0.0790404
0.16131951 0.10606252 -0.03227795 0.014843874 -0.044791956 0.0084330365 -0.08784706 0.106429026
0.0005967143 -0.1656247 0.034030586 0.03360158 0.07358342 -0.038640983 0.013880244 -0.026961716

network_body._body_endoder.seq_layers.0.bias f4 [128]
00000000: 0000 0000 0000 0000 0000 0000 0000 0000
00000010: 0000 0000 0000 0000 0000 0000 0000 0000
00000020: 0000 0000 0000 0000 0000 0000 0000 0000
00000030: 0000 0000 0000 0000 0000 0000 0000 0000
00000040: 0000 0000 0000 0000 0000 0000 0000 0000
00000050: 0000 0000 0000 0000 0000 0000 0000 0000
00000060: 0000 0000 0000 0000 0000 0000 0000 0000
00000070: 0000 0000 0000 0000 0000 0000 0000 0000
00000080: 0000 0000 0000 0000 0000 0000 0000 0000
00000090: 0000 0000 0000 0000 0000 0000 0000 0000
000000a0: 0000 0000 0000 0000 0000 0000 0000 0000
000000b0: 0000 0000 0000 0000 0000 0000 0000 0000
000000c0: 0000 0000 0000 0000 0000 0000 0000 0000
000000d0: 0000 0000 0000 0000 0000 0000 0000 0000
000000e0: 0000 0000 0000 0000 0000 0000 0000 0000
000000f0: 0000 0000 0000 0000 0000 0000 0000 0000
00000100: 0000 0000 0000 0000 0000 0000 0000 0000
00000110: 0000 0000 0000 0000 0000 0000 0000 0000
00000120: 0000 0000 0000 0000 0000 0000 0000 0000
00000130: 0000 0000 0000 0000 0000 0000 0000 0000
00000140: 0000 0000 0000 0000 0000 0000 0000 0000
00000150: 0000 0000 0000 0000 0000 0000 0000 0000
00000160: 0000 0000 0000 0000 0000 0000 0000 0000
00000170: 0000 0000 0000 0000 0000 0000 0000 0000
00000180: 0000 0000 0000 0000 0000 0000 0000 0000
00000190: 0000 0000 0000 0000 0000 0000 0000 0000
000001a0: 0000 0000 0000 0000 0000 0000 0000 0000
000001b0: 0000 0000 0000 0000 0000 0000 0000 0000
000001c0: 0000 0000 0000 0000 0000 0000 0000 0000
000001d0: 0000 0000 0000 0000 0000 0000 0000 0000
000001e0: 0000 0000 0000 0000 0000 0000 0000 0000
000001f0: 0000 0000 0000 0000 0000 0000 0000 0000
0.0 0.0 0.0 0.0 0.0 0.0 0.0 0.0
0.0 0.0 0.0 0.0 0.0 0.0 0.0 0.0
0.0 0.0 0.0 0.0 0.0 0.0 0.0 0.0
0.0 0.0 0.0 0.0 0.0 0.0 0.0 0.0
0.0 0.0 0.0 0.0 0.0 0.0 0.0 0.0
0.0 0.0 0.0 0.0 0.0 0.0 0.0 0.0
0.0 0.0 0.0 0.0 0.0 0.0 0.0 0.0
0.0 0.0 0.0 0.0 0.0 0.0 0.0 0.0
0.0 0.0 0.0 0.0 0.0 0.0 0.0 0.0
0.0 0.0 0.0 0.0 0.0 0.0 0.0 0.0
0.0 0.0 0.0 0.0 0.0 0.0 0.0 0.0
0.0 0.0 0.0 0.0 0.0 0.0 0.0 0.0
0.0 0.0 0.0 0.0 0.0 0.0 0.0 0.0
0.0 0.0 0.0 0.0 0.0 0.0 0.0 0.0
0.0 0.0 0.0 0.0 0.0 0.0 0.0 0.0
0.0 0.0 0.0 0.0 0.0 0.0 0.0 0.0

network_body._body_endoder.seq_layers.2.weight f4 [128, 128]
00000000: c135 09be bd4d 823d b982 193b e371 993d
00000010: 5f1a f13d 2516 0fbd 3ec4 42be 674f 1bbd
00000020: 9efd 283d 1857 86bd 2544 c43d f9dd 65bd
00000030: 428a a63d c0db 3b3d 5670 6dbd bb8e db3d
00000040: 055e 523e eb51 f23c c154 b9bd 7ea4 28bd
00000050: b646 dfbc c7bb ba3b 2442 0e3d 5017 bd3d
00000060: 7d49 e13d 2248 b33d 9c6d 46bd c5fa 8c3d
00000070: 878d fabd ba78 eebd 1a3e 713c 515e bfbc
00000080: 39b6 b5bd 2061 ae3d 9c02 f73d 0aaa 1a3e
00000090: 7f01 9c3c 6d18 1d3d 6533 913c c3b4 07bb
000000a0: 108c 14bd 7420 d93c cdda 16bd 226d a13d
000000b0: 1fa7 883d 6b15 053e 8054 37be c7ce 183e
000000c0: 7a86 26bd 6c71 29be 459a 95bb 384f 393d
000000d0: 137a 5cbd 68e4 e13c c783 2f3d 6197 34bd
000000e0: b9e5 753a c838 45bd 0492 a9bc 9474 0c3e
000000f0: 7e58 1b3e 0e89 9bbd e1a1 16bc 78bd 113a
00000100: 666a 23bd 0222 003e 6b38 993d 3f37 c6bd
00000110: fd4b 7f3c 684f 88bd a83f c83d f28d 76bd
00000120: 4dd0 3e3e 9ff2 0e3e 724f 1cbe 121c 41bd
00000130: fd35 123d a8ea ea3c cc8b 8a3d d6d5 b3bd
00000140: 9da1 1e3c 000e 543c 2622 25bd 8964 96bc
00000150: 6c11 373d 0ba9 463e c343 dd3c beed 98ba
00000160: 7749 0d3e 3a75 84bd b893 e5bd 7870 143d
00000170: adfe 35bc cb87 e1bb 6abb 66bc a332 75bd
00000180: b2d0 62be 47ab efbd 4a80 903b ce55 0cbd
00000190: b50a de3c 7c31 703d e7f4 c9bc 199a bf3d
000001a0: 0a9b 70bc e5b4 883d b361 083c 8df6 13bc
000001b0: a0b6 28bc a52d 933d 1d3b 8bbd f31e f73d
000001c0: 681d bdbc 4984 1fbe 6b0a 77bd 7ac3 dd3d
000001d0: 48e8 aa3d 892e 5b3d 78b3 ffbb 7852 82bd
000001e0: 8230 25bc 0558 173e aa2b 28be 8876 88bd
000001f0: b4ef 493d 9b32 fa3d ca2a e83d 36df 92bd
00000200: 7490 db3d 911d 9c3d 70c7 53bc 6bff c73d
00000210: 9fb0 2fbc 0aab ec3c 2edb dfbd f586 4a3d
00000220: 563a ee3c 9f4a c23d 9ab6 41bd 6cd8 103b
00000230: f113 edbd ec62 fd3c 019c 68be 08a4 93bd
00000240: bd64 8abd 4580 19bb 9eaa 8a3d 2623 5bbd
00000250: e26b 8f3d a40c b83c 2528 0abe 5151 7e3d
00000260: b223 333e eb84 b8bc f7c9 8a3d d391 e53d
00000270: 8665 cbbd 3edd 4fbd 1755 8a3d 0702 623d
00000280: 1b1e 6ebe c3ff e23d 2911 c3bc 22f5 9abc
00000290: 491b 0a3e 4a8b 3dbc 6f1f ddbd be91 3ebe
000002a0: fc91 9ebd 34aa 36bd 299e 78bc 71e3 54be
000002b0: 1148 39be 492e 18bd f99b 373d b1f8 38bd
000002c0: 423e 103d 103e 97bd b12d 51be 6e11 ca3d
000002d0: 385e e33d c916 d9bd 7c06 f63d 0809 113d
000002e0: 1f8b efbd bdf1 d83c 4b27 cd3b 10aa 0b3d
000002f0: e4eb c63c d9e3 86bd 6a3d e9bc d30f 783e
00000300: 88e7 d6bd 68a3 473e 40cf 143c b7a2 083e
00000310: d3bd c4bd 928f 9fbb 9f34 95bd b6dd 9e3d
00000320: 9e12 35bd 579c bb3d 8484 d73d f79c 083e
00000330: 4fc5 7bbd d602 98bd b235 233e 46eb aabc
00000340: ebd7 59be 11c1 693c cb9b 433e c4bc 3d3d
00000350: 2d50 7abc 8fa0 99bd a3f6 bebd 6840 1bbc
00000360: b560 433c 2957 233e 5c8b 6b3c 37d7 093d
00000370: 8e27 e03b 0612 4abd f558 bb3d 2c1a 44be
00000380: c4aa 343e d0f6 7f3c c330 ebbd b88c 92bd
00000390: 28de 453d 7054 0f3e 8dce eb3d 53f6 813d
000003a0: 4652 beba 011d f3bc ddaa 443d 1692 eebd
000003b0: c054 2a3c 6421 09be ba71 903d 6fbf 693c
000003c0: 6d06 b8ba 5e8b 15bd 0f2a b2bb e60a 84be
000003d0: 8f77 3f3d 7ea2 623d 4da7 2b3e 5c72 3d3d
000003e0: 0369 debd 1e7f 853d 1477 063d 7564 c83d
000003f0: 6d82 473d 16d7 863d b0be 333e 169b 2abe
-0.13399412 0.06362484 0.0023423864 0.07492425 0.11772608 -0.034933228 -0.19020173 -0.03791752
0.041257493 -0.065595806 0.0958331 -0.056119893 0.08131839 0.045863867 -0.05796846 0.10720583
0.20543678 0.029580077 -0.09049369 -0.041172497 -0.027255397 0.0056986543 0.034731045 0.09232962
0.11000345 0.087539926 -0.048444375 0.06883768 -0.122340254 -0.116441205 0.014724279 -0.023360403
-0.08872647 0.08514619 0.120610446 0.15103927 0.019043682 0.038353372 0.017724702 -0.0020707108
-0.036266387 0.026504733 -0.03682976 0.078821436 0.06672501 0.12996452 -0.17903328 0.1492263
-0.04065559 -0.16547173 -0.0045655095 0.045241565 -0.053827357 0.027574733 0.042850282 -0.04408968
0.00093802396 -0.048149854 -0.020699508 0.13716346 0.15170476 -0.075945005 -0.009193868 0.0005559544
-0.03989639 0.12512973 0.07481464 -0.09678506 0.015582082 -0.066557705 0.097777665 -0.060193963
0.18634148 0.1395974 -0.15264681 -0.04714591 0.03569602 0.028676346 0.067649454 -0.0878102
0.009682086 0.012942791 -0.04031577 -0.018358486 0.04469435 0.19400422 0.02700985 -0.0011667532
0.13797556 -0.06467672 -0.11209816 0.03624007 -0.011108083 -0.006882643 -0.014082769 -0.059862744
-0.22149923 -0.117025904 0.0044098245 -0.034261517 0.027104715 0.058640942 -0.024652911 0.09355564
-0.014685402 0.06675128 0.008324075 -0.00903095 -0.010297447 0.071864404 -0.06798384 0.1206645
-0.023085311 -0.15577807 -0.06031267 0.108283 0.083450854 0.053511176 -0.0078033768 -0.06363386
-0.010082366 0.1477967 -0.16422907 -0.06663233 0.049300864 0.122166835 0.11336286 -0.0717148
0.107209116 0.07622827 -0.012925968 0.09765514 -0.010723262 0.028890152 -0.10930477 0.04944511
0.029080551 0.09486889 -0.047293283 0.0022101654 -0.11576069 0.030930959 -0.22715761 -0.07209021
-0.067574956 -0.0023422402 0.06770824 -0.053500317 0.07002999 0.022466965 -0.13491876 0.062089268
0.17494085 -0.022524318 0.06776803 0.112094544 -0.099314734 -0.050748102 0.06754511 0.055177715
-0.23253672 0.11083939 -0.023811894 -0.018915717 0.13486971 -0.011568854 -0.10797011 -0.18610284
-0.07742688 -0.044595912 -0.015174427 -0.20789887 -0.18093897 -0.037153516 0.04482648 -0.045159046
0.035215624 -0.07384884 -0.20427586 0.09866606 0.11101955 -0.10600049 0.120129555 0.035409003
-0.11696457 0.026482457 0.0062607876 0.03409773 0.024282403 -0.06586427 -0.028471667 0.24224786
-0.1049338 0.19495928 0.009082615 0.13343321 -0.096065186 -0.00486941 -0.07285427 0.07757132
-0.044207208 0.09160679 0.10523322 0.13341127 -0.061467465 -0.07422416 0.15938452 -0.02086414
-0.21273772 0.014267222 0.19102399 0.0463226 -0.015277904 -0.07501327 -0.09324386 -0.009475805
0.011924912 0.15951218 0.014376488 0.03365251 0.006840653 -0.049333595 0.091478266 -0.19150609
0.17643267 0.0156228095 -0.1148391 -0.07155746 0.048307568 0.13997054 0.11514006 0.06345811
-0.0014520369 -0.029676916 0.04801451 -0.116489574 0.010396183 -0.13391644 0.070529416 0.014266833
-0.0014040001 -0.036509864 -0.0054371427 -0.25789565 0.04674488 0.055330746 0.16763039 0.04625164
-0.10859873 0.06518386 0.032828405 0.09784786 0.048708368 0.06583993 0.1755321 -0.16660723

network_body._body_endoder.seq_layers.2.bias f4 [128]
00000000: 0000 0000 0000 0000 0000 0000 0000 0000
00000010: 0000 0000 0000 0000 0000 0000 0000 0000
00000020: 0000 0000 0000 0000 0000 0000 0000 0000
00000030: 0000 0000 0000 0000 0000 0000 0000 0000
00000040: 0000 0000 0000 0000 0000 0000 0000 0000
00000050: 0000 0000 0000 0000 0000 0000 0000 0000
00000060: 0000 0000 0000 0000 0000 0000 0000 0000
00000070: 0000 0000 0000 0000 0000 0000 0000 0000
00000080: 0000 0000 0000 0000 0000 0000 0000 0000
00000090: 0000 0000 0000 0000 0000 0000 0000 0000
000000a0: 0000 0000 0000 0000 0000 0000 0000 0000
000000b0: 0000 0000 0000 0000 0000 0000 0000 0000
000000c0: 0000 0000 0000 0000 0000 0000 0000 0000
000000d0: 0000 0000 0000 0000 0000 0000 0000 0000
000000e0: 0000 0000 0000 0000 0000 0000 0000 0000
000000f0: 0000 0000 0000 0000 0000 0000 0000 0000
00000100: 0000 0000 0000 0000 0000 0000 0000 0000
00000110: 0000 0000 0000 0000 0000 0000 0000 0000
00000120: 0000 0000 0000 0000 0000 0000 0000 0000
00000130: 0000 0000 0000 0000 0000 0000 0000 0000
00000140: 0000 0000 0000 0000 0000 0000 0000 0000
00000150: 0000 0000 0000 0000 0000 0000 0000 0000
00000160: 0000 0000 0000 0000 0000 0000 0000 0000
00000170: 0000 0000 0000 0000 0000 0000 0000 0000
00000180: 0000 0000 0000 0000 0000 0000 0000 0000
00000190: 0000 0000 0000 0000 0000 0000 0000 0000
000001a0: 0000 0000 0000 0000 0000 0000 0000 0000
000001b0: 0000 0000 0000 0000 0000 0000 0000 0000
000001c0: 0000 0000 0000 0000 0000 0000 0000 0000
000001d0: 0000 0000 0000 0000 0000 0000 0000 0000
000001e0: 0000 0000 0000 0000 0000 0000 0000 0000
000001f0: 0000 0000 0000 0000 0000 0000 0000 0000
0.0 0.0 0.0 0.0 0.0 0.0 0.0 0.0
0.0 0.0 0.0 0.0 0.0 0.0 0.0 0.0
0.0 0.0 0.0 0.0 0.0 0.0 0.0 0.0
0.0 0.0 0.0 0.0 0.0 0.0 0.0 0.0
0.0 0.0 0.0 0.0 0.0 0.0 0.0 0.0
0.0 0.0 0.0 0.0 0.0 0.0 0.0 0.0
0.0 0.0 0.0 0.0 0.0 0.0 0.0 0.0
0.0 0.0 0.0 0.0 0.0 0.0 0.0 0.0
0.0 0.0 0.0 0.0 0.0 0.0 0.0 0.0
0.0 0.0 0.0 0.0 0.0 0.0 0.0 0.0
0.0 0.0 0.0 0.0 0.0 0.0 0.0 0.0
0.0 0.0 0.0 0.0 0.0 0.0 0.0 0.0
0.0 0.0 0.0 0.0 0.0 0.0 0.0 0.0
0.0 0.0 0.0 0.0 0.0 0.0 0.0 0.0
0.0 0.0 0.0 0.0 0.0 0.0 0.0 0.0
0.0 0.0 0.0 0.0 0.0 0.0 0.0 0.0

action_model._discrete_distribution.branches.0.weight f4 [2, 128]
00000000: e0a8 6b3c da1e 00bc 9b85 073c 2dd6 043b
00000010: 73ec 5d3a 6398 753b da4a 86bc 41de 0c3b
00000020: 9d36 8bbb 8735 14bc ebab fcbb 5269 163c
00000030: e21b d23b b31a 9cbb 2e1c a33b fb22 753a
00000040: 5b5b 15bc 2f0a ab3b 9813 a339 6238 f73b
00000050: c6f1 3c3b 5c0c 84bb 4a6e 993b f20f 1c3c
00000060: 2353 82bc e36d 1ebc 0fac fdbb 9de6 cd3b
00000070: 16d8 493c 54a4 a73b e2ec d2bb 72d7 08bc
00000080: 759a 213a a7b2 333b 364c c23b 6455 af3a
00000090: db83 e83b e33a 9b3c 7df9 e03b 3609 45bc
000000a0: 904e 04bc 5b14 d2ba fa4a b93b d056 cbbb
000000b0: aa57 eabb a6fe aa3c 0831 063c 1372 0ebb
000000c0: 5e30 1a3c 7645 beb9 b7ad 4dbb ea31 413c
000000d0: 7d6e 01bb 7aaf 90bb da72 18bc f15e bdbb
000000e0: 62c8 e1bb d34c 923b 071d c7bb 38f0 8a39
000000f0: 0b4d 783b 94ae 97bc afdc 8a3b f842 fe3b
00000100: 5caa c9bb f92c 03bb 6772 81bb 8384 383b
00000110: f718 e53b c335 1c38 e099 70bc 75a7 39bc
00000120: 5da1 433c 5f63 a7ba 277c c5bb 9619 8d3b
00000130: eff6 12ba fb4e 26bc b23c 77bc fb66 07bb
00000140: 921f 7b3b 349b 2b3c 5c82 8cbb ba2a 1cbc
00000150: 6ba3 0abc b7be 233c a366 89bb 7891 feba
00000160: b203 4e3c 3056 1abc 4b12 413b 57f3 63bc
00000170: 8f40 183c a50d 0dbc 8438 48bc 189a dd3b
00000180: 3379 373c 2ec4 b43b 3b83 ab3b 9be7 10bb
00000190: 473e 13bb 506c 393b 139c 9b3b 1bb3 983b
000001a0: ea39 8dba 7e8f 4a3c bf7f 5b3b aaaf e5bb
000001b0: a01d c1ba 913e 40bc f188 b9ba 8881 74b6
000001c0: 752a ecb9 957c 1ebc 2545 3d3b 0a04 283c
000001d0: a3a9 3ebb 1c65 49bc f235 293b 3e18 a3bb
000001e0: 0b84 9d3b e4eb 1e3b 7b5c 473b 2384 db3a
000001f0: 2ef3 23bc 13ae 063c 141b 0cbc 8c19 05bc
00000200: cd05 d73b 8cc0 983c 6a01 06bc 9722 19bb
00000210: 55d7 ce3b dd4f e3bb fe19 40bb 8378 da3a
00000220: 154f 873b 8701 56bc 1fdc 9f3b cd4d afb8
00000230: 0d02 d2ba 4e0f 4b3c 6128 2839 93a8 f63b
00000240: 4c50 98bb 7ab6 f4ba e24d d339 5bdb 6abc
00000250: 67ab 57bb 24ee af3a 7f40 28bc c218 35bc
00000260: 6345 743b 8c61 a8bb efc3 15ba dde5 f7bb
00000270: 055e 06bb a11c a93b fb65 c3ba 1fbd 173c
00000280: 2340 b03b 2dfb 5d3b 8b91 75bb a085 af3c
00000290: 06ca 4cbc 978f 993b 8377 603b 5b17 403c
000002a0: 3d2b a33b ed89 4e3c 0c74 c3bb 25d3 b13c
000002b0: 45d5 99bb da32 e73b 040e 1d3c 3ea6 163b
000002c0: 62e3 4fbb 6de6 13bc c5a8 ed3b b69c c73b
000002d0: a1f5 0cbc dfe0 d1bb 6d83 c8bb c780 88ba
000002e0: 5920 2cbc ecbb 3cbc c28d b93b 4057 e1ba
000002f0: 233c 0bbc ca58 553b 6706 b4bb af5b 07bb
00000300: 4f2b 63bc d8fa bcbb 56bb 23bb ddac 33bc
00000310: 0ad9 d1ba 0297 de3b c488 acbb 201d 703a
00000320: c73e d2ba f103 1b3c 155b c7b7 bfcf 32bb
00000330: d56b b33b c502 18bc 4f32 9bbc 3227 9d3b
00000340: 8a7b 6abc fdc7 6d3b f3c4 69b9 9f79 773a
00000350: 0002 b8bb d871 57bb cb13 9f3b cdb7 90bb
00000360: f1ea 18bc bfe8 053b fc8c 3fbb ae9d 2b3c
00000370: 4904 14bc 8fb1 503c ff8e 37ba c591 9cba
00000380: 4cac 8abc 02c5 d4bb 7d90 00bc dd51 7dbb
00000390: bac4 553c 7f29 4abb 2b17 6cbc 88d5 583c
000003a0: f31d afbb 9d01 f5bb b34c 793c 6145 03bc
000003b0: 23fd 72bb 1bda 443b 3ce9 06bb 72c0 e93b
000003c0: 5627 33bb 356c ecbb afd6 97bc 0bca 2fbc
000003d0: 6233 94bc c0da 7bbc 19ad 043b 55f3 7aba
000003e0: 2570 6a3c 51f0 003c f312 893b b722 69bc
000003f0: 8eb3 b73b 3bb0 c5bb c8ad 9d3b c2b9 f33b
0.014383525 -0.007819856 0.0082716 0.002026926 0.00084657146 0.0037474863 -0.016393114 0.0021494778
-0.004248454 -0.009045965 -0.007710924 0.009180384 0.0064120153 -0.004763925 0.0049777245 0.0009351221
-0.009116019 0.00521972 0.0003110438 0.007544563 0.0028830632 -0.0040297937 0.004682337 0.009525286
-0.015908783 -0.009669754 -0.0077414582 0.0062835948 0.012319585 0.005116025 -0.00643693 -0.008352147
0.00061646785 0.0027419718 0.005929495 0.0013376889 0.0070957965 0.018948978 0.006865679 -0.012026122
-0.008075371 -0.0016027795 0.00565469 -0.006205417 -0.0071515637 0.020873379 0.008190401 -0.0021735474
0.009410946 -0.00036291376 -0.003138406 0.011791686 -0.0019749694 -0.0044154497 -0.0093047265 -0.00577914
-0.0068903426 0.0044647246 -0.0060764584 0.00026500388 0.0037887718 -0.018515863 0.0042377333 0.007759448
-0.0061543416 -0.002001582 -0.0039504054 0.0028155155 0.0069915014 3.7243368e-05 -0.014685124 -0.011331429
0.0119403275 -0.0012770704 -0.006026763 0.0043060286 -0.0005606254 -0.010150666 -0.0150901545 -0.0020660746
0.0038318378 0.010474015 -0.004288001 -0.009531671 -0.008461813 0.0099942 -0.0041931435 -0.0019422015
0.012574123 -0.009419963 0.0029460366 -0.013912997 0.009292736 -0.00860921 -0.012220506 0.006762754
0.01119833 0.0055165505 0.0052341498 -0.0022110704 -0.002246754 0.002829332 0.00474883 0.004660023
-0.0010774706 0.012363313 0.003349289 -0.007009466 -0.001473356 -0.011733667 -0.0014155192 -3.643423e-06
-0.0004504506 -0.009673257 0.0028880325 0.010254869 -0.002909281 -0.012292173 0.0025819507 -0.004977255
0.0048070005 0.0024249488 0.0030420113 0.0016747754 -0.010006709 0.008220213 -0.008551378 -0.008123767
0.006561971 0.018646501 -0.008179048 -0.0023366564 0.0063122907 -0.0069370107 -0.0029312368 0.0016667995
0.0041293004 -0.013061888 0.0048785354 -8.359142e-05 -0.001602234 0.012393786 0.00016036771 0.00752742
-0.004648244 -0.0018670105 0.00040303083 -0.014334525 -0.003290856 0.0013422412 -0.010269283 -0.011053266
0.0037272803 -0.0051385816 -0.00057130953 -0.0075652436 -0.0020502817 0.0051608835 -0.0014907712 0.009261399
0.0053787394 0.0033871636 -0.0037470784 0.021426022 -0.012499338 0.0046863067 0.0034250922 0.011724318
0.0049795196 0.012606126 -0.0059647616 0.021707127 -0.004694613 0.0070556225 0.009585861 0.0022987272
-0.0031721224 -0.009027106 0.007252785 0.0060916794 -0.008603484 -0.0064049806 -0.006119183 -0.0010414355
-0.010505759 -0.011519413 0.005662651 -0.001719214 -0.008498224 0.0032554143 -0.0054939273 -0.0020654013
-0.013865306 -0.0057672076 -0.0024983487 -0.010966507 -0.0016010117 0.006792904 -0.005265327 0.00091596134
-0.0016040438 0.009461389 -2.3765062e-05 -0.002728447 0.005475501 -0.009278004 -0.018944887 0.004795932
-0.014311681 0.0036282532 -0.00022293981 0.0009440425 -0.005615473 -0.0032874253 0.0048546544 -0.004416442
-0.009333358 0.0020432917 -0.002922832 0.0104746055 -0.009034225 0.012737646 -0.0007002204 -0.0011945298
-0.01692786 -0.0064932117 -0.007846949 -0.003865353 0.013047392 -0.0030847488 -0.014409821 0.013234504
-0.0053441464 -0.007476999 0.01521604 -0.008012147 -0.003707715 0.0030037228 -0.0020585796 0.007133537
-0.0027336678 -0.0072150477 -0.018534986 -0.010729323 -0.018090907 -0.015371978 0.0020244776 -0.00095730025
0.014308964 0.007869796 0.004183167 -0.014229468 0.0056061214 -0.006032971 0.004811976 0.0074379155

action_model._discrete_distribution.branches.0.bias f4 [2]
00000000: 0000 0000 0000 0000
0.0 0.0

network_body._body_endoder.seq_layers.0.weight f4 [128, 315]
00000000: 71da 73bd 19b7 afbb 5522 3f3d 25bf 613d
00000010: b5f4 12bc de47 f23c 3d23 c03c c80a b2bc
00000020: d07f 893d 3ff3 7b3d 8bfa fd3d e4ab 9cbd
00000030: e4ef ec3b 5c50 43bd c304 9abc e94c c23b
00000040: 6b3a 3ebc ce9f 6a3d 7d22 0e3e 990d 9cbb
00000050: 718e 02be 0f5b 8cbc 6d27 303d d49b f13d
00000060: 4d01 a4bc 4376 05bd a910 853d 0fca 21bc
00000070: a60d cabc 98ca abb9 2413 3abd 6d6d c53c
00000080: eebc 07bc ea55 1abd 9dc4 d1bc 145d 16bc
00000090: 3bd3 1c3d 4efc 8cbb 762b 123d db40 06bd
000000a0: 837b 293d 9cb7 e6bc a56e d63d 02f3 95bc
000000b0: 212e 8fbc 3812 b23d 9e01 ae3d c54e 2a3c
000000c0: 758d 613a 268f 4b3d 6c8b e2ba 2092 723d
000000d0: 9915 18bd 7838 03be 2d98 013d 9de9 8d3b
000000e0: 8457 bd3d e29c 15bd 7805 893d 5520 88bd
000000f0: 653f 3cbd 5f92 e93d 7c98 b4bc 7795 6d3c
00000100: 7153 57bd 4d65 04bc f61e e83c 9794 0bbd
00000110: 0599 bfbd 32e7 4a3d 6dbf 14bd 5555 9639
00000120: 7857 44bd d307 1dbd 3e77 fa3b 1bbd 62bd
00000130: 992f 2fbc bc98 ba3c 3ad6 053d 064b 0a3d
00000140: c95b e9bd 248b 54bd e328 663c 015f 493d
00000150: c0a7 863d 01bf 74bd b291 fabd 564b 94bd
00000160: d78c 933b 906a 27be f0b6 f53d ec9d 9abd
00000170: 8dd4 813d 44f4 9dbc 97bd 5abc 13db 67bd
00000180: 3388 23bd 3dc9 7e3d d40e aebc d770 2e3c
00000190: e003 e1bd 2f1d 4d3c 4a13 813d d974 b63c
000001a0: 4ea1 93bc e6b4 a4bc 1f24 f7bb 0780 33bc
000001b0: f11c 8f3c 06fb 023e a7a4 4ebd 2446 93bb
000001c0: b66a 86bd ea5a 6e3c f9d8 913d 2d26 d4bb
000001d0: 681b d93c f1bb 25bd 578a aabd 88f4 723c
000001e0: 3f00 29bc 5a5f f3bb c950 4abc 81df 653d
000001f0: 4f44 6f3c 0e69 50bd c84a 3c3d fef1 fbbc
00000200: 3682 7b3d fec3 3b3c ace2 19bc 2075 a1bd
00000210: c106 3d38 6f7b 98bd d55b 82bd 00d1 27bc
00000220: 5cdb acbc d973 f03c 348e d2bd c9ca 99bc
00000230: 765f a2bd 532e febc acae e0bd c170 69bd
00000240: b0be 753c d04f 913c b768 203d 0e88 853b
00000250: 1fd1 6a3d 40d3 88bd 774a b6bc f23d 3a3d
00000260: b1d6 1ebd 20b9 71bc a2cd e53d b72d b23c
00000270: 5800 cf3a 7e50 493b 6237 6e3c 5102 563d
00000280: 5ef9 43bc 857e 1b38 9791 68bd 8fbd 54bd
00000290: 3b25 a3bb 4d81 293d 6770 86bd ef61 14bd
000002a0: 73da 83bb 4c01 0e3d 22de 5f3d 4e10 913c
000002b0: 9345 ab3b 40bf 72bb 71fe 86bc 5210 50be
000002c0: 1202 a5bc 5a30 be3b 77bc cf3c 7ac7 283d
000002d0: 3e3a c03d 5142 8abb b6fb bdbc 9548 93bd
000002e0: 8ec2 0cbd ef58 c63c 1d91 283c 10e2 b7bd
000002f0: ba8c 8fbd e7b2 98bc 827d 74bd 6c88 793d
00000300: 5db6 8ebc fbb0 8fbd 6fc7 c0bd f63f 87bd
00000310: f167 de3c b00d 153d b7a4 293d 7e74 81bd
00000320: cf14 01bc bfe1 9c3d 86ea 0d3d 6010 1d3d
00000330: 53cb a03b cf39 b0bd bb7d 68bd 48eb d93c
00000340: 88cb c7bc 4d76 01bc 3f81 91bd 6b1f 09bd
00000350: b75b 9e3b dead c1bc e82a ae3d 75f2 16bd
00000360: 62d1 93bd 2457 523d 7fe1 8d3d 9e7d 1cbd
00000370: faff 1a3d 5e45 953d 0d4e 9a3d e1b4 033d
00000380: 9fe3 10bc 3806 593d ab16 143d 97d8 a2bd
00000390: 6196 41bc 0070 04bd 7d30 c63d 006c b8bc
000003a0: c788 763c ad8e 9fbd aaa4 4ebc db81 5cbd
000003b0: f69b 0f3d 0cfb fe3c 0f6b a43d 8809 93bd
000003c0: c321 ccbc 39e1 a5bc 754c 88bc b799 9d3d
000003d0: 8171 323d edc5 8c3c 225a 1f3d 4fe8 5a3d
000003e0: 7640 b1bd b578 073d 8137 f53d 590b fcbd
000003f0: e245 ab3b 8034 4e3d f3d1 85bd 142a 69bd
-0.059534494 -0.005362403 0.0466636 0.05511393 -0.0089694755 0.029575285 0.023454303 -0.021733657
0.067138314 0.061511274 0.12401303 -0.07649973 0.0072307456 -0.04768406 -0.018801099 0.0059295786
-0.011610608 0.057281308 0.13880344 -0.004762363 -0.1274965 -0.017133264 0.04300635 0.117973
-0.020020152 -0.032583486 0.06497318 -0.009874835 -0.024664711 -0.00032766606 -0.04542841 0.02410003
-0.00828479 -0.03767959 -0.025606448 -0.009177465 0.038287383 -0.004302538 0.03568598 -0.032776695
0.041377556 -0.028163724 0.104703225 -0.018304352 -0.01747805 0.08694881 0.08496402 0.010394757
0.00086041476 0.049697064 -0.0017283983 0.059221387 -0.037129972 -0.1281451 0.031639267 0.0043308274
0.09245208 -0.03652657 0.06690496 -0.06646792 -0.045958895 0.11404871 -0.022045366 0.014500967
-0.05256981 -0.008080793 0.028335076 -0.034077253 -0.09355358 0.04953689 -0.03631537 0.00028673807
-0.04793498 -0.03833754 0.0076436093 -0.055356126 -0.0106925005 0.022777908 0.032675005 0.033762954
-0.1139446 -0.051890507 0.014047834 0.04916287 0.065749645 -0.059752468 -0.122348204 -0.07240932
0.0045028734 -0.16349244 0.11997783 -0.075496525 0.06339369 -0.019281514 -0.013350866 -0.05660541
-0.03992481 0.062203635 -0.021247305 0.01064702 -0.10987067 0.012519165 0.06302507 0.022272514
-0.018021252 -0.02010579 -0.0075421478 -0.010955817 0.017469855 0.1279107 -0.050449993 -0.0044944454
-0.06563322 0.014548043 0.071214624 -0.0064742775 0.026502326 -0.040462438 -0.083271675 0.014828809
-0.010315 -0.0074271383 -0.012348362 0.056121353 0.014603688 -0.050881438 0.045969754 -0.03075504
0.061403476 0.011460302 -0.009392422 -0.07883668 4.50674e-05 -0.07445418 -0.06365172 -0.010242701
-0.021100692 0.029352115 -0.10281029 -0.018773453 -0.07928364 -0.031027948 -0.10970816 -0.056992296
0.014999077 0.017738253 0.039162364 0.004075057 0.05732834 -0.06680918 -0.022252304 0.045469232
-0.038778964 -0.01475361 0.11220862 0.021750314 0.0015792949 0.0030718143 0.0145395715 0.052248303
-0.011961309 3.707271e-05 -0.05677947 -0.05193859 -0.0049788035 0.041383076 -0.06564408 -0.03622621
-0.004023844 0.034669206 0.0546552 0.01770797 0.0052267998 -0.0037040263 -0.016478749 -0.20318726
-0.020142589 0.005804104 0.025358422 0.04120586 0.09386109 -0.0042193313 -0.023191314 -0.07191578
-0.03436523 0.024212329 0.010288504 -0.08978665 -0.07009263 -0.018639995 -0.059690006 0.060921118
-0.017420942 -0.07016178 -0.09413039 -0.066039965 0.027149172 0.036390007 0.04141685 -0.06321047
-0.007878496 0.07660245 0.034647487 0.038345695 0.0049070506 -0.08604776 -0.05676053 0.026601449
-0.024389043 -0.00790174 -0.0710473 -0.033477228 0.0048327106 -0.023642477 0.085042775 -0.03685232
-0.07217671 0.051352635 0.069277756 -0.038205735 0.037841775 0.07288621 0.07534418 0.03215492
-0.008843332 0.052984446 0.03615443 -0.079514675 -0.011815638 -0.032333374 0.09677217 -0.022512436
0.015047259 -0.07790885 -0.012612501 -0.053834777 0.035060845 0.031125568 0.08028232 -0.07179552
-0.024918443 -0.020248996 -0.01663802 0.076953344 0.043565277 0.017184222 0.038904317 0.053444203
-0.08654873 0.0330741 0.11973477 -0.12306852 0.0052268365 0.050343037 -0.06534185 -0.056924894

network_body._body_endoder.seq_layers.0.bias f4 [128]
00000000: 0000 0000 0000 0000 0000 0000 0000 0000
00000010: 0000 0000 0000 0000 0000 0000 0000 0000
00000020: 0000 0000 0000 0000 0000 0000 0000 0000
00000030: 0000 0000 0000 0000 0000 0000 0000 0000
00000040: 0000 0000 0000 0000 0000 0000 0000 0000
00000050: 0000 0000 0000 0000 0000 0000 0000 0000
00000060: 0000 0000 0000 0000 0000 0000 0000 0000
00000070: 0000 0000 0000 0000 0000 0000 0000 0000
00000080: 0000 0000 0000 0000 0000 0000 0000 0000
00000090: 0000 0000 0000 0000 0000 0000 0000 0000
000000a0: 0000 0000 0000 0000 0000 0000 0000 0000
000000b0: 0000 0000 0000 0000 0000 0000 0000 0000
000000c0: 0000 0000 0000 0000 0000 0000 0000 0000
000000d0: 0000 0000 0000 0000 0000 0000 0000 0000
000000e0: 0000 0000 0000 0000 0000 0000 0000 0000
000000f0: 0000 0000 0000 0000 0000 0000 0000 0000
00000100: 0000 0000 0000 0000 0000 0000 0000 0000
00000110: 0000 0000 0000 0000 0000 0000 0000 0000
00000120: 0000 0000 0000 0000 0000 0000 0000 0000
00000130: 0000 0000 0000 0000 0000 0000 0000 0000
00000140: 0000 0000 0000 0000 0000 0000 0000 0000
00000150: 0000 0000 0000 0000 0000 0000 0000 0000
00000160: 0000 0000 0000 0000 0000 0000 0000 0000
00000170: 0000 0000 0000 0000 0000 0000 0000 0000
00000180: 0000 0000 0000 0000 0000 0000 0000 0000
00000190: 0000 0000 0000 0000 0000 0000 0000 0000
000001a0: 0000 0000 0000 0000 0000 0000 0000 0000
000001b0: 0000 0000 0000 0000 0000 0000 0000 0000
000001c0: 0000 0000 0000 0000 0000 0000 0000 0000
000001d0: 0000 0000 0000 0000 0000 0000 0000 0000
000001e0: 0000 0000 0000 0000 0000 0000 0000 0000
000001f0: 0000 0000 0000 0000 0000 0000 0000 0000
0.0 0.0 0.0 0.0 0.0 0.0 0.0 0.0
0.0 0.0 0.0 0.0 0.0 0.0 0.0 0.0
0.0 0.0 0.0 0.0 0.0 0.0 0.0 0.0
0.0 0.0 0.0 0.0 0.0 0.0 0.0 0.0
0.0 0.0 0.0 0.0 0.0 0.0 0.0 0.0
0.0 0.0 0.0 0.0 0.0 0.0 0.0 0.0
0.0 0.0 0.0 0.0 0.0 0.0 0.0 0.0
0.0 0.0 0.0 0.0 0.0 0.0 0.0 0.0
0.0 0.0 0.0 0.0 0.0 0.0 0.0 0.0
0.0 0.0 0.0 0.0 0.0 0.0 0.0 0.0
0.0 0.0 0.0 0.0 0.0 0.0 0.0 0.0
0.0 0.0 0.0 0.0 0.0 0.0 0.0 0.0
0.0 0.0 0.0 0.0 0.0 0.0 0.0 0.0
0.0 0.0 0.0 0.0 0.0 0.0 0.0 0.0
0.0 0.0 0.0 0.0 0.0 0.0 0.0 0.0
0.0 0.0 0.0 0.0 0.0 0.0 0.0 0.0

network_body._body_endoder.seq_layers.2.weight f4 [128, 128]
00000000: dd3f 823c 6a6b 283e e549 3fbd 0f59 ff3c
00000010: 574c 323c 1d00 fdbc 18a2 c73d 8972 36bb
00000020: 12cf 48be bd35 033a 9642 2bbc 2125 48bc
00000030: 5c88 2dbd 2b4c 19be 0f6b 49bc 4b37 b2bb
00000040: 4037 cebc 6743 0abe 2351 09bd 904c 97bd
00000050: 0047 78bc 36d0 383d 684f f1bd 14c1 44bd
00000060: d376 563e e591 a33d 353e 1e3d 5ebc 853d
00000070: 8f95 70bd 4df4 04be 7750 303d e832 b9bc
00000080: 542a 19bd 5082 5e3e c63a 0abe 0e5e a9bd
00000090: 719f 0f3e 1d58 27be d665 52bb 9b69 6fbd
000000a0: 8da3 f6bc 9bc1 e33c 47b6 9e3d b7ee 223d
000000b0: 6ed4 8abc e729 403d 99d1 16be 090a 503d
000000c0: 3ebe 64be e511 d2bc 9261 5fbd f41c 97bd
000000d0: b847 a13c e9a3 b63d 0ce0 073e d7a5 bdbd
000000e0: 84ea ad3c 8782 f53a 1524 79bd 2c77 bdbc
000000f0: 7101 103e a305 ee3d 5da5 b4bc 0215 f43d
00000100: c1c8 b23d b8b7 2ebe 97d0 0d3d 62fc 1fbc
00000110: 59ee 713d 00f2 f03d 5ba2 2bbd 82d3 4b3d
00000120: 5d05 043d 2931 c3bb e27e 4e3d d1a7 da3d
00000130: c6e7 a7bd 5f19 d3bc 84bb 1d3e a4c0 d4bd
00000140: c5d2 30be aa89 003e f707 2fbd 8bb6 c3bd
00000150: 0b08 4dbc ec99 4bbd 6670 a03c b4ba 37be
00000160: 6d98 cabc afc3 943d 7d1c d7bc 9827 573c
00000170: 663a a2bd a256 81bb 0285 1cbd 6384 aabd
00000180: cc1b a539 1c23 b23d 21c5 f93c 6d71 273e
00000190: bac5 6c3d 01b0 943d e8b9 d2bd 99c9 e83d
000001a0: 41fb 4cbd c430 9cbd c124 313e bb53 26bd
000001b0: 6aa7 3dbd 576b 493e c9ce e1bd 873a 9f3d
000001c0: 527f 583d f0dc 1abd 5980 0bbd e18d 023e
000001d0: 1771 9cbd aeca f43b 3350 0abd c33a 75bc
000001e0: 5a94 823d f1ce 1bbd 4390 bcbc 74b2 3f3d
000001f0: d249 dcbc 7ba7 ea3d 4e68 04bd fdb7 07be
00000200: b230 763c 2473 46bc 75dc 363d 32e5 71bd
00000210: b44f 09be 8a7b 073c 6f2d 52bc 2c4d 10be
00000220: 9a1b 42bd 8e36 b03d 0e55 403e 8a49 093d
00000230: 2bc5 3b3d 3d06 93bd 0cec db3d 29bd 8bbc
00000240: 1853 823d f290 cebd 6464 823d 61d0 9f3d
00000250: 9d14 dabd 84c6 63bd 3a93 25bc a8d7 9b3d
00000260: 12a2 1bbe f009 373c ea65 c13d ad29 803d
00000270: 5e7d 153e 6b90 07be b47a dcbd bbb0 023e
00000280: b3ae 1b3d b001 4e3d 2b46 18bd 9a45 b93d
00000290: f929 30bd 3082 ecbd 52da 13be 654c 4e3c
000002a0: 77bc d83d 2cd9 01be 55a6 07be 79e6 b9bd
000002b0: 0170 f8bc b7f6 3c3d a0c2 b0bd cdbf 413d
000002c0: 28a1 fe3b 69cf fe3d 66c4 2b3e 2bcd 543d
000002d0: 9631 f8bc d55b 153d 3219 f33d 3bc9 c23c
000002e0: 5657 273d 49a7 913d d5f4 a13d 9cbc b6bd
000002f0: 6bbc 3e3d 8a8b fd3b a524 82bd 8f75 803d
00000300: d8fe c23c 12ec 4e3e b6d0 db3d 3070 66bb
00000310: 0553 5ebd 702b 4a3b a0ab febd b29b e1ba
00000320: bc2b 25be ffb5 273c 0d7b 33bd a3be 033b
00000330: 191d e53d 0d8e 78bd 8599 263d 19ac e63d
00000340: fa00 81bd 671d 643d 011c e4bd a397 65bc
00000350: 8270 5bbd 36ba a63d 03fc 9e3d b1f7 85bd
00000360: 39f8 cdbc b68a e73c 2184 a83d ff17 86bd
00000370: a342 d13d 5eb8 2bbe c6ce 49bd 72ca 29be
00000380: edff 6f3d 5331 df3d 4fbe 073e dc60 ad3d
00000390: 65bb 08bd 447d 82be 0f06 97bd a009 fe3d
000003a0: bad9 0d3d a8a3 0c3e 5bf4 843d c9bb 373e
000003b0: 2247 d13d d3af 9c3d 685f 79bd 8ee8 9cbd
000003c0: 6b75 f53c f8c4 ce3c 57a6 e0bc d4f9 c03c
000003d0: 2abe 133d beb5 2d3c 870f 963d 3f7e 1c3d
000003e0: 97ff 1e3d 8981 313e c068 5bbc 5ef5 d33d
000003f0: 9b28 9c3c 0653 ccbd 004e 6cbd 78d3 11bd
0.015899593 0.16447225 -0.04670133 0.031170396 0.010882459 -0.030883843 0.09747714 -0.0027839264
-0.19610241 0.0005005261 -0.010452887 -0.0122158835 -0.04236637 -0.14970462 -0.012293591 -0.0054387203
-0.02517283 -0.13502274 -0.033524644 -0.0738765 -0.0151536465 0.04512044 -0.11782724 -0.048035696
0.20943765 0.079868115 0.038633544 0.06530069 -0.05873638 -0.12983818 0.043045487 -0.022607282
-0.037393883 0.21729398 -0.13498983 -0.08269893 0.14025666 -0.16342206 -0.0032104156 -0.058450323
-0.030107284 0.02780228 0.077496104 0.039778437 -0.016946997 0.04691496 -0.14728393 0.05079082
-0.22338197 -0.025643298 -0.05453641 -0.07378569 0.019687518 0.08917982 0.13269061 -0.09260147
0.02122999 0.0018730917 -0.060825426 -0.023128115 0.1406305 0.11622169 -0.022051508 0.119180694
0.08729697 -0.1706227 0.034622755 -0.009764763 0.059065197 0.11764908 -0.04190288 0.049762256
0.032231677 -0.005956788 0.050413974 0.1067654 -0.08198504 -0.025768934 0.15403563 -0.10388306
-0.17267902 0.12552515 -0.042732205 -0.09556302 -0.012514125 -0.04970734 0.019584846 -0.17942315
-0.024730885 0.07263886 -0.026258701 0.0131319985 -0.07921295 -0.003947095 -0.038212784 -0.08326032
0.00031491963 0.08698103 0.030489506 0.16351862 0.057805754 0.072601326 -0.10289365 0.11366577
-0.050044302 -0.07626489 0.17299177 -0.040607195 -0.046302237 0.19669853 -0.11025769 0.07774835
0.052855797 -0.03780836 -0.03405795 0.12749435 -0.07638758 0.0074704504 -0.03376789 -0.014967623
0.06375952 -0.03803915 -0.023018008 0.046801046 -0.026890669 0.114577256 -0.032326035 -0.1325378
0.015026258 -0.012112413 0.044643838 -0.05905647 -0.1340931 0.0082692 -0.012828215 -0.14091939
-0.047389604 0.086041555 0.18782446 0.033517398 0.04584233 -0.07178924 0.10738382 -0.017057972
0.06363505 -0.1008624 0.06366804 0.07803417 -0.10648463 -0.05560924 -0.010105902 0.076094925
-0.15198544 0.011171803 0.09443267 0.06257949 0.14598605 -0.13238685 -0.10765591 0.1276273
0.038008403 0.050294578 -0.037176292 0.090464786 -0.04300878 -0.11548269 -0.14438751 0.012591456
0.10582822 -0.12680501 -0.13247044 -0.09077162 -0.030326845 0.046133723 -0.08630872 0.047302056
0.007770676 0.12441904 0.16774139 0.051953476 -0.030297082 0.03646453 0.1187004 0.023777595
0.040854774 0.07111985 0.07908026 -0.08922693 0.046566408 0.0077375816 -0.06354646 0.062724225
0.02380316 0.20207241 0.10733168 -0.0035162084 -0.054278392 0.0030848645 -0.124350786 -0.0017212539
-0.16129965 0.010236262 -0.043818522 0.0020102642 0.111871906 -0.060682345 0.04067375 0.11263294
-0.062990144 0.055692103 -0.11138154 -0.014013204 -0.053574093 0.08140986 0.07762911 -0.06541384
-0.025142776 0.028264385 0.082283266 -0.06547546 0.10217788 -0.16769549 -0.04926946 -0.16581133
0.05859368 0.1089808 0.1325619 0.0846574 -0.03338184 -0.25486195 -0.073742025 0.124041796
0.03463147 0.13734305 0.064919196 0.17942728 0.10218646 0.07650723 -0.060882002 -0.07661544
0.029963216 0.025240406 -0.027423067 0.023556627 0.036070026 0.010602413 0.0732718 0.038206335
0.03881797 0.1733457 -0.013391674 0.103495345 0.019062331 -0.09976773 -0.057691574 -0.035602063

network_body._body_endoder.seq_layers.2.bias f4 [128]
00000000: 0000 0000 0000 0000 0000 0000 0000 0000
00000010: 0000 0000 0000 0000 0000 0000 0000 0000
00000020: 0000 0000 0000 0000 0000 0000 0000 0000
00000030: 0000 0000 0000 0000 0000 0000 0000 0000
00000040: 0000 0000 0000 0000 0000 0000 0000 0000
00000050: 0000 0000 0000 0000 0000 0000 0000 0000
00000060: 0000 0000 0000 0000 0000 0000 0000 0000
00000070: 0000 0000 0000 0000 0000 0000 0000 0000
00000080: 0000 0000 0000 0000 0000 0000 0000 0000
00000090: 0000 0000 0000 0000 0000 0000 0000 0000
000000a0: 0000 0000 0000 0000 0000 0000 0000 0000
000000b0: 0000 0000 0000 0000 0000 0000 0000 0000
000000c0: 0000 0000 0000 0000 0000 0000 0000 0000
000000d0: 0000 0000 0000 0000 0000 0000 0000 0000
000000e0: 0000 0000 0000 0000 0000 0000 0000 0000
000000f0: 0000 0000 0000 0000 0000 0000 0000 0000
00000100: 0000 0000 0000 0000 0000 0000 0000 0000
00000110: 0000 0000 0000 0000 0000 0000 0000 0000
00000120: 0000 0000 0000 0000 0000 0000 0000 0000
00000130: 0000 0000 0000 0000 0000 0000 0000 0000
00000140: 0000 0000 0000 0000 0000 0000 0000 0000
00000150: 0000 0000 0000 0000 0000 0000 0000 0000
00000160: 0000 0000 0000 0000 0000 0000 0000 0000
00000170: 0000 0000 0000 0000 0000 0000 0000 0000
00000180: 0000 0000 0000 0000 0000 0000 0000 0000
00000190: 0000 0000 0000 0000 0000 0000 0000 0000
000001a0: 0000 0000 0000 0000 0000 0000 0000 0000
000001b0: 0000 0000 0000 0000 0000 0000 0000 0000
000001c0: 0000 0000 0000 0000 0000 0000 0000 0000
000001d0: 0000 0000 0000 0000 0000 0000 0000 0000
000001e0: 0000 0000 0000 0000 0000 0000 0000 0000
000001f0: 0000 0000 0000 0000 0000 0000 0000 0000
0.0 0.0 0.0 0.0 0.0 0.0 0.0 0.0
0.0 0.0 0.0 0.0 0.0 0.0 0.0 0.0
0.0 0.0 0.0 0.0 0.0 0.0 0.0 0.0
0.0 0.0 0.0 0.0 0.0 0.0 0.0 0.0
0.0 0.0 0.0 0.0 0.0 0.0 0.0 0.0
0.0 0.0 0.0 0.0 0.0 0.0 0.0 0.0
0.0 0.0 0.0 0.0 0.0 0.0 0.0 0.0
0.0 0.0 0.0 0.0 0.0 0.0 0.0 0.0
0.0 0.0 0.0 0.0 0.0 0.0 0.0 0.0
0.0 0.0 0.0 0.0 0.0 0.0 0.0 0.0
0.0 0.0 0.0 0.0 0.0 0.0 0.0 0.0
0.0 0.0 0.0 0.0 0.0 0.0 0.0 0.0
0.0 0.0 0.0 0.0 0.0 0.0 0.0 0.0
0.0 0.0 0.0 0.0 0.0 0.0 0.0 0.0
0.0 0.0 0.0 0.0 0.0 0.0 0.0 0.0
0.0 0.0 0.0 0.0 0.0 0.0 0.0 0.0

value_heads.value_heads.extrinsic.weight f4 [1, 128]
00000000: 3149 2d3d cb5d 0b3e 427c 13be 9b4d 513e
00000010: 7690 293d bc36 46be 8a09 23be 1a1c 14be
00000020: 2a29 493e dcde 233d d10c 1e3e 6714 693d
00000030: b79a a43d cdeb 56bd 2251 10be 21e5 71bd
00000040: 485f 15bc 8920 c6bd 6f9a a93d 5999 e8bd
00000050: 2a58 013e f8c1 fd3d 62ad 3dbe b485 13be
00000060: 9e5c bf3d eafb 99bc 43b7 593e b521 613c
00000070: 60fb 013e 6556 22be 681d 47be c168 3e3d
00000080: faf7 603d 8cea 5a3e 4504 37be f4c3 28be
00000090: d91f 2cbe 8f62 c8bd 8e81 1cbe bd49 2fbe
000000a0: 46fa 03bc fbda 573e ecb3 acbd bf60 21be
000000b0: a678 4f3e 9014 043e e051 6d3d d330 e23d
000000c0: b975 53bc d45d f63d 1e42 bf3c 8e27 0b3e
000000d0: e9e4 5c3d 8ebc ec3c 68de 12be 7f8d 533e
000000e0: 96ed 11bb b0e9 5abe 0c3e fd3d a9e7 1ebe
000000f0: 4f8a 593e 7387 82bd 5ea2 243e 78c9 51be
00000100: ad17 363d 92e6 5e3d 99ae 7dbd d0c4 b73d
00000110: 8c43 e1bd e74a 2a3d 6c88 9bbd 3cff e0bd
00000120: dd8f 223e 1ac3 1cbe 3af2 21be c817 913d
00000130: db5b 30bd 3a0b 2d3e 3356 58be 5c03 1c3e
00000140: b559 4f3d f0f1 ca3c bf46 0f3e ee46 7dbc
00000150: 0c49 eabc 158a 21be e40e abbc d948 0abe
00000160: 0115 8ebd a01f 27be 31ec f9bd ec90 85bd
00000170: 53aa 283e d8e4 12be 74a2 783c 23d0 ae3d
00000180: 3f44 a7bd cff0 bfba aef5 05be e6a8 bcbb
00000190: f328 063e 312c 003d 2d7c 133e ba84 2c3e
000001a0: 66db b03d 1470 a5bd 1148 ebbd 0881 26be
000001b0: eaa7 c4bd 03e9 433e a173 7dbb f571 0bbe
000001c0: bcf2 34be 1b26 5b3d be28 59bd 17e5 3c3e
000001d0: 92a8 5dbd 1706 a83d 46e2 58be 0b6c 23bd
000001e0: 404d 653c 1551 063e 32e5 573e 24d7 90bd
000001f0: 136c ccbd e57f 623d 7cf7 e4bd 0e96 153e
0.04230613 0.13609998 -0.1440287 0.2043976 0.041397534 -0.19356817 -0.15921608 -0.14463845
0.19644609 0.040007457 0.15434577 0.056904223 0.08037322 -0.05247097 -0.1409345 -0.059056405
-0.009116955 -0.09674174 0.08281409 -0.11357374 0.12631288 0.12390512 -0.18523172 -0.14406472
0.09343837 -0.01879688 0.21261315 0.013740947 0.12693548 -0.1585327 -0.19444811 0.04648662
0.05492399 0.21378535 -0.17872722 -0.16481 -0.16809024 -0.097844236 -0.15283796 -0.17117973
-0.008055275 0.21079628 -0.08432755 -0.15759562 0.20260867 0.12898469 0.05793941 0.11044469
-0.012906485 0.12029615 0.023346957 0.13589308 0.053929243 0.028898504 -0.14342654 0.20659445
-0.0022266856 -0.21378207 0.1236535 -0.15518059 0.21244167 -0.06373491 0.16077563 -0.2048701
0.044456173 0.054419108 -0.061934087 0.08973086 -0.10999212 0.04157534 -0.0759438 -0.10986182
0.15875192 -0.153088 -0.15815058 0.07084614 -0.04305635 0.16898814 -0.21126632 0.15235656
0.05062266 0.024773568 0.13991831 -0.0154588055 -0.028599285 -0.1577533 -0.020881124 -0.13504352
-0.069376 -0.16320658 -0.12203253 -0.06521782 0.16471224 -0.1434511 0.015175451 0.08535793
-0.08167314 -0.001464391 -0.13082 -0.005757439 0.13101558 0.031292144 0.14402838 0.16847506
0.08635597 -0.08078018 -0.11488355 -0.16260159 -0.096023396 0.19131856 -0.0038673657 -0.1361769
-0.17670721 0.053503137 -0.05301737 0.18446766 -0.05411584 0.082042865 -0.21180066 -0.03989796
0.013995469 0.13116868 0.21083525 -0.07072285 -0.09981551 0.05529775 -0.111800164 0.14608023
