ML-Game/results/ppo/MLGameTest1/MLGameTest1-500026.onnx (onnx, 233811 bytes, 6 tensors)

network_body._body_endoder.seq_layers.0.weight f4 [128, 315]
000000 d0 40 7b 3d 14 cd a0 3c 0e 81 8b ba 0c a8 05 3e
       0.061341107 0.019629039 -0.001064332 0.13052386
000010 7d cf c8 3c 06 09 19 3d e4 6d b7 3d 09 b5 f6 bb
       0.024513 0.03736212 0.08956507 -0.0075289053
000020 05 ea d5 bd 25 33 cf bc ef 97 a3 bd 86 44 e5 bd
       -0.10445026 -0.025292942 -0.079879634 -0.111947104
000030 a9 93 7b 3d 50 78 f8 3b a8 92 69 3c bc 71 91 3d
       0.061420117 0.0075827017 0.014256157 0.07101771
000040 1e af 7c 3d 6e d7 59 3c e0 c4 48 bd a6 f2 ad 3c
       0.061690442 0.013295991 -0.04901588 0.021233868
000050 0b 41 58 3d aa ee 43 3b 54 66 db bc 1b 35 96 3d
       0.052796405 0.0029896894 -0.026782192 0.07334348
000060 75 cb 9e 3d c6 83 81 bd be 71 05 bd 94 92 32 3d
       0.0775365 -0.06323962 -0.032579176 0.04359682
000070 45 14 3c bd 3a d5 03 3e 63 9b 7d 3d 05 00 5b 3d
       -0.045917768 0.12874308 0.061915766 0.053466816
000080 65 ad 13 3e 6e 12 96 3d 1e f9 06 3d a1 32 eb 3d
       0.14421614 0.07327734 0.03295242 0.11484266
000090 20 e7 05 3e 67 c1 02 3e 5a ba b9 bc 8f 9f e6 3c
       0.13076448 0.1276909 -0.022671867 0.028152255
0000a0 e8 d4 2f bd 0b d4 ea bd cd a1 43 bd 88 ac 4c 3d
       -0.042927653 -0.11466225 -0.047761727 0.049969226
0000b0 25 a0 54 3d d1 46 0c bd cc 17 2c 3d 46 70 9e 3c
       0.05191054 -0.034247223 0.042014882 0.019340646
0000c0 1a 0b d9 3d 69 51 65 bc 5a 57 9b bd 5b 99 52 3d
       0.105978206 -0.0139964605 -0.0758502 0.051415782
0000d0 12 73 ec 3d f0 54 cc bc 11 0c 83 bd 30 77 51 3d
       0.115453854 -0.024942845 -0.06398786 0.051139057
0000e0 ce 7f f0 3c 8f ad 20 bd dc c0 5d bd bb e6 77 3d
       0.029357817 -0.03922802 -0.054139003 0.060522776
0000f0 1e 61 08 3d 67 db a9 3d bb f7 38 3d 7a 0f 33 3d
       0.033295743 0.08293801 0.04515813 0.04371593
000100 25 a6 81 bc 9a 9b 98 3d 41 d0 8e 3d 3d 25 39 bd
       -0.015826294 0.07451554 0.06973315 -0.04520153
000110 1a dc fa bc 18 51 1f 3c a6 fa 39 3d 30 ba 90 3b
       -0.03062253 0.009723924 0.045405053 0.0044167265
000120 83 01 63 bc b1 0a d5 bb 70 12 2f bc da 46 57 3d
       -0.013855341 -0.0065015187 -0.010685548 0.052557804
000130 0b 5d ab 3d 78 4e b2 3c bd 0f 79 3d 05 1d 9d 3d
       0.08367356 0.021765932 0.060806025 0.07671551
000140 91 6b b7 3d 2c cb 0e bd ee 7c df bd 9e aa bc bd
       0.089560635 -0.03486173 -0.109125 -0.0921223
000150 e6 ad b2 3c 7a 57 bd bc 80 7f 1a bd 67 d5 1d 3d
       0.021811437 -0.023113001 -0.03771925 0.038533594
000160 4f 1d 63 bc e9 03 4d 3d 18 1b 0c bb b3 fe 0d 3e
       -0.013861968 0.050052557 -0.0021378454 0.13866691
000170 7f f4 17 3c e1 2f c4 ba 67 33 82 3c c0 84 82 3d
       0.009274601 -0.0014967882 0.015893651 0.06372976
000180 19 91 83 3d 43 22 40 3d 8c ec b3 3c b4 42 e7 3d
       0.064241596 0.046907675 0.02196338 0.112920195
000190 90 d5 55 bb 43 da c1 bc bb 01 0b 3e 26 df d2 bc
       -0.0032628514 -0.023663646 0.13574879 -0.025741171
0001a0 10 ba 63 3c 2d 14 b6 bc e8 49 a6 bd 59 b1 c9 3c
       0.013899341 -0.022226417 -0.08119565 0.024620699
0001b0 bf cc db 3c 11 1d a2 3d af 4f 20 3d d2 6b a6 3c
       0.026831029 0.079157 0.039138492 0.020315085
0001c0 be 21 af 3d ad f9 26 bd 33 16 cb bd 33 ca 08 bd
       0.08551358 -0.040765453 -0.099163435 -0.033395957
0001d0 48 04 00 bc fa 50 86 3d 63 b2 c6 3d 3b 27 39 3d
       -0.007813521 0.06558414 0.09701993 0.04520343
0001e0 81 f9 43 bd 1b 76 11 3c 53 de bb bc 34 cc f5 3d
       -0.047845367 0.008878256 -0.02293316 0.12001839
0001f0 40 a7 a4 bd 35 4a 6e 3e 3f 77 84 bd 26 59 05 bd
       -0.08039713 0.23270495 -0.06468057 -0.03255572
000200 d9 ca fc 3a fd 9e b4 bd a1 f2 b0 3c f9 0a 2b 3c
       0.0019286528 -0.08819387 0.02160007 0.010439628
000210 f3 af b0 3d 7e d7 a3 3d a7 97 31 bb 92 80 aa 3c
       0.0862731 0.08000086 -0.0027098448 0.02081326
000220 e6 fa 6d 3b 2e 26 95 bc 90 73 70 3d 23 7d a7 bd
       0.0036312877 -0.018206682 0.05870396 -0.08178165
000230 32 f4 d0 3b 08 a4 88 3c f4 04 b0 3c f4 07 b0 bd
       0.0063767666 0.016679779 0.021486737 -0.08595267
000240 39 b4 b6 bc 04 f3 1a 3d 36 db 9e bd b0 bd c2 3c
       -0.022302734 0.037829414 -0.07756655 0.02377209
000250 ae 7c 3d bd 42 65 61 bd c4 04 65 bd 38 04 80 bd
       -0.046261482 -0.055028208 -0.055912748 -0.06250805
000260 6e e5 ac 3d f6 e0 b5 3d 47 3d a6 3c 5e 55 c5 3c
       0.08442198 0.088807985 0.020292891 0.024088558
000270 8a db e1 3d 13 d3 6c 3c 95 38 08 3d b6 00 08 bc
       0.11028202 0.014454621 0.033257086 -0.008300951
000280 e4 05 07 bd 9c 33 08 3e 95 f3 a0 bd 1a 6c 88 3d
       -0.032964602 0.13300937 -0.078589596 0.06661244
000290 00 25 ea 3b 08 c3 96 3c c7 aa 65 bd b5 32 86 bd
       0.007145524 0.018403545 -0.05607107 -0.0655264
0002a0 59 c3 98 bd 27 c2 58 bd 20 6f 96 3d c8 31 7d 3d
       -0.074591346 -0.052919533 0.07345414 0.061815053
0002b0 55 a3 06 3d ca a7 07 bd 08 8f 30 3d 94 6d 0c 3d
       0.03287061 -0.033119 0.043105155 0.03428419
0002c0 1d 05 1f bd 72 8f 57 3d 95 de 90 bb ca 92 bc 3d
       -0.038823236 0.052627034 -0.004421065 0.09207685
0002d0 e7 2a b1 bc cc d8 d0 3c d6 15 ce 3c 8b fa 84 3d
       -0.021626903 0.025494002 0.025156897 0.064931
0002e0 6b 02 cb bb 96 da 97 3d 34 ff 79 3d 13 cc a3 3b
       -0.0061953566 0.07414739 0.061034396 0.004998693
0002f0 ec 61 0e 3d ac 7a 5d 3c 8d 79 c7 3d 28 63 e3 3d
       0.034761354 0.013518017 0.09739981 0.11102897
000300 e5 fb 12 3c bb e4 bc 3c 26 ae f7 bb 38 f0 08 bb
       0.008971189 0.023058286 -0.007558602 -0.0020895135
000310 2a ca 7e bb 1a 6a c0 3b 7e d1 84 ba 3f 5b 86 bc
       -0.0038877823 0.0058720233 -0.0010133234 -0.016400931
000320 0c 13 85 3d 5b 84 48 3d 41 50 d6 3b 5a 17 c0 3c
       0.064977735 0.04895435 0.0065403287 0.023448635
000330 6f 70 40 3e 13 b5 bc bc 88 7d a1 3d 6f 54 0f 3d
       0.1879289 -0.023035562 0.07885271 0.03499263
000340 37 b1 8f bd b8 c3 9a 3b ac 4f 0d 3c 4d b8 3e 3b
       -0.07016223 0.0047230385 0.008624952 0.002910155
000350 19 08 83 bc a7 5a b5 bd 8a 0d 04 bd 83 af f0 3d
       -0.015995072 -0.08855181 -0.032239474 0.11752226
000360 34 2f d4 3c 49 7e 40 3c 19 b2 a9 bd d1 3e 76 bd
       0.025901414 0.011748859 -0.082859226 -0.0601185
000370 23 ba d8 bc 3a 03 38 3d f0 1b b2 bd e9 bc 63 bc
       -0.026455944 0.044924952 -0.08696735 -0.01390002
000380 af d9 cb 3b 2f 09 81 3b d9 62 81 bd 4a 33 fe 3c
       0.0062210183 0.0039378623 -0.06317682 0.031030316
000390 e8 94 5b bc 91 5c 2f 3d 4b 21 41 3d 0a dd 82 bd
       -0.013402201 0.042812888 0.04715089 -0.06389816
0003a0 53 32 c0 3c bf b0 07 3d 46 cb 25 bd b6 8d 81 3c
       0.023461496 0.033127543 -0.04047706 0.015814643
0003b0 5c bf 5d bc 67 4f 2f be 96 4a 27 3d 22 dd d7 3b
       -0.013534393 -0.17120133 0.040842615 0.0065876404
0003c0 97 e7 58 3d 53 f9 6f 3c 39 63 44 bd 4b 05 3c bd
       0.052955236 0.014646846 -0.04794619 -0.045903485
0003d0 5e e9 3b bd ec 14 53 3d 29 3f f0 3d 31 32 8c bd
       -0.045876853 0.051533625 0.11730797 -0.06845511
0003e0 75 15 f9 3c 54 16 c9 bd ea 2c 38 3d 6d 07 e1 3d
       0.03040574 -0.09818712 0.04496471 0.109877445
0003f0 3a ea d9 3c cf b5 15 bb f1 a7 0c bc 25 b3 19 bd
       0.026600946 -0.0022843962 -0.008584962 -0.03752436

network_body._body_endoder.seq_layers.0.bias f4 [128]
000000 d3 b9 88 3c e7 1e 82 3c 54 dc 01 bb 11 4c af 3c
       0.01669017 0.015883876 -0.0019815164 0.021398576
000010 66 33 7d 3c 66 fa 39 3c a8 5a 32 3c dd 45 46 3b
       0.015454149 0.011351204 0.010885872 0.0030254044
000020 64 75 95 3b 65 57 30 bc 56 26 12 3c 92 db c2 3a
       0.004561113 -0.010763024 0.008920273 0.0014866462
000030 e6 1e 0b 3c 85 e5 69 ba 56 e0 c7 3c c4 8e 30 bb
       0.0084912535 -0.00089224457 0.024398964 -0.0026940564
000040 fd 0e 45 bb 3e 7b 96 3c 76 48 00 3c 4e 73 a1 3c
       -0.0030068748 0.018369313 0.007829776 0.019708302
000050 15 4c 02 b9 51 b0 5a 3c 78 5c 33 bc 19 27 71 3c
       -0.00012426109 0.013347701 -0.010947339 0.014718794
000060 40 05 20 3b 21 a7 d1 3b 69 5b 68 3b 53 6d 08 3b
       0.0024417192 0.006398097 0.0035454875 0.0020817115
000070 ab 94 4b 3c 95 77 a9 bb e5 e2 00 bb fa 1c c6 3c
       0.012425582 -0.005171726 -0.001966649 0.024183739
000080 57 db 39 3c 4e 0b c4 3b c8 e8 d4 3b 45 4d 90 3c
       0.011343799 0.005982793 0.0064974762 0.01761497
000090 68 1f b1 3b 45 80 04 3c be a1 38 3c ae de 24 3c
       0.0054053552 0.008087222 0.011269031 0.010062857
0000a0 9f f8 68 3c 39 f8 68 bc 80 f1 06 3d 8f 05 ac 3b
       0.014219432 -0.014219337 0.032945156 0.005249686
0000b0 a8 dc 9f 3b 2e 1b 14 3c 9b 24 14 bb 4a e5 36 3a
       0.004878599 0.009039683 -0.0022604826 0.0006976916
0000c0 df 41 64 3a 3b 8e 45 3c be 9c 1a 3a 97 b7 19 bc
       0.00087073253 0.012057836 0.000589799 -0.00938215
0000d0 87 89 46 bb 65 29 c2 ba fc d5 65 3c 25 4d 1b 3c
       -0.0030294375 -0.0014813362 0.014028069 0.009478842
0000e0 9a 6a 40 3c f7 e8 56 3c 6a 56 56 3b 2a 44 ce 3c
       0.011744166 0.013117067 0.0032705315 0.025178988
0000f0 16 8e 31 bc 88 2d 79 3c 77 42 f4 bb 30 eb 50 3c
       -0.010837099 0.015208609 -0.0074542123 0.012751386
000100 fa 4d 9c bc 47 eb 00 bd cc 9d 28 3b 1a 8a 64 3b
       -0.01908015 -0.031474378 0.002572882 0.0034872354
000110 0f 5e 72 3c 15 92 80 3c b6 f5 c0 3b d7 c6 cc 3a
       0.014792933 0.015694657 0.005888666 0.0015623224
000120 d1 a0 14 3b 28 43 bf bc 0f a7 00 3b 1b d2 27 3c
       0.0022678862 -0.023347452 0.0019630825 0.010242964
000130 96 a4 b0 b9 7d 78 37 bc 93 c6 60 bc ee 2b 32 3c
       -0.00033691962 -0.01119816 -0.013719219 0.0108747315
000140 ac 9f 80 3c c8 f2 6b 3c 68 20 c3 3b 91 02 b6 ba
       0.015701137 0.014401145 0.005954791 -0.0013886263
000150 f7 6f 73 3c 43 b9 4b 3c 38 b5 0f 3c 7d d3 9a 3c
       0.0148582375 0.012434307 0.008771233 0.018899674
000160 81 6d da 3b 23 ca e6 3c 43 a4 62 bc 65 5a a8 3b
       0.006665886 0.028172558 -0.013833108 0.005137729
000170 c8 27 8e 3c ca e5 03 3c 81 1d a0 3c 2f 6d 18 3c
       0.017352954 0.008050391 0.019545319 0.009303375
000180 60 84 09 bc f6 26 42 3c e7 72 e5 3c 04 75 18 3c
       -0.008393377 0.011850109 0.028008891 0.009305242
000190 88 41 f0 3b c8 cd be 3c 94 f5 56 3c 66 8e dd 3a
       0.0073320307 0.023291484 0.013120074 0.00169034
0001a0 24 8b 22 3c c5 07 0b 3c 0c d0 6c 3c 26 0c 88 3c
       0.009920869 0.008485739 0.014453899 0.016607355
0001b0 b8 c8 3c 3c 3f 06 3c 3c e2 30 5c 3c 85 d8 1b 3c
       0.011522464 0.011476099 0.013439389 0.0095120715
0001c0 c6 db 09 ba e7 dd df 3b 01 67 8e 3c 45 e6 36 bc
       -0.0005258884 0.0068318727 0.0173831 -0.011163299
0001d0 b2 98 b3 3b aa 1d cf 3b 3c e3 6c 3c 1f 1f 5e 3c
       0.005480849 0.006320675 0.014458474 0.013557225
0001e0 bf 4a 82 3c 2b 61 d9 bb d9 56 af 3b 7c a1 85 3c
       0.015904782 -0.006633898 0.005350929 0.016312353
0001f0 65 ed 65 bb 1c 45 32 bc 19 e3 09 3c a0 65 10 3c
       -0.0035084125 -0.010880735 0.008415961 0.008813292

network_body._body_endoder.seq_layers.2.weight f4 [128, 128]
000000 8e ba ed 3d ba 42 a0 3d e8 2d d3 3b f9 19 fa bc
       0.11607848 0.07825227 0.0064446814 -0.030529963
000010 0c 90 92 bd 0a 92 a7 bd 80 2b d3 b9 04 8c ac bd
       -0.07156381 -0.081821516 -0.00040277466 -0.08425143
000020 f2 d5 af bd 61 e1 7d bc 0b cb 1c be dd 67 2f bd
       -0.08585729 -0.015495629 -0.1531183 -0.04282366
000030 1b a4 55 bd af 14 28 3d cc f0 5b bd 2d d6 d7 3a
       -0.052158456 0.04103535 -0.05369644 0.0016467028
000040 dc 56 59 bd f4 ae c1 3b bc 41 c7 bd 51 c0 b1 3d
       -0.05306135 0.0059107486 -0.09729335 0.086792596
000050 2b d9 bf bb 8b d1 ca bd db b7 d5 bc f2 64 4f bc
       -0.005854746 -0.099032484 -0.026088646 -0.012658345
000060 26 06 82 bd 82 c2 17 bd 89 d5 94 bd 12 f6 90 3d
       -0.06348829 -0.03705073 -0.07267291 0.07078184
000070 06 8e 64 3d 5e 94 97 bd 6b 93 41 3e 71 c9 6a bd
       0.055799507 -0.07401346 0.18903892 -0.057321016
000080 af a5 15 be fa ce 15 3c 3b 58 2d 3e 9c cc 5f bd
       -0.14613985 0.009143585 0.16928189 -0.05463849
000090 82 bd cc 3d da f9 c7 3d 96 29 8f 3d c6 4a 4d bd
       0.09997083 0.09764452 0.06990354 -0.050120138
0000a0 67 f7 9c 3d 3d 23 88 be 67 ad 8c bc 15 7f a4 3c
       0.07664376 -0.26589385 -0.017172528 0.020080129
0000b0 5b fe 23 be 79 3f d0 3c 85 6e ad bc ea fc 07 bd
       -0.16014998 0.025420891 -0.021170864 -0.033200182
0000c0 e0 30 21 bd 76 5f 6c 3e 81 51 88 3c bf 12 bc bd
       -0.03935325 0.2308329 0.016640427 -0.09183263
0000d0 5b f7 5e be b0 1e c3 3d 97 67 66 bd e0 2f 0f 3e
       -0.21774046 0.095273376 -0.056251135 0.13983107
0000e0 8d 15 6d 3d 97 90 be 3d 28 8f f0 bd 1e 3f d3 3d
       0.05788188 0.09304922 -0.11746055 0.10314773
0000f0 54 a3 1e be 32 43 53 3d 46 21 59 3d 22 54 c7 3d
       -0.15491992 0.051577754 0.053010248 0.09732844
000100 7c c3 a7 bd 62 bc a8 3c bc 3a 36 3d 14 2c bd bc
       -0.081915826 0.02059764 0.044489607 -0.023092307
000110 18 06 8d 3d af 6e 6b bc 6e 8b 66 bd 2f ac 00 bd
       0.06885928 -0.014369651 -0.056285314 -0.031414207
000120 41 9f c9 bd 57 fd 2a bd f5 f2 fa bd eb 0f 16 3d
       -0.098448284 -0.04174551 -0.122533716 0.036636274
000130 c3 5f 85 bd 29 4a e3 bd d5 64 29 be 79 fb 32 be
       -0.06512406 -0.11098129 -0.1654237 -0.17478742
000140 40 01 2c be fa 72 5e 3d 69 cb 5d 3d cc 60 dc bd
       -0.16797352 0.05430887 0.054149065 -0.1076065
000150 22 a6 71 bd 55 5f f5 3c fb ad 38 3e 7e 14 d5 3d
       -0.058996327 0.029952684 0.18035118 0.10404299
000160 55 9f 3e bd 82 f6 00 bd ad 7b 9c 3d 02 b8 71 3e
       -0.04653867 -0.03148509 0.07640777 0.2360535
000170 f3 8a 40 3c e5 39 83 bd 74 e9 d1 bd ab 39 2f 3d
       0.011751878 -0.06407527 -0.10249606 0.042779606
000180 28 09 ac 3d b0 f4 19 bd 15 df 08 be c0 a6 a1 3c
       0.08400184 -0.037586868 -0.13366349 0.019732833
000190 e4 33 ba bc 40 b8 5e 3e ff 94 07 3e a8 bb 36 bd
       -0.022729822 0.21749973 0.13240431 -0.044612557
0001a0 9b b7 76 3d f9 22 b7 3d 60 6e 26 3e 7c 0f d0 bd
       0.060233694 0.089422174 0.16253042 -0.101592034
0001b0 73 e1 ac 3c 2a 86 32 3d 83 10 36 bd 88 f3 bc bd
       0.021103596 0.04358498 -0.04444934 -0.092261374
0001c0 79 8c ee bd e0 53 9a 3d 5f b9 f8 bd e8 d2 f8 bd
       -0.11647887 0.07535529 -0.12144732 -0.12149602
0001d0 ce e0 07 be 0e 37 1a 3d 28 aa 26 3d 5b 02 04 3e
       -0.1326935 0.03765016 0.040689617 0.12891524
0001e0 55 0e ea bd a4 62 ff 3c 07 30 00 3d 93 2d 32 3b
       -0.11428515 0.031174965 0.031295802 0.002718781
0001f0 72 fe e9 bc 1c 31 ac bd fd b6 9e 3d 2a c3 93 3d
       -0.028563712 -0.08407804 0.07749746 0.07214959
000200 54 7b 3c bd fd 75 b0 3d d9 a5 64 3d fb 22 0f 3d
       -0.046016052 0.086162545 0.055822227 0.03494547
000210 5a 6e cb bd 08 46 0e be 73 9e ea 3c 9d d5 9b bc
       -0.09933157 -0.13893902 0.028640008 -0.019022757
000220 40 23 a0 3d fb c9 c1 bc 8f 86 80 3d e4 d0 a3 3d
       0.078192234 -0.023655882 0.06275665 0.07998827
000230 89 8e 0e 3d 7e 45 40 3d c5 9d 2d be 7f bd 2c 3e
       0.0348039 0.046941273 -0.16954716 0.16869162
000240 6b 6e fe 3d dc fa 8d 3c 24 8c e9 bd 86 2e 39 3d
       0.12423404 0.017331533 -0.11403683 0.045210384
000250 8e 93 3a bd e8 d2 ff bd 68 ff 7a 3d 2e 7d 7f 3d
       -0.045550875 -0.12491399 0.06127873 0.06237524
000260 7d a9 88 3d ed 55 3a 3e b1 b5 cb bd 3f b7 01 3e
       0.06672952 0.1819684 -0.09946764 0.12667559
000270 4b 90 6e 3d a3 bc 72 bd db a9 1a 3d ec a4 06 3d
       0.058243077 -0.05926193 0.037759643 0.032872126
000280 30 b7 45 bc e6 b4 8b bd bf f8 ae 3d 67 98 f9 bd
       -0.012067601 -0.06821613 0.08543538 -0.121872716
000290 7e 5d 18 bc bc 72 15 bd c1 4d 5f bd fd ad af bd
       -0.009299634 -0.036486372 -0.05451751 -0.085781075
0002a0 38 d8 63 3d 5f 6a f1 3d f5 ac 0e 3e 35 58 d7 bd
       0.055626124 0.11787867 0.13933165 -0.10514871
0002b0 be 8c 9b 3d 30 b3 30 bd 02 7f 0d 3d 7e 55 94 bd
       0.07595204 -0.043139637 0.034544952 -0.07242869
0002c0 55 af 46 bc 3d 8c 83 3d 0d a3 dd 3d ba c0 f6 3d
       -0.012126763 0.06423233 0.10822115 0.120484784
0002d0 55 c6 3e 3e 25 59 a4 bc 03 2e 80 3d dc 57 9a 3d
       0.18630345 -0.020062039 0.06258776 0.07536289
0002e0 0d a4 45 be d9 7b be 3d 26 58 d1 3d 96 05 12 3e
       -0.19300862 0.09300966 0.10221891 0.14259943
0002f0 36 1e 36 3e 13 03 ea 3d 3b 21 89 bd 7c 55 00 3d
       0.17784962 0.114263676 -0.06695791 0.031331524
000300 c4 d2 eb 3d 87 1b a5 3c a9 49 09 be 15 38 c9 3d
       0.1151481 0.020154728 -0.13407005 0.0982515
000310 5e 30 3d 3d 1b 11 81 3d a4 6e c2 bc ab 19 86 3d
       0.046188705 0.06302091 -0.023734398 0.065478645
000320 9c 72 fd 3d 8b bb da bd 8c 96 41 bd e6 a8 e0 bd
       0.12375376 -0.10680302 -0.047262713 -0.10969715
000330 4f 4f 5e 3e 4e 87 dc 3d 53 3b 31 bd 0e 81 bd bd
       0.21709941 0.10767995 -0.043269467 -0.09253131
000340 d8 a8 6f bd 88 cd 3b 3d 9a a6 be 3d e5 16 2a 3e
       -0.05851063 0.045850307 0.093091205 0.16610296
000350 fd 94 57 bd 14 c9 20 3c 7b 78 96 bd e1 9a 66 bb
       -0.05263232 0.009813566 -0.073471986 -0.003518753
000360 24 ae 9f bd 0a eb 44 3c 5b 46 c0 3d 7d 8c 80 3d
       -0.077968866 0.012018928 0.09388419 0.06276796
000370 94 27 ac bd d9 e4 c3 bc c9 77 08 3e d1 5f d7 3d
       -0.084059864 -0.023912834 0.13326944 0.105163224
000380 80 cd 0a be 0f 0a 41 3c 3b bf 6f bd ff 3f 38 be
       -0.13554955 0.011782183 -0.05853198 -0.17993163
000390 50 eb 09 be d3 a1 d0 bc b0 5d f8 3d 8c b5 45 bd
       -0.13468671 -0.025467789 0.121272445 -0.04826884
0003a0 58 a0 82 bd cb 33 bf bd 16 92 6c be ed 20 83 3d
       -0.063782394 -0.093360506 -0.23102602 0.064027645
0003b0 f7 5f 3a bd 82 70 19 3d 7b eb 72 3d 00 07 7d 3d
       -0.045501675 0.03746081 0.059306603 0.061774254
0003c0 44 46 b9 3d 48 67 f7 3d df 23 c1 3d 34 4d 11 3d
       0.09046605 0.12080246 0.0943067 0.035474017
0003d0 8d f4 0a 3c e4 04 1e 3c a4 d0 30 3d fc ab 0d be
       0.008481157 0.009644721 0.043167725 -0.13835138
0003e0 d4 2d af 3d e7 2f 17 3d 13 cd 3e 3e d6 4f 10 3e
       0.08553663 0.036910918 0.18632917 0.14092955
0003f0 e0 73 9b bd 87 29 f3 3c 35 de 6a bd 27 8e cf 3d
       -0.07590461 0.029682888 -0.05734082 0.10134535

network_body._body_endoder.seq_layers.2.bias f4 [128]
000000 53 d8 85 3c f5 99 32 39 0c e3 55 3c a4 b2 a9 3b
       0.016338503 0.00017032756 0.0130546205 0.0051787663
000010 76 33 97 3b b0 d0 49 3a 77 13 26 3c 9a 72 6f 3c
       0.004614289 0.00076986384 0.010136477 0.0146147255
000020 11 d5 63 3c 09 b2 c2 3c 89 ca 29 3c 39 95 16 3c
       0.013905779 0.023766534 0.01036323 0.009190851
000030 24 13 28 3c 2c aa b3 b9 cb b5 9c 3c 92 c2 36 3c
       0.01025847 -0.00034268328 0.019129654 0.011154788
000040 57 c9 5d 3c ee b6 56 3c 62 37 30 3c 15 32 a6 3c
       0.013536773 0.013105137 0.010755392 0.020287553
000050 ce c0 0d 3c 7c 28 31 3b 0b aa 6e 3c bb 48 b5 3b
       0.008651925 0.0027032187 0.014566909 0.005532352
000060 6d 73 bc 3c 1f 12 39 3b 4d 6c 23 3b ce 66 4f 3c
       0.023004258 0.002823956 0.0024936378 0.012658788
000070 b2 08 d2 3b 59 a6 3a 3c 6c 41 88 3c 2b f5 6b bb
       0.006409728 0.011392199 0.016632758 -0.0036004286
000080 31 19 01 3c 1b de 86 3b fe e4 4c 3b 12 7a c3 3b
       0.007879541 0.0041158325 0.003126442 0.0059654796
000090 29 c1 9e 3c c9 16 8e 3b 53 9a c9 3b c8 94 0a 3a
       0.019379215 0.0043362123 0.00615243 0.00052864524
0000a0 17 c5 06 3c c9 94 82 3c 55 f8 d3 3b 02 0a c2 3a
       0.008225701 0.015940087 0.0064688125 0.0014804008
0000b0 a6 ad 83 3c 65 14 01 3c 2c c7 8f 3c cc cb 4a 3c
       0.016074013 0.007878398 0.017551027 0.0123776905
0000c0 0c 51 e2 37 cf e0 b2 3c b0 20 74 3c 25 e0 cd 3c
       2.697904e-05 0.021835713 0.014900371 0.025131295
0000d0 33 55 94 3c ee ab a0 3c 80 01 f6 3b 3c 06 3c 3c
       0.018107032 0.019613232 0.007507503 0.011476096
0000e0 fb 95 67 3c 98 20 9d 3c c9 b7 96 3c 3e fd 53 3c
       0.014134879 0.019180581 0.018398182 0.012938796
0000f0 7f 68 58 3c 4b 1a c1 3b 64 28 fb 3b d3 b6 27 3c
       0.013208508 0.005893027 0.007664727 0.01023646
000100 25 44 96 3c 78 56 f9 bb e4 7f c8 bb 16 04 8e 3c
       0.01834304 -0.007609185 -0.0061187614 0.017335933
000110 86 64 ea 3b 0d d2 47 3c a3 4e 00 3b 4b 61 9b 3c
       0.0071530966 0.012196076 0.001957812 0.018967291
000120 f8 51 35 3c 94 d6 81 3c a2 f7 5b 3c 8b 37 8f 3c
       0.011066906 0.01584939 0.0134257395 0.01748254
000130 aa 14 57 3c 4d 7c 5c 3c fe f0 31 3c 83 0f 3f 3c
       0.013127485 0.01345737 0.01086068 0.011661413
000140 1c 83 8a 3c 8d 22 37 3c c0 70 60 3c ed 98 a2 3b
       0.016908221 0.011177671 0.013698757 0.004962078
000150 d4 97 e8 3b 5f 41 5d 3c fa 7d 96 3b bf 5c b3 3c
       0.0070981774 0.013504355 0.0045926543 0.02189481
000160 2d 7e 82 3b 11 1b a7 3b e6 c6 0e 3c 6c 77 c1 3c
       0.0039823265 0.005099662 0.008714413 0.023616515
000170 aa 99 ee 3b 13 e9 4e 3c 94 9e 94 3c 77 33 ca 3b
       0.007281502 0.012628811 0.018142022 0.006170686
000180 4f 23 a8 3b 48 16 df 3b 70 f1 e9 3b 9d 2d 56 bb
       0.0051311622 0.006808076 0.0071393773 -0.0032680996
000190 80 ca 82 3c cd 8a 6a 3c fb 96 0c bb 70 9d f8 3b
       0.0159657 0.014315319 -0.0021452296 0.0075871274
0001a0 0c a2 f6 3b 8e b7 a7 3c a8 7c f7 3c fa 1a 3b bc
       0.0075266417 0.020473268 0.030210808 -0.011420006
0001b0 bb 4c 8c 3c ee 6b d3 3b 7c dc 60 ba 23 92 48 3c
       0.017126432 0.006452075 -0.00085777766 0.012241873
0001c0 1d b9 ad 3c 66 b5 93 3c eb b8 47 3c 1a fc 39 3c
       0.021206433 0.018030833 0.012190084 0.01135161
0001d0 57 e1 e4 3b 0f f0 c3 3c c7 24 32 3c 62 76 03 3d
       0.0069848704 0.02391818 0.010873026 0.03209532
0001e0 91 ac f9 3b b2 a4 9c 3b ef 4d 3d 3c 2f 67 48 3c
       0.0076194485 0.0047803754 0.011554225 0.012231632
0001f0 bb ea 52 3c 1a 05 e2 3b f3 fd e4 3c 4c 43 0a 3c
       0.012873347 0.006897581 0.027953124 0.008438896

action_model._discrete_distribution.branches.0.weight f4 [2, 128]
000000 c3 0e f7 3c fb 5d 9f bc bb 72 a7 3c 55 be 17 bd
       0.030158406 -0.019453993 0.02044045 -0.03704675
000010 ae 57 4a bd 02 03 08 bd f8 75 af bc 76 4c b2 bc
       -0.049400024 -0.033205993 -0.021418557 -0.021764975
000020 ce e2 11 bd cf af e1 3c 86 e8 36 3d 15 6f d4 3c
       -0.03561669 0.027549652 0.044655345 0.025931874
000030 65 71 09 3d 64 ab a6 bc 31 6e 0c bd b2 b6 ce bb
       0.033555407 -0.020345397 -0.034284774 -0.0063084
000040 4f d0 4c 3d 27 85 33 bd 3a 02 cb 3c 12 0c 09 3d
       0.050003346 -0.043828156 0.024781335 0.033458777
000050 1f 93 24 bd 3b 0a 32 bd 4a 36 51 3d 87 be 2e 3d
       -0.040179368 -0.043466788 0.051077165 0.04266217
000060 e9 2c ca bc 0f 14 29 bd a1 e7 c1 bc 27 89 0b bd
       -0.024679618 -0.041278895 -0.02367002 -0.034066346
000070 ea 53 10 bd 80 6b 46 3d 23 60 dc 3c 85 38 88 bc
       -0.035236277 0.048442364 0.02690131 -0.016628513
000080 71 5e c7 bc 6a 22 3a 3c e1 a3 11 bd ec c6 c3 37
       -0.024337025 0.011360744 -0.035556678 2.3338442e-05
000090 9e eb fe 3c 57 cb 14 bd 00 d2 91 3c c5 2f 8f bc
       0.03111821 -0.036326732 0.017800331 -0.017478833
0000a0 46 ac c0 bc 8c fb c6 3c c9 31 7c bd 9c b2 e4 3c
       -0.023519646 0.024289869 -0.061570916 0.027917199
0000b0 0d 2a 35 3d 7b 51 57 3b a8 9c 26 bd f4 6c 7f bd
       0.044229556 0.0032854963 -0.040676743 -0.062359765
0000c0 17 04 0a bd 0b df 04 bd d7 88 18 bd bd bf 4b 3d
       -0.033695307 -0.032439273 -0.037239876 0.049743403
0000d0 79 20 1b bd 85 df 36 3d 7a c2 cd 3c 82 58 f2 3c
       -0.037872765 0.04464676 0.025117148 0.02958322
0000e0 4c f4 bc 3c 32 17 39 3d 77 d5 f6 bc f9 51 e3 bc
       0.023065709 0.045188136 -0.030131085 -0.027749049
0000f0 ac 44 e2 3c 1d 0a 66 bd 9d 3c 4b 3a bd 36 01 3d
       0.027620636 -0.05616199 0.00077528675 0.031546343
000100 80 5d 11 3d 70 d4 98 3b f9 49 a2 3c 46 8a 3f 3d
       0.03548956 0.0046639964 0.019810664 0.046762727
000110 ef f8 13 bd cc 05 29 3d 05 b4 cc 3c 4e 60 57 3d
       -0.036126073 0.041265294 0.024988184 0.052582078
000120 8c 64 19 3d a8 9b 22 3d 2e ff f3 3c 9e 6e 2a 3d
       0.037449405 0.039699227 0.029784765 0.0416094
000130 7b 6e 1b bd fa 5c 43 3d f5 cc 09 bd 47 ac 22 bc
       -0.03794716 0.04769609 -0.033642728 -0.009928769
000140 c8 eb ed bc ff d8 42 bd d1 af 25 3d cc 1b 1a bd
       -0.029043093 -0.047570225 0.040450875 -0.037624165
000150 3c 23 8a ba b3 4e ca bc f7 7b 20 bd 73 54 15 bd
       -0.0010539065 -0.02469573 -0.039180722 -0.03645749
000160 1d 33 8f bc f3 d3 f0 bc b1 2a f7 3b 94 8f 71 3d
       -0.017480427 -0.02939794 0.007542931 0.058974817
000170 57 1d 1f bd 52 4a 39 3d 3f 04 17 3d 81 2d 33 bd
       -0.03884634 0.045236893 0.036869284 -0.043744568
000180 a2 e0 6d bd c7 93 03 bd 64 ba 4d bd 3f 1b b4 3c
       -0.058075555 -0.032123353 -0.050226584 0.021985648
000190 f5 ae 38 3d fb 02 e1 3c aa 3a 40 3c 18 03 f9 bc
       0.045088727 0.027467242 0.011732737 -0.030396983
0001a0 30 d2 dd 3c cc 0b ed 3c a2 ec b1 3c 93 30 a8 bc
       0.027077764 0.02893629 0.02171928 -0.020530974
0001b0 da 3f 4d 3d c3 0b c0 3c fa 9b 95 bc c9 ee e1 3b
       0.05010972 0.023443108 -0.018262852 0.0068949205
0001c0 cf 47 07 bd 30 43 25 3d ac 16 41 bd ad 5b 66 3d
       -0.033027466 0.040347278 -0.047140762 0.056239773
0001d0 8c c9 5a bd d0 65 7b 3d 7e 2a 4f 3d 73 96 82 3d
       -0.053414866 0.061376393 0.050577633 0.06376352
0001e0 4f dd 08 bd 65 1b 43 bd 2f 2f 0a 3d ad 4e b4 3c
       -0.03341418 -0.047633547 0.033736404 0.022010172
0001f0 bc 97 4d bd 1d a0 1e 3d 02 bb 66 3d 35 ff d6 3a
       -0.050193533 0.038726915 0.05633069 0.0016402962
000200 4a b4 08 bd 18 34 ef 3c 3c 3c 33 bd cd 44 d9 3c
       -0.033375062 0.029199645 -0.043758616 0.026522065
000210 ae c7 36 3d 74 d9 ae 3c f3 a9 51 3c bf b2 21 3d
       0.044624023 0.021343924 0.012796867 0.039477106
000220 81 0d 26 3d b1 d6 cd bc 48 97 32 bd 95 19 29 bd
       0.040540222 -0.025126787 -0.043601304 -0.041284163
000230 18 8d bb bc 9b a7 3d 3d f0 3a e1 3c 76 86 77 3c
       -0.022894427 0.04630242 0.027493924 0.015107742
000240 6b 9c ef bc 93 b5 c0 3c 44 b2 25 bd d2 90 c2 bc
       -0.02924939 0.023524081 -0.04045321 -0.023750696
000250 37 95 de 3c c0 1e b4 3c 82 79 3d bd a2 7d fa bc
       0.02717076 0.021987319 -0.046258457 -0.030577485
000260 32 cc 97 3c 8b e4 d0 3c 53 5d 73 3c 55 fd 3e 3d
       0.018529985 0.025499603 0.014853793 0.046628315
000270 68 2f 24 3d f3 23 25 bd bd 2c ed bc 87 d3 5a bb
       0.040084273 -0.040317487 -0.028951997 -0.003339024
000280 05 34 e5 3c 07 27 b9 bc d8 b2 f9 3c 3c c5 a7 b9
       0.027978906 -0.022601618 0.030480787 -0.00031999673
000290 80 8c 40 bd 8b 39 b3 3c 29 61 79 3b 76 2d 01 3d
       -0.04700899 0.021878025 0.0038052297 0.031537496
0002a0 04 83 23 3d 43 60 05 bd 3e fd fe 3c d9 16 73 bc
       0.039919868 -0.032562505 0.031126615 -0.01483699
0002b0 f8 c3 46 bd 8c 74 a2 3b fd 97 11 3d 94 51 f7 3c
       -0.048526734 0.004957741 0.035545338 0.030190267
0002c0 e5 19 de 3c dc c7 20 3d c3 30 eb 3c 8c 99 20 bd
       0.027111957 0.0392531 0.028709775 -0.039208934
0002d0 aa 1f 0b 3d 3d 65 5b bd e5 54 c4 bc 1e 28 09 bd
       0.033965744 -0.053563345 -0.023966262 -0.033485524
0002e0 9d d5 de bc 30 9a 35 bd 78 dc f9 3c 42 cf cf 3c
       -0.027201468 -0.044336498 0.030500636 0.025367383
0002f0 83 8d fc bc dc 8e 3c 3d ed 02 80 3b fa fd 09 bd
       -0.030829197 0.04603468 0.003906599 -0.033689477
000300 78 7b b3 bc 82 e8 59 3b 00 b1 4a 39 cd 2b 22 bd
       -0.02190946 0.0033250158 0.00019330159 -0.039592553
000310 d6 22 20 3d de 90 16 bd 43 fe db bc 72 ce 45 bd
       0.039095722 -0.03675925 -0.02685464 -0.048292585
000320 fc 15 97 bc 35 26 39 bd 2c db 11 bd 87 5c 4c bd
       -0.0184431 -0.045202453 -0.03560941 -0.04989293
000330 22 10 0a 3d 48 4a 71 bd 76 2f 8c 3c 56 a5 b1 3c
       0.03370679 -0.05890873 0.017112475 0.021685284
000340 1a 6d 98 3c 68 bc 2e 3d b8 e3 00 bd 01 0d 4f 3d
       0.018606711 0.042660147 -0.03146717 0.05054951
000350 ff c0 03 bc 31 82 2e 3d 48 d0 5b 3d f8 6c 09 3d
       -0.008041619 0.04260463 0.05366543 0.033551186
000360 56 db e8 3c 0a 26 c5 3c 58 99 13 bd 21 2d 56 bd
       0.0284249 0.02406599 -0.036034912 -0.052289132
000370 ca 89 3f 3d 84 cf c8 bc 56 e1 53 bd dd 1b 39 3d
       0.046762265 -0.024513014 -0.05172857 0.045192588
000380 cd b8 13 3d 31 32 0f 3d 0d 82 0e 3d f8 5f 6d bc
       0.03606491 0.034959976 0.034791995 -0.014488213
000390 ad a7 44 bd 4c 15 3a bd 96 b6 69 bc 70 1c 18 3d
       -0.04801147 -0.045430467 -0.014264723 0.037136495
0003a0 fd 09 23 bd 0d 1f 81 bd a3 2c 31 bd 73 92 56 3c
       -0.039804447 -0.063047506 -0.04325546 0.01309644
0003b0 9d 71 18 bd 85 81 46 bc 62 b6 0c 3d c3 fa 98 bc
       -0.037217725 -0.012115841 0.03435362 -0.01867426
0003c0 c5 8f 61 3d 08 67 78 bd d9 00 ec 3c d7 8d 29 bd
       0.05506875 -0.060645133 0.028808998 -0.041395035
0003d0 06 e6 f3 3c cb 86 16 bd 0e fc 14 bd bb 96 84 bd
       0.02977277 -0.036749642 -0.03637319 -0.06474062
0003e0 b1 36 10 3d 04 06 2f 3d e1 bf d9 bc 09 1d 19 bd
       0.035208408 0.042730346 -0.026580753 -0.037381206
0003f0 6b 4a 50 3d 22 60 c3 bc 21 54 30 bd 47 32 81 ba
       0.05085222 -0.02384955 -0.04304898 -0.0009856903

action_model._discrete_distribution.branches.0.bias f4 [2]
000000 00 c3 de 3b fa c2 de bb
       0.006798148 -0.0067981454
