ML-Game/results/MLBrainNew/MLGameTest1/MLGameTest1-499966.onnx (onnx, 857856 bytes, 8 tensors)

network_body._body_endoder.seq_layers.0.weight f4 [256, 315]
00000000: fc39 8f3d d941 31be 849b 833b aad7 443d
00000010: 7a0b 88bd 8b97 2b3c fc01 00bb 20c2 2fbd
00000020: 3db1 003d 0745 24bd d9a2 50bd 985c 153c
00000030: 3fc3 08bd 65bb 8f3d 40b3 8abc beb6 493d
00000040: acdb 1fbd 36b0 25bd e5ee 74bd 0ca2 9c3d
00000050: 3373 89bd c0ed 00bd a42a 26bc 2cc5 2fbd
00000060: 095b a5bd cdaa 073e 472b d53d 3186 61bd
00000070: b793 a03d 8610 8a3d 4d0b 193d 5e46 c8bc
00000080: cf56 7abd 5d87 ee3d c281 31bd a4eb 56bb
00000090: 87ec 963c 3679 86bd dd82 1f3c 55f1 14bd
000000a0: 2d43 7abb 95f9 843c fa86 a4bc a28a df3d
000000b0: 76fd aabc 1b98 81bd b5c2 b7bd 3d5f 123b
000000c0: 5077 d5ba fa52 b93b c3c5 8b3d e4f7 2cbd
000000d0: 8478 023d 6033 98bc 04d7 b9bd 545c 9dbd
000000e0: ebdf 96bd de40 cb3c bb66 17bd 8e54 51bd
000000f0: ba03 6d3d 04be bcbd c4d7 ea3b 4235 813b
00000100: 1c85 053d 05b3 60bd bba8 73bc ef3b 2dbd
00000110: 62b4 d1bd 0f65 5abc 8745 173d 8f81 dd3c
00000120: 2d20 54bd f944 313d 809a 1f3e 2b37 a03c
00000130: 52fc 993d 6816 1e3d 4f1f 0dbd 34a3 5a3d
00000140: 6176 843d 4a60 ca3c 5a4d 20bd 23c2 653d
00000150: 5524 2e3d 4f68 afbd 2edf 9abd 0272 813c
00000160: 094e ca3d 6b09 b83d 7d14 d53c 6fa4 92bd
00000170: 37d3 a0bc 6fb4 6abb a836 13be db60 71bd
00000180: cfe1 9f3c 9f80 febc a0ea 0c3d b3f1 ffbc
00000190: 4d73 823d 7543 5fbc e397 29bd b624 1d3e
000001a0: e8f4 5a3d 5447 32bd fb93 9c3d df74 353d
000001b0: 19ef f938 aa31 b63c 4267 11bd 9e79 9f3c
000001c0: 67ad 343d 629f 043b e4ba 543d fb08 04bd
000001d0: 89cb bdbd 5c1d 133d 3572 573d 1cae a93d
000001e0: 5469 51bc 9b79 ff3c b2dd 853c d234 dbbc
000001f0: 4abf f43c 4e9e 0c3d 12be b53b af4b a23d
00000200: fd5e 973b 578a bcbd 7f20 e63d 73ef 113d
00000210: ff1c 053d 28d1 1a3e 4d20 5abd b3cc f23c
00000220: b1ef 1abd 6db6 8ebd 2f84 4a3d 301e 15bd
00000230: 1862 b7bd a8cf 8c3b 8505 813d e712 e93b
00000240: 882e 063d f5e9 de3c f7fe ea3c 2cda 27bc
00000250: a130 963d 9dcf 023e 5544 32bc 861a 02bd
00000260: a0e4 bcbc d028 c73c 4c57 ddba 2170 273d
00000270: 71ab 96bb dde9 ad3c 2711 e63c b29b 133d
00000280: 013f 35bd 52e5 ef3d c90d 143d 2454 b53d
00000290: 74b5 ff3a e2e9 353d 2737 90bd a33d 653d
000002a0: df2a 8d3c 397e 763d 6678 12bd 48c4 b23d
000002b0: 850f 0bbc bd12 91bd ee05 2cbd 10b8 66bd
000002c0: c6b6 adbc b9a3 da3c 2829 9abd fc4c ec3c
000002d0: f213 7bbc dae2 73bd 6298 023d ea71 f63c
000002e0: 1394 c2bd ba05 28bd f421 2dbd 8ca8 703b
000002f0: 1247 59bd fd1e 0abc 6a67 9abd 304d 0dbd
00000300: 2ef1 a93d 89b6 47bd 659e f5bc 02c6 a8bd
00000310: a494 30bd 75a6 663c 3414 21bd 7c34 79bb
00000320: ebae fd3c f0c3 6abd 68ae a13d 84bb 0f3c
00000330: 8017 f5bc 9284 41bd a869 47bd 8725 a7bd
00000340: 01ab 173d 2689 a6bd 3bd0 ef3d 726b 41bd
00000350: 72cc 8cbd 892c e63d cf14 05bd 581c 38be
00000360: 569d 8f3d da90 9cbd 3ed2 6d3c 4be4 1abd
00000370: df46 993c 743e 4cbd 24a3 9b3d f952 78bd
00000380: 3fbf 2d3d 6f0e 0f3d a504 b23c 19b0 943d
00000390: 40d6 06be ac3e 373d a2cb 24b9 09b6 24bd
000003a0: ed61 3ebd a9ab 313c 491a 573d 85a3 5fbc
000003b0: 6efb 3a3d a115 dc3d 9df7 c8bd 2610 0ebd
000003c0: cf06 8cbc 9105 bdba d106 80bd fefc b7bc
000003d0: 2c30 38bb a1c1 2dbd d19c 6d3d 4c8c 7f3d
000003e0: 04b9 7bbd 92ee 0b3d 6297 7ebd 2f1a 3ebc
000003f0: 7599 013c c8b0 47bd 2192 afbb d1ca d8bd
0.069934815 -0.17310275 0.0040163416 0.048057236 -0.06642814 0.010473142 -0.0019532433 -0.04290974
0.031419028 -0.040104892 -0.050936554 0.009116314 -0.033389326 0.070181645 -0.016931176 0.049246542
-0.039027855 -0.04045125 -0.05979814 0.076480955 -0.06711426 -0.031476736 -0.010142002 -0.042912647
-0.08074004 0.13248749 0.10408645 -0.055059616 0.07840674 0.06741433 0.037364293 -0.024447616
-0.061117943 0.11646912 -0.043336637 -0.0032794261 0.018423332 -0.06566088 0.00973579 -0.036362965
-0.0038187013 0.016232291 -0.020083893 0.10915114 -0.020872813 -0.0632784 -0.08972684 0.0022334598
-0.0016286168 0.0056556435 0.068248294 -0.042228594 0.031853214 -0.018579185 -0.09074214 -0.07683626
-0.07366928 0.024811205 -0.036963206 -0.05110603 0.057864882 -0.0921593 0.0071668345 0.0039431164
0.032597646 -0.054858226 -0.014871771 -0.042293485 -0.102394834 -0.013329758 0.03693154 0.027039317
-0.051788498 0.043278668 0.15586281 0.019557556 0.075188294 0.038595587 -0.034453686 0.0533783
0.064678915 0.024704117 -0.03913627 0.056093346 0.042515118 -0.08564817 -0.075620994 0.015801433
0.09878165 0.08986171 0.026010746 -0.071602695 -0.019631965 -0.0035813113 -0.14376318 -0.05893026
0.019516854 -0.03106719 0.034403443 -0.03124318 0.06369648 -0.013626923 -0.041404616 0.15346035
0.053456217 -0.043525055 0.076454125 0.04430091 0.00011917781 0.022240479 -0.035498865 0.019467171
0.04411068 0.00202366 0.051936045 -0.032235127 -0.09267337 0.03591667 0.05259915 0.08285162
-0.01278146 0.031185916 0.016341064 -0.026758585 0.02987637 0.03433066 0.00554634 0.07924592
0.004619478 -0.09206074 0.11236667 0.035628747 0.032498356 0.1511885 -0.05325346 0.029638624
-0.037826244 -0.06968389 0.049442466 -0.036405742 -0.08954257 0.0042972155 0.06299881 0.007112849
0.03275922 0.027211169 0.02868603 -0.010244887 0.07333494 0.1277451 -0.010880549 -0.031763576
-0.023058236 0.024311453 -0.0016886978 0.04087842 -0.004598074 0.021229679 0.02808435 0.036037154
-0.04424954 0.11713661 0.03614596 0.08853939 0.0019509033 0.0444125 -0.070417695 0.055966984
0.017232357 0.06017897 -0.035759352 0.08728844 -0.008487587 -0.07083652 -0.041997842 -0.05632788
-0.021205317 0.026689397 -0.07527381 0.028845303 -0.01532458 -0.059542514 0.031883605 0.030083615
-0.09500899 -0.041021086 -0.04226871 0.0036721556 -0.053046294 -0.00843024 -0.07539256 -0.03449744
0.082979545 -0.048758063 -0.029982755 -0.08240892 -0.043110505 0.014077772 -0.039325908 -0.0038025668
0.030967196 -0.057315767 0.078945935 0.008772735 -0.029918432 -0.04724557 -0.048684746 -0.08161455
0.037028316 -0.08131628 0.11709639 -0.04722161 -0.06874932 0.11238963 -0.032490548 -0.17979562
0.07012431 -0.07644816 0.014515458 -0.037815373 0.018710552 -0.049864247 0.07599476 -0.060626004
0.042418715 0.034925874 0.02173073 0.072601505 -0.13167667 0.044737503 -0.00015716118 -0.040212665
-0.046480108 0.01084415 0.0525153 -0.013649826 0.04564994 0.10746313 -0.098128535 -0.03468337
-0.01709309 -0.0014421215 -0.062513 -0.022459503 -0.0028104885 -0.042420987 0.05801088 0.062389657
-0.06145574 0.034163065 -0.06215609 -0.011602922 0.007910122 -0.048752576 -0.005357996 -0.10585559

network_body._body_endoder.seq_layers.0.bias f4 [256]
00000000: 707c b2bb f687 d0bb 874b 86bc c765 e53a
00000010: f39e 5d3b 9642 4cbc e73c 523b 3602 3f3c
00000020: ee42 25bb 4f77 c6bb 01a5 59bb f06f d83b
00000030: 4f18 6a3c 666a b23b b1ba 84bc 9ff4 023a
00000040: d6b7 e83a 9404 93bc ffbc d2ba c6ff 203c
00000050: 1e04 273c ac19 913b f868 bd3b ad6b fc3b
00000060: 87d3 4fbc 9edc bd3b 31c2 96ba a64c c33b
00000070: c4df 3a3c 660c ca3b 6447 653c 0c4f 2dbb
00000080: fd5c adbb 5d4b 003c b927 0e3c c465 f83b
00000090: fb11 073b 0b64 383c b0b9 1a3c 8f84 c83b
000000a0: f175 adbb e298 603c 0d6e 1c3c b6d7 dd3c
000000b0: ff83 983c 3cd1 7ebb c251 d13b 23e4 a73b
000000c0: c999 9dbb e9e4 683c 09be 29bc 8fa7 26ba
000000d0: df2c 01ba 0572 c7bb 0b53 833c 779b 03bc
000000e0: cb68 38bb 270b bbbc a026 193c c173 563c
000000f0: a300 a43c 42e3 f33b 1420 2d3c 26a4 92bb
00000100: 769b ccb8 28b1 0f3c 3ea6 babb 1e67 b43b
00000110: 7206 a03b da6e ab3c f3fd 10bc 1b0e d73a
00000120: 8a35 613c 15d4 743b bc82 983b 09cc 813b
00000130: f3c0 163c 00ca b0bb 924e 88ba 23a5 52bb
00000140: 20f6 94bb 7484 fa3b ef48 aaba 2fce eb3b
00000150: 17cf 55bc f15c 983b 6134 053c 2667 573c
00000160: ff4c 1f3b c37e 063c fa7b 333b a4db da39
00000170: a353 b53b 31b1 dbbb 962d 6a3c 1cb1 06bc
00000180: 4093 b23b 08d1 adbb 87c5 dbba 772b ccba
00000190: 364b 473c 7517 993a 0af9 ff3b 443d 8cbc
000001a0: ee65 99ba 8329 7b3b 1af3 9f3c 43cf ef3b
000001b0: 0c51 333c 00dc acbc c50f 6c3b 6a94 71bb
000001c0: 94bf 0dbc 18d4 a839 c318 4e3c 34bd 473a
000001d0: 79d0 3fbc 7571 873c 2c0a 203b 09da 6bba
000001e0: 4d27 fa3b b9ab f7bb e5ee 113c 9281 a83a
000001f0: 4dc2 aa3b 8c3b f93b 42ce 483b 0c6b 2f3c
00000200: 04fa 123c 49eb af3b ee92 dcbb 5316 2bba
00000210: fce4 a0ba ec54 98b9 6704 2e3c 8f2c 0cbc
00000220: 810c 89bc 283f 5cbc e738 673c 7a28 9bba
00000230: 5c49 2c3b 530e 7abb b772 953b 4892 a6ba
00000240: 3f0d 953b 6710 54bb b4a4 e23b 3b96 133c
00000250: 3396 99bc 13de b53c a9c1 7c3b 1275 51bb
00000260: 42bc 64bc c51b 343c 033d 393a c8a4 c73b
00000270: 32d7 5e3b bd1d 463c 2443 193c 7db8 1cbc
00000280: 571a 19bc 8e2b 323c 2996 ff3b cd3c 393c
00000290: 0328 aa3c f015 e43b ecbb 4d3c b16f 573c
000002a0: d12f 30bb 9a7f 90ba 7842 04bc 7758 fd3b
000002b0: f6ac e9bb a9a4 ba39 e36b 653c 8755 a3bc
000002c0: 608d f0bb 1d81 e13b 0cae dfb9 0fd6 c2ba
000002d0: 0b1d 9abc b072 ba3b 2003 df3b 8e8f 79bc
000002e0: 631b 95bb b33e 1ebc 9d9a f0ba e6f4 ae3c
000002f0: 1372 e43b 2193 3a3c f735 223c e7f9 253c
00000300: 58e8 193c 19dc ad3b bf33 89bc 00e1 e7bb
00000310: 7555 183c 1d70 d53b d5bf bbba 33fe dd3b
00000320: 6392 a0bb eff9 b23c e5a4 0f3c 335c 533c
00000330: acc7 543c d1c1 c939 f7b6 ef3b ce5a a2bb
00000340: ee09 af3c a5a8 13bc 3b9d a6bb 7e58 7fbb
00000350: 46d1 a93b 1608 3a3c 826d 423b fae9 2d3c
00000360: e524 6fba 00a8 96bb d768 943c 8bc1 b83b
00000370: ba0a b53b d8ec 323c b4ac 0e3b df7d 943b
00000380: dc6f 883b 1f47 a9bb 9fb3 923b a6a0 0dbc
00000390: aad9 12bb c664 983b 5f52 f23b fdb7 dfbb
000003a0: 6ff1 29bc 687c dbba d1b8 713c ee08 173b
000003b0: 1dcf 8ebb 04c9 083c 477b a23c 7909 053b
000003c0: 192e b93b 70ec edbb 7a57 d43b 27da 173c
000003d0: 1d02 ec3b 9a4e bebb f7c9 d6b9 480b 8cbc
000003e0: f9b9 30bb f671 dbba 2589 1a3b 6a56 1e3b
000003f0: a967 d5bb 43a6 9aba 9e19 133c bc15 18bc
-0.005446963 -0.006363864 -0.016393436 0.0017501645 0.0033816665 -0.012467047 0.0032079758 0.011658242
-0.0025216895 -0.006056703 -0.0033209922 0.006605141 0.014288022 0.0054448126 -0.016202303 0.0004995558
0.0017754983 -0.017946519 -0.0016078054 0.009826606 0.010193853 0.004428109 0.0057803355 0.0077032656
-0.012684709 0.005794122 -0.0011501965 0.005960065 0.011405889 0.006166029 0.013994072 -0.002644482
-0.005290626 0.007830468 0.008676463 0.007580491 0.0020610082 0.011254321 0.009443685 0.006119318
-0.0052936007 0.013708325 0.0095477225 0.027080398 0.018617628 -0.0038882038 0.00638792 0.0051236316
-0.0048095924 0.014214733 -0.010360249 -0.00063573656 -0.0004927646 -0.0060865902 0.016030809 -0.008032671
-0.0028138633 -0.022832466 0.009347588 0.013089121 0.020019835 0.0074428627 0.01056673 -0.0044751344
-9.756435e-05 0.008770265 -0.005696087 0.0055054566 0.004883581 0.020926882 -0.008849609 0.0016407402
0.013745675 0.0037357856 0.0046542566 0.0039610905 0.009201276 -0.005395174 -0.0010399392 -0.0032141886
-0.004545942 0.007645184 -0.0012991707 0.00719621 -0.013049862 0.0046497514 0.008130164 0.013147151
0.0024307368 0.008208933 0.0027387128 0.00041743845 0.005533652 -0.0067044725 0.014293095 -0.008220937
0.0054496825 -0.0053044595 -0.0016767242 -0.0015576918 0.012163928 0.0011679964 0.00781167 -0.017119057
-0.0011703351 0.0038324303 0.0195251 0.0073184087 0.010944616 -0.021100998 0.0036020142 -0.0036862143
-0.008651633 0.0003220148 0.012579146 0.0007619441 -0.011707419 0.016533593 0.0024420125 -0.00089970283
0.0076340795 -0.0075583127 0.008907055 0.0012855998 0.0052111507 0.0076059755 0.0030640517 0.010706674
0.008970741 0.0053686243 -0.0067313826 -0.0006526459 -0.0012275274 -0.0002905497 0.010621167 -0.0085555455
-0.016729595 -0.013442792 0.014112688 -0.0011837624 0.0026288843 -0.003815551 0.004560794 -0.001270839
0.004548698 -0.003235841 0.006916607 0.009007986 -0.018748378 0.02220062 0.003856758 -0.0031960648
-0.0139609 0.010992949 0.00070662814 0.0060926415 0.0034002778 0.012092051 0.0093543865 -0.00956547
-0.009344659 0.010874642 0.007799883 0.011306 0.020771032 0.006960623 0.012557011 0.013149188
-0.002688397 -0.0011024356 -0.008072488 0.007731493 -0.0071312143 0.00035599366 0.014002773 -0.019938244
-0.007341072 0.0068818466 -0.0004266355 -0.001486482 -0.018812677 0.0056899413 0.0068057925 -0.01523198
-0.004550384 -0.009658503 -0.0018356625 0.021357011 0.0069716065 0.011387617 0.0099005615 0.010130382
0.009393774 0.0053057787 -0.016748307 -0.0070763826 0.009297718 0.006513609 -0.0014324138 0.0067746877
-0.004900263 0.021847693 0.008767341 0.0129004 0.012987059 0.00038482112 0.0073155123 -0.0049546724
0.02136704 -0.009012376 -0.0050846613 -0.0038962658 0.005182418 0.011354467 0.0029667323 0.010614866
-0.0009122624 -0.004597664 0.018116398 0.0056383065 0.0055249603 0.010920726 0.002177042 0.0045316066
0.0041637253 -0.005165949 0.004476979 -0.008644259 -0.002240757 0.004650685 0.0073950733 -0.006827353
-0.010372504 -0.001674545 0.014753536 0.0023046094 -0.004358186 0.008348707 0.019834174 0.0020299836
0.005651247 -0.0072608516 0.0064801546 0.00926832 0.0072024004 -0.00580771 -0.00040967736 -0.017095223
-0.0026966317 -0.0016742337 0.002358028 0.0024160394 -0.0065126014 -0.0011798817 0.008978276 -0.009282526

network_body._body_endoder.seq_layers.2.weight f4 [256, 256]
00000000: 2d31 ce3b 0d76 82bb dad1 beba 688b 413c
00000010: b23f e4bc fcba 04bd 1929 1ebd 0445 41bc
00000020: d760 803d 945e b5bb 465d 123d b8bd 63bd
00000030: f402 3d3d e686 9e3d b2cf 08bb 8f35 5f3c
00000040: 106b 4b3c 879b 87bd 2a50 d1bd 4c49 b13b
00000050: 0195 dcbc 234f cb3d 89e5 943c eb6e 533d
00000060: ee53 533c 7be4 6bbd b609 a53c 01b8 1a3d
00000070: 3140 453d 8ae5 30bd 2f4a 313d 194e b63d
00000080: 9fb8 f03c 98ec c4bc 3f24 bbbd e439 73bd
00000090: cdd8 b13d fb30 d9bd 61b7 fa3d 662e 483d
000000a0: 5df4 b43c 13a2 bc3c eb6b f43d 2548 3abd
000000b0: 8ccf 0abd cf81 0b3d 92b2 afbc 698d 593d
000000c0: 5e40 f83c 5ee2 14bd 575c 15bd 7900 6d3d
000000d0: e1f9 eb3d d96b 9cbc 95a1 70bd 1bcd 633b
000000e0: 2e51 a0bc a95c 1b3d 02c6 11be 29d8 583c
000000f0: 2d16 e9bd d2b9 873d f117 c5bc f543 963c
00000100: 5106 363d bbce a83d 6ffd b1bc f53d a6bd
00000110: 6aaa acbd 3776 3c3d 115e 413d ffba af3c
00000120: 8dec a1bd 72d9 a9ba 23b9 06be b089 b63c
00000130: 5a02 7c3c 3b49 0a3d b0bc a93d de10 c83d
00000140: f23d 93bb 9593 1fbd 54d4 18be 53ae a4bd
00000150: fc60 16bd a97b 96bc f566 38bd 1a6f aa3c
00000160: 801e e33d 8ad9 cdbc 112d 773d 7c8c a73a
00000170: 2a32 aabd e048 b23c dac7 71bc e67b 873c
00000180: 7069 9ebd b1a8 0cbd 2a4c d7bd df3a e53d
00000190: 81ac 113d 22b0 e2bd 83a2 cdbc d9c3 a73b
000001a0: 7413 b5bd 8ec8 00be da4b 993d 3256 afbc
000001b0: 56b7 903c 77cb 06bc b9d2 8f3c ea61 143b
000001c0: 64a7 83bd bd92 193b eb82 e63d 9733 213d
000001d0: 93c3 903d 191c e8bb 548a 9e3d 64a8 0a3c
000001e0: 810d 8abd c20a d83b 345a c0bd 57e8 b43c
000001f0: 809c 0ebd b15c 79bd 30d9 703d 416a 283d
00000200: 93e0 d33d c125 49bd cdf8 c13b e7ee fb3d
00000210: 0b09 a53c 5bb1 be3b 1d87 43bd d4a7 02bd
00000220: a826 a43d 1c5d 1f3d 394c 7cbd 870f 6d3b
00000230: ce6e f0bc 3438 123e af31 183c 9942 08be
00000240: adc3 c43d f55d 17be eb2e 083e 6b33 473c
00000250: 4948 a5bd 8453 0e3d e73c 0f3e 4542 1bbd
00000260: 5c4c 0abe 3c7f cf3b 52a2 123b 3257 483d
00000270: 2537 ba3d 9f17 d1bd 33cc abbd ba44 3dbd
00000280: 9f11 ddbd 9fc3 0fbc a45d 0b3e e5f7 923b
00000290: 9379 c33d f250 9e3d 1029 7a3d 4edd c13d
000002a0: 5a56 b53c 9cd9 913d be2b 7f3d d98b e83d
000002b0: 089a 6f3c 84b0 83bb b715 84bc e7f4 2d3b
000002c0: 2f09 87bb 3e22 e6bd 46db fe3c 8f3a b43d
000002d0: 79d0 87bd fcdf 873d dd61 c3bd e7d2 a73d
000002e0: 1f89 d8bb cc1e b83d 5290 993d 38d9 243e
000002f0: 7a77 9dbc 5caf acbd c94d ddbc 9549 d33b
00000300: 9b2d 013c d1e5 b4bd 6cd1 a7bd c79c dbbd
00000310: b71a 9fbc 2ff0 4b3d 0d2c b23d 6414 213d
00000320: a693 893d 81c7 a43b 4678 bebd 3f9a f6bc
00000330: 3182 683d 2c8e a8bc 9b4e 3a3d 6430 3a3d
00000340: 6a43 443d 938e 6e3b ab3a f4bd f0b6 9c3c
00000350: 3046 ef3c 6559 8abd 4b75 e0ba 3ebd 3abc
00000360: 0672 d4bc 74d1 aabc 43ab a4bc 39c1 2dbd
00000370: 97d5 8b3d f12e 413d eb32 1ebd 2c01 a83c
00000380: 1e72 433d a78d 913d 5df9 8638 112d 8ebc
00000390: b43c 2fbe ac39 3a3d 4303 803b eb70 9dbb
000003a0: ea73 c3bd df23 36bb 70f1 a33d 336d 84bd
000003b0: 14b9 01be 1f02 bebc 833b 9e3d 15aa ba3c
000003c0: 4205 d3bb 1e0d 153d 9d7e 843c 6c64 933d
000003d0: 93bf ed3d 8df1 f7bc ff72 913d 98ce 40bb
000003e0: 99d2 c83c 2bc1 6f3d 89f2 3fbd 31f5 c63d
000003f0: a307 9cbd ab57 a83d c8c2 6dbd b9a1 3d3d
0.0062924833 -0.003981358 -0.001455839 0.011813022 -0.027862404 -0.032404885 -0.038613413 -0.01179624
0.06268471 -0.005534956 0.035733484 -0.05560085 0.046145394 0.077405736 -0.002087575 0.013623609
0.012415662 -0.06621461 -0.10220368 0.005410349 -0.02692652 0.099272035 0.018175857 0.05161945
0.012898428 -0.057590943 0.020146232 0.037773136 0.04815692 -0.043187656 0.043283638 0.08901615
0.02938491 -0.024038598 -0.09137773 -0.05938138 0.086839296 -0.106050454 0.12242008 0.048872374
0.022089178 0.023026502 0.11934646 -0.04547896 -0.03388934 0.034059342 -0.021447454 0.053113375
0.03030413 -0.036348693 -0.036465015 0.05786178 0.1152227 -0.019094395 -0.058747847 0.0034759704
-0.01956996 0.037930164 -0.1423569 0.01323513 -0.11381183 0.06627239 -0.024059268 0.018342951
0.044439618 0.08242556 -0.021727292 -0.08117286 -0.084309414 0.046011176 0.04720885 0.021451471
-0.079064466 -0.001295848 -0.13156562 0.022282451 0.01538142 0.033761244 0.082879424 0.09768842
-0.0044934684 -0.038959105 -0.14924747 -0.08041062 -0.036713585 -0.018369513 -0.045020062 0.02080493
0.11089802 -0.025128145 0.060345713 0.0012782956 -0.08310349 0.021763265 -0.014757121 0.016538572
-0.07734954 -0.034340564 -0.10512574 0.111928694 0.035564903 -0.11068751 -0.025101906 0.0051197824
-0.08841601 -0.12576506 0.07485171 -0.021403406 0.017665546 -0.008227221 0.017556535 0.002264137
-0.064284116 0.002343341 0.11255439 0.03935584 0.07068553 -0.0070834276 0.07741228 0.008462999
-0.06740857 0.0065930793 -0.09392205 0.022083445 -0.03481722 -0.060879413 0.058800876 0.041116957
0.103455685 -0.04910827 0.005919552 0.123014264 0.020145914 0.0058194823 -0.047736276 -0.031898335
0.080151856 0.038907155 -0.06159613 0.0036172585 -0.02934971 0.14279252 0.009289189 -0.13306655
0.09607635 -0.14781936 0.13299148 0.012158255 -0.08070428 0.034747615 0.13988076 -0.037904996
-0.13505691 0.006332306 0.0022374582 0.04891128 0.09092549 -0.102095835 -0.08388557 -0.04620812
-0.107943766 -0.008774667 0.1360994 0.0044851177 0.09544673 0.07730283 0.061074317 0.09466039
0.022135902 0.07121584 0.062297575 0.11354799 0.014624126 -0.004018845 -0.016123636 0.0026543678
-0.004120968 -0.11237 0.031110417 0.08800232 -0.0663156 0.066345185 -0.0954015 0.08194523
-0.006608143 0.08990249 0.0749823 0.16098487 -0.01922201 -0.08431885 -0.02701463 0.0064479806
0.007884408 -0.088328965 -0.08194241 -0.10723262 -0.019421918 0.049789604 0.08699808 0.039326087
0.06717615 0.0050286655 -0.09300284 -0.030102847 0.056764785 -0.020575605 0.04548512 0.045456305
0.047915854 0.0036400899 -0.119252525 0.0191302 0.029208273 -0.06755332 -0.00171248 -0.011397658
-0.025933277 -0.020851828 -0.020101195 -0.0424206 0.068278484 0.047163907 -0.038622778 0.020508371
0.047716253 0.07107096 6.4360655e-05 -0.017355474 -0.17113 0.045465156 0.003906639 -0.0048047206
-0.09543593 -0.0027792377 0.08005035 -0.064661406 -0.12668258 -0.02319437 0.07726195 0.02278618
-0.0064398358 0.036389463 0.016173655 0.07196888 0.116088055 -0.030266548 0.07102012 -0.0029420014
0.024514483 0.05853383 -0.04686216 0.09714735 -0.07618644 0.08219846 -0.058047086 0.04629681

network_body._body_endoder.seq_layers.2.bias f4 [256]
00000000: 42ed 2d3c 441b 013c 638b 00bc 56a1 e43b
00000010: d551 0f3c 57a2 ca3b a979 473c 7efa 0cbb
00000020: 54b3 bc3b dbda 303c 016c 923c 272d 283b
00000030: 1e00 343c 2d89 fd3b 76ef 2539 bf7f 093c
00000040: 9b27 d93b 5bc8 85bb 04db 1e3b ecc6 88ba
00000050: 9251 4c3c ac48 9a3c edcf 423c 024b ee3b
00000060: 894a 1e3c 237e 4f3c 6cbe a0bb 49a1 fe3a
00000070: 98da 2b39 c862 1bba 6023 cfbb 8f57 0a3c
00000080: 3dc5 023b c52e 983a 2789 88ba d65f c03a
00000090: 7039 e3ba 58b7 2d3c 5b71 6b3c 1099 483c
000000a0: 99b3 293c e91f ab3b 4c51 cabb 8a3b b03a
000000b0: 4bc8 82bb e12e 223c 9abc 353c 3fa3 21bb
000000c0: 4080 623c af8f e8b9 983e eeb9 64e2 24bb
000000d0: 2471 abbb 60dc 69bb 627d a63c 76e8 eb3b
000000e0: b52b 883c fb53 023b 83c7 163c 0881 87ba
000000f0: f3e2 963b 8179 c3bb 0610 86ba 3a93 86bb
00000100: aae6 473b 6bbe cdb9 4ffe a23b ed91 99bb
00000110: e3d7 113c 32b2 0fbc 50a5 d43a abd5 68bb
00000120: 918d 9abc e2e0 ad3b a6d3 1abc 481f 1a3b
00000130: de65 06bb 8542 4d3c 58d3 953c cacd 133b
00000140: ad87 f03a 0bce aab8 4f9f 603c d285 c93b
00000150: d198 c93b 4e75 833a 0756 4e3c 1bff 193c
00000160: a6bf 053c a5c8 f73b 8986 4c3c 50c7 e53b
00000170: 896d d83b f368 bfbb 0033 e6bb e814 103c
00000180: dc24 673a debd 04bb a1b3 163c c8d1 1ebc
00000190: 3e1f 65ba 04d2 5e3c cea6 933b 00b6 2d3c
000001a0: 01b8 373c 1fb0 223c ea65 b8bb 41a8 cfbb
000001b0: dfdf 00bb f858 cc3b f765 103b 49c9 823a
000001c0: b1e2 a2b9 9738 0e3c 4c64 08bc c30b 5f3c
000001d0: 961d 46ba 82bd 37bc 5568 5bb9 301c 793c
000001e0: 0d7f 3c3c 5f19 4a3c 5630 593c 167e c33b
000001f0: 5a85 74bc 68d1 893b c7b8 913c 4c99 e1ba
00000200: 1caf c0bb 67fc 15ba 6bba c53b fa37 563b
00000210: 5990 183c aa04 b13b 3bd0 1dbc e361 ba3b
00000220: 0715 2a3b a743 62bc e434 e93b 6020 063b
00000230: 2228 423b 17f9 26bb c04a 413c 944a a6bc
00000240: 04f8 f73b cf03 c33c 7028 75bb 2e99 19bb
00000250: 23c7 a53b 9b17 4f3c 6ba3 7a3c 20f3 533b
00000260: 2f94 5c3b daab 4fbc ade4 1c3c 0ae7 ce39
00000270: bd72 f53b c707 ce3b 09b1 b93b def0 dd39
00000280: a0f5 ceba 8603 1bbc 5a83 84bc f2f1 4abb
00000290: 7119 09bc ccf6 623b 64b9 673c 99b9 733c
000002a0: 7a9d 3b3c 7c19 ab3b c158 d13b d154 0a3c
000002b0: 7414 113c c534 5f3c fcc7 ca3b 5ea3 513c
000002c0: 69f4 503b 0769 633c 602d 18bc cf54 483c
000002d0: a8b1 963a 5b83 05bc 5705 ef3b 70d3 933b
000002e0: 90ea 9bbb f053 dd3a dfca f83b c7bc 8d3a
000002f0: e1df f0ba f1dc ce3c 13cc 32bc 91cc 983c
00000300: 1432 203c 3119 11bb 8fda a83b b445 ab3b
00000310: 0f00 c4bb 2407 9a3c 5d7d bcbb 9fcd 843b
00000320: ab30 4fba cf94 16b9 105a 93bc da25 f13b
00000330: ebac 98bb 1caf 453c a2ef 313c 49e4 113c
00000340: 4d8a bf3b 7c6e f03b 17eb 2ebb 83e7 efba
00000350: 6719 9b3b bc3c 7dba 292a 7ebb 517d c5bb
00000360: 8258 863b c467 d03b f993 113c 1182 2d3c
00000370: 970e 51bb e55c 1a3c 9cf9 003c 4c9d 82ba
00000380: cd3c d33b c7f5 d8ba 0d29 d1bb 2e8c d6bb
00000390: 918c 0a3c 160c 6a3c 3ef0 a3bb 9d73 853b
000003a0: 6c8a 963b 5cb6 673c e224 19ba 1c11 a9bb
000003b0: 0fe2 09bb 6815 503b ba87 60bc 4a1d f23b
000003c0: dc8b 863c def4 213b bc95 14bc 6b38 133c
000003d0: 8bfc 72bb 22eb 68bb 872f 3d3c d569 bbba
000003e0: 292e 2cbc 71d5 5b3c 89e1 053b eb34 a03c
000003f0: e4dd 4ebc 0055 223c 6bb7 363c 6b56 573b
0.010615649 0.007880036 -0.007845732 0.0069772406 0.008747538 0.006183903 0.012175002 -0.002151161
0.0057586823 0.010794367 0.017873766 0.0025661679 0.010986356 0.0077373 0.00015824832 0.008392273
0.006627036 -0.004082722 0.002423943 -0.001043526 0.01247062 0.01883348 0.011890394 0.007272125
0.009661325 0.012664351 -0.0049055126 0.0019426729 0.00016389263 -0.00059275003 -0.0063213557 0.008443727
0.001995399 0.0011610618 -0.0010416851 0.0014676999 -0.0017335843 0.010602795 0.014370288 0.012243524
0.010357761 0.00522231 -0.006174242 0.0013445478 -0.003991162 0.009898872 0.011092329 -0.0024663953
0.0138245225 -0.0004435754 -0.00045441533 -0.0025159353 -0.0052319933 -0.0035684332 0.020323459 0.0071993424
0.016622404 0.0019886482 0.009202841 -0.0010338137 0.004604691 -0.005965412 -0.0010228164 -0.0041069062
0.0030502477 -0.0003924252 0.0049741636 -0.004686585 0.008901569 -0.008770512 0.0016223583 -0.0035527747
-0.018866332 0.005306349 -0.009449875 0.002351718 -0.0020507495 0.0125280665 0.018289253 0.002255308
0.0018350981 -8.14461e-05 0.013709857 0.006149986 0.0061522503 0.0010029466 0.012593753 0.009399201
0.008163368 0.0075617605 0.012483248 0.0070122853 0.0066048545 -0.0058413683 -0.0070251226 0.008794047
0.0008817443 -0.0020254771 0.0091981 -0.00969357 -0.0008740312 0.013599876 0.0045059687 0.010602474
0.011213304 0.009929686 -0.0056273835 -0.006337196 -0.0019664688 0.006236192 0.0022033432 0.00099782
-0.00031067946 0.008680484 -0.008324694 0.013613644 -0.0007557509 -0.011214616 -0.00020924334 0.015204474
0.011504901 0.0123351505 0.013256153 0.0059659583 -0.014924372 0.0042058714 0.017788304 -0.0017211824
-0.0058802497 -0.000572151 0.0060341856 0.0032687173 0.009311759 0.0054021673 -0.009632166 0.0056879385
0.0025952475 -0.013810075 0.0071169008 0.0020466074 0.0029625972 -0.002547806 0.011797607 -0.020299233
0.0075674076 0.023805527 -0.0037408136 -0.002343725 0.0050591393 0.012639905 0.015297751 0.0032340959
0.003365766 -0.01267525 0.009576005 0.0003946352 0.0074904845 0.006287548 0.005666856 0.00042331865
-0.0015789755 -0.009461289 -0.016175915 -0.0030966965 -0.008367882 0.0034631966 0.014143322 0.014875793
0.01145112 0.005221544 0.006388754 0.008443073 0.008854974 0.013623421 0.006188391 0.012795297
0.003188396 0.013880021 -0.009288162 0.012227251 0.0011497037 -0.008148993 0.0072943377 0.0045112893
-0.0047581866 0.0016885977 0.0075925435 0.0010813706 -0.0018377268 0.025251837 -0.010912913 0.018652232
0.009777565 -0.002214026 0.0051530073 0.005226815 -0.0059814523 0.018802233 -0.005752249 0.0040528323
-0.00079036754 -0.0001436055 -0.017987281 0.0073592486 -0.0046592853 0.012065675 0.010860356 0.008904525
0.005845344 0.0073373895 -0.0026690417 -0.0018303249 0.004733253 -0.0009660234 -0.0038782454 -0.006026902
0.0040999064 0.006360026 0.008885377 0.010590092 -0.0031899565 0.009421562 0.0078720115 -0.0009965091
0.006446457 -0.001655274 -0.0063830675 -0.0065474724 0.008456365 0.014285108 -0.0050030043 0.00407262
0.004594138 0.014142599 -0.0005841983 -0.0051595103 -0.0021039282 0.003175104 -0.013704235 0.0073887454
0.016424112 0.0024712603 -0.009068903 0.008985619 -0.0037076797 -0.003554054 0.011546976 -0.0014298508
-0.010509052 0.013417588 0.002042862 0.019556483 -0.012626145 0.009907961 0.011152129 0.0032857906

network_body._body_endoder.seq_layers.4.weight f4 [256, 256]
00000000: e3cf 603d 8a8a 2dbc 16d0 2fbe 1edf a53d
00000010: e778 9c3d 9682 bb39 3d58 193e aa70 e03c
00000020: b77a 71bc 4367 1d3d f3a5 09be 6412 91bd
00000030: 4245 aebd 4435 92bc 49b1 893c 5252 413d
00000040: a092 6c3d 25ba 93bd bc3e 933c d5e6 903d
00000050: 86b5 c7bb 5a00 ec3c 2ba1 153d 9605 9e3d
00000060: a49a a33d 5162 353d 14cd 163d fb2f 05be
00000070: 8b4d 35bd d4bb a3bc 6757 aabb 1bbf 1b3d
00000080: 30a0 2ebc a7e7 873c d0ba 863c 8bf7 d9bd
00000090: b0da 323d 3e3b e13c a658 b1bc 7904 203d
000000a0: 5cbf e13d a547 b3bb dba1 4dbd c1c6 98bc
000000b0: cd4a dbbc 9842 bbbd 1704 843c c5e8 7bbc
000000c0: 4c4e 39bd cfe9 13bd 5508 e23d a262 c43d
000000d0: c4ac 363d 4528 d6bc f36e 24bd f433 043e
000000e0: 4e5d 5bbd 7c94 b03d 96f4 a43d 246a c33c
000000f0: dfd1 7d3b a680 8abd 9b5b a03c e68b 34bd
00000100: c28b 9f39 501e a23d bbc8 efbc 7867 edbd
00000110: 3f76 9dbc 7492 123d 7470 38bd 4b57 43bd
00000120: 8481 883d 4b71 cfbd 0f31 2fbd ef5d 1abd
00000130: edeb 7abd f48a 053d 9e58 03bd f123 b23d
00000140: 985f 55bd 0fc1 2cbe 6c77 fbbc 117d a7bd
00000150: bc29 5a3c 7f58 01bb 0313 51bd 03ba 0ebc
00000160: f2e4 1e3d cf48 5bbd b535 8f3d 32fb 033d
00000170: f792 ee3d b3e6 09bd 94c8 81bc 79f7 dc3d
00000180: 52d7 a8bd 6e84 64bd d3ea ea3d b92c 97bc
00000190: 0fbc 71bd b32e 183d 2847 843c b7ef 95bc
000001a0: 15f5 013e 7b46 b23d f502 8ebd 8d86 bcbd
000001b0: e636 f93c 7b64 e3bd efee ab3d ff8b 5cbc
000001c0: bd28 ecbd 3188 793d 468f 6bbd 110c de3b
000001d0: 8b9c e2bc eb86 07bd e3e1 6ebc 826f 1d3e
000001e0: fd48 703d ffc1 8f3d 2ea7 22bd 6db3 bf3d
000001f0: a9b3 85bd 66d7 273c 8e5a bbbd 87d9 e2bc
00000200: 547b 283d a6fd adbc 8141 f93d be0a 663b
00000210: 6751 4fbd 5937 013d 47c6 b7bb 8e72 a8bd
00000220: 53d6 7cbd bef1 083c c65c bd3d 3c5c 1e3e
00000230: a42f 33bd d81e bbbd 008e cb3c 46d4 b1bc
00000240: 0c51 ae3d 5191 353c eeb4 5cbd ce66 08bc
00000250: fd6b fcbd e9fd 623c 8350 563d 3947 813c
00000260: 1898 cb3d d4ed b6bc 150f d0bc 201c 0c3d
00000270: 7037 db3c 4294 a43d 54ac 2c3d 7676 6ebd
00000280: d7c5 0a3d 9249 01bd cb87 32bd 8c7f 88bd
00000290: 6231 60bd a8e8 39bd 7645 803a 668e 093d
000002a0: d57c 883d 6e6c e63d 6237 9e3d 10c0 803d
000002b0: 3408 bc3d 5d17 9e3d 6224 bb3b 011d c23d
000002c0: c265 96bc 588b ebbc 6385 02be 14ba c13c
000002d0: e993 e33b 310c 443b 83bf abbb 8d40 383d
000002e0: f322 0cbd 4498 833d 8bb4 1fbd 65bd 99b9
000002f0: 2659 38bc 6573 8cbb 9fc6 a03c 334f bf3c
00000300: ac4c 4e3d 9fdc aebd f618 42bc ba12 783d
00000310: 055d 253d fa22 8c3d db97 323d 26b2 7cbd
00000320: ccc9 21be f80b b4bd a1bd 0bbd 9415 b3bc
00000330: cbf0 f1bc 5f48 06be 74fe b83d 969a 62bc
00000340: ed17 a2bd 6823 42bd 051d 9cbd d96f ee3d
00000350: eb3c 173e 0e15 9fbd c3e8 ffbd a261 253d
00000360: 96e1 a9bc dc9a 76bc 3286 aa3c 0c48 b73c
00000370: 26be 8bbd 28ae a23c 9302 803c 9a0a 93bc
00000380: d9d1 ca3d f9bc 043c 55f0 033d 92ae 9abd
00000390: 4d12 abbc 44e2 773d 132c 2fbe 48ca d23c
000003a0: 3e3a 03be 246b 0d3d 869d 71bc a702 08bd
000003b0: fafd 24bc f930 f33d c189 343d 10e5 07bd
000003c0: 6390 953d 4176 933d c89d 60bd c996 aabc
000003d0: 035b 343c bed8 013e ef24 d93d 4068 523d
000003e0: d8b3 543d 1a7f eb3c ea43 12bc 6ed5 6abb
000003f0: 576f d43b 2feb a33b c3e3 77bd 3a34 2f3d
0.054885756 -0.010592112 -0.17169222 0.08099197 0.07640248 0.00035764714 0.14975066 0.027397472
-0.01473873 0.038428556 -0.13442211 -0.07083586 -0.08509304 -0.017847665 0.016808169 0.047197647
0.05775702 -0.072132386 0.01797425 0.07075278 -0.0060946373 0.028808761 0.036530655 0.07715909
0.0798848 0.044283215 0.03681667 -0.13006584 -0.044263404 -0.019987024 -0.0051984075 0.03802405
-0.010658309 0.016589953 0.016446501 -0.10642918 0.043665588 0.02749407 -0.021648716 0.039066765
0.11022827 -0.005471187 -0.050203186 -0.01864946 -0.026769066 -0.09143561 0.016115231 -0.015375321
-0.045240685 -0.03611165 0.110367455 0.09589125 0.044598356 -0.026142249 -0.040144872 0.12910444
-0.05355578 0.08622071 0.080544636 0.023854323 0.003872983 -0.06762819 0.01957493 -0.04407873
0.0003043097 0.07915938 -0.02927052 -0.11592001 -0.019221423 0.0357842 -0.04502912 -0.04769067
0.06665328 -0.10129031 -0.042771395 -0.03768724 -0.061260153 0.03260322 -0.032066934 0.086982615
-0.05209312 -0.16870521 -0.030696593 -0.081781514 0.013315614 -0.0019736586 -0.05104352 -0.008711341
0.038792558 -0.053536233 0.06992666 0.03222198 0.11649125 -0.033667278 -0.015842713 0.10789389
-0.08244194 -0.055790357 0.114705704 -0.018453943 -0.059017237 0.03715391 0.016147211 -0.018302782
0.12691148 0.08704849 -0.06934158 -0.09205351 0.030421685 -0.111031495 0.08395182 -0.013461112
-0.11531208 0.060920898 -0.057509683 0.006776341 -0.027662536 -0.033087652 -0.014580223 0.15374568
0.058663357 0.07019424 -0.039710216 0.093603946 -0.06528408 0.010244226 -0.09148131 -0.027691616
0.04113324 -0.021239113 0.12170697 0.0035101618 -0.05061474 0.031546924 -0.0056083533 -0.082249746
-0.061727833 0.008358417 0.09246211 0.15464872 -0.043746606 -0.09136742 0.024847984 -0.021707665
0.08511552 0.011082009 -0.053883485 -0.008325292 -0.12325285 0.013854482 0.052322876 0.015781032
0.09941119 -0.022330202 -0.025397817 0.03420651 0.026759833 0.080360904 0.042156532 -0.058218442
0.03388008 -0.031564303 -0.043586534 -0.06664953 -0.054734595 -0.045387894 0.0009786326 0.033583067
0.06664435 0.1125115 0.07725407 0.06286633 0.09181252 0.077193 0.0057111243 0.09478188
-0.018359069 -0.028752968 -0.12746195 0.0236483 0.0069451225 0.0029914493 -0.005241336 0.044983435
-0.034213018 0.06425527 -0.03899054 -0.00029323544 -0.011251723 -0.004286217 0.01962596 0.023353195
0.05036609 -0.08538174 -0.011846771 0.060564734 0.040371913 0.06842609 0.043601852 -0.061693333
-0.15799636 -0.08791345 -0.03411639 -0.021860875 -0.029533764 -0.13113545 0.09032908 -0.0138308015
-0.0791472 -0.047397047 -0.076227225 0.11642427 0.14769332 -0.07767688 -0.12495568 0.040376313
-0.02073745 -0.01505157 0.020815942 0.022373222 -0.06823377 0.019858435 0.015626227 -0.017949391
0.099033065 0.008101695 0.03221162 -0.07552828 -0.02088275 0.060518518 -0.17106657 0.02573122
-0.12815186 0.034526005 -0.014747029 -0.033205654 -0.010070318 0.11874575 0.044076685 -0.033177435
0.0730293 0.072002895 -0.054837972 -0.020823853 0.011008027 0.12680337 0.10602748 0.05136895
0.051929325 0.02874713 -0.008927325 -0.003583278 0.0064829993 0.0050024013 -0.060519945 0.042774417

network_body._body_endoder.seq_layers.4.bias f4 [256]
00000000: c0d3 c83b 21d8 6fbb 713f d53b 7105 ea3b
00000010: 52a6 053c c6d5 d3ba b4af 303c b8af 5d3c
00000020: 1bfe 343c e603 4b3c ecc7 ea3b 8bd2 3e3b
00000030: d64f 5f3b 1405 943a 6cfe 3b3b 74e3 2539
00000040: e680 643c 63b5 093c 367c 383a bdd7 d2b9
00000050: ada7 99ba c98d 1a3b 5e49 a93b e7b3 06bc
00000060: 8deb 82ba 1045 b63b dd9d 533c c84e babb
00000070: 8ac2 403b 3b30 323c 27c4 ec3b 7d8f da3b
00000080: de79 03bb 6fa5 2cbb 75fa c73b 0440 3b3c
00000090: 7e6d d53b c3da 163c 7b54 cb3b ac3a 383c
000000a0: 1f90 6f3a 05fd 6cba 45af 973b 12e3 d73b
000000b0: 5cc9 2a3c 2c1d 9e3b 9af4 d0ba 8888 2a3b
000000c0: 91f7 0e3b 2391 133c 5216 ab39 a99d 0439
000000d0: 7d5f 323c 0f4f 063c 4090 a7ba 9a20 b5b9
000000e0: 1dd3 b3b9 d16e 48bb 5ba9 393c e7e8 b53b
000000f0: 8b75 053c 8065 3fba 8f76 7e3b fea3 a5bb
00000100: eb5b 903b 4199 0f3b 953d 373c 4d26 973b
00000110: 77de b1ba bddc 273b 236b a139 907e 1a3c
00000120: 1335 d13b 6211 603b a6b4 2e3c efbe 0d3c
00000130: 0a9c 80bb 073b 3c3c f92d 4b3c 629a aab9
00000140: 3c59 e13b 0ec3 5a3c 6bfc 3fbb be9a 2e3c
00000150: 5600 983b 465b 383c 688f f43a 1756 e03a
00000160: f759 3d3a d183 27bb 87a9 1abb eb68 e43a
00000170: c556 87b9 e7e7 e93b eb18 323c 870c 273c
00000180: a583 e7ba 4cbe d63a 4acb 703b 9508 97bb
00000190: 3862 453c f76a c33b 20ec 813c 5334 bfbb
000001a0: ce5e b137 3ef8 e03b eaf2 8e3b 0dc3 903b
000001b0: 5726 143b 930c 0a3c d871 9b3b 41fd cbba
000001c0: 806f e13b 1d9c f03b ec5b bb3a 2a31 543b
000001d0: e24a 033a a9a8 463c 788f 0a3c eed2 2cbb
000001e0: 0b61 043b d59c 353c 4c1c 843a 8690 5c3a
000001f0: 9ce6 563c 5d88 2e3b d2f9 fb3b f9ca fa3b
00000200: 2b8e 8b3a e6e9 af38 5080 013c ec3a 043c
00000210: 5ff0 163c 0577 273c c8f6 2a3c 51a0 1ebb
00000220: 216f 213c 6bfe 2a3c 85a4 313c cb21 70ba
00000230: 24c4 a23a 3501 043c bc46 a83b 32a4 1b3b
00000240: 4a55 283c 69ac 323c 6cf1 7f3a 93d1 ac3a
00000250: a115 043c 5fc5 093c f8a6 0f3c e628 bd3b
00000260: ab75 fc3b b758 153c 38c1 c53b 7230 beb9
00000270: 9492 043c 06d9 423b 72d9 14bb 8bb2 9339
00000280: 2562 a13a 03f7 aeba 0eff 3cba d10e 92ba
00000290: 7371 99bb c039 b43b d445 833a 9276 543a
000002a0: 774f 363c 9141 e23b ec8f 18bb e93d 2a3c
000002b0: 285a 46b8 66c2 feba bdaa de3b 016c 7cba
000002c0: 2861 ccb8 826a 793b 6d9b 4d3c b5c3 8136
000002d0: 7909 753b 6d3a e03a 0381 f43b 2cc3 133b
000002e0: 1967 d5ba f982 d73a 96eb 303c a946 9f3b
000002f0: f1d3 eb3a db5d 6a3b 8470 783c 6af9 0d3c
00000300: 8e30 d23b 6823 673c 36df 823b 2335 5f3c
00000310: 78f7 003c c2c5 6a3c 35b7 403b 5686 85bb
00000320: 2b93 143b 2288 4e3c 778f 69b9 68cd 16bb
00000330: e0d0 d53b 4c87 4b3b 65bb 5e3c d884 933b
00000340: 1704 323b 0b9d f53b dfad 473c 2461 a93b
00000350: 88f8 0b3c d432 423c 4f45 d03b d6f6 66bb
00000360: f0fe 133c 1177 ebba 3256 253c 2c7d 32ba
00000370: d40d 8b3c b854 7c3b 89ef 0a3c 96f1 373c
00000380: fa45 90ba b5f7 873c 464c d33a 4604 2cbb
00000390: 122b 273c cc97 903a 6109 d53b 3c2d 233c
000003a0: d403 db3a 5244 b63a 9140 b43b 0d44 95ba
000003b0: 9514 393c 99f9 523c 16ca 2abb 6e61 063c
000003c0: 91bf 933b 7869 333c 3007 753b c33e ef3a
000003d0: b57d 963b e2fe 9d3c a5a1 013c 9a34 f5ba
000003e0: 31c9 3abb 5913 d939 d72f 103c 54a7 f0b9
000003f0: dde0 033c 5c74 15b8 52c2 2b3c b2c7 223c
0.006128758 -0.0036597329 0.006507807 0.007141762 0.00815733 -0.0016161732 0.010784078 0.013530664
0.011046912 0.012391066 0.007164946 0.0029117193 0.0034074686 0.0011293017 0.0028685583 0.00015820359
0.013946747 0.008405062 0.0007037552 -0.0004021506 -0.0011722945 0.0023583046 0.0051662168 -0.008221603
-0.0009988412 0.005562432 0.0129160555 -0.005685661 0.002941283 0.010875757 0.0072255316 0.006669937
-0.0020061652 -0.0026343723 0.006102855 0.011428837 0.0065132966 0.00920743 0.006205139 0.011244457
0.0009138602 -0.00090403884 0.004629048 0.006588348 0.010423984 0.004825255 -0.0015942038 0.002602132
0.0021815042 0.009006771 0.00032632292 0.00012647234 0.010887024 0.00819756 -0.0012784079 -0.000345473
-0.00034298832 -0.003058363 0.011331881 0.0055514458 0.0081457 -0.00073011965 0.003882799 -0.00505495
0.0044054887 0.0021911415 0.011184116 0.00461272 -0.0013570328 0.0025613748 0.00030788136 0.009429589
0.006384501 0.0034190048 0.010663187 0.008651479 -0.0039248513 0.011488683 0.012401097 -0.0003253995
0.0068770926 0.013352169 -0.002929474 0.010657011 0.004638712 0.01125223 0.0018658461 0.00171155
0.00072231836 -0.0025560746 -0.0023599581 0.0017426288 -0.00025813855 0.0071382406 0.010870199 0.010195858
-0.0017663134 0.0016383617 0.0036742263 -0.0046091774 0.012047343 0.005963679 0.015859663 -0.005835095
2.1144191e-05 0.0068655303 0.0043624537 0.004417783 0.002260586 0.0084258495 0.004743796 -0.0015563146
0.006879747 0.007342829 0.0014294363 0.0032377937 0.0005008412 0.012125173 0.008457057 -0.002637084
0.0020199444 0.011084755 0.0010079234 0.00084138697 0.013116505 0.0026631572 0.007689693 0.0076535908
0.0010647228 8.388217e-05 0.007904127 0.008070689 0.009212582 0.010221248 0.010434814 -0.0024204443
0.009853155 0.0104366345 0.010842447 -0.0009160309 0.0012418074 0.008056928 0.0051353853 0.002374899
0.010274241 0.010905364 0.00097634527 0.0013185017 0.008061797 0.008408873 0.008767836 0.0057726977
0.007704457 0.00911539 0.0060349964 -0.0003627572 0.008091588 0.0029731407 -0.0022712615 0.0002817105
0.0012312575 -0.0013348762 -0.0007209637 -0.0011143332 -0.0046827137 0.0055000484 0.0010015317 0.00081048266
0.011127344 0.006904789 -0.0023279143 0.010390737 -4.7290843e-05 -0.0019436597 0.006795256 -0.0009629131
-9.745575e-05 0.0038057868 0.012549263 3.867283e-06 0.003738968 0.0017107256 0.0074616685 0.0022546751
-0.0016281336 0.0016442231 0.010798356 0.0048607183 0.0017992241 0.0035761509 0.015163545 0.008665422
0.0064144796 0.014107563 0.003993894 0.013623509 0.007871501 0.014329376 0.0029406075 -0.004074852
0.0022670727 0.012605699 -0.00022274056 -0.0023010615 0.006525144 0.0031055985 0.013594483 0.00450192
0.0027163082 0.0074955276 0.01218745 0.005169051 0.008543141 0.011852939 0.0063559185 -0.003524234
0.00903295 -0.0017964562 0.010091351 -0.0006808813 0.016974367 0.0038502645 0.008479961 0.011227032
-0.0011007183 0.016597608 0.0016120754 -0.0026247664 0.01020314 0.0011031567 0.006501362 0.009959515
0.0016709515 0.0013905859 0.005500861 -0.0011388079 0.011296411 0.0128768915 -0.0026060394 0.00820194
0.0045089205 0.010950439 0.0037388317 0.0018252957 0.004592622 0.019286577 0.007912074 -0.0018707693
-0.0028501267 0.0004140388 0.008800468 -0.00045901036 0.008049217 -3.5632736e-05 0.010483341 0.009935306

action_model._discrete_distribution.branches.0.weight f4 [2, 256]
00000000: b38e 943c ec18 aebb 057f 923c 3026 0b3d
00000010: 3b37 8c3c e963 04bd 776f bc3c ccb3 1d3d
00000020: 8a8f ee3c c00a 103d 48cd e1bc 8591 f7bc
00000030: db6c 90bc b9b2 23bd 94b3 fcbc 09f4 d7bc
00000040: 92fc f13c 17f4 aa3c 585e 9c3c 765d c8bc
00000050: 7a2c d7bc 4568 8ebc e6cf 72bc 1b28 3c3c
00000060: a7a9 50bc b483 6f3c 2cb1 0f3d fd60 683c
00000070: b85f 02bd bc69 e23c 6769 833c 9b28 843c
00000080: fde9 dbbc 1332 9abb 93c4 7a3c 223c 183d
00000090: 1ba6 233b fd19 063d 20be a53c d2a5 d03c
000000a0: 25bd fbbc 1ee9 69bc 7cf5 cdbc 9796 e03c
000000b0: f8ee c13c 9826 983b b2aa 08bd 2382 18bd
000000c0: 5821 d9bc e55f d23c e3e8 08bd 4187 c7bc
000000d0: 6fb0 143d b6da 973c 42a1 f5bc ac6e d6bc
000000e0: f541 7fbc 77e0 90bc ee14 093d 9ee0 033d
000000f0: 9c71 e4bc 200e dabc 357a 863c 2fca 96bc
00000100: 1c14 8dbb 8897 eabc b440 ba3c 099c 80bc
00000110: 5023 9dbc 2918 05bd 3e88 1dbc 07a0 c83c
00000120: edf0 65bc e0a6 b8bc ff8b ffbb 230e d03c
00000130: d40c 20bc c0a6 033d 4abd e63c fa24 bcbc
00000140: 35bc 4ebc 2010 c93c 2a10 b8bc 4d6a a83c
00000150: ae6e dabc 95f6 213d 82c5 76ba f178 67bc
00000160: ae9e 6bbc bc02 88bc 8361 babc 9cc2 5ebc
00000170: 3d14 6bbc 115e a63c 3e33 003d 8113 083d
00000180: 6700 babc eaf2 903c ed21 d8bc 5466 2bbc
00000190: 18cf a23c 5371 4c3c a8e0 2d3d dc09 88bb
000001a0: 41d5 01bc 2c7c 3e3c c15c 133c 2edc e3bc
000001b0: 5c83 b2bc 87a7 5c3c ce15 e3bc 0af4 b9bc
000001c0: b953 a63c b9d9 933c a6e9 e3ba f53a f1bc
000001d0: b977 04bd 67db ef3c 2b61 973c fa9a 32bc
000001e0: bdab efbc e4e3 bf3c 37eb bcbc a8e0 d1bc
000001f0: d259 073d 63e3 e0bc 589f 5ebc 085c ce3c
00000200: 05e0 7abc 1ebf d5bc 8de8 a93c b15b 023d
00000210: c62e 533c 5a8c ae3c 82e9 863c fe34 bebc
00000220: 9945 a03c 8ba0 babc 2c19 a43c 621b 8abc
00000230: 5481 b6bc 4ab5 033c 844f 463c e2d9 e6bc
00000240: fff2 d03c e407 f03c 223c efbc 57aa 00bd
00000250: aa84 983c e7b4 d33c f857 a33c 7fce 8a3c
00000260: 8f24 233c 4d7a db3c 8a3b debc 5de3 a1bc
00000270: 8a78 663c 573d 4d3c d8ef bcbc 9ccc e8bc
00000280: 0011 e5bc 6ed8 98bc ed2d 9c3c 4249 46bc
00000290: 4454 d7bb 2c38 883c 7b08 593c 466f fdbc
000002a0: bad2 b43c 93c4 983c b1f5 6ebc 56c8 9f3c
000002b0: 4a47 1fbc 1e69 a4bc 7196 753c ea12 e4bc
000002c0: e0da 60bc ce80 5bbb 7187 253d 3f57 02bb
000002d0: 06c3 90bc 39fe d2bc d275 c13c 29bd a7bc
000002e0: 2ec9 ccbc e814 dabc 1041 8f3c f676 f8bc
000002f0: e910 efbc 4294 c5bc 83b9 013d 5a57 673c
00000300: c667 e9bc 5b33 ec3c f3a0 00bd e342 093d
00000310: 3dc4 80bc 56b0 b83c 84fb 8f3c 9378 073a
00000320: 6949 d63c 8fc3 003d bae0 e6bc 1264 cdbc
00000330: 3a2b 303c 3d1b 13bd 523a f93c 39bb 9b3c
00000340: ae09 0cbd a8dd 023c c167 bebc 633f 023c
00000350: 0d68 993c e495 f93c 2baa c23c 36d2 25bc
00000360: 5755 b43c 3395 d9bc 7afd f53c 59d2 09bc
00000370: d3b7 d93c c241 66bc 7724 fe3c d31c 853c
00000380: e679 07bd 81b7 3b3d 7e39 babc 3a43 b4bc
00000390: ddc1 013d 6a5e 90bc eb94 cfbc 7f73 fc3c
000003a0: c22b fabb ba31 30bc 26a4 a13c 02cc d9bc
000003b0: 9eb4 ca3c fc06 fc3c 212f 85bc 33b3 d23c
000003c0: cd40 d0bc 8dbd d53c fa0d dfbc 8569 d5bc
000003d0: 6258 413c a8a4 b73c 212a 5d3c 3975 adbc
000003e0: 8c9f 05bc fc49 bebc add8 973c d3b1 8dbc
000003f0: eb6f c63c 9164 3ebc 6dcd 093d 1ee9 a93c
0.01813445 -0.0053130295 0.017882833 0.033971965 0.01711618 -0.032321844 0.02300237 0.038501546
0.02912118 0.035166502 -0.027563706 -0.030220756 -0.017630031 -0.039965365 -0.030847348 -0.026361482
0.02953938 0.020868344 0.019087955 -0.024458628 -0.026266325 -0.017383704 -0.014820075 0.011484171
-0.012735761 0.014618803 0.035081074 0.01418328 -0.031829566 0.027638309 0.01604147 0.016132643
-0.026844973 -0.0047056763 0.015305656 0.037166722 0.0024970833 0.032739628 0.02023226 0.025469694
-0.03072984 -0.014276771 -0.02514147 0.027415557 0.02367352 0.0046432726 -0.033365913 -0.037233483
-0.026505157 0.025680492 -0.033425223 -0.024356486 0.036301073 0.018536907 -0.02998412 -0.02617582
-0.01557969 -0.017685158 0.033467226 0.032196634 -0.027886204 -0.026618063 0.016415695 -0.018406956
-0.0043053757 -0.028636709 0.022735931 -0.015699403 -0.019181877 -0.032493744 -0.009615002 0.02449037
-0.014034492 -0.02254051 -0.0077986713 0.025397366 -0.009768683 0.032141447 0.028166432 -0.02296685
-0.012618114 0.024543822 -0.022468645 0.0205585 -0.026664104 0.0395418 -0.0009413586 -0.014127956
-0.014381094 -0.016602866 -0.022751575 -0.013596203 -0.014348087 0.020308526 0.03129887 0.033221725
-0.02270527 0.017693955 -0.026383365 -0.010461409 0.01987414 0.0124781905 0.042450577 -0.004151566
-0.007924379 0.011626285 0.008994282 -0.02781495 -0.021791153 0.013467676 -0.027720358 -0.022699375
0.020303594 0.018048154 -0.0017388358 -0.029447058 -0.03234074 0.029279424 0.01847895 -0.010901207
-0.029256696 0.023424096 -0.023061378 -0.02561982 0.033044644 -0.027452176 -0.013587795 0.025190368
-0.0153121995 -0.026092108 0.020740772 0.031825725 0.01288957 0.02130716 0.016468767 -0.023218628
0.019564437 -0.022781631 0.020031534 -0.01685876 -0.022278465 0.008038828 0.012103919 -0.028180066
0.025506495 0.029300638 -0.029203478 -0.03141245 0.018617947 0.025843097 0.019939408 0.016944168
0.009957447 0.026791716 -0.027128 -0.019761736 0.014066825 0.012526832 -0.023063585 -0.028417878
-0.027962208 -0.01865789 0.019064868 -0.012102427 -0.0065713245 0.016628347 0.013246651 -0.030936848
0.022073139 0.018648421 -0.014584945 0.019504707 -0.0097215865 -0.020069655 0.014989481 -0.02784105
-0.013724059 -0.0033493522 0.04041237 -0.0019888429 -0.01767112 -0.025755988 0.023615751 -0.02047594
-0.024998274 -0.026621297 0.017487079 -0.030330162 -0.029182868 -0.024118546 0.03167106 0.014119947
-0.028491866 0.028833082 -0.031403493 0.033511054 -0.015718574 0.022545021 0.017575987 0.0005167808
0.026158052 0.0314365 -0.02818333 -0.025072131 0.0107524935 -0.03591465 0.030423317 0.019010173
-0.03418892 0.007987417 -0.023242833 0.007949683 0.018726373 0.030466981 0.023762783 -0.010120919
0.02201335 -0.026560402 0.030028094 -0.008411967 0.026576912 -0.014053764 0.031023247 0.016249096
-0.033075236 0.0458293 -0.022732493 -0.022004712 0.031679023 -0.017623145 -0.025339564 0.030816792
-0.007634611 -0.010754043 0.019731592 -0.026586536 0.024744328 0.03076505 -0.016257824 0.025720214
-0.025421524 0.026091361 -0.027228344 -0.026051292 0.011800857 0.022417381 0.013498814 -0.02117406
-0.008155715 -0.023228638 0.018535936 -0.017296707 0.024223289 -0.011620657 0.033643175 0.020741042

action_model._discrete_distribution.branches.0.bias f4 [2]
00000000: 04e0 a63b ffdf a6bb
0.0050926227 -0.0050926204
