ML-Game/Assets/Brain/Intermediate.onnx (onnx, 187731 bytes, 6 tensors)

network_body._body_endoder.seq_layers.0.weight f4 [128, 225]
0	0xbc5962bc	-0.013268169
1	0x3b0b4086	0.0021248176
2	0x3db70e69	0.089382954
3	0x3d926a73	0.0714921
4	0x3daa8425	0.08325986
5	0xbc959bbc	-0.018262736
6	0x3e256d20	0.16154909
7	0x3d3e5b11	0.046473566
8	0x3d89db3e	0.0673127
9	0xbc3e5437	-0.011616758
10	0x3ce34728	0.02774389
11	0x3c01c2d5	0.007919987
12	0xbdb01db2	-0.08599414
13	0x3d81fcfe	0.063470826
14	0x3d848e75	0.06472484
15	0x3cae5a6e	0.021283355
16	0xbd110f1d	-0.035414804
17	0x3d57ac72	0.05265469
18	0x3d018a36	0.03162595
19	0x3b45d408	0.0030186195
20	0x3d49963e	0.049215548
21	0x3da5ae7c	0.08089921
22	0x3d5161d7	0.051118698
23	0xbd2ee582	-0.042699344
24	0x3b2a1e38	0.0025957953
25	0x3d52a053	0.05142243
26	0x3de6d337	0.11270755
27	0x3cdfa6fd	0.027301306
28	0xbdfe554d	-0.124186136
29	0x3d70fe57	0.058836307
30	0xbcbdf605	-0.0231886
31	0xbc769be7	-0.015051818
32	0xbc2a4f62	-0.010394903
33	0xbc986604	-0.018603332
34	0x3ddc5faf	0.10760438
35	0xbc5c1367	-0.01343236
36	0xbded19db	-0.11577197
37	0xbcb8084e	-0.022464897
38	0x3e065209	0.13117231
39	0x3d50bb1a	0.050959684
40	0x3c684de2	0.014178725
41	0xbc04ccc5	-0.0081054615
42	0xbc8a5ae9	-0.016889052
43	0xbd56138d	-0.05226474
44	0xbde0a412	-0.10968794
45	0x3cf8e4ea	0.030382592
46	0x3dbb2a7e	0.09138964
47	0x3dcb9cfb	0.09942051
48	0xbcd1f3b9	-0.025628911
49	0xbdb02069	-0.08599932
50	0xbd32f9e0	-0.04369533
51	0xbb82c5f2	-0.003990882
52	0x3e6ae5cf	0.22939228
53	0x3e49c215	0.19702943
54	0x3ccc7985	0.024960289
55	0xbdbb725e	-0.09152673
56	0xbd7aa405	-0.061191577
57	0x3c388cb7	0.011264018
58	0x3d86d068	0.06582719
59	0x3cd2849a	0.025697995
60	0x3c39a248	0.011330195
61	0x3cc5223f	0.024064181
62	0x3e0b78c7	0.13620292
63	0x3cf7f318	0.030267283
64	0x3d07f379	0.033191178
65	0x3daba567	0.08381157
66	0x3b71dc34	0.0036904933
67	0x3d9c59c9	0.07634313
68	0xbddfa519	-0.10920162
69	0x3ab799bc	0.0014007608
70	0x3dea509d	0.11441157
71	0x3cd1c36e	0.025605883
72	0x3e1344dc	0.14381737
73	0xbd323058	-0.043503135
74	0x3cab3d82	0.020903353
75	0x3d3309c3	0.04371048
76	0xbc1abab2	-0.009443926
77	0xbd5d7dc9	-0.054075036
78	0x3c9f8f0f	0.019477395
79	0xbbcea6d0	-0.0063065067
80	0xbdde433f	-0.1085267
81	0xbd50dcaf	-0.05099171
82	0x3dbf7af5	0.09349624
83	0xbd02bfc4	-0.031921163
84	0x3d81c0f3	0.0633563
85	0xbdb1774c	-0.08665332
86	0xbb1cb553	-0.0023911789
87	0x3d357d04	0.044308677
88	0x3d836797	0.064162426
89	0x3d5a6072	0.053314634
90	0xbbcb4b8f	-0.0062040756
91	0x3d7e6cac	0.062115356
92	0x3dddc85b	0.108292304
93	0x3e0f006f	0.13965009
94	0xbdfd5c00	-0.12371063
95	0x3e12d32d	0.1433837
96	0xbd834f95	-0.064116634
97	0x3d728adf	0.05921447
98	0x3e0e2db3	0.1388462
99	0x3d22133a	0.039569117
100	0x3d1076be	0.03526949
101	0x3cbbbe22	0.02291781
102	0x3d38381f	0.044975396
103	0x3e28e292	0.1649268
104	0x3c0a70b7	0.008449725
105	0xbc79cf4c	-0.015247177
106	0x3b400556	0.0029300055
107	0x3bd9f96a	0.006652047
108	0x3ca287ad	0.019840086
109	0xbc45ed93	-0.012080568
110	0x3c5b1f9b	0.013374235
111	0x3df1a522	0.11799075
112	0x3d19a3f0	0.03750986
113	0xbe06350b	-0.13106172
114	0xbe12d56a	-0.14339224
115	0xbcfdbd8e	-0.030974176
116	0x3cf3ef14	0.029777087
117	0xbd82f140	-0.06393671
118	0xbd7fa0f4	-0.062409356
119	0xbd7e1bdb	-0.062038284
120	0x3dc125af	0.09431016
121	0xbd4f5068	-0.05061379
122	0x3cd880eb	0.02642866
123	0x3dd55ebc	0.1041846
124	0x3aae3ca7	0.0013293222
125	0xbd4131e9	-0.04716674
126	0x3d99b04f	0.07504331
127	0xbd2ece89	-0.042677436
128	0x3d8d3865	0.06895522
129	0x3d87bbda	0.06627627
130	0xbde35dfd	-0.11101911
131	0x3c664c1d	0.014056233
132	0x3e0cf2b6	0.13764462
133	0xbbaa2794	-0.0051927064
134	0x3dc1cd2c	0.094629616
135	0x3c994690	0.018710405
136	0x3b484cfb	0.0030563462
137	0xbc0e592e	-0.008688254
138	0x3d885d8c	0.06658468
139	0x3c9a4998	0.01883392
140	0xbc7cd622	-0.015431913
141	0xbcf88f48	-0.03034176
142	0xbd2969b1	-0.04136056
143	0x3d265e59	0.04061732
144	0xbc8538e9	-0.016262488
145	0xbd7d3c94	-0.06182535
146	0xbd3bb68f	-0.0458284
147	0x3d1f878e	0.038947634
148	0x3d1c3955	0.038140614
149	0xbd784475	-0.06061216
150	0xbd52a766	-0.051429175
151	0x3d2c2e74	0.04203649
152	0x3de75f5b	0.112974845
153	0xbd18ba21	-0.03728688
154	0xbcbf1270	-0.023324221
155	0x3d3e32e1	0.04643524
156	0xbbc7a725	-0.006092923
157	0xbc6e91ee	-0.01456116
158	0x3c0a7d99	0.008452796
159	0x3de64306	0.112432525
160	0xbc116183	-0.008873346
161	0xbd029d18	-0.031888098
162	0x3c8caaa3	0.01717121
163	0x3c925a12	0.017865214
164	0xbcdac1cb	-0.026703736
165	0x3dcb1903	0.0991688
166	0xbdd37c3b	-0.103264295
167	0xbd9604cd	-0.073251344
168	0xbd641b25	-0.05568995
169	0xbd2c74d3	-0.0421036
170	0xbe12c21e	-0.14331862
171	0x3ce46bff	0.027883528
172	0x3cd0453d	0.02542364
173	0x3dda99ff	0.10673904
174	0x3d22ef97	0.039779272
175	0x3c99d0a7	0.018776251
176	0x3b85ce49	0.004083429
177	0xbd261a3f	-0.040552374
178	0xbc3d8851	-0.011568145
179	0x3d346213	0.044038843
180	0xbd3bfa89	-0.045893226
181	0xbddd4d3e	-0.108057484
182	0x3d1cef8e	0.038314395
183	0x3dd479c7	0.1037479
184	0xbc87d902	-0.01658297
185	0xbd71fec0	-0.05908084
186	0x3d2b486e	0.04181712
187	0xbd16098b	-0.036630195
188	0xbd202b60	-0.039103866
189	0x3c346c5c	0.011012163
190	0xbca30333	-0.019898986
191	0x3bd7a821	0.006581322
192	0x3d43876f	0.04773658
193	0x3c0c914d	0.008579564
194	0xbb8a6236	-0.0042231334
195	0x3d1b0693	0.037848067
196	0xbaee5abd	-0.0018185001
197	0xbd595a4d	-0.053064633
198	0xbcbd669a	-0.023120213
199	0x3e01a419	0.12660255
200	0xbd873f93	-0.06603923
201	0x3da9f4fc	0.0829868
202	0x3da65569	0.081217594
203	0x3c13093f	0.008974372
204	0x3ca12781	0.019672157
205	0x3dac7879	0.08421416
206	0xbc2ee1b9	-0.010673934
207	0x3de19f64	0.110167295
208	0x3d2a655d	0.041600574
209	0xbcf9a828	-0.030475691
210	0x3cfa0f40	0.03052485
211	0xbdc41cf8	-0.09575838
212	0x3db1e26c	0.08685765
213	0x3d8246c8	0.06361157
214	0xbd1deec8	-0.038557798
215	0x3c2da0da	0.010597432
216	0xbb5f74de	-0.0034096758
217	0x3be91c5d	0.007113977
218	0xbcf1e6bd	-0.02952897
219	0x3e06ca43	0.13163094
220	0x3de28cd6	0.110620186
221	0x3dbe6050	0.09295714
222	0xbd61bf3d	-0.05511402
223	0x3d16f8f5	0.036858518
224	0x3dd795e3	0.105266355
225	0x3d861577	0.06547063
226	0xbd20212f	-0.039094146
227	0x3c291df1	0.01032208
228	0x3d850b0b	0.06496247
229	0xb9ba7ead	-0.00035571065
230	0x3cdcc342	0.026948575
231	0x3d1fdca3	0.039028775
232	0x3b737ddf	0.0037153882
233	0x3dceb130	0.100923896
234	0x3d71a97e	0.05899953
235	0x3dd54ca4	0.10415009
236	0xbdc6792a	-0.09691079
237	0x3d032ca5	0.032025
238	0xbce51ff8	-0.027969345
239	0x3db3e27f	0.08783435
240	0xbddf291e	-0.10896514
241	0x3d620268	0.055178076
242	0x3c8cba19	0.017178582
243	0x3e073993	0.13205557
244	0xbd42ecdc	-0.047589168
245	0xbd47a841	-0.048744444
246	0x3c667c0b	0.01406766
247	0xbc9ae54b	-0.018908164
248	0x3cbe0ec8	0.023200408
249	0x3d9511be	0.07278775
250	0x3bb9d3ce	0.005671001
251	0xbb1297e9	-0.0022368378
252	0xbd21b251	-0.039476696
253	0x3ba4367a	0.005011377
254	0xbd1a134f	-0.03761607
255	0xbd350268	-0.044191748

network_body._body_endoder.seq_layers.0.bias f4 [128]
0	0x3c59c56a	0.013291696
1	0x3c893bdc	0.016752176
2	0x3ca0ad35	0.019613842
3	0x3cb703ee	0.022340741
4	0xbaa76bef	-0.0012773256
5	0xbc92ae6b	-0.017905435
6	0x3c8313c2	0.016000632
7	0xbbdb7c56	-0.0066981716
8	0xb778c033	-1.4826702e-05
9	0xbce49be6	-0.02790637
10	0x3c31a541	0.010842622
11	0x3cb57d08	0.022154346
12	0xbbc9cfef	-0.006158821
13	0xbc382bdb	-0.011240925
14	0x3c320e6d	0.010867697
15	0xbb3973eb	-0.0028297852
16	0x3b42fc68	0.0029752497
17	0x3cd7418c	0.026276372
18	0xbc85fa00	-0.01635456
19	0xbbe219ed	-0.0069000633
20	0x3c718092	0.014740126
21	0x3c53581d	0.012899426
22	0x3c6d6940	0.014490426
23	0xbca2d7e3	-0.019878333
24	0x3c161479	0.0091601545
25	0xbc93e6e1	-0.018054428
26	0x3b51bdd8	0.0032004025
27	0x3c89344f	0.016748575
28	0x3c62a844	0.013834063
29	0x37b335e5	2.136356e-05
30	0xbc57cfaa	-0.01317207
31	0xbbef89c4	-0.007310124
32	0xbc8b38bd	-0.016994828
33	0x3cbc9888	0.023021951
34	0xbcc6bc79	-0.024259793
35	0x3c9ede6a	0.019393165
36	0x3c85b791	0.016322883
37	0xbc783f64	-0.015151832
38	0xbca7f7e2	-0.020503942
39	0xbc2321e1	-0.009956808
40	0x3c8843ca	0.016633887
41	0x3c878589	0.016543167
42	0x3c2943f3	0.010331142
43	0x3c9f650f	0.019457368
44	0x3a050d13	0.00050754956
45	0x3cf7b3c2	0.030237082
46	0xbc13669a	-0.00899663
47	0x3cd95ffd	0.026535029
48	0x3c4c4dce	0.012469722
49	0xbc0cd5ba	-0.008595878
50	0x3b44942c	0.0029995544
51	0xbbc3cd5f	-0.00597541
52	0x3be6fe06	0.007049325
53	0x3c0a8298	0.008453988
54	0x3bb1fe6b	0.0054319403
55	0x3c156728	0.009118833
56	0xbbb4876b	-0.005509307
57	0x3c7f8f72	0.015598165
58	0xbb85ce0d	-0.004083401
59	0x3c5bcf65	0.013416146
60	0x3c2b4e3f	0.010455667
61	0xbbfe56e0	-0.007761821
62	0x3cb5c65e	0.022189315
63	0xba47e821	-0.00076258375
64	0x39fd2236	0.0004828141
65	0x3c718cb3	0.014743018
66	0xbc778c2f	-0.015109106
67	0x3bc6ac45	0.0060630166
68	0xbc405121	-0.011738093
69	0xbcc4296f	-0.023945538
70	0x3c7578ac	0.014982384
71	0x3b3f8826	0.0029225438
72	0x3cbd5cf2	0.023115609
73	0xbc31fbb0	-0.01086323
74	0x3c633bf1	0.013869272
75	0x3cdf7c48	0.027280942
76	0x3be7c486	0.007072988
77	0xbc03aa09	-0.008036145
78	0x3c1ebd92	0.009688752
79	0x3c8e0107	0.017334474
80	0x3c869e28	0.016432837
81	0x3c47a70b	0.012185822
82	0x3bf9492a	0.007607599
83	0x3bd65e97	0.0065420377
84	0x3bde3401	0.0067811017
85	0x3c3ff75a	0.011716688
86	0xbbd90b6e	-0.006623677
87	0x3c7b690b	0.015344868
88	0xbc40c7df	-0.011766403
89	0x3ab9fccf	0.0014189723
90	0xbc66c40c	-0.014084827
91	0x3c34debf	0.011039435
92	0x3ca31f00	0.019912243
93	0x3c58512c	0.013202947
94	0xbc5779c2	-0.013151588
95	0x3c09bedb	0.00840732
96	0xbc2047cd	-0.009782744
97	0x3cbb9980	0.022900343
98	0x3b819f45	0.003955754
99	0xbc811d51	-0.01576105
100	0xbc458930	-0.012056634
101	0xbbb7329c	-0.00559075
102	0x3cc065b9	0.023486005
103	0x3c24f583	0.0100683
104	0x3bc85a28	0.006114263
105	0x3cc01248	0.023446217
106	0xbc577a55	-0.013151725
107	0xbbce27cc	-0.0062913653
108	0xbb1aa373	-0.0023595958
109	0x3c2a0875	0.010377993
110	0x3c61ada1	0.0137743065
111	0x3c78079c	0.015138533
112	0x3c6fce28	0.014636554
113	0x3b80d393	0.0039314716
114	0x3bc52564	0.00601642
115	0x3c973171	0.018456193
116	0xbb9b6eb8	-0.0047434233
117	0xbc27b834	-0.010236789
118	0x3c56dee5	0.013114666
119	0x3c59d5ac	0.013295572
120	0x3c199886	0.009374743
121	0xbbc015bb	-0.0058619655
122	0x3bd4ab55	0.006490151
123	0x3c854045	0.016265998
124	0x3c3aba68	0.011396982
125	0x3caac882	0.020847563
126	0x3c5e22ca	0.013558099
127	0x3c858c38	0.016302213

network_body._body_endoder.seq_layers.2.weight f4 [128, 128]
0	0x3b5c34ab	0.0033600728
1	0xbc98167f	-0.018565414
2	0x3df1e469	0.11811144
3	0xbd83e1c7	-0.06439548
4	0x3e0d39b0	0.13791537
5	0x3e097f32	0.13427427
6	0x3da3a05c	0.079895705
7	0xbb31d32c	-0.0027133925
8	0x3e29beb3	0.16576652
9	0xbdcce658	-0.10004872
10	0xbdcbe459	-0.09955663
11	0xbda4d499	-0.08048362
12	0x3d16a9e2	0.036783107
13	0x3def8b63	0.11696508
14	0x3b5d09ca	0.0033727759
15	0xbd138c16	-0.03602227
16	0x3db522f9	0.08844561
17	0x3c348597	0.011018178
18	0x3dcfeb7d	0.10152338
19	0x3aa357ac	0.0012462041
20	0x3c8d9149	0.017281191
21	0xbdefcbae	-0.11708771
22	0xbd82537e	-0.06363581
23	0x3d85c016	0.06530778
24	0xbd353c87	-0.044247176
25	0xbd1827ff	-0.03714752
26	0x3bb32cc8	0.005467985
27	0x3dbb2337	0.09137576
28	0xbe086d33	-0.13322906
29	0xbe05fb9b	-0.13084261
30	0x3d213264	0.039354697
31	0xbcdb7648	-0.0267898
32	0x3b83efdf	0.0040263976
33	0x3da4f09c	0.08053705
34	0x3da2d243	0.079502605
35	0xbdc9fb98	-0.09862441
36	0x3b1dfc5e	0.0024106721
37	0xbdd18d18	-0.102319896
38	0x3d20e3fa	0.039279915
39	0x3d755139	0.059891913
40	0x3db19752	0.0867144
41	0xbd36cb08	-0.04462722
42	0xbd54841b	-0.051883798
43	0xbc4a7f81	-0.012359501
44	0xbd30a2fa	-0.043124177
45	0x3bea1afd	0.0071443305
46	0xbd830742	-0.06397869
47	0xbd7f9b7c	-0.06240414
48	0xbdb5a5e1	-0.088695295
49	0xbd81ef81	-0.0634451
50	0xbd8a02cf	-0.06738817
51	0x3cc41cb4	0.023939468
52	0x3db66f82	0.08907987
53	0xbc854dcc	-0.016272448
54	0x3e42c591	0.19020678
55	0x3e3d04a4	0.18458802
56	0x3dbfa37a	0.093573526
57	0xbdb32da9	-0.08748943
58	0xbe1f4956	-0.15555319
59	0xbc36384a	-0.011121819
60	0x3d89d5c9	0.067302294
61	0xbe29323c	-0.16523069
62	0x3db8219e	0.08990787
63	0xbdc86d65	-0.0978649
64	0xbb62be71	-0.0034598375
65	0xbced44cd	-0.02896347
66	0xbd054bf8	-0.032543153
67	0x3b78ee42	0.003798381
68	0xbe13599b	-0.1438965
69	0x3e3c7d88	0.18407261
70	0x3dbb7727	0.09153586
71	0x3d9d1fa0	0.076720476
72	0xbdfc80d7	-0.12329262
73	0xbcc2b799	-0.023769187
74	0xbd6f76bd	-0.058462847
75	0xbd3252ef	-0.043536123
76	0xbd9cf258	-0.07663411
77	0x3cbb12d4	0.022836126
78	0x3dede82b	0.11616548
79	0x3d5ddbf0	0.054164827
80	0xbd37d6ca	-0.044882573
81	0x3d087cb4	0.03332205
82	0x3dbfad1c	0.0935919
83	0xbd562f4f	-0.05229121
84	0xbd7ce02e	-0.061737232
85	0xbce55b8a	-0.02799775
86	0x3d3981b5	0.045289714
87	0x3d47a848	0.04874447
88	0x3d81ecca	0.06343992
89	0x3db1a803	0.08674624
90	0x3d9ef130	0.077608466
91	0xbdffa498	-0.12482566
92	0xbd8286ae	-0.06373344
93	0xbe2d1da6	-0.16905841
94	0xbdbd38b7	-0.09239333
95	0x3e08e15e	0.13367221
96	0xbd18276f	-0.03714698
97	0x3cbc55f9	0.022990214
98	0xbd930362	-0.071783796
99	0x3d0693e8	0.0328559
100	0x3e6e8c3e	0.23295686
101	0x39d72544	0.0004103576
102	0xbd08241b	-0.033237558
103	0xbca97a33	-0.020688152
104	0x3e1270a3	0.1430078
105	0xbd913e55	-0.07091967
106	0x3e45696b	0.19278495
107	0x3c9799f3	0.018506026
108	0x3e09db79	0.13462628
109	0xbd2b9893	-0.041893553
110	0xbcff9643	-0.03119958
111	0xbd56897a	-0.0523772
112	0x3c471eac	0.012153309
113	0xbccf0366	-0.025270175
114	0x3dddee7e	0.108365044
115	0x3e130344	0.14356714
116	0x3d0139f2	0.0315494
117	0x3d6b9a56	0.057520233
118	0x3e1c010b	0.15234773
119	0x3d2dbcc2	0.04241634
120	0x3d56ac80	0.052410603
121	0xbc1640ca	-0.00917072
122	0xbe268c4e	-0.1626446
123	0x3dcf6864	0.10127333
124	0x3d396871	0.04526562
125	0x3c379f4b	0.011207412
126	0xbce0c2b2	-0.027436588
127	0xbd908d25	-0.07058171
128	0x3cefc2ac	0.029267631
129	0xbcb77658	-0.022395298
130	0x3d5f6cbd	0.05454706
131	0xbe580f56	-0.210996
132	0xbd7847b8	-0.06061527
133	0xbd99bf69	-0.07507212
134	0x3d4daf57	0.050216045
135	0xbc891102	-0.016731743
136	0x3daa6906	0.08320813
137	0xbd84a6bb	-0.06477114
138	0x3db5c4d0	0.0887543
139	0xbe02237a	-0.12708846
140	0x3c858325	0.016297886
141	0xbd90ad67	-0.07064324
142	0xbd9e2a7c	-0.07722947
143	0x3c316002	0.010826113
144	0x3cfc648f	0.030809669
145	0x3d834b96	0.06410901
146	0x3d87e89d	0.06636164
147	0x3de018f0	0.109422565
148	0x3cbf66fc	0.023364536
149	0xbd4cc7b3	-0.049995136
150	0x3cf21a01	0.029553415
151	0x3ce3d360	0.027810752
152	0x3d88e123	0.066835664
153	0x3d3003bc	0.04297231
154	0x3cfcdeba	0.030867923
155	0xbdc14974	-0.09437838
156	0xbd45ed6c	-0.048322126
157	0x3d80c454	0.062874466
158	0xbc83ebd0	-0.016103655
159	0xbd9e97d6	-0.07743804
160	0x3d429f21	0.04751504
161	0xbd24cb91	-0.0402332
162	0xbd98ddbd	-0.07464168
163	0xbdf37861	-0.11888195
164	0x3c88c552	0.016695652
165	0xbc5ba947	-0.013407058
166	0x3e01808e	0.12646696
167	0xbd7492b1	-0.05971021
168	0x3e04fdbb	0.12987415
169	0x3d749a39	0.05971739
170	0x3d959755	0.07304255
171	0xbd4500aa	-0.048096336
172	0x3cdb7988	0.026791349
173	0x3e01a440	0.12660313
174	0x3c0067ee	0.007837279
175	0xbe86eb7a	-0.2635153
176	0x3e81a85e	0.25323766
177	0x3d839643	0.064251445
178	0x3deb079f	0.11476063
179	0xbb3c3329	-0.0028717017
180	0x3df8b580	0.121439934
181	0x3c8040bf	0.015655873
182	0x3d235740	0.03987813
183	0x3d0bf7ed	0.034171987
184	0x3cb3b617	0.021937413
185	0x3c848c48	0.016180173
186	0x3d834871	0.064103015
187	0x3c9144a0	0.017732918
188	0xbae2249e	-0.0017253344
189	0x3d14510a	0.036210097
190	0xbd90085b	-0.07032844
191	0x3c9a30e2	0.018822137
192	0x3da57768	0.080794156
193	0x3d6aa022	0.05728162
194	0x3de4ab62	0.11165501
195	0xbd6186a4	-0.055060044
196	0xbb36b3ae	-0.0027878094
197	0xbdc8d561	-0.09806324
198	0xbd007954	-0.031365708
199	0xbe1776d0	-0.14791417
200	0xbd0b7dc5	-0.03405549
201	0x3dbad7d2	0.09123196
202	0xbca6178c	-0.0202749
203	0x3e2b372d	0.16720267
204	0x3de0005d	0.10937569
205	0x3d036076	0.032074414
206	0xbc59f3ca	-0.013302753
207	0x3d6fe92b	0.058571976
208	0x3d7abe17	0.06121644
209	0xbd9b8a21	-0.075947054
210	0xbd5a77e1	-0.05333698
211	0xbc9872dc	-0.018609457
212	0xbc3f5411	-0.011677758
213	0x3db7a8b5	0.08967725
214	0xbcc5d1cb	-0.024147889
215	0xbd0e3b11	-0.0347243
216	0x3d716799	0.05893669
217	0xbdb5102b	-0.088409744
218	0xbc6bf4ab	-0.014401595
219	0x3d440fa8	0.047866493
220	0xbe69ba2d	-0.22824927
221	0x3dae4443	0.08509114
222	0xbdaa11ec	-0.083041996
223	0xbd9502ff	-0.07275962
224	0xbdcf1db3	-0.101130866
225	0xbd44e4f0	-0.048069894
226	0x3cdc95c5	0.026926884
227	0x3de59614	0.11210266
228	0x3cc6065f	0.02417296
229	0xbd5ce811	-0.053932253
230	0x3dc3e21d	0.09564612
231	0xbdcacaf6	-0.09901993
232	0xbcc37ffe	-0.023864742
233	0x3d434749	0.047675405
234	0xbd420dc9	-0.047376428
235	0x3cb49e39	0.022048103
236	0x3d8bb273	0.06821146
237	0xbe4c3dd8	-0.19945467
238	0x3dc2e4cd	0.095162965
239	0x3e16b50e	0.14717504
240	0x3d7d8d93	0.061902594
241	0xbe2d5eb4	-0.16930658
242	0xbdad4266	-0.0845993
243	0x3dbc074e	0.09181081
244	0x3da35922	0.07975985
245	0x3cff513f	0.03116667
246	0x3cf9c6f2	0.030490372
247	0xbdb25153	-0.087069176
248	0xbdb26586	-0.0871077
249	0xbce169d3	-0.027516281
250	0x3da497a3	0.08036735
251	0xbc38e96e	-0.011286123
252	0xbe39dd63	-0.18150859
253	0xbc6305b9	-0.013856345
254	0xbdf55649	-0.11979348
255	0xbdadfb20	-0.08495164

network_body._body_endoder.seq_layers.2.bias f4 [128]
0	0x3bb3e4c2	0.0054899165
1	0xbc189159	-0.009311997
2	0xbc4e8812	-0.012605684
3	0x3c294e97	0.010333679
4	0x3be5becf	0.0070112715
5	0x3ca3ed3e	0.020010587
6	0xbbd39648	-0.006457124
7	0x3b0e95bc	0.002175673
8	0x3caabc11	0.02084163
9	0x3c43371a	0.011914993
10	0x3c76c4a3	0.01506153
11	0x3c201bc8	0.009772249
12	0xbc49bedc	-0.012313571
13	0x3be9d35c	0.0071357917
14	0xbc2d88c6	-0.010591691
15	0x3c0ce311	0.008599059
16	0xbb119a18	-0.0022217091
17	0xbc6ccc81	-0.014453054
18	0x3c809271	0.015694829
19	0xbc331ff8	-0.010932915
20	0x3c15bc09	0.009139069
21	0x3bd3710c	0.006452685
22	0x3c48435a	0.012223089
23	0x3cb55878	0.022136912
24	0x3c668d1b	0.014071728
25	0xbc52fe7e	-0.0128780585
26	0x3baa759e	0.0052020093
27	0xbba20748	-0.0049447156
28	0xbc23c332	-0.009995269
29	0x3c1c5727	0.009542263
30	0x3c7ec32f	0.015549465
31	0x3c6b8b87	0.014376528
32	0xbbc27514	-0.005934367
33	0x3c850af9	0.016240584
34	0x3c56ffbc	0.013122495
35	0xbc1b36ae	-0.009473486
36	0xbbc93651	-0.006140508
37	0xbc79206d	-0.015205485
38	0xbc0b7346	-0.00851137
39	0xbc2d9f5d	-0.010597077
40	0x3bd7ab5d	0.0065817074
41	0x3bb47075	0.00550657
42	0x3c83ca1e	0.016087588
43	0xbbd1a234	-0.00639751
44	0x3c6f5e8d	0.014609945
45	0xbc227f15	-0.009917994
46	0x3c2f17f7	0.010686866
47	0xbbb8b770	-0.005637102
48	0x3c510388	0.01275719
49	0xbbbd9986	-0.0057861237
50	0x3c9dba6f	0.019253938
51	0x3bd7442f	0.0065694074
52	0x3ae78ad7	0.0017665279
53	0x3c866d2b	0.016409477
54	0x3c3f9d02	0.011695148
55	0x3c8a0956	0.016850155
56	0x3c8ac03c	0.016937368
57	0x3c01ddc7	0.007926411
58	0x3c924838	0.017856702
59	0x3bc79f13	0.006091961
60	0x3ca84cb9	0.020544397
61	0x3c3e2c70	0.011607274
62	0xbc060e26	-0.008182084
63	0x3ba5e2c3	0.0050624325
64	0x3a5c126f	0.0008395081
65	0x3be0f8dc	0.006865604
66	0x3c908d99	0.017645644
67	0xbc2c31c0	-0.010509908
68	0x3c905ef8	0.01762341
69	0xbc4f1765	-0.012639855
70	0x3c6f5a7c	0.0146089755
71	0x3bc50c78	0.0060134493
72	0x3bae50e6	0.0053197024
73	0x37f9fceb	2.9800887e-05
74	0x3ca59bd5	0.020215908
75	0x3c8992d2	0.016793642
76	0x3c6503cf	0.013977959
77	0x3c6ec21f	0.014572649
78	0xbbae5d1e	-0.005321159
79	0xbbf0af2a	-0.0073451
80	0x3c8dd274	0.017312266
81	0x3c7a89f3	0.015291679
82	0x3c8413a0	0.01612264
83	0x3c150cd4	0.009097297
84	0x3c562cad	0.013072175
85	0xbc6ca647	-0.0144439405
86	0xbc0b6125	-0.008507048
87	0x3c727b7f	0.014799952
88	0xbbc3f5c3	-0.005980225
89	0xbb2cf717	-0.0026392394
90	0x3c691b5d	0.014227715
91	0x3bc61986	0.006045523
92	0x3a9b168d	0.0011832282
93	0x3c927b33	0.017881012
94	0x3cbba4ea	0.022905786
95	0x3c26ec26	0.010188138
96	0x3c2ff04a	0.010738442
97	0x3c9c1626	0.01905353
98	0xbc1b2353	-0.009468871
99	0x3ccf43fb	0.02530097
100	0x3c89a3ef	0.016801802
101	0x3c460355	0.012085755
102	0x3ca2eaa9	0.019887285
103	0x3c9d88fa	0.019230355
104	0x3c5d8159	0.013519608
105	0xbb448357	-0.0029985511
106	0xbbc2906d	-0.005937627
107	0xbcad7c4e	-0.021177437
108	0x3c8ba2b9	0.017045366
109	0x3c7ebd68	0.015548088
110	0xbc1e88c8	-0.009676166
111	0xbc2f2d3e	-0.010691939
112	0x3b5f96a6	0.0034116893
113	0x3c4a5a77	0.01235067
114	0xbbd08a0a	-0.006364112
115	0x3c7fc6cf	0.0156113645
116	0xbbab32de	-0.0052245697
117	0x3bb7250c	0.005589133
118	0x3bf42627	0.007450837
119	0x3ac45686	0.0014979399
120	0x3bb74877	0.0055933553
121	0x3c82595b	0.015911749
122	0x3b52a6aa	0.0032142797
123	0xbbb40422	-0.0054936567
124	0xbc47c081	-0.012191893
125	0x3c047f62	0.008087011
126	0xbbf228f3	-0.0073901354
127	0xbae95646	-0.0017802201

action_model._discrete_distribution.branches.0.weight f4 [2, 128]
0	0xbc01155a	-0.007878626
1	0xbd008a03	-0.03138162
2	0xbc4aea5a	-0.012384975
3	0x3b94fe0a	0.0045468854
4	0x3cd87a41	0.026425483
5	0x3d257395	0.04039343
6	0xbce38e3e	-0.027777787
7	0xbb9102e5	-0.004425394
8	0x3c703ca6	0.014662897
9	0x3cb93812	0.022609744
10	0x3cc3a9c9	0.02388467
11	0x3cd4b154	0.025963463
12	0xbbeb93ef	-0.007189266
13	0xbc9c4283	-0.019074684
14	0xbc4905df	-0.012269466
15	0xba761200	-0.00093868375
16	0xbcd410f8	-0.025886998
17	0xbc9d6ad4	-0.019215979
18	0x3c561c10	0.013068214
19	0xbcc6f860	-0.024288356
20	0xbc5fe7ce	-0.013666106
21	0xbc9314f4	-0.017954327
22	0x3d2aba6b	0.04168169
23	0x3cc48591	0.02398947
24	0x3cf61d31	0.030043216
25	0xbc096725	-0.008386408
26	0x3be82694	0.007084677
27	0xbb9a8252	-0.0047152424
28	0xbc672952	-0.014108973
29	0x3c902c6a	0.017599303
30	0x3d103112	0.035203047
31	0x3c3c599a	0.011495972
32	0xbc429232	-0.011875676
33	0x3cbe6e93	0.023246085
34	0x3c92ddf6	0.017928105
35	0xbca536e7	-0.020167781
36	0xbbd5f54d	-0.0065294863
37	0x3bd30872	0.0064402157
38	0xbcfc5c44	-0.030805714
39	0xbcc60561	-0.024172487
40	0xbb5917fb	-0.0033125866
41	0xbc187565	-0.009305333
42	0x3ced0801	0.02893448
43	0xbc4edfe6	-0.012626624
44	0x3cd512cf	0.026009945
45	0xbc33faf2	-0.010985123
46	0x3cb25179	0.021767365
47	0xbcbf8f09	-0.023383634
48	0x3cd86a0d	0.026417756
49	0x3af44f2d	0.0018639319
50	0x3d375599	0.044759367
51	0x3c9307ff	0.017948149
52	0x3c22231f	0.009896069
53	0x3d0303d6	0.03198608
54	0x3d0d06bd	0.034430254
55	0x3c86c748	0.016452447
56	0x3c09e295	0.008415838
57	0x3c8efa45	0.017453322
58	0x3cbc8c79	0.023016201
59	0xbbfcf39f	-0.0077194716
60	0x3d13d990	0.036096156
61	0xbb97ffd4	-0.0046386514
62	0xbc683750	-0.014173344
63	0x3bff6a5c	0.0077946614
64	0xbcc7ae68	-0.024375156
65	0xbba57f91	-0.0050506075
66	0x3c8cf987	0.017208828
67	0xbbf970f9	-0.0076123443
68	0x3d3230bd	0.04350351
69	0xbc5cbe5a	-0.013473118
70	0x3c8c8bf6	0.017156582
71	0xbd0ae933	-0.033913802
72	0x3cc7074c	0.024295472
73	0x3b8ab874	0.0042334143
74	0x3cfb9efa	0.030715454
75	0x3ce21de6	0.027602147
76	0x3cad4bca	0.021154303
77	0x3c6760e7	0.014122224
78	0xbc052949	-0.008127519
79	0xbce74d03	-0.028234964
80	0x3d08e241	0.033418898
81	0x3c90651c	0.017626338
82	0x3d138054	0.036011055
83	0x3c90e925	0.017689297
84	0x3cc54cc8	0.024084464
85	0xbc108972	-0.008821832
86	0xbce2d98b	-0.027691623
87	0x3ca171e5	0.01970763
88	0xbc36f862	-0.0111676175
89	0xbca4ea74	-0.020131327
90	0x3cccd45f	0.02500361
91	0xbbfe1f35	-0.007755185
92	0xbc748821	-0.014925034
93	0x3c7a6472	0.015282737
94	0x3c9c7774	0.019099928
95	0x3bf635d3	0.0075137406
96	0x3cf93aa2	0.030423466
97	0x3d23f059	0.040024135
98	0xbc8b9021	-0.0170365
99	0x3d0a278c	0.03372912
100	0x3cbb2bdc	0.022848062
101	0x3d194819	0.037422273
102	0x3d0c04c6	0.03418424
103	0x3d11e3e7	0.035617735
104	0xbbf26137	-0.007396843
105	0xbbf6ab74	-0.007527763
106	0xbb2d82d2	-0.002647568
107	0xbc881ef2	-0.016616318
108	0x3c3198eb	0.010839681
109	0x3ca44969	0.020054536
110	0xbc8f6d0d	-0.017508054
111	0xbc83b2c5	-0.016076455
112	0xbc81e284	-0.015855081
113	0x3cb6de77	0.022322876
114	0xbcd0b3c7	-0.02547635
115	0x39fa9abd	0.00047799005
116	0xbcf17df2	-0.029479
117	0x3c1891a6	0.009312069
118	0xbafc3a01	-0.0019243361
119	0xbcb79a3f	-0.022412417
120	0x3cab7ecf	0.02093449
121	0x3cadc9d0	0.021214396
122	0xbc2e1f39	-0.010627561
123	0xbcd3de99	-0.025862979
124	0xbc031e42	-0.0080028195
125	0xbc4b6c2b	-0.012415926
126	0xbbe34a73	-0.0069363653
127	0xbbd2aedd	-0.0064295367
128	0xbc05431b	-0.008133675
129	0x3bc4bb44	0.006003769
130	0x3c1756e6	0.009237027
131	0xbd125f48	-0.0357354
132	0xbcd3be4a	-0.025847573
133	0xbcce5031	-0.025184723
134	0x3b0fc8cc	0.0021939753
135	0xbce06e90	-0.02739647
136	0xbd03b8a6	-0.032158516
137	0xbb163dbc	-0.002292498
138	0xbc6a6cdc	-0.014308181
139	0xbccaf4d8	-0.024774954
140	0x3ce4f335	0.027948001
141	0x3c428fab	0.011875073
142	0x3c879db2	0.016554687
143	0x3b83e08b	0.0040245703
144	0xbc291149	-0.0103190625
145	0x3c8a0ece	0.016852763
146	0xbcdb0fb8	-0.026740894
147	0x3cbf6ec3	0.023368245
148	0xbb7205de	-0.0036929767
149	0x3b8432f1	0.004034393
150	0xbd0fce86	-0.035109065
151	0xbd2240fa	-0.039612748
152	0xbd02ebf5	-0.031963307
153	0x3cbe6e6f	0.023246018
154	0x3c8c0794	0.017093457
155	0x3c905507	0.01761867
156	0x3d033ee5	0.032042403
157	0xbb0bdef0	-0.0021342598
158	0xbcf3d4c3	-0.029764539
159	0xbce24533	-0.027620887
160	0x3d000abd	0.03126024
161	0xbce0e750	-0.027454048
162	0xbcbf99af	-0.023388712
163	0x3cb2406d	0.021759236
164	0x3b6a61db	0.0035763893
165	0xb9fcb1be	-0.00048197614
166	0x3ceefcc2	0.029173259
167	0x3c66021a	0.014038587
168	0x3c6cc8a3	0.014452132
169	0x3cae25e9	0.021258311
170	0xbc657f18	-0.014007352
171	0x3c62ca51	0.013842181
172	0xbca835c1	-0.020533444
173	0x3cbffb8d	0.023435378
174	0xbce417d5	-0.027843395
175	0x3c695a74	0.014242757
176	0xbd1ab772	-0.037772603
177	0x3c946794	0.018115796
178	0xbd228408	-0.039676696
179	0xbd102fb0	-0.03520173
180	0xbc5fd889	-0.013662466
181	0xbcd3e192	-0.025864396
182	0xbd0dc9af	-0.03461617
183	0xbd173176	-0.036912404
184	0xbd13259c	-0.03592454
185	0xbd19797b	-0.03746937
186	0xbd0471f9	-0.032335255
187	0x3bcdbe63	0.0062787994
188	0xbce6c27c	-0.02816891
189	0x3c112a4a	0.00886018
190	0x3c2bb0dc	0.010479178
191	0xbc34a009	-0.0110244835
192	0x3ccef065	0.025261113
193	0x3c2aed3a	0.010432536
194	0xbc9f13fa	-0.019418705
195	0x3bf2e01a	0.007411969
196	0xbcbbf687	-0.022944702
197	0x3c8eacc6	0.01741637
198	0xbc8eec41	-0.017446639
199	0x3cb43cdc	0.022001676
200	0xbbfa37cf	-0.0076360474
201	0xbcadd066	-0.021217536
202	0xbd1b804c	-0.03796415
203	0xbd056b74	-0.03257318
204	0xbc8109a6	-0.015751671
205	0xbc976f26	-0.018485617
206	0x3c06dd9e	0.008231549
207	0x3cdc09df	0.026860176
208	0xbcc9d66e	-0.02463838
209	0xbc99e424	-0.018785544
210	0xbc1bc337	-0.009506992
211	0x3b7d12de	0.0038615982
212	0xbcb23e71	-0.02175829
213	0x3c01f4e6	0.0079319235
214	0x3c958d47	0.018255843
215	0xbc81241e	-0.015764292
216	0x3c738692	0.014863627
217	0x3c8f017e	0.017456766
218	0xbce8af5a	-0.028403927
219	0x3c380432	0.011231469
220	0x3c1564e0	0.009118289
221	0xbd23f652	-0.04002983
222	0xbd080441	-0.03320718
223	0xba83ea66	-0.0010064363
224	0xbb35835b	-0.0027696702
225	0xbca3c397	-0.019990725
226	0x3cdea8be	0.027180072
227	0xbcda2621	-0.02662951
228	0xbd0b0cfa	-0.033947922
229	0xbc4eda17	-0.012625239
230	0xbd231b4c	-0.039820954
231	0xbcd680f9	-0.026184546
232	0xbc312358	-0.010811649
233	0x3c11c95d	0.008898106
234	0x3d036e58	0.032087654
235	0x3be59d41	0.0070072715
236	0xbcad6fa9	-0.021171408
237	0xbcbe73b0	-0.023248523
238	0x3c57abc5	0.013163512
239	0x3d20f1f3	0.03929324
240	0x3cb645fb	0.022250166
241	0xbc644747	-0.0139330095
242	0x3c972176	0.018448573
243	0x3c94e9a8	0.018177822
244	0x3c8c391f	0.017117081
245	0xbc1e9ced	-0.009680969
246	0x3c3d2f48	0.011546917
247	0xbb042deb	-0.002016897
248	0xbc54da77	-0.012991539
249	0xbc9aeaa8	-0.018910721
250	0x3c893504	0.016748913
251	0x3c34cd05	0.011035209
252	0x3caa700d	0.020805383
253	0xbb9d170b	-0.0047940067
254	0x3d106666	0.035253905
255	0x3c2f2b9a	0.010691548

action_model._discrete_distribution.branches.0.bias f4 [2]
0	0x3c448baf	0.011996194
1	0xbc448baa	-0.011996189
