ML-Game/Assets/Brain/MLGameTestTemp.onnx (onnx, 233811 bytes, 6 tensors)

network_body._body_endoder.seq_layers.0.weight f4 [128, 315]
000000 40 6a d4 bc af 4e 67 bd 06 91 90 bd 81 c4 dc bd
       -0.02592957 -0.056471523 -0.07058911 -0.10779668
000010 0c 8b 64 bd 0c 71 f6 3c 1b 20 82 3d 76 d1 1e bd
       -0.055796668 0.030083202 0.0635378 -0.038773976
000020 8a f2 ab bd 44 2a 16 3e 3e 3e 09 be 13 12 b0 3c
       -0.0839587 0.1466456 -0.1340265 0.021492993
000030 34 79 42 3d ba 52 84 bd 32 d3 ee bd 64 e8 21 3d
       0.04747887 -0.06461091 -0.11661376 0.039528266
000040 28 81 7c 3d f5 de ab bd 08 51 c8 3c 0a 15 75 bc
       0.06164661 -0.08392135 0.024452701 -0.014958629
000050 54 a5 dd bc 5c c6 5d bd 94 fb aa bd 6c 5e 9d bc
       -0.027056374 -0.05414425 -0.08348766 -0.019210063
000060 d2 ac 0c bd 31 ac 9d bb 9f 66 49 bd ec 6a 9e 3d
       -0.0343445 -0.0048117866 -0.049170133 0.077352375
000070 0d 10 b6 3b dc bb c7 3c c8 c8 53 bd 8e 25 a5 3d
       0.0055561126 0.02438157 -0.05170515 0.080638036
000080 73 8b e7 bc 24 4e 74 3b 00 e7 36 bd 36 77 28 3d
       -0.028264737 0.003727802 -0.044653893 0.041129313
000090 d9 97 56 3d 07 d0 a0 bd e6 24 c3 bc 93 e3 57 3c
       0.052390907 -0.07852178 -0.023821305 0.0131768165
0000a0 ae 9e 92 bd a3 27 ef bd 6b 42 8d bd bf 36 6c bc
       -0.07159172 -0.11677482 -0.06897434 -0.014417349
0000b0 48 8f 4e 3d ab ed a5 3c 6d 4d ba 3b fb 46 70 bd
       0.050429612 0.02025493 0.0056854994 -0.058661442
0000c0 b7 8f 88 3d 3f 45 02 be 1a 2e 30 bc 59 3c fa bc
       0.066680364 -0.12721728 -0.010753179 -0.030546354
0000d0 9d 19 d7 bd 2f b7 21 bd c1 32 3f 3d 44 36 03 bd
       -0.10502932 -0.039481338 0.046679262 -0.032034174
0000e0 e0 6f 20 bd 2f da 34 3d e1 73 99 bd e2 77 08 bc
       -0.039169192 0.04415339 -0.07492805 -0.008329364
0000f0 49 13 1d 3d 60 20 f7 bd 15 23 43 bc ac 15 86 3d
       0.03834847 -0.12066722 -0.01191022 0.06547102
000100 e8 ac d5 bd 44 9b 27 bd cd 50 0d 3d f3 8d ae 3c
       -0.1043337 -0.040919557 0.034500886 0.021307921
000110 c2 b3 f1 3c 0a dd 9d 3d e3 5d 04 bd 9c 29 c5 ba
       0.02950466 0.077081755 -0.0323161 -0.0015042308
000120 21 96 6a bd 5a 34 f0 bb e0 22 a5 bd e1 20 d0 3d
       -0.05727208 -0.0073304595 -0.080632925 0.10162521
000130 48 3f 74 bd e0 1e 12 3c 47 d6 31 bd 6a f7 7a bd
       -0.059630662 0.008918494 -0.04341724 -0.06127111
000140 c9 c3 0d be 6a 96 de 39 59 67 17 3e f5 e3 aa 3d
       -0.13844217 0.00042455207 0.14785518 0.083442606
000150 47 30 99 bd bf 10 ca 3c 74 40 c0 bd d7 71 33 bd
       -0.07479911 0.024666188 -0.093872935 -0.043809738
000160 f7 33 f4 bb 47 b0 5d 3d d8 db 00 3d 0f 43 ca 3c
       -0.0074524838 0.05412319 0.03145966 0.02469018
000170 9d b9 6d 3a cc df d1 3d cf df ea bc 01 3b f0 3c
       0.0009068491 0.10247764 -0.028671173 0.02932501
000180 53 4c 25 3d e3 d4 af bd 29 d2 64 bd 58 67 06 bd
       0.04035599 -0.08585527 -0.055864487 -0.0328134
000190 48 47 c0 b9 32 60 a5 3d 39 3d 57 3d 2f 8c 07 be
       -0.00036674202 0.080749884 0.05254862 -0.1323707
0001a0 a4 aa 5c bd 29 02 77 3d 93 c4 80 bd ec a1 d2 bd
       -0.053873673 0.060304794 -0.062874936 -0.102847904
0001b0 39 e7 b1 3d 1a c8 dc bd da a0 93 bd 08 cd df bd
       0.0868668 -0.10780354 -0.072084144 -0.109277785
0001c0 f3 c4 bd bc 45 41 3a bd 93 35 fe 3d 89 3b fa bd
       -0.023165202 -0.045472402 0.12412562 -0.12218387
0001d0 09 6d 8e bd 55 54 69 bd f4 f7 6e 3d c3 ba b1 bc
       -0.069543906 -0.05696519 0.058341935 -0.0216955
0001e0 41 cb 62 3d 93 1d 5b bd 96 c4 56 bd 1a c6 a6 3c
       0.05536962 -0.053495 -0.052433573 0.020358134
0001f0 77 6a 68 bb 6b f3 99 3d 82 3e 1d 3d bb 50 9f bd
       -0.0035463849 0.075171314 0.03838969 -0.0777907
000200 f7 9a e9 3c 92 52 1d be cf 66 1c 3d d0 07 88 bc
       0.028516276 -0.1536353 0.038183983 -0.016605288
000210 c4 f1 32 3d 89 89 09 3d 54 20 60 bd d1 90 0c 3d
       0.043687597 0.03357843 -0.05471833 0.034317795
000220 9f 5d 88 3c b2 64 a3 bd f7 93 0c 3e d2 d8 46 bd
       0.016646205 -0.079781905 0.13728319 -0.04854662
000230 9a 1c 9c 3c ce 7f f8 3c d5 38 58 bd f0 50 cd bc
       0.019056607 0.03033438 -0.052788574 -0.025063008
000240 6a fd 31 3c 68 b6 cb 3c 33 d1 23 3d 09 77 d7 3d
       0.010863641 0.024867252 0.03999443 0.10520751
000250 98 38 86 bb a2 69 09 bd 15 bb bc 3c 0b b6 1b bb
       -0.004096102 -0.033548005 0.023038426 -0.002375963
000260 b2 c3 34 bd 5b e6 71 bd f6 9b 73 bc 43 52 a9 bd
       -0.044131942 -0.059057575 -0.014868727 -0.08267643
000270 a8 84 98 3d 54 a5 59 be 1c 9d 45 bd 24 fa 8e 3c
       0.07447177 -0.21254474 -0.048245534 0.01745326
000280 41 36 9a bd 19 c7 31 bd 8d a3 a2 3d 52 54 1f 3c
       -0.07529879 -0.043402765 0.07941351 0.009724693
000290 67 e3 bb 3c e5 0b 84 3d 5e d3 74 bd f7 60 ad 3c
       0.022935582 0.06447581 -0.059771888 0.0211644
0002a0 48 66 66 3d 34 1f 13 bd 55 a8 1f be 26 dc 69 bd
       0.056249887 -0.03591843 -0.15591557 -0.057094716
0002b0 9a 0b aa bd e7 8a 22 3c 60 c3 39 3e 35 8d d8 bd
       -0.08302994 0.009920812 0.18140936 -0.10573808
0002c0 af 81 0f bd e2 49 32 3c f3 39 85 bd 34 4c be 3c
       -0.035035785 0.010881873 -0.065051936 0.023229696
0002d0 89 cb 0b bc 2a 1f 58 bd 8d 08 16 bd 8c ae 6d 3c
       -0.008532413 -0.052764095 -0.03662925 0.014506947
0002e0 ac 7c 92 3c 58 4f 37 be ba c6 7c 3d 13 31 26 3d
       0.017881714 -0.17901361 0.061712958 0.040574145
0002f0 ce 1a d3 bc 90 27 ff 3c 9a 1c 12 3e 3f 10 76 3a
       -0.025769617 0.031146795 0.14268723 0.0009386576
000300 cb 8e 3a 3d 30 78 54 bd 20 5f 89 3c 06 94 50 bc
       0.045546334 -0.051872432 0.016768992 -0.012730604
000310 3a 08 de 3d 96 08 fd bb 43 3b 21 bd 68 22 7e bd
       0.10841413 -0.007721971 -0.039363157 -0.06204453
000320 8e d8 05 bd 03 cc 1b bb 82 1c 8b 38 14 0d 23 3d
       -0.032677226 -0.0023772724 6.6333465e-05 0.039807394
000330 a4 5f 05 3c 1b 52 be bc 33 57 1d 3c dc c1 21 bd
       0.008140478 -0.02323251 0.009603309 -0.03949152
000340 53 7f d0 3c b5 bc 9b bd b1 d8 fb 3d 12 0a a1 3a
       0.025451338 -0.076043524 0.1229719 0.0012286326
000350 58 74 b2 3c ea fd e6 bd d2 43 c4 3c c6 0b 3c bc
       0.021783993 -0.11278899 0.02395812 -0.011477416
000360 3c c3 9e 3c ab c8 a7 3b 22 f9 96 3d 40 7b a0 3b
       0.019380204 0.005120357 0.07371737 0.004897505
000370 45 87 07 3e c5 d2 17 3d 98 d3 00 3d c9 f4 b1 3d
       0.13235195 0.03706624 0.03145179 0.08689267
000380 e6 81 46 3d ba 30 b6 3b cb 3b 55 3d ce 2c 0e bb
       0.048463725 0.005560008 0.052058976 -0.0021694186
000390 d6 d0 0e 3d c1 ee 19 3d 6b 38 4c bd 11 a3 72 3d
       0.03486713 0.03758121 -0.049858492 0.059237543
0003a0 2b bd 12 3d 3a 62 11 bd 8e 31 a4 3c aa 6b 48 3d
       0.035824936 -0.035494067 0.02004316 0.0489308
0003b0 2a d9 8b bd f7 d0 1a 3b e1 d5 a0 bd c1 f3 d5 3c
       -0.0682853 0.0023623088 -0.07853294 0.026117207
0003c0 e4 f3 36 3d 1b 80 00 be fe b7 93 bc d5 73 eb bc
       0.044666186 -0.12548868 -0.01803207 -0.028741756
0003d0 b4 e3 9b bd fd 8c cd bc 3b 39 8b 3c fd 91 84 bd
       -0.0761179 -0.025091643 0.016995063 -0.064731576
0003e0 5a 89 e8 bc 2c c0 f2 3d 07 1f 1f 3c 8d 91 b4 bc
       -0.028385807 0.1185306 0.009711987 -0.02204206
0003f0 30 42 66 3d 58 5c 1b bd 31 e6 20 be 72 31 cb bd
       0.056215465 -0.037929863 -0.15712811 -0.0992154

network_body._body_endoder.seq_layers.0.bias f4 [128]
000000 60 32 98 bb b1 f6 34 3c 2d 48 b2 3c 0a 85 c9 3b
       -0.004644677 0.011045144 0.021762932 0.0061498927
000010 5c 0f 5f 3b 15 28 a0 3c f8 28 14 3b 8a 65 78 3b
       0.0034036255 0.019550363 0.0022607427 0.003790232
000020 3b 6b 84 ba 4e a9 c8 3c 3a 20 83 3a 90 e0 94 3c
       -0.0010102758 0.024494793 0.0010004111 0.018173486
000030 2c 7e f2 3c 9a bc ea 3b 2d a1 3c 3b 15 5e a3 3c
       0.029601179 0.0071635963 0.0028782592 0.019942323
000040 c7 8f a7 bb 11 5e ba 3c 7c 31 31 38 c7 cf 11 3c
       -0.005113575 0.022749932 4.2246174e-05 0.008899636
000050 22 61 b2 3b 4b a5 39 ba cf 2e 04 3c 51 63 bb 3c
       0.005443708 -0.00070818205 0.008067801 0.022874506
000060 e3 ac b2 ba 4d ad c3 3c a4 79 f8 3b 95 24 a9 3c
       -0.0013631847 0.023886347 0.00758286 0.020647326
000070 da 3a 89 3c 70 c5 f0 ba 98 1e 07 3c e3 6c e4 3b
       0.016751695 -0.0018369388 0.00824704 0.006970988
000080 55 7d e3 3b fc 5c 65 3c 7e ff 72 3c 44 71 cd 3c
       0.006942431 0.01399922 0.014831422 0.025078423
000090 4f 9b ee 3a f3 dc eb 3b 64 40 da 3b a2 79 7a bb
       0.0018204245 0.00719797 0.006660508 -0.0038219471
0000a0 01 da 3e 3c ca d5 52 bc 6f 99 5a 3c 4b 21 9c 3c
       0.011648656 -0.012868354 0.0133422455 0.019058844
0000b0 04 9f b5 3b 98 2f 0d 3c ae 9c 4e 3c a6 f2 5e 3c
       0.005542638 0.008617304 0.012610598 0.013607657
0000c0 52 9c 7b bc 66 8b 5a 3b 63 da aa 3b 65 35 88 3c
       -0.015357094 0.0033347248 0.005214022 0.016627023
0000d0 f2 41 eb 3b 12 80 51 3c 84 9e f4 3a af 42 c8 3c
       0.007179492 0.012786882 0.0018662964 0.02444586
0000e0 e3 06 2a 3c 9e 37 08 bc 66 53 94 3c c7 ee 39 3c
       0.0103776185 -0.008314041 0.018106174 0.011348433
0000f0 67 88 8a 3b a6 a2 af bc ae 6e 05 3c cf 66 6e 3b
       0.004227686 -0.021439862 0.008144064 0.0036377197
000100 9f d9 13 3c 99 5e 94 3c c5 99 0e bc 82 a6 39 3c
       0.009024053 0.018111514 -0.008703654 0.011331202
000110 c7 65 7b 3b 11 3c 4f 39 cf 10 4f 3c 68 50 a7 3c
       0.0038360225 0.00019763435 0.012638285 0.020424083
000120 f5 20 97 bb ec 4f 3e bc 8a fe 3f 3c b1 5b cf 3b
       -0.004612083 -0.011615735 0.011718402 0.006328069
000130 be c7 09 3c ec 97 7a 3c 41 38 93 3c af 0a 67 3c
       0.008409439 0.01529501 0.01797116 0.014101668
000140 f4 f6 b3 3b c2 35 2b 3c 25 ed a9 3c 5c a0 8e 3c
       0.0054920856 0.010449829 0.020742962 0.01741045
000150 6b fa ee 3b 4e 42 8a 3c 16 87 96 3c 31 dc 12 3c
       0.0072930357 0.01687732 0.01837496 0.008963631
000160 b8 69 b8 3a 5e a7 32 3c ef 22 c6 3a ab 9c 00 3c
       0.0014069593 0.010904161 0.0015116612 0.007849853
000170 d6 bf 60 3b eb 3c 71 3c a3 44 51 3c 9d b3 98 3b
       0.003429403 0.014723997 0.012772712 0.0046600834
000180 ff 16 e2 bb 3f 9b 76 3c 49 15 89 3c 31 af 87 bc
       -0.006899714 0.015051662 0.016733782 -0.01656303
000190 04 1b 8a 3c 4b 42 73 bc aa f5 f9 bb 98 f3 7e 3c
       0.016858585 -0.014847348 -0.0076281624 0.015561007
0001a0 da 94 36 3c ed f5 89 3c 8f 52 3d 3c a5 90 65 3b
       0.011143887 0.0168409 0.011555328 0.0035028842
0001b0 c2 2f 27 39 20 50 89 3c f2 ac 19 3a b9 62 7d bc
       0.00015944152 0.01676184 0.00058622577 -0.015465432
0001c0 71 21 dc 3b 9a c2 fc 3b d8 df fe ba 0c 69 5c 3c
       0.0067178537 0.007713628 -0.0019445373 0.0134527795
0001d0 5a 11 3d bb b1 52 ee bb ed 6c 9c 3b 65 bb 87 3b
       -0.0028849454 -0.007273041 0.004773727 0.004142212
0001e0 fc 68 95 3b 39 6f 82 3c 04 69 af bc c3 5e 08 3c
       0.0045596343 0.015922176 -0.02141238 0.008323374
0001f0 bb 38 d6 b9 69 8a 8b 3c 56 79 4d bb cd 29 ab 3c
       -0.00040859528 0.017033773 -0.003135284 0.020893956

network_body._body_endoder.seq_layers.2.weight f4 [128, 128]
000000 45 3e f0 bc ea 46 b1 bd 8b dc 86 3e 29 d0 42 be
       -0.029326567 -0.08656104 0.26340136 -0.1902472
000010 c4 60 ae bd c4 e6 07 be e3 eb a7 bd a6 c2 98 bc
       -0.0851455 -0.13271624 -0.08199289 -0.018647503
000020 76 5c 9b bd c9 50 93 3d fd 70 d2 3d 3b 4e 74 bd
       -0.07585995 0.07193143 0.10275457 -0.05964492
000030 dc 6a a3 3d 60 e6 da bc 28 b3 b4 3d 15 46 11 3e
       0.07979366 -0.02672118 0.08823234 0.1418689
000040 1b 62 da 3c 21 36 b8 bd b1 30 a0 bd 42 95 41 bd
       0.026658108 -0.08994699 -0.07821787 -0.047261484
000050 cd 44 d2 3d a6 c4 aa bd 8b b8 57 bc 68 df c4 bd
       0.10267029 -0.08338289 -0.013166557 -0.09612924
000060 16 e6 40 be fb d2 3a 3e 1b 28 bf bd 1a a8 81 3c
       -0.18837771 0.18244545 -0.093338214 0.015827227
000070 e2 99 85 3c 03 ed 14 bb c1 2f 8a bd 66 6f 82 3d
       0.016308729 -0.0022724278 -0.067473896 0.06368904
000080 63 a8 6d 3d 11 bf 6d bd 27 9f b0 bd 9c 8e d4 3d
       0.058021914 -0.058043543 -0.08624106 0.10378763
000090 7f 2e df 3c de e8 e9 bd 77 71 a8 3d 80 e2 29 bc
       0.02724385 -0.11421369 0.08224767 -0.010368943
0000a0 aa d3 23 3e 9d a0 59 3d fa 45 05 bc 04 8e fe 3d
       0.15998712 0.05313169 -0.0081343595 0.12429431
0000b0 4e c2 3e bd ff af 21 3d 70 44 b6 3d 45 1d 8e 3b
       -0.046572022 0.039474484 0.08899772 0.0043369853
0000c0 36 1e a2 bd d4 3d 84 3c c5 df 45 39 cd af a6 bd
       -0.079159185 0.016142763 0.00018870745 -0.08139
0000d0 eb 91 9b 3d cd 81 bb 3d 50 b1 57 be 2d dc 57 3d
       0.07596191 0.09155617 -0.21063733 0.05270021
0000e0 61 01 ed 3c f4 82 ba 3d ae cd 84 3d 61 08 3f 3e
       0.028931322 0.091070086 0.06484543 0.1865554
0000f0 2a 3d 8e bd d9 5e 54 bd fc 24 a1 3d 7f b1 94 3d
       -0.0694526 -0.051848266 0.07868382 0.07260417
000100 d1 56 aa bc 97 07 d5 bc a0 12 80 3d 75 f5 32 bc
       -0.02079335 -0.026004596 0.062535524 -0.010922779
000110 02 ef 5b be ff d8 05 be 2e a5 64 bd 25 24 3d 3e
       -0.21477893 -0.13071059 -0.05582159 0.1847082
000120 c5 d0 7a bc 35 53 1e be 77 de 02 3e 13 a5 0d be
       -0.015308564 -0.15461428 0.12780176 -0.13832502
000130 af 99 05 be 8b 23 03 3e d5 d0 87 bd c5 0a b0 bd
       -0.13046907 0.12806527 -0.066316284 -0.08595804
000140 96 6f df bd 09 c1 21 3d 86 69 b5 3d d1 e9 7f bd
       -0.10909955 0.039490733 0.088580176 -0.062478844
000150 5b 01 77 bd 03 a6 86 3c 03 cf 86 bc e3 f2 5f 3e
       -0.060304027 0.016436582 -0.016456133 0.21869998
000160 43 f2 40 bd 6d 7e 36 3d 9c da 9a 3b d3 11 ea bd
       -0.04710604 0.044554163 0.0047257673 -0.11429181
000170 47 97 c0 bd b6 ff 5e 3e 74 44 1c 3d 7f 67 91 3d
       -0.09403854 0.21777233 0.03815122 0.070998184
000180 d3 34 74 bd db bd f8 3c a5 c8 c2 3d 53 62 54 bd
       -0.05962069 0.030363968 0.09510926 -0.05185158
000190 d6 4f 02 3e e9 5d 88 3d 45 e2 36 3d a2 79 b1 3c
       0.12725767 0.06658537 0.04464938 0.021664444
0001a0 5f c3 3b bd c4 06 db 3a dd 60 f9 3d 99 6c 3d bc
       -0.045840617 0.001671039 0.12176678 -0.011561536
0001b0 fa 0d 17 be d7 21 38 bd c6 34 6a bd 08 e1 23 bd
       -0.14751425 -0.044954147 -0.057179235 -0.04000953
0001c0 3e 7b 9c 3c 66 e1 0d bd d7 53 2b 3d 2d 3e c5 bc
       0.019101735 -0.034638785 0.041828003 -0.0240775
0001d0 1f 0a da bc 79 ab c8 3d 17 35 50 3b e0 a5 d3 bd
       -0.026616154 0.09798331 0.0031769925 -0.103343725
0001e0 d5 bf 59 3e 91 70 a1 3d 48 95 e5 3d c9 9a 1d bb
       0.21264584 0.078827985 0.11210114 -0.0024048558
0001f0 a2 bc de bd 2d 83 0f bd 9b 99 be bd 4f a8 be bd
       -0.108758226 -0.03503721 -0.09306642 -0.09309446
000200 75 c4 2b 3e da 62 95 3d 35 c7 a4 bc 64 4f 39 3e
       0.16774161 0.07294245 -0.02011452 0.18096691
000210 19 80 15 3e 09 5b 57 bc 5d d5 4b bc 0b ec 58 bd
       0.14599647 -0.013144263 -0.0124410065 -0.052959483
000220 8f b8 87 bc 0f 9e a1 3b 2b af c1 3d 79 4c 73 bd
       -0.016567497 0.004932172 0.09457239 -0.059399102
000230 71 6f 99 3d 58 38 c7 bd 59 f0 f5 3d 85 d0 21 be
       0.07491959 -0.097275436 0.12008733 -0.158022
000240 16 eb b2 3a 6d b7 c0 3d 70 cd 67 be 70 97 24 bd
       0.0013650383 0.09409986 -0.22636962 -0.040183485
000250 2e 91 96 3d 2c be 90 bd 82 1c 54 bd 79 4d 25 bd
       0.073519096 -0.070675224 -0.051785 -0.040357087
000260 ec 39 41 3d a2 ea c4 bd 1b b2 8c 3d 93 c1 b0 bd
       0.04717438 -0.09615065 0.068699084 -0.08630671
000270 bc 16 e7 bb fa ca 2e 3d 73 ea 8d 3d 29 59 88 3c
       -0.0070522707 0.042674042 0.06929483 0.016644077
000280 ed f7 a5 3d 80 42 57 3c b7 08 1c 3e af de 09 3e
       0.08103929 0.013138413 0.152377 0.13463853
000290 c0 e7 f9 3b 7d 4b 96 3c 8f f9 75 3d f5 ba 35 3e
       0.0076265037 0.018346542 0.06005245 0.177471
0002a0 ab 83 d4 3c 1f ec 0b 3e a1 e2 02 3e c2 97 a5 bc
       0.02594169 0.13664292 0.12781765 -0.020213965
0002b0 f6 22 15 3e c8 57 6c bc 81 27 11 3c 50 ba c5 bd
       0.14564118 -0.014425226 0.008859516 -0.09654677
0002c0 40 c6 09 3d 1a e0 80 3d bc dc 38 3d 89 3c 8f 3c
       0.03363633 0.06292744 0.045132384 0.01748492
0002d0 8b 07 08 bd 2c 33 f3 3c e0 d0 80 3d d6 41 78 3e
       -0.03321032 0.029687487 0.0628984 0.24243864
0002e0 93 6d a8 3d 2f f1 24 bd 65 31 2f 3d 1f 51 33 3d
       0.082240246 -0.040269073 0.042771716 0.043778535
0002f0 c5 55 c1 bd b6 e2 17 bd 5c 31 fc 3c 99 fe 12 be
       -0.09440187 -0.037081443 0.030785255 -0.14354934
000300 ac d8 23 bd e7 26 1d 3d e4 c0 02 3d ff df 09 be
       -0.040001556 0.03836718 0.031922236 -0.13464354
000310 60 ed 15 bd 9f 8e 7f bc a0 b1 4d bd c5 32 99 bd
       -0.03660333 -0.015597968 -0.050218225 -0.07480387
000320 7c fd 0f 3d 47 40 9e bc cf ab 31 3d 42 3c 93 3c
       0.03515385 -0.01931776 0.04337674 0.01797307
000330 e0 dd b1 bd 2a e5 52 bd b3 32 26 be 33 87 05 be
       -0.086848974 -0.05148808 -0.16230278 -0.13039856
000340 05 8b 24 3e 29 70 c2 3b b2 a3 9f 3d 31 f2 c8 3d
       0.16068657 0.0059337807 0.07794894 0.09811819
000350 ff f3 87 bd bb 6e 87 bb 35 c7 47 bb d7 61 b3 bc
       -0.066383354 -0.004133073 -0.0030483727 -0.02189724
000360 66 4f 3b 3e 3d 24 36 3d d7 d3 2f 3d 5a 6f 17 bd
       0.18292007 0.044468153 0.042926636 -0.036971428
000370 0a b4 1d 3e 60 4c 64 3d 7f 7e 4e be 82 eb 03 3d
       0.1540071 0.0557369 -0.20165442 0.03220702
000380 1d 6d 95 bd 2c 95 79 3d 98 ec 94 3c 0a 86 c0 3d
       -0.07296202 0.060933277 0.018179223 0.09400566
000390 19 4d b1 3c 4a 91 a1 3c 41 b2 1c bd 8f ad 62 be
       0.021643208 0.0197226 -0.038255934 -0.2213652
0003a0 9f 55 12 be d4 c6 2c 3d fc fc 65 bc f1 0a dd bd
       -0.14290474 0.042181805 -0.014037367 -0.107931025
0003b0 8b 80 c4 38 96 6b 00 be cc 04 31 3d 49 97 8a 3d
       9.369951e-05 -0.12541041 0.043217465 0.067671366
0003c0 20 e1 1a be 63 41 d0 3d 4b a5 f5 3d d5 16 93 3d
       -0.15124941 0.101687215 0.11994418 0.07182089
0003d0 88 c5 91 3e d7 5e 19 bd 20 34 d9 bd 96 e0 29 3c
       0.28471017 -0.037443962 -0.10605645 0.010368487
0003e0 ce 1d 25 be 73 3e 92 3d e1 1b 48 3d c5 01 c7 3d
       -0.16124651 0.071408175 0.048854712 0.097171344
0003f0 0e de 4d 3d cf 7f 3b bd 82 e2 22 bd 1a 41 6b 3e
       0.050260596 -0.045776185 -0.039766796 0.22974053

network_body._body_endoder.seq_layers.2.bias f4 [128]
000000 cc dc a2 3c 88 55 67 3c 11 9d 5e 3b 75 76 3f 3c
       0.019880675 0.014119513 0.003396813 0.011685957
000010 4a b0 7a bb 55 ff ab 3b f4 d8 78 3c 24 25 43 bc
       -0.003825205 0.005248944 0.015188444 -0.0119107105
000020 26 7b 57 3b b5 b6 80 3c 4e b4 9d 3c 77 95 88 3c
       0.0032879799 0.015712122 0.019251015 0.016672833
000030 c3 42 a5 3b 30 83 bd 3b 9e 41 16 3b f1 ca 1a ba
       0.005043359 0.005783461 0.0022927294 -0.00059048744
000040 bf 07 c7 3c 79 a7 89 3c 1e 1c 04 3d eb 7d 90 3b
       0.024295686 0.01680349 0.032253377 0.004409542
000050 2d 34 c4 bb 4c 9d a3 3b db 1d 0a 3c ad 34 ad bb
       -0.005987665 0.0049931165 0.00842997 -0.0052858205
000060 6b e1 fe 3b e0 02 86 3c 85 a1 8a 3c b5 3d 26 3c
       0.0077783368 0.016358793 0.016922722 0.010146548
000070 01 d3 98 3c 98 fe 09 3c 20 42 20 3c 25 66 62 3c
       0.018655302 0.008422516 0.00978139 0.0138182985
000080 ae 58 b0 3b 30 c1 0c 3c ff 0a 46 3c 0a 29 7c 3a
       0.005381665 0.008590981 0.012087583 0.00096191524
000090 bd b7 09 3b eb 9f 11 3a 63 d4 b8 3b a4 de 25 bc
       0.0021014058 0.00055551407 0.005640553 -0.010123882
0000a0 07 8d 5e 3c a8 0b 58 3b 59 5c ca 3b 5f d3 d0 3b
       0.013583428 0.0032965932 0.0061755595 0.0063728536
0000b0 0f 1d dd 3b 50 e1 8a 3c 2a 28 58 3c c6 31 54 bc
       0.006747849 0.01695314 0.01319317 -0.01295132
0000c0 5d 36 21 3c 49 f0 81 3c 00 5d b5 3c eb 91 55 3c
       0.009839621 0.015861647 0.022139072 0.013035278
0000d0 04 c2 96 3c 4c 4f c4 3c 4a a1 de 3c eb a2 82 3b
       0.01840306 0.023963593 0.027176518 0.0039867065
0000e0 2e eb 7e 3c fd 03 35 3c a6 be dd 3c 16 4d d7 3a
       0.015559001 0.011048314 0.027068447 0.0016426172
0000f0 4a e3 ce 38 c4 20 69 3c ea 76 c0 3c 0a c6 1d 3c
       9.865181e-05 0.014229003 0.023494203 0.009629736
000100 cd 34 31 3c 91 f3 ab 3b 1e 7c aa 3c d5 4b 16 3c
       0.010815811 0.0052475412 0.020811137 0.009173353
000110 bb c6 89 3c 49 ed a8 3a b9 65 2d 3c 05 1d a9 3c
       0.016818395 0.0012888099 0.010583335 0.02064372
000120 a7 ac 20 3c 26 42 fc 3b 18 fc 36 3c 01 b4 3c 3c
       0.0098067885 0.007698315 0.011168502 0.011517526
000130 97 d2 9d 3b c6 38 7f 38 32 29 bd 3b 8f 16 7c 3c
       0.004816364 6.0849612e-05 0.005772733 0.015386238
000140 a6 83 68 3b af 36 14 ba e2 c7 33 3c 1e 97 d1 3a
       0.003547886 -0.00056539004 0.010972949 0.0015990471
000150 1a 55 1c 3c 9f 7f 02 3b bf 7a 8e 3c 90 29 d1 3b
       0.009541774 0.0019912494 0.017392514 0.0063831285
000160 ba 7c 63 3c 8f a3 73 3b a5 8f b9 3c 66 b4 c4 3c
       0.013884718 0.0037176346 0.022651503 0.024011802
000170 65 de 8e 3c 59 00 e3 3b 2b 3e 6b 3c 08 b8 df 3b
       0.01744003 0.0069275317 0.014358084 0.006827358
000180 a2 ea e1 3b 64 4c 5a 3c 9b e3 0c 3c 46 57 b7 3b
       0.0068944255 0.013323877 0.008599187 0.0055951206
000190 24 7d 3a 3c b1 6a e0 39 ee 6b 66 3c dd 64 07 bb
       0.011382375 0.000428041 0.014063818 -0.0020659484
0001a0 05 f7 8a 3c da 62 65 bb 8e 16 a1 3b a6 51 8c 3c
       0.016963491 -0.0035001547 0.004916019 0.017128777
0001b0 5b 36 95 3c 3a a8 c3 3c b4 89 9e 3c 5c 03 69 3c
       0.018214395 0.023883928 0.019352771 0.014221992
0001c0 e0 4e db bb 0b 55 cc 3c 86 fd 90 3c 52 98 6a bc
       -0.0066927522 0.024942895 0.017699014 -0.014318543
0001d0 7f f4 f3 3b 5e ad 00 3c f2 87 aa 39 eb 33 bb 3c
       0.0074449177 0.007853834 0.00032526214 0.022851905
0001e0 be 0b 2f 3c 22 7c 6d 3b 1f 8e cc 3b 04 54 2c 3c
       0.010683952 0.003623732 0.006242528 0.010518078
0001f0 b1 37 36 3c 5a 74 06 3c 0e 81 34 3b 4e 38 89 3a
       0.011121676 0.008206451 0.0027542743 0.0010469051

action_model._discrete_distribution.branches.0.weight f4 [2, 128]
000000 da d9 42 3d a1 83 dd bc 89 f1 83 bc 2b 5a ea bc
       0.04757104 -0.027040305 -0.016106384 -0.028607449
000010 5b 96 8f 3c 74 e6 d8 bc aa b7 30 3d 67 86 5e bc
       0.01752775 -0.026477076 0.043143906 -0.013581849
000020 9b 97 88 3c 65 c7 87 3c 6d e1 32 3d 42 91 32 3d
       0.016673854 0.01657457 0.043672014 0.04359556
000030 97 70 ef 3c 0b d1 b8 bc 81 8c 4f bd 97 2d 18 bd
       0.029228492 -0.022560617 -0.050671104 -0.037152853
000040 41 36 39 3d 3d 4d 19 3d f9 61 1d 3d b3 c1 34 bd
       0.045217756 0.037427176 0.038423512 -0.04413004
000050 4f a0 ae bc 67 6b 2c bc 56 f2 d5 3c 1b 11 aa bc
       -0.021316675 -0.010523654 0.026116531 -0.02076011
000060 fe c6 e9 3c 88 75 37 3d 29 60 f8 3c b5 e1 27 bd
       0.02853727 0.04478982 0.03031929 -0.040986735
000070 8c f9 14 3d e4 f5 19 3d 92 1c 1f bd 84 32 1a 3d
       0.0363708 0.037588015 -0.038845606 0.03764583
000080 da dc d5 3c 11 d9 23 bd 9e b1 1e 3d 25 63 06 bd
       0.026106287 -0.040001933 0.038743608 -0.032809395
000090 b5 20 14 bd 64 2a b3 3c ac 4e 2c bd 04 e2 55 bc
       -0.036164004 0.0218708 -0.042067215 -0.013054375
0000a0 7c 96 e9 bc 0a 62 07 3d 6c 5d d4 bc 76 06 ab 3a
       -0.02851414 0.03305248 -0.025923453 0.001304819
0000b0 a4 03 33 bd ac 90 25 3d 03 81 11 3d 1f 18 91 bb
       -0.043704644 0.040421173 0.035523426 -0.0044279243
0000c0 76 9e 5d 3c d8 8d 3c 3d d8 c5 4b 3c 62 7d 12 bd
       0.01352655 0.04603371 0.012437306 -0.035764106
0000d0 c8 2f 9d bc 75 5f 23 3d f1 52 56 3d 46 9e 07 bd
       -0.019187823 0.039885957 0.052325193 -0.033109926
0000e0 3d e6 4d bd d5 40 3f 3d f8 61 fa 3c 8f f6 07 bd
       -0.0502684 0.046692688 0.030564293 -0.03319412
0000f0 33 1b fc bc 0d f3 b6 3c 6b 47 5d 3d e1 bd 48 bd
       -0.030774688 0.022332693 0.054023188 -0.049009208
000100 80 84 1b bd b8 d1 35 3c 7c 54 88 3c ec 80 31 bd
       -0.03796816 0.011097364 0.016641848 -0.04333584
000110 c3 65 12 3d 06 8b 60 bd 51 e0 09 3d 3e 3b 39 3d
       0.03574158 -0.054820083 0.03366119 0.045222513
000120 10 c6 1f bd d2 28 01 bd 6f 91 dc 3c cd 08 2e 3d
       -0.039007246 -0.03153307 0.026924817 0.04248886
000130 02 12 0b bd 0c c7 1d bd ff 8f d2 3c 77 19 30 3d
       -0.03395272 -0.038519904 0.025703428 0.042993035
000140 7f 8f 41 3c 14 dc 97 bc 40 2b 26 3d 15 a4 12 3a
       0.011813997 -0.018537559 0.04056859 0.0005593908
000150 f4 89 03 3d 35 08 1f bd bd ef db bc 7a f9 e6 bc
       0.032113984 -0.038826186 -0.026847715 -0.028195132
000160 53 c3 f5 bc a7 39 7c bd 5c b1 24 3d bc 4c 13 bd
       -0.030000364 -0.06157842 0.040208206 -0.03596185
000170 f1 b4 2e 3d 8a 61 18 bd 4f 97 9c bc 26 73 33 bd
       0.042653028 -0.037202395 -0.019115118 -0.043810986
000180 7b 35 1e bd a4 8f 0d 3d e4 be e0 3c ae 68 02 bd
       -0.03862522 0.034560814 0.027434774 -0.03183811
000190 23 e5 65 ba c0 3c 24 bd 30 13 b4 3c 35 43 30 bd
       -0.0008769801 -0.040097 0.021981806 -0.043032844
0001a0 64 00 05 3d 8a 01 73 bb 11 ac 8c ba 3c 16 29 bd
       0.032471076 -0.0037079775 -0.0010732432 -0.04128097
0001b0 96 60 35 3d 39 83 0e 3d 40 da 2a 3d a8 56 4b 3d
       0.044281565 0.034793112 0.041712046 0.04964319
0001c0 f7 aa 95 bb 8a 40 1e 3d cd 15 b8 3c 00 75 7c bc
       -0.0045674997 0.038635768 0.022471333 -0.015408754
0001d0 d4 d2 3d bd e4 0e 41 bd f7 99 ff 3c 22 32 4d 3d
       -0.04634364 -0.04713334 0.031201346 0.05009664
0001e0 73 64 c6 3c 43 38 0c bb 18 e0 a2 bc 66 f6 2d 3d
       0.02421782 -0.002139584 -0.019882247 0.042471312
0001f0 d4 84 76 3c 18 57 c8 3c 4a b2 ea bc e0 5b e4 bc
       0.015046317 0.024455592 -0.028649468 -0.02787584
000200 1a 37 2f bd c0 ff 18 3d 33 53 b4 3c 65 95 c2 3c
       -0.04277716 0.037353277 0.022012329 0.023752877
000210 a9 98 9c bc 8b 8f fe 3c 99 2e 53 bd a9 04 40 3c
       -0.019115763 0.031074306 -0.05155811 0.011719861
000220 c6 d6 0c bd d0 51 0f bd 9f 8f 42 bd 84 e8 23 bd
       -0.03438451 -0.03499013 -0.04750025 -0.040016666
000230 23 1e 05 bd d7 74 df 3c 9a a2 36 3d a2 46 15 3d
       -0.032499444 0.027277393 0.044588663 0.036444314
000240 8d 1c 20 bd af 8d 30 bd 8c 70 82 bd 60 e7 f5 3c
       -0.03908973 -0.04310387 -0.06369123 0.030017555
000250 5c 4d 26 3c 33 ef 1b 3c 7f 78 03 bd d9 5a 69 3c
       0.01015028 0.009517479 -0.032097336 0.014242851
000260 59 06 38 bc 0a 2a 29 bd cd 8c 1f bd fe e0 2d 3c
       -0.011231982 -0.041299857 -0.038952637 0.010612724
000270 13 53 de bc dd 7b 11 bd 9a 4c 07 3d a0 59 08 bc
       -0.027139222 -0.035518516 0.033032037 -0.0083221495
000280 69 36 f1 bc c7 47 01 3d b7 fd a2 bc 67 cc 10 3d
       -0.02944489 0.031562593 -0.019896371 0.035351183
000290 cd 8f cb 3c de ce 09 bd f2 d3 3b 3d cb 56 81 3c
       0.024848843 -0.03364455 0.045856424 0.015788456
0002a0 69 4a c3 3c af 7e 10 bd 0a 55 cd 3c 5a d3 53 3c
       0.023839192 -0.035277065 0.025064964 0.012928808
0002b0 00 f5 67 3d da b7 0b bd 13 9e c6 bc 67 da 6f 3c
       0.056630135 -0.03411088 -0.024245298 0.0146394735
0002c0 4b 59 1f 3c 27 ae 25 bd e4 44 e5 bc 31 b6 12 3d
       0.009725879 -0.040449288 -0.027986951 0.035818283
0002d0 77 68 89 3c cc 13 3b bd 22 c1 1c bd 62 7c 46 3d
       0.016773446 -0.045673177 -0.038270123 0.048458464
0002e0 09 bd 28 3d 53 2a 0c bd b4 22 54 bd f2 80 6c 3c
       0.041195903 -0.03422005 -0.051790908 0.01443504
0002f0 58 a3 08 3d 2e bd 27 bd 96 ea ea bc 64 4a 0a 3d
       0.0333589 -0.0409519 -0.028676312 0.03376235
000300 90 33 01 3d ea 66 ef bb 65 2d a6 bc 57 d8 16 3d
       0.031543314 -0.0073059695 -0.020285318 0.03682741
000310 a4 b6 fe bc 19 5d 2b 3d b1 c7 18 bd 0d cb ed bc
       -0.03109295 0.04183683 -0.037299816 -0.029027486
000320 27 32 b9 3c ce 29 13 3d 66 17 10 bd 21 9f 08 bd
       0.022606922 0.03592854 -0.035178564 -0.033354882
000330 ca f1 7d 3d bf 69 70 3d 2a f8 e4 bc 83 a8 f0 bc
       0.061998166 0.058694597 -0.027950365 -0.029377228
000340 95 f2 d1 bc e9 39 dc 3b d7 1c ae bc 3f 11 1b bc
       -0.025628367 0.0067207706 -0.021253986 -0.009464561
000350 70 8d 38 bd fc 0b e4 3c b3 b5 32 3d 5e 27 7a 3d
       -0.04505676 0.027837746 0.043630313 0.0610727
000360 33 3f 3f 3d 9f 45 5f 3d 6d 14 06 bd f7 bc 58 3d
       0.04669113 0.054509755 -0.032734323 0.052914586
000370 ce 23 10 bd 89 f2 29 3d be 13 2e 3d d6 e5 1d 3d
       -0.035190396 0.041491065 0.042499296 0.038549267
000380 d6 ef cb 3c 92 d5 20 bd eb ea c3 bc 01 41 1e 3d
       0.024894636 -0.039266177 -0.023915729 0.03863621
000390 2a 9b 49 3c 07 cc 1f 3d 71 1e e3 bc b3 bf 59 3c
       0.01230506 0.039012935 -0.027724477 0.013290334
0003a0 96 0d 21 bd 7f a4 4c 3c d0 6c 7a bc 8e 7b b7 3c
       -0.039319597 0.012490391 -0.015284732 0.022397783
0003b0 da 29 bf bc 33 c8 3d bd ee d3 aa bc 93 9c 26 bd
       -0.023335386 -0.046333503 -0.02085301 -0.040676665
0003c0 04 2a 99 3b 85 5c 42 bd bd 1f ca bc 82 92 4b 3a
       0.004674198 -0.047451515 -0.024673337 0.0007765667
0003d0 c0 ad 09 3d f8 8b 3f 3d 15 70 d2 bc a6 45 42 bd
       0.033612967 0.046764344 -0.02568821 -0.047429703
0003e0 8e 01 e4 bc c6 82 cb bb f9 77 02 3d 5a ef d5 bc
       -0.027832773 -0.006210658 0.031852696 -0.026115108
0003f0 c8 05 d5 bc 15 23 f0 bc 42 15 a1 3c 2c 31 21 3d
       -0.026003733 -0.029313603 0.019663457 0.039353535

action_model._discrete_distribution.branches.0.bias f4 [2]
000000 7c f0 ee 3b 77 f0 ee bb
       0.0072918516 -0.0072918492
