ML-Game/results/MLPrototype/PrototypeModel.onnx (onnx, 187731 bytes, 6 tensors)

network_body._body_endoder.seq_layers.0.weight f4 [128, 225]
00000000: 730b 5c3d 21f2 603d 17e2 803d 7cca 2dbd
00000010: 084c f43c 590d e5bd aa5a 16be 9c26 513d
00000020: 6939 ae3d ed4e eb3c e44f 83bc 84ec f1bc
00000030: 77b9 15be 8e36 843c 08a9 2c3d 538b 153e
00000040: 7e00 8dbb 833c a13c be31 a0bd d7f4 81bc
00000050: f0dd 26bd 0863 a73d 9ecc 0f3e ebed c7bd
00000060: d62b e7bd 04cd 1b3e ec82 cd3c e880 8c3d
00000070: e7e2 e93b 6a47 3abd 057b 50bd 852e 093e
00000080: edbb 163d d4c9 853d 3eec 973c 31d2 853b
00000090: c4bc 43be 84d0 503d b740 213c 3f51 093e
000000a0: 5b79 cdbd 9919 273d 5966 edbc ede6 ca3d
000000b0: 8cb2 783d e391 67bd e725 123e c934 11bd
000000c0: e51b c9bc 64b3 963d b45a 47be c72b c8bd
000000d0: 46b3 79bd b471 8e3c 9c57 a73b 22eb 9bbc
000000e0: 8f51 803d 8607 a7bd 5845 a43d c4c1 313d
000000f0: 841b 1e3e 0107 e9bc 4b5b 9ebd 5bc6 ecbd
00000100: a242 363e 202a 9a3c 6cdb 753e 613f 20be
00000110: b280 053d 722f b6bd b3d9 4a3d 203e dcbd
00000120: e29d 083d 5699 b9bd e610 b43d f8a2 04bd
00000130: 2463 823d a438 05be e0a5 363e 38fb 1cbe
00000140: b068 8d3d acb8 f73d 9b45 f1bc 7f7c e53c
00000150: e251 3a3e ad93 9bbc 32c8 9cbd 56da 56bd
00000160: 89b1 88bd dfa5 42bd ad4e 3ebe fa4f 35bc
00000170: 69e6 a4bc 5847 7bbc 483c 203d 4772 773d
00000180: 0d2b d2bd 217c 52bc 154d 15bc ba87 83bd
00000190: 49c4 ed3c 3c40 67bd 226b 93bd 08f7 4cbc
000001a0: 499b aabd c6b1 e53d 6af5 4abd 7677 3c3d
000001b0: 1b18 94bc e712 223d 8516 2f3d 802a 713d
000001c0: 4dcd 52bc 0943 94bc a517 6fbd 3c4b 03bd
000001d0: 8c7f c23a 839a 533d 5685 94bc b345 0bbc
000001e0: d77e 66bd 81ce 203e 0cb3 573d 56d5 1a3e
000001f0: c65e 94bd a5e4 043b b650 f4bc 972c 853d
00000200: d09f 293d c89e 8e3e d684 2cbe d456 453d
00000210: 58d1 febd 0ed2 bdba 8489 92bd 0926 423d
00000220: c490 853d c904 f9bc 9cab f0bd 3454 8e3d
00000230: b8bc 8d3d 7e29 01be 2970 68bd e9f3 d53d
00000240: cf45 b23d cb37 d13c cae1 d5bc efa4 2dbd
00000250: da90 19be 4b40 7b3d e48c 8a3b c8b8 94ba
00000260: 88b8 af3d 8171 19bd 616d 57bd e945 bcbc
00000270: 7a8e 9a3d 9d8c 2cbe ac71 81bd 92df 083d
00000280: 2081 b6bd 563b f5bd abb5 74bd 9ff3 933a
00000290: a0e7 663c 95ce f93d c727 5ebd d2ac 8dbd
000002a0: 17ee 973c f45a 10be 9128 843b 91ce e6bd
000002b0: e219 a83c 6821 ebba 9858 113d 6f1d 58bc
000002c0: f8f3 183d 8bb9 29bd 44db 99bc dc25 b43d
000002d0: 80a5 ebbd 446d 703d d70b 553d 27f4 adbc
000002e0: b5c0 243e 3608 073d b7c8 19be d8bc d13d
000002f0: 6612 0bbd deed eb3d 7ee9 a9bb ed1e b9bc
00000300: 4150 e8bc 5ec5 283e 739b 68bd 9a0e a93d
00000310: 9350 b9bb 844a dcbd 5d47 20be 9f2f ea3d
00000320: b906 63bc 5620 163e f808 b0bd e855 863c
00000330: 7b97 9abc 99d6 5cbb a567 1b3d 13d9 71bc
00000340: ca2b c6bd 1d42 d6bb 4d2c ff3d 95f6 37bc
00000350: ff92 b33d 2437 3d3d e251 8abd d263 ba3c
00000360: b9a0 7a3d 4f09 f23c 6ccf b33d 838d 273e
00000370: 816f a03d bf1b 913d 3242 623d b8b3 063d
00000380: 5674 5a3d a7d7 963c d411 85bd e69b 6b3d
00000390: fff7 15bc 13bc 7ebc 4e85 013d b164 e3bd
000003a0: 7d5f 823d 6365 823d 1e03 5cbc c7e0 0c3d
000003b0: 9712 063d 1f7c f6bc 570b 673d ae52 ac3c
000003c0: fe27 073e 8d6c 06be 0631 0bbc c528 4dbd
000003d0: 002d 743d 9d33 5cbc c223 b03d d302 7abd
000003e0: e274 1d3d 9fa4 c6bb 125d 713d f86e 153d
000003f0: 1363 7c3d 7e2b 7d3d f29f aa3b e7c9 80bd
0.053721856 0.054918412 0.06293123 -0.042429432 0.02982141 -0.111841865 -0.14683023 0.05106221
0.08507044 0.028724158 -0.016029306 -0.029531725 -0.1462153 0.016139295 0.04215339 0.14603929
-0.004303037 0.019682175 -0.078219876 -0.015863819 -0.040739 0.081731856 0.14042899 -0.09762176
-0.11287658 0.15214926 0.025086842 0.068605244 0.0071376446 -0.045478262 -0.05089857 0.13396652
0.036800314 0.06532636 0.018545266 0.0040838947 -0.19114977 0.050980106 0.009842089 0.13409899
-0.10032912 0.040795896 -0.028979467 0.09907327 0.06071715 -0.056535613 0.14272271 -0.03545073
-0.024549434 0.07358435 -0.19468194 -0.09773975 -0.060961984 0.017388202 0.0051068794 -0.019033018
0.06265556 -0.08155732 0.08021039 0.04339768 0.15440184 -0.028445723 -0.077322565 -0.11561271
0.17798856 0.018818915 0.24009484 -0.15649177 0.032593437 -0.08895768 0.04952402 -0.10754037
0.033353694 -0.0906245 0.087922856 -0.03238198 0.06366566 -0.13009888 0.17836714 -0.15330207
0.06904733 0.1209577 -0.029452136 0.028013466 0.18195298 -0.018991316 -0.07655372 -0.052454315
-0.06674487 -0.04752147 -0.185847 -0.011066431 -0.0201294 -0.015336834 0.03911999 0.060411718
-0.102621175 -0.012846977 -0.009112616 -0.06422372 0.02902426 -0.056457743 -0.07198168 -0.012510069
-0.083303995 0.11215548 -0.04955045 0.046012364 -0.0180779 0.039568808 0.042746086 0.05887842
-0.01286633 -0.018098371 -0.05837216 -0.03205417 0.0014839037 0.051661026 -0.018129986 -0.008500504
-0.056273308 0.15703775 0.052660987 0.15120444 -0.07244639 0.0020277884 -0.029823642 0.065026455
0.041412175 0.27855515 -0.16847548 0.04817851 -0.12442273 -0.0014482157 -0.07155135 0.047399554
0.065217525 -0.03039779 -0.11751482 0.06949654 0.06920761 -0.12613484 -0.05674759 0.10446913
0.08704721 0.0255393 -0.026108641 -0.04239362 -0.14996663 0.06134061 0.0042282213 -0.0011346573
0.085801184 -0.03746176 -0.052594546 -0.022982555 0.075467065 -0.16850515 -0.06320509 0.03341634
-0.089113474 -0.11974208 -0.059743565 0.0011287815 0.01409331 0.121976055 -0.054237153 -0.069177285
0.018546147 -0.14097196 0.004033156 -0.11269868 0.020520154 -0.0017939033 0.03548488 -0.013190611
0.03734204 -0.041436713 -0.018781312 0.087962836 -0.11506176 0.058697954 0.052013244 -0.021234585
0.16089137 0.032966815 -0.15017973 0.10241097 -0.033953093 0.11519979 -0.005185305 -0.022597754
-0.02835858 0.1648154 -0.056788873 0.08254738 -0.005655357 -0.107564 -0.15652223 0.11434864
-0.013856583 0.14660773 -0.08595461 0.016398385 -0.01887106 -0.0033697246 0.03794064 -0.014761227
-0.09676321 -0.006538643 0.124596216 -0.011228223 0.08768272 0.046195164 -0.06753899 0.022752676
0.061188433 0.029545454 0.08779797 0.16362576 0.07833768 0.0708537 0.05523891 0.032886237
0.053333603 0.018413378 -0.06497541 0.057521723 -0.009153365 -0.01554777 0.03162127 -0.1110319
0.06365869 0.06366994 -0.013428478 0.034394052 0.032732572 -0.030088482 0.0564073 0.021035518
0.1319885 -0.13127346 -0.008495575 -0.05008771 0.059613228 -0.01344004 0.0860057 -0.06103785
0.038441546 -0.006062105 0.05892665 0.03648278 0.061617922 0.061809056 0.0052070552 -0.0628851

network_body._body_endoder.seq_layers.0.bias f4 [128]
00000000: ef3f b73c e56c 4cbc 1f6f 9b3a a57b 103d
00000010: ece1 9d3c b444 c2bc 7354 ec38 a21a ab3b
00000020: 4d53 78bb 0699 1ebb 988d bcbc 6721 3bbc
00000030: 627b 31bd c186 bdbc a777 8bbc 93a3 72bc
00000040: 77de 9ebc c0f9 d3bc 27c5 e4bc 0407 0ebd
00000050: 8890 8bbc 1959 73bc 303a 42bc 3f10 823c
00000060: 5977 3e3a 39e4 663b bd13 2cbd fd44 ecbc
00000070: c3e4 2bbd 32bb b63c 0640 713b 5c54 6b3c
00000080: 28a0 ad3c d175 e5bc 512e a1bc 3bfd 5abc
00000090: 8c41 37bd df84 acbc 40be db3b 9557 d3bb
000000a0: 89b7 013c b149 01bd 1c11 b7bc 5082 1cbc
000000b0: 98cf 573c e7a5 3bbd c242 70bd 53ac 2c3a
000000c0: 4034 3e3c a1cc 36bd eae2 b9bc f0f5 113c
000000d0: 8792 3cbc 7b8d f63b 507d 1a3d fe13 eb39
000000e0: d354 dc3b c4da 8bbc cf93 523c 4a94 813b
000000f0: a05b 4fbd c776 b3bb 9533 63bd c79d 6a3d
00000100: 4636 623c 0858 bf3b 5489 073d 97b8 963c
00000110: 3b43 273c d87d 67bd 2869 4fbc 5404 62bb
00000120: dc3c 6bbb 964e 573b 2231 9bbc 0de9 abbc
00000130: 983d 0cbd 02eb d1bc 863e 0ebd f795 23bb
00000140: e87c 013b 5739 2cbd 1803 32bc aae4 d8b9
00000150: 02b9 40bc 900c 12bd 31f8 f8ba 9a04 49bc
00000160: a77a fabc 2128 f1bb a6d9 153c bd44 9dbc
00000170: 1cc4 d53b 1bc2 83bc 1d94 833d a6ce 6ebd
00000180: f395 9eba 50f6 76bc e3e0 39bd 6dc2 0fbd
00000190: 3a25 34bd 089f 2b3b 4009 90bb 0319 2cbd
000001a0: 1dcb 033c 3681 54bd 65fc 8cbc a20a 30bc
000001b0: 987e d2b8 b639 7f3c aa41 88bc 080e 37ba
000001c0: 71ea b53c 24e5 8bbc 4401 b5bc b298 83bc
000001d0: 273b e1bc 1615 963b 2c75 1ebd efb8 2cbd
000001e0: dbff 5e3b 3a0e ce3c 9ee9 d93c fbf9 26bd
000001f0: adf3 eabc b19d 04bc 76c7 7a3c 1d60 c43c
0.022369353 -0.012477134 0.0011858678 0.035274167 0.019272767 -0.0237144 0.00011269087 0.0052216807
-0.0037891448 -0.0024200096 -0.023016736 -0.011421538 -0.043330558 -0.023135545 -0.017024828 -0.014809507
-0.019393189 -0.025875926 -0.02792604 -0.03467466 -0.017036691 -0.0148527855 -0.011854693 0.015876887
0.0007265709 0.0035231246 -0.04201101 -0.02884149 -0.04196621 0.022306059 0.0036811843 0.014363375
0.021194533 -0.02801028 -0.019675406 -0.013366039 -0.044740245 -0.021059452 0.006706029 -0.0064496496
0.007917293 -0.03156442 -0.022347026 -0.009552553 0.013172053 -0.045812514 -0.058657415 0.00065869576
0.011609137 -0.044628743 -0.022691209 0.008908734 -0.011509544 0.00752419 0.037717164 0.00044837588
0.006723979 -0.017072089 0.012852623 0.003954445 -0.05062449 -0.005476806 -0.055469114 0.057279374
0.013806885 0.0058393516 0.03308995 0.018398566 0.0102089 -0.0565165 -0.012659349 -0.0034487443
-0.003589443 0.0032853237 -0.018944327 -0.02098515 -0.034238428 -0.025624756 -0.034727596 -0.0024961212
0.0019758288 -0.04204687 -0.010864995 -0.00041369098 -0.011762859 -0.03565651 -0.0018994865 -0.0122691635
-0.030576063 -0.00735952 0.00914613 -0.019197816 0.006523622 -0.016083768 0.06424735 -0.058302544
-0.0012099132 -0.015073374 -0.045380484 -0.03509753 -0.043980815 0.002618732 -0.004395634 -0.04201604
0.008044031 -0.051881038 -0.017210195 -0.010744723 -0.0001003716 0.015577724 -0.016632874 -0.0006982987
0.022206517 -0.017077036 -0.02209533 -0.016064022 -0.027494026 0.0045801504 -0.038685963 -0.042168554
0.0034027013 0.025153268 0.026600655 -0.040765744 -0.028680647 -0.008094237 0.015306344 0.023971612

network_body._body_endoder.seq_layers.2.weight f4 [128, 128]
00000000: 30ab 4c3e 2d4e 603c a9cf ba3d c9d1 20bc
00000010: 6876 c13d 4547 3fbd 0dba bcbc 8279 67be
00000020: 5533 de3c 4c7c 303e 9196 c0bd 5ddc 97bd
00000030: 63ed 253c 4a3e bebc 819d d93b 1e8c 7abd
00000040: ece1 99bd ed69 343e d347 d93d ee05 b83c
00000050: 5e1d 06be b799 373d d7f9 403c faa3 813d
00000060: 1d0e 92bd 28a4 5ebd 1e88 c5bd ed62 303d
00000070: 8d4e 573e 2132 ba3d af95 b2bc fc21 81be
00000080: b3c1 69bd b031 0d3a ef4b b53c bd95 3f3d
00000090: 0bfd 313d 75f6 9abd 842c 09bd 17d4 863c
000000a0: 2f99 02be 4e2a d9bc 2bb7 98bc ed16 853d
000000b0: 2955 91bd ec7f 033e 71b5 853d 1751 b9bd
000000c0: 6655 88bd a4c9 a93d 8d6e 003e c8bf 4fbe
000000d0: dc7b 2abc a61c 6cbd c4ef 3ebd 99b5 f2bd
000000e0: 6e53 a2bd 4ad4 aabd f710 8fbd 79d9 213e
000000f0: 5f33 8ebd 92b0 aa3d 72ae 0e3e 37c7 43bd
00000100: d39b 0d3e 13c4 fbbb ea3d 14bd f636 08be
00000110: 47f9 2b3c 15f9 383e 1772 cc3d a2a5 2b3d
00000120: bdda babd 0495 b53d 2371 8f3d a789 103e
00000130: c09f 953d 6e76 983c 4d2e 13be c383 163e
00000140: 67c5 87bd d977 403d a7d4 543d 1aab 233e
00000150: c75c 6bbd 5019 a33d 1f8f e53d da03 a93d
00000160: a2f8 323d 36f5 093e c787 b03c 8341 03be
00000170: e4ba 6a3c e90c 20be d1a4 e7bd 7eef 85bd
00000180: 5567 843d 87b2 67bd ed2d 5a3e 5282 c43d
00000190: 1698 7bbd c2d7 b4bd e319 94bc 6c45 34bd
000001a0: 0609 683c 05bc c13d fb8c 1d3d 92f0 1d3e
000001b0: 4ffb 9d3d d829 a43c b351 08be c551 473e
000001c0: c12a 3f3d efd7 77bd 7cdd 4abd 7d21 19bd
000001d0: b281 a0bd 3909 853d 1a29 d6bd 18e2 ce3b
000001e0: 8941 e63b c5ff c43b 4f30 09be 606f adbd
000001f0: 0a96 253e 2e46 b6bd 673f 0dbd 0921 b63d
00000200: ea2c 833d 9a04 c8bc 12c3 d2bc e6f7 07be
00000210: 37fe 8d3d 4c17 67bc 092e 333d 2a24 513b
00000220: 9a99 f5bd 4e10 00be 65a9 e3bd 6a42 c63d
00000230: 98c2 613d 449b 73bc c274 023e 6226 debc
00000240: 2d28 7abc eba3 0abd 61ab 91bd 185c d0bd
00000250: df00 c53c 386a 9f3c c4f8 df3d 4086 8a3c
00000260: 4ea3 6f3d b5d1 f3bc 2f46 223e 880f 643d
00000270: 06d4 99bd 7717 d0bc 71f3 09bd 8d15 0bbd
00000280: 23a9 c93c fe5c 0cbe 130b b8bd 1f87 323d
00000290: 8a47 c3bc 6d3a 00be d4a0 ddbd 49fe 3f3e
000002a0: 0c32 6c3c 3e88 ee3c 3981 493b aef7 16bd
000002b0: 5977 be3d 2e86 87bd 549c d2bd c0bc 7dbb
000002c0: 0948 16be dcee 8bbd 8b23 763d 227f 92bd
000002d0: 9dac 3f3d 3b11 2a3e 5604 efbc adb2 4cbd
000002e0: abe2 75bd ec32 eabd cca2 b0bd 7818 c5bd
000002f0: ffcc cebd 5fe1 313e 9aeb a53d 5459 d83d
00000300: 43d1 b23d 9baa 043c 2b2a 523e 0b29 cd3d
00000310: 8c0c 8fbc 674f 933d 4b1e 183e 4647 0c3d
00000320: 2a03 593d 1ffc e4bc 5ba5 023e 008a e73c
00000330: ab35 6e3e 3c42 15bd 39d0 1ebe 537d aa3c
00000340: 594e 40be 16e5 22be b34d 2c3d 335e 773d
00000350: 5175 8abd 7adb 143d 79e5 fcbd 2f93 e13d
00000360: ec77 59bd fa30 113e b840 a53d 9765 18be
00000370: f543 003d d11a 923d 65e7 9ebc 15b1 303e
00000380: 228b a13d 27af c83d cc84 5abd d8ec 37bd
00000390: 3489 52bd 58d9 1abe 4c64 de3d 865c c7bd
000003a0: 889c 47be bf77 41bd 4c17 89bd cd62 a5bd
000003b0: 2447 003c a9a1 b43c af14 d2bd 7cf2 7b3d
000003c0: e77a 27bd d939 c3bd a9ee 703a b4cc 6fbc
000003d0: abab 43bc 6a30 f03d be7d d63d e53b 9c3d
000003e0: 00f1 ea3c cbfe 8bbd 55f4 b33c 6d71 a1bc
000003f0: 971a 6cbd 47bb a4bd 3347 0ebe 1b7b 023d
0.19987178 0.013690514 0.09121639 -0.009815642 0.09446412 -0.046698827 -0.023037935 -0.22604945
0.027124086 0.17234915 -0.09403718 -0.07415078 0.010127398 -0.023223061 0.0066410904 -0.061168782
-0.07513794 0.17618532 0.106094025 0.022463765 -0.1309714 0.04482433 0.011778316 0.06330104
-0.07131598 -0.05435577 -0.09645103 0.043063093 0.21026058 0.090915926 -0.02179989 -0.2522124
-0.05706949 0.0005386127 0.022130935 0.04677366 0.04345421 -0.07566539 -0.03348972 0.016458554
-0.12753747 -0.02650943 -0.018642029 0.06498513 -0.07096321 0.12841767 0.06528748 -0.0904867
-0.066569135 0.08290413 0.12542172 -0.20288002 -0.010405507 -0.05764451 -0.046615377 -0.11851043
-0.07926069 -0.08341272 -0.06985658 0.15805615 -0.06943392 0.08334459 0.13933733 -0.047797408
0.13828973 -0.007683286 -0.03619186 -0.13302216 0.010496444 0.18063767 0.099826984 0.041906007
-0.09123752 0.08866313 0.07004001 0.1411501 0.073058605 0.01861116 -0.14373131 0.146987
-0.066294484 0.046989296 0.051960614 0.15983239 -0.057461526 0.07963812 0.11208939 0.08252688
0.043694146 0.13472447 0.021549119 -0.1281796 0.014326785 -0.15629925 -0.11310733 -0.0653982
0.064650215 -0.05656674 0.21306582 0.09595169 -0.061424337 -0.08830215 -0.01807875 -0.04401152
0.014162308 0.0945969 0.038464528 0.15423802 0.07713949 0.020039484 -0.13312416 0.19464786
0.046671633 -0.060508665 -0.04952763 -0.037385453 -0.078372374 0.064959 -0.10457058 0.0063135736
0.0070268554 0.0060119354 -0.13397335 -0.08468509 0.16170517 -0.089001045 -0.034484293 0.0889302
0.06405051 -0.024416257 -0.025727782 -0.1327816 0.06933253 -0.0141046755 0.043745074 0.0031912425
-0.11992188 -0.1250622 -0.11116294 0.09680636 0.05511722 -0.014868561 0.12739852 -0.027117912
-0.015268368 -0.03384773 -0.07112766 -0.101738155 0.024048267 0.019459829 0.1093612 0.016909719
0.05850535 -0.029763082 0.15847085 0.055678874 -0.075111434 -0.025401814 -0.03367943 -0.0339561
0.024616783 -0.13707349 -0.08986487 0.043585893 -0.023837823 -0.12522288 -0.10821691 0.18749346
0.014416229 0.0291177 0.0030747189 -0.0368573 0.093001075 -0.066173896 -0.102837235 -0.003871724
-0.14675917 -0.06832668 0.06009249 -0.07153155 0.046795476 0.16608135 -0.029176872 -0.049975086
-0.06003062 -0.11435494 -0.08624801 -0.09623808 -0.10097694 0.17371128 0.08101578 0.10563913
0.0873132 0.008097316 0.20523898 0.10017594 -0.017462038 0.07192879 0.14855306 0.03424766
0.052981533 -0.027952252 0.1275839 0.028264046 0.2326266 -0.03644012 -0.15509118 0.020811712
-0.18779887 -0.15907702 0.042066287 0.06039257 -0.067606576 0.03634212 -0.12348456 0.11014401
-0.053092882 0.1417884 0.08068985 -0.14882503 0.03131481 0.07134021 -0.019397447 0.17255051
0.078878656 0.09799033 -0.0533493 -0.044903606 -0.05140038 -0.15121973 0.10858974 -0.09734444
-0.19493306 -0.04723334 -0.06693897 -0.080754854 0.007829461 0.022049742 -0.10257851 0.061510548
-0.040888693 -0.09532518 0.00091908366 -0.014636207 -0.011942784 0.11727984 0.10473202 0.076286115
0.02867937 -0.06835707 0.021967093 -0.019707406 -0.057642546 -0.08043533 -0.13894348 0.031855684

network_body._body_endoder.seq_layers.2.bias f4 [128]
00000000: a3de e6bc c651 a63b 5caa 36bd 96d1 0ebd
00000010: 2e49 ffbc 4e30 bcbc 796b 94bc 53a1 eebc
00000020: 51c0 1d3d 2182 28bc 9cae 2bbd aa6c b1bc
00000030: d704 bcbc 8ad9 033d 3360 d1bc 0796 c2bc
00000040: 7903 dabc d73b aabb d872 93bb cab0 f7bb
00000050: e97a ddbc cdfc 27bc d745 0bbd 2c15 f5ba
00000060: b0bf 6bbc 7162 c8bc c43d a6bc ee11 a93b
00000070: 91f5 28bd e373 20bd 504a fbbc d4ee 2fbc
00000080: 45ff 15bd a061 ddbc cc54 9f3c 5631 7a3c
00000090: 5d7d d3bc 5ab2 b6ba 06c2 f7bc 2f53 1a3c
000000a0: fdca 0ebd e195 163c 13b0 eeb9 a585 f3bc
000000b0: 3dd0 343d 8675 84bd 9a58 1ebd 4194 eabc
000000c0: 429a 433d 0502 00bd c11d c8bc 7429 f8bc
000000d0: 2863 e2bc 9315 15bd e884 1b3c 5c1b 99bc
000000e0: 0561 e9bc 266a 7e3c f2b6 95bc 71e8 a0bb
000000f0: 55a4 0cbc f80f e53c c928 433d d8b3 a63c
00000100: 555d 62bc c0dc 1abd 4472 65bd 2883 9fbc
00000110: 06c8 943c ee8d cb3c d4fe 53bd ed20 85bc
00000120: c8a6 063d b45a 613c 3129 3abd c463 42ba
00000130: cf40 e2bb 7be6 07bd 1850 6bbc 425a 5abd
00000140: e099 243c 53f1 8d3c 324a 803b fe4c 93bb
00000150: 4d6b 98bc cb5b 44bd 57f1 cdba d4a3 fcbc
00000160: 007d 87bb c596 adbc 1c41 08bd 9bc0 e3bc
00000170: 0505 87bc 5640 97bc 78ea 713c e09f dbbc
00000180: 6dde 3ebb cfd6 b73c be86 0ebd 4e93 4dbd
00000190: 4084 efbb 7ff3 31bd acf9 7dba ea8d 1cbd
000001a0: ed2f debb 6b9f b03b bd0f 1abd 7014 503b
000001b0: b419 f3bc f988 0cbd f29b 993c ee8f a5bb
000001c0: 7465 a4bc 263e 8ebc ad1e 3b3a 0046 e7bc
000001d0: 864b 78bc fb01 09bd 8a6e 1a3b 880e 21bd
000001e0: d60e 5c3c 7536 a0bc 30e8 81bc c1bb 543c
000001f0: 5b0d 8bbc 7533 2dbc 1fad 39bc 03fe 243c
-0.028182333 0.005075666 -0.04459606 -0.034867845 -0.031162824 -0.022972252 -0.018117653 -0.02912966
0.038513485 -0.010284931 -0.041914567 -0.02165826 -0.022951527 0.032189883 -0.025558567 -0.02375318
-0.026612984 -0.0051951217 -0.0044997744 -0.0075589167 -0.027036147 -0.0102531435 -0.03400215 -0.0018698326
-0.014388964 -0.024461003 -0.020293124 0.005159608 -0.041249815 -0.03917302 -0.030675083 -0.010738093
-0.036620397 -0.02702409 0.019449614 0.015270552 -0.025816614 -0.0013938651 -0.030243885 0.009419247
-0.034861553 0.009191007 -0.00045526083 -0.029726813 0.044143904 -0.06467728 -0.038658716 -0.028635146
0.047754534 -0.031251926 -0.02442825 -0.030293204 -0.027635172 -0.036397528 0.009492137 -0.018689804
-0.028488645 0.015528237 -0.018275712 -0.0049105217 -0.008584102 0.027961716 0.047646318 0.020349428
-0.013816197 -0.03780818 -0.056017175 -0.01947172 0.018161785 0.02484795 -0.051756695 -0.016251052
0.0328739 0.0137545355 -0.04544944 -0.0007415379 -0.0069046984 -0.033178788 -0.014362358 -0.053308733
0.010046452 0.017326986 0.003915095 -0.004495262 -0.018605852 -0.047939103 -0.0015712184 -0.030839838
-0.004134774 -0.021190057 -0.03326522 -0.027801802 -0.016481886 -0.018463295 0.014765374 -0.026809633
-0.0029124275 0.022441296 -0.03479647 -0.05018931 -0.0073094666 -0.043445107 -0.0009688388 -0.038221277
-0.0067806155 0.005390098 -0.037612665 0.0031750463 -0.029675342 -0.034310315 0.018751118 -0.005052558
-0.020067908 -0.017363619 0.0007138055 -0.02823162 -0.015154725 -0.033449154 0.0023564422 -0.0393205
0.013431272 -0.019557217 -0.015857786 0.012984217 -0.016974142 -0.01057135 -0.011332779 0.010070327

action_model._discrete_distribution.branches.0.weight f4 [2, 128]
00000000: 7383 14bd 36d2 4d3c 35e2 e3bc 2af2 e1bc
00000010: 5f3c bdbc 6e14 0ebd 5ce0 febc 0fde c4bc
00000020: 9ea4 d33c 0b50 d4b9 d68f 0fbc d619 2ebd
00000030: 189d babc 9d59 8f3b f209 f8bc a456 3abd
00000040: 704b dbbc a67c 62bc 223a 3dbd a866 2bbc
00000050: 7b18 a8bb 6f04 26bc 4f02 9a3c 2ec2 d6bc
00000060: 038a e5bc 928c 1fbd 3b25 c2bc 9bc1 813c
00000070: e68b 29bc 071b 0dbb 3907 df3a f5b3 b2bc
00000080: b620 f1bb 98dc b5bc bc9a cc3c e180 f03c
00000090: 1b1b 0fbd 0e35 323a 79a9 85bc 693a ca3b
000000a0: 41ae 4cbd f6cd bf3c e2d0 b93c 0c75 60bc
000000b0: 62ba f93c fe53 b1bb 786f 1bbd dbb4 f5bc
000000c0: b792 693d 1c94 6fbc b28a 39bd f791 10bd
000000d0: ef32 dfbb 0f68 bbbc 24c8 97bc 8eda 2fbd
000000e0: 62c0 72bc b445 56bc c19b 16bd 7b7d c0bc
000000f0: 7a78 8ebb afbd 163d ac0c 5b3d 89cd e73c
00000100: 0bf1 03bd 7cff acbc 9cb0 cbbc 68d2 203c
00000110: ce7f e63c 80b0 e33c 0eb7 bebc a65b 34bd
00000120: 3ad8 133d 6e03 0e3d 9e79 dcbb a161 22bc
00000130: f868 e03b cf98 0bbd 8a99 dabc 3f90 1cbd
00000140: 91ec 453c c535 633c 10cd aa3c d8ad c0bc
00000150: 87b3 c2bc af89 d9bc a8c8 ce3c 0897 19bd
00000160: 99fd 443c ecdc 09bd 4151 efbc 3f15 15bd
00000170: 9b2a 0abd 05e5 86bc cd80 d63c f5d8 f7bc
00000180: ea63 87bc b693 043d bdff 4fbb 7d75 8abc
00000190: a11f 00bd e042 49bd 9894 40bd 352d c0bc
000001a0: 6d43 a9bb 4476 dbbb d7c0 72bc 1e2f 58bd
000001b0: 91ff 23bd 8b88 32bd cbdc bb3c 50c3 ccbb
000001c0: b17d 5abd be48 3abd 3d6f ca3c 0b33 16bd
000001d0: 1a70 16bd 10f3 9abc 5d11 3ebd 803c d6bc
000001e0: c8ea bc3c 3574 afbc d8e4 793a 4187 1c3c
000001f0: 4ade b5bc 16a4 983b 5c41 6dbc ceac 083d
00000200: 621a 1c3d dbcd db3a 7a90 9a3c 19ce 9e3c
00000210: 4d51 8c3c 5ef5 793c b86c 0a3d c9ab fa3c
00000220: d869 1abd a010 853c 33e6 0abc 9792 123d
00000230: e2c2 dd3c c1f4 2dbd bb64 b43c 4db4 fc3a
00000240: 82dc cd3c f8aa 4d3c 9852 f93c 6dac 33bc
00000250: 6571 023c decf ea3c 28f4 4c3b 5030 063d
00000260: 12e0 963c 5a3f 303d 74c3 9b3c 1447 fd3b
00000270: 469e 0ebb 4d19 98bb 8505 e23b 36f7 413d
00000280: b4e0 fe3c 270c 313d dd35 b0bc af99 efbc
00000290: 4b86 063d 746e 91bc 012c 843c d14b ce3b
000002a0: 1854 263d e12b 06bd b4d0 6abc 2369 a0bb
000002b0: 1c73 42bd 2869 383b 8a37 053d 58d0 ed3c
000002c0: 47e4 1abd a410 493c e06a 183d b595 ed3c
000002d0: 0f05 b83c 0a08 013d 3001 403c a8ac 113d
000002e0: 036f 543c f8c3 87bc 5294 1a3d 14a2 673d
000002f0: b32c 993a 9aa4 19bd d053 4dbd 83fe 09bd
00000300: 4110 1d3d a949 983c 268e d73c 8ed6 f73b
00000310: 5e3c 13bd c30c abbc da8d 033d 0845 e43c
00000320: 43bc 1fbd 68ff 18bd c81b 863c d0ca 3abb
00000330: 5836 fb3b e0de b23c a3c6 b53c ea7a 223d
00000340: c86a dbbc 121b 6c3c 86aa c7bc bd3d 613d
00000350: 9f0e 243c 6654 393c 8b96 cdbc e821 e83c
00000360: ba08 bcbb 0152 eb3c 03e7 993c 5775 a23c
00000370: e801 9a3c b0f3 c93c adf8 07bd 7698 043d
00000380: c364 133d 6080 19bd e6f3 2e3c 3ead f13c
00000390: 52b7 173d bb64 043d 0030 0a3d 0b7e 2b3d
000003a0: de8b 32bb e383 f8ba b90f a83c 7141 2f3d
000003b0: 7449 273d 0724 0a3d ed62 26bd 8d7e d53a
000003c0: 43a8 373d 7754 413d 78b6 0cbd 5152 263d
000003d0: 4265 403d f827 1f3d 220f d13c d50a ca3c
000003e0: e0ff f4bc bbef 8c3c 24f4 77bb d14b a13b
000003f0: 1206 083d bf47 103b ed46 f43c d978 3abc
-0.036258172 0.012562325 -0.027817825 -0.027581293 -0.023100076 -0.034687452 -0.031112842 -0.024031667
0.025835332 -0.00040495428 -0.0087623205 -0.042505108 -0.022779986 0.0043746964 -0.03027818 -0.045492783
-0.02676937 -0.013823664 -0.046198018 -0.010461487 -0.0051298714 -0.010132893 0.018799929 -0.026215639
-0.02801991 -0.038952418 -0.023699393 0.015839389 -0.010348296 -0.0021531002 0.0017015702 -0.021814326
-0.007358636 -0.022199914 0.024976127 0.02935833 -0.03493796 0.0006798067 -0.016316162 0.006171514
-0.04997087 0.02341364 0.02268261 -0.013699781 0.030484382 -0.005411624 -0.0379481 -0.029993465
0.057024684 -0.014622714 -0.045298286 -0.035295453 -0.0068114917 -0.022876767 -0.018528052 -0.04293304
-0.014816375 -0.013078142 -0.036769632 -0.023497334 -0.004347858 0.03680199 0.05347888 0.028296249
-0.0322123 -0.021117918 -0.024864487 0.00981579 0.028137114 0.027794123 -0.023280647 -0.044032715
0.03609488 0.03467124 -0.006728365 -0.009910972 0.0068484508 -0.034081277 -0.026684541 -0.0382235
0.012080328 0.0138678 0.020849735 -0.023520395 -0.023767246 -0.02655491 0.025242165 -0.03749755
0.012023353 -0.033657953 -0.02921355 -0.036397215 -0.033732038 -0.016466627 0.026184464 -0.03025482
-0.016527135 0.03236743 -0.0031738125 -0.016901726 -0.031280164 -0.049136043 -0.04701671 -0.023459056
-0.0051655085 -0.006697448 -0.014816484 -0.05277931 -0.04003865 -0.04358725 0.02293243 -0.006248869
-0.053342525 -0.04547953 0.024711246 -0.036669772 -0.036728002 -0.01891473 -0.046403278 -0.026151896
0.023061171 -0.021417717 0.00095326966 0.009553731 -0.022200722 0.0046582324 -0.014480915 0.033367924
0.038111098 0.0016769724 0.01886772 0.019385384 0.017128611 0.015256254 0.03379509 0.030599492
-0.037698597 0.016243279 -0.008477735 0.03578433 0.027070466 -0.042469744 0.022020688 0.0019279808
0.02512956 0.012552969 0.030434892 -0.0109664025 0.007961606 0.028663572 0.0031273458 0.03276092
0.018417392 0.043029167 0.019014098 0.0077294204 -0.0021761819 -0.004641688 0.0068976306 0.0473549
0.031113006 0.04322448 -0.021510059 -0.029248087 0.032842916 -0.017752863 0.016134264 0.006295659
0.04060754 -0.03275669 -0.014331985 -0.004895346 -0.047473058 0.002813885 0.03252367 0.02903001
-0.03781536 0.012272034 0.0372113 0.02900205 0.02246335 0.031501807 0.011719033 0.03556505
0.01296592 -0.016572937 0.037739106 0.056551054 0.0011686295 -0.037510492 -0.050128758 -0.033689987
0.03834558 0.018589811 0.026312899 0.0075634187 -0.035946243 -0.020880109 0.032117702 0.027864948
-0.0389979 -0.03735295 0.016370669 -0.0028502233 0.0076663904 0.02183479 0.022189444 0.039668
-0.026784316 0.014410751 -0.024373304 0.05499052 0.010013252 0.011311626 -0.025096199 0.02833648
-0.005738345 0.028725626 0.018786913 0.019831343 0.018799737 0.024652332 -0.03319614 0.03237196
0.035984766 -0.037475944 0.010678267 0.029501554 0.037040062 0.032322627 0.033737183 0.04186825
-0.0027244012 -0.0018960204 0.02051531 0.04278702 0.040841535 0.033725765 -0.040621687 0.0016288325
0.0448382 0.047199693 -0.034353703 0.040605847 0.046971567 0.038856477 0.025519911 0.024663368
-0.029907167 0.017204156 -0.0037834728 0.004922368 0.033208914 0.002201542 0.029818976 -0.011381351

action_model._discrete_distribution.branches.0.bias f4 [2]
00000000: dab7 2f3d d9b7 2fbd
0.042899944 -0.04289994
