ML-Game/results/ppo/My Behavior/My Behavior-160679.onnx (onnx, 77135 bytes, 6 tensors)

network_body._body_endoder.seq_layers.0.weight f4 [128, 9]
00000000: 012f a53e 4d3a bd3e 646a 023f 9a12 54bc
00000010: 659b 5c3c 4c82 d63d c0bf 3bbf 5340 36bf
00000020: a391 5b3e 2df8 5fbd da4f aa3e 85c5 94bd
00000030: b18b 66bd ccc0 41be acde 023f 5b0b 293f
00000040: 9ec4 443c 3098 0f3e 4b28 5fbe 1544 9f3d
00000050: 00ed f93e 4941 c6be e9d8 3fbe 0450 b3be
00000060: 90a5 cd3d 8920 b9be 9b1c 3c3e 02b6 9fbc
00000070: 0587 33bf 10ba 56be 8dd5 203d 7327 28be
00000080: 68e1 f2be 6b6f a93d e33d c53d 14ae d63c
00000090: 19d6 a83d 3d45 aa3e 7bcf b7be 4333 20bf
000000a0: 8256 a13e 218a 9f3e 8e6f 84bd c48d 563d
000000b0: 8009 b4be 7678 d13d 558b cabd 6da8 1a3e
000000c0: 434d 04bf a1f2 71be 5a31 633d a3f2 47be
000000d0: ba3e 443e 9bc3 403e d7c5 f03d 6a9c ccbe
000000e0: 6215 8fbe b006 403e 98b3 bdbd cb84 5b3e
000000f0: 55cf 9f3d 471d 9dbe 2401 4a3e 5de1 60be
00000100: 75a5 d6be 133b c4be c94e c43d bfe3 333e
00000110: de69 813e 7adb 02bf f206 09be 6f40 133f
00000120: 26d2 bf3c 6499 cdbd 4dd1 91be 7928 9a3e
00000130: 6fd5 29be 9b9b 353e 1e2c 22bf 80b6 95bc
00000140: ae2b 97be bb68 a33e f2d9 1b3e 166a 843e
00000150: a5ef 1bbe 25e7 7fbe 7bae b13d 3064 4c3e
00000160: 914d 98be c7e1 08bd b865 93be 005a 0f3f
00000170: b887 81be 5e90 6b3d c12f bd3e a183 02be
00000180: 6010 593d 90d1 df3e 3232 6b3d 3ff9 28be
00000190: 2e31 f1be e72a da3e 171f 083e 3bbd 843e
000001a0: 1ea1 853d 2d60 82be 40fe 1f3f dc23 4abe
000001b0: 7677 01be 7cdb a2be 1402 88be 4765 8fbe
000001c0: e715 ec3d d8e3 b2bc 1383 e63d c8e4 dfbe
000001d0: 5761 bdbd 80e7 9fbe a9d3 2a3e 0714 79bd
000001e0: 082c a0be e2bd 2dbe 106a 903e 4f05 81be
000001f0: f51f d5be 0c8b 183e 60f4 263f 210e 0bbf
00000200: 1325 243d 1117 b0be c590 0a3f b608 853d
00000210: d7f0 3ebe a57d e8be 9b3d 9c3e f2e4 e73e
00000220: e4de 153e 5fc8 aebe 844d df3e 748d df3d
00000230: 0fc6 533e 6490 13bf dc52 6abe 8e09 023d
00000240: 6bf8 4dbe 1e78 fc3e 765d 283f 54de 203e
00000250: 630c 5e3d 9187 203f 003b d53d 0f6a e83d
00000260: 0b88 603c a924 473e e5d5 863e 8ff6 b43e
00000270: d694 3cbf 43b9 3f3f 7080 023f dfc6 ffbd
00000280: 9f21 453e 0b0a 73be 6242 963e 02de e5bd
00000290: 8cce e2be aca2 9b3e c780 c6bd c379 073e
000002a0: 1822 5fbe 0a0c 1b3e bf1c 36bd ea0d 0c3f
000002b0: 0b64 babd 5ffe f6bd 6c2d 163e 95f1 a0be
000002c0: a58c 8c3e 3188 823e 2bb2 4fbf ab52 12be
000002d0: b600 ae3e 9db7 22bf 4f95 dcbe 39c0 2cbe
000002e0: 8f39 b33d b1a6 223e 2a3c 9c3e 2f35 413e
000002f0: 6b41 d13d 42f4 a0be e288 0ebf 7c40 0cbf
00000300: 01da 9ebe 06e5 53be 67ae 46be 9265 2fbe
00000310: 1fd0 bb3c 1fa7 61be 4039 843e ef6d f5be
00000320: c2e3 05bf 1c51 c03e 514c 5d3e d228 b83e
00000330: 066a 7c3e d345 f03b 88f0 183e 513b 12bf
00000340: 785c 72bd f255 76be 0d30 163f 5fa9 8bbe
00000350: 1799 243e 0ec3 bbbe 43e5 06bb 07d8 4abe
00000360: c717 0f3f 3987 243e 6bf9 afbd 330c 83be
00000370: b5ce 5bbd 9a5f 6bbe c1b2 76bd cbc5 6bbe
00000380: 7337 6b3d 64ae 9cbe aebd dc3e 7955 8bbd
00000390: 9bf5 ba3d a24a 993e 5e48 c3be 740c e8bd
000003a0: eb0e 413c 2392 51be 4630 4cbf 854c 403e
000003b0: 78fd 3e3e a6a9 073f e6ca 373e f376 1a3f
000003c0: b4d0 cd3e 115a febd 4332 333e 110c 2e3f
000003d0: 7c83 073f 9ec9 3dbd 371e 0bbf c7f2 a0bd
000003e0: 881a e1bd adf0 113f 915b 013e ca5a f1be
000003f0: 87d7 1e3c 1b08 933e 9a30 ecbd e09d 0e3e
0.32262424 0.36958542 0.5094359 -0.012943888 0.013464783 0.10474071 -0.7333946 -0.711919
0.21442275 -0.05468004 0.33264047 -0.07264236 -0.056285564 -0.18921202 0.5112102 0.6603295
0.012009768 0.14022899 -0.21792714 0.077766575 0.4881363 -0.38721684 -0.18735088 -0.35021985
0.10041344 -0.36157635 0.18370287 -0.019495968 -0.701279 -0.20969415 0.039266158 -0.16421299
-0.47437596 0.082732044 0.096309446 0.026206054 0.08243961 0.3325595 -0.35900483 -0.6257822
0.31511313 0.31160071 -0.0646659 0.052381292 -0.35163498 0.10228054 -0.09889857 0.15103312
-0.5168039 -0.23627712 0.055466987 -0.19526152 0.19164553 0.18824618 0.11756485 -0.39963084
-0.27946 0.18752551 -0.092627704 0.21437375 0.07803217 -0.306864 0.19726998 -0.2196097
-0.4192311 -0.3832632 0.095853396 0.17567347 0.25276083 -0.51116145 -0.13381556 0.5752019
0.023415636 -0.100390226 -0.28479996 0.30109003 -0.16585325 0.1773514 -0.6334857 -0.0182755
-0.29525512 0.3191584 0.15219858 0.25862187 -0.15228136 -0.24990518 0.08675858 0.19960093
-0.29746678 -0.033418443 -0.28788543 0.55996704 -0.25298858 0.057510726 0.36950496 -0.12745525
0.052994132 0.4371457 0.057420917 -0.1650133 -0.47107834 0.42610857 0.1329311 0.2592562
0.06524871 -0.25464 0.6249733 -0.19740242 -0.12643227 -0.31808078 -0.26564085 -0.28006956
0.11527615 -0.02183716 0.11255469 -0.43729234 -0.09247082 -0.31231308 0.16682304 -0.060810115
-0.31283593 -0.16966966 0.2820592 -0.25199363 -0.41625944 0.14896792 0.65216637 -0.54318434
0.04007442 -0.34392598 0.5412715 0.06495802 -0.1864656 -0.4540836 0.3051575 0.4529186
0.14635807 -0.34137246 0.43613827 0.10915652 0.20681022 -0.576422 -0.22883171 0.031747393
-0.20114295 0.49310392 0.6576761 0.15709811 0.05421103 0.6270686 0.10411644 0.11348354
0.01370431 0.19447578 0.26335064 0.3534436 -0.73664606 0.7489206 0.5097723 -0.124891035
0.19251107 -0.237343 0.2934752 -0.11223985 -0.44298208 0.30397546 -0.09692531 0.13230042
-0.2179035 0.15141311 -0.04446101 0.5470873 -0.09101113 -0.12060236 0.14665765 -0.31434312
0.27451053 0.2549453 -0.8113124 -0.14289348 0.33984917 -0.6356142 -0.43082663 -0.16870202
0.08751213 0.158839 0.30514652 0.18867944 0.102175556 -0.31436354 -0.55677617 -0.54785895
-0.310257 -0.20692834 -0.19402467 -0.1712859 0.022926388 -0.22036408 0.25824928 -0.47935435
-0.52300656 0.37561882 0.21611144 0.35968643 0.2464982 0.0073325424 0.14935505 -0.5712176
-0.059170216 -0.24056223 0.5866707 -0.27277657 0.16074024 -0.36672252 -0.0020583428 -0.1980897
0.55895656 0.16067208 -0.085924946 -0.25595245 -0.053663928 -0.22985688 -0.060229067 -0.23024671
0.057425927 -0.306018 0.43113464 -0.06803412 0.09128877 0.29939753 -0.3814115 -0.113305
0.011783342 -0.20465903 -0.7976116 0.1877919 0.18651378 0.5299324 0.17948493 0.6033775
0.4019829 -0.124195226 0.17499642 0.6798716 0.52935004 -0.046334855 -0.5434298 -0.07858806
-0.109913886 0.5700787 0.12632586 -0.4713958 0.00969494 0.2871712 -0.115327075 0.13927412

network_body._body_endoder.seq_layers.0.bias f4 [128]
00000000: 53cd c73c 28e7 0a3d 45d1 8d3c 5396 463d
00000010: 669f 503c d5e2 363d 50d1 5c3d f5fb fc3b
00000020: a850 a03c 2987 b03b f228 993c d7ae 363d
00000030: 5be8 cdbc 7490 06bc 5e6a f13b 3de3 39bb
00000040: f9b8 303d cf95 e53c b949 223c 30fd a1bb
00000050: 6418 903c 38b1 e03c 4bc4 1f3d 3b66 943c
00000060: 9cdc 8ebc d54e 163d b5f4 bc3c 140a f73c
00000070: dc07 fc3c 1608 ee3c 55a2 8c3c 06a7 093d
00000080: ea93 4d3d 731d e83c 2268 d83c ab61 003d
00000090: 514e d73c 0145 d03b 477b 843c a03b ec3b
000000a0: a1b0 033d 4966 d43c 2b37 013d bb76 cc3c
000000b0: 0119 bf3c 3665 0f3c 35a5 fb3c 268d b13c
000000c0: b854 6f3c d73c 453c 6e17 093c 9a70 83bc
000000d0: c9a6 433d 0fe5 003d ffa2 623c fb39 e1bb
000000e0: f037 da3b 2dce 9b3d 47a0 6f3d 7dca 283d
000000f0: 8c54 f03c bb2f 023d 51c7 583c 5e9b 443c
00000100: 3f55 1b3d 31e4 00bd 56a2 82bc 40c0 0e3d
00000110: f02c 713d 0194 383c 7bec 813c 2d9f a239
00000120: b253 013c fac0 a7bb f462 9fbb 5b5a 1a3d
00000130: 2a8d d23c 78f0 e13c 9975 87bc 1e47 c43b
00000140: 697d 9d3d e85f a33d 590d 4a3d e109 95ba
00000150: c27f 913c ae4c 813d 0711 46bd 5ff2 c53b
00000160: 59a5 ab3c c4b2 963c 197e ce3c 0e48 c9bc
00000170: 41ef 0c3d 435f 993c 581a b63c 4e7d 8bbb
00000180: 6399 d73c abe9 49bc 8d47 3e3d 14f3 363c
00000190: 5755 6e3d e8f9 833c 52c5 293c d12c b43c
000001a0: 20dd 213c 054e e43b 6609 303d b5cb 293c
000001b0: 9b9d fa3c c991 333d 617f 833d 8b73 0d3d
000001c0: f99e 823c 3b4e e0bc 4037 033d 5786 15bb
000001d0: b1ad a03c 0cb2 4a3b 2ba1 5b3c bd3b 18bc
000001e0: bc42 4d3a 5307 c83c 0210 b6ba 64f2 083d
000001f0: 5b5f 323c cc95 033c 6196 c03c fee3 7a3c
0.024389898 0.033911854 0.017311702 0.048483204 0.012733316 0.044649918 0.053910553 0.0077204653
0.01956971 0.005387206 0.018696282 0.044600334 -0.02513521 -0.008213151 0.0073674163 -0.0028364204
0.043145154 0.028025536 0.009905272 -0.0049435124 0.017589755 0.027428254 0.03900556 0.018115154
-0.01743918 0.036696274 0.023065904 0.030156173 0.030765466 0.02905659 0.01716725 0.03360655
0.05018989 0.028334355 0.026416842 0.031343143 0.026282461 0.006355882 0.016172064 0.0072092563
0.03215087 0.02592768 0.031546753 0.024958959 0.023327352 0.008752158 0.030718425 0.02167375
0.014607601 0.012038431 0.0083674025 -0.016044904 0.04776648 0.031468447 0.013832807 -0.006873367
0.0066595003 0.07607684 0.05850246 0.041208733 0.02933719 0.0317838 0.0132311145 0.011999933
0.037923094 -0.03146762 -0.015946548 0.034851313 0.058880746 0.011265756 0.015859833 0.00031017643
0.00789349 -0.00511944 -0.004864091 0.037683826 0.025702078 0.027580485 -0.016535567 0.005989923
0.07689936 0.07977277 0.049329136 -0.0011370742 0.017761115 0.063134536 -0.048356082 0.006040856
0.020952867 0.018395789 0.025206612 -0.024570491 0.034407858 0.018722182 0.022229359 -0.004256881
0.026318258 -0.012323777 0.046454955 0.011166353 0.058186855 0.016110376 0.010361986 0.021994026
0.00987938 0.0069673085 0.042977713 0.010363509 0.03059273 0.043840203 0.0642078 0.03453402
0.015944945 -0.027381053 0.032035112 -0.0022815668 0.019614073 0.0030928878 0.013405125 -0.0092915865
0.00078300736 0.024417555 -0.0013890269 0.033434287 0.010886992 0.00803132 0.023509206 0.015313147

network_body._body_endoder.seq_layers.2.weight f4 [128, 128]
00000000: 0bc3 093e 9097 8f3d d186 563b 9ce1 c03d
00000010: 43f6 35be a2e6 013e 77b0 943d 3225 cfbc
00000020: 989f f53d d5bf 0b3c 78dd ec3d ffaa bc3c
00000030: d868 30bc b543 d2bd 904e e4bd a241 0cbd
00000040: 327a 37be 01b0 473d 0f73 0c3e c1ef 22be
00000050: 836d 543e f4c9 0f3e 9c41 2bbd f3c3 18be
00000060: edf3 9cbd 5b83 5fbd 6eb9 98bd 33ae 0cbe
00000070: 7046 96bd 7085 ac3c 15f0 313e cd17 26be
00000080: 6ba0 6b3c be53 f2bc 83ae 9b3d d99a bd3b
00000090: 8a71 31bd 8b62 7b3e d735 65bc 569a 8ebd
000000a0: 9898 183d d47e 4d3c acff 95bd ad66 3f3e
000000b0: e1e2 703c d578 bcbd cce8 9d3d fcf4 ad39
000000c0: b373 7e3d 4e9d a6bc 999e 133d 024d 1c3d
000000d0: ccad ef3d 1b71 07be 433a 8abd fe77 adbc
000000e0: cbc4 9a3e 501c 1e3e 7628 9b3d 3a84 333e
000000f0: 4ad9 f33d 14a7 a23c 8415 e7bc 073b f03b
00000100: 7879 73be 3d3e 2cbd f214 f1bd dc2f e2bd
00000110: cdcf 7e3e 364c c03d 6b0b a13d e3b5 403d
00000120: 9e9f 593d 09f5 adbd a065 ba3d 6a96 883d
00000130: 5125 353d a016 bc3d d640 553d 85a0 31bd
00000140: e777 cd3d 1770 063e 97c3 dabd 75b5 68be
00000150: 953b ad3d 3083 ea3d 62d1 e2bc 42e5 d6bc
00000160: 114d ee3d 13e3 553d 7595 b53c 5b63 ef3d
00000170: 7aae 053e b6be 7a3c 8c09 de3d 9cf1 033d
00000180: a3ce 763d 6e86 663d e918 8d3d 9cc9 ad3d
00000190: 471a 9e3b bf1e 0e3c 7ae3 d63d bd65 9f3d
000001a0: bf23 4f3b 22e1 23bd c9e6 343e 0be6 a13c
000001b0: dd0f 90bd b50c abbd a709 9f3d d31d 923e
000001c0: 2a4c 0fbc c552 58bd 0398 0f3d 5f8b 7fbd
000001d0: 2d7e 2bbd 96db ffbc 22c9 333e 99a4 37be
000001e0: 0346 c03d 8f49 973c 2444 d8bd c5f7 d83d
000001f0: b38b c83c 3b38 0a3e 1608 72bd 3e8d 473e
00000200: a0b5 a93d 4963 833e 94fa e1bd bb1f a03e
00000210: c075 02bd 28a4 aebb 025e 7e3e f80c 38bc
00000220: fce8 5abd b2c7 0ebd e456 79be e08e b23a
00000230: 1bb9 02bb 24d7 9d3d d479 25be d527 6d3d
00000240: b41c a5bb 514e 8b3c 6c7e d8bd 2c9e a33c
00000250: d430 bebc 665f 393e 6899 183e ccec 87bd
00000260: 1a30 b7bd edd4 17bd 768b 103e b472 2b3d
00000270: e37e 72bd 67c2 253b 4922 08be a876 bdbd
00000280: cf6b 843c 4e91 7bbc b6be 953c e6bc 843d
00000290: 366b 7b3d 5bc8 1fbe 491b dd3d 5bd9 7ebd
000002a0: 48df 323e 4cdd 41bd 426f 2fbe 28aa a63d
000002b0: de9b 1abe 8bc1 0c3e dc98 3e3c c2c3 0e3d
000002c0: 5f7f d1bd 8394 99bd 1fca d0bd a961 013e
000002d0: a4fa 4fbd 0438 2dbd d529 083e 0eb4 fa3c
000002e0: bc2b e43c f121 e2bd 6ae8 053d 0100 373c
000002f0: 82d5 223e 609e a6bc 1c00 84bd 172b f2bd
00000300: 001a 0bbe dcb5 26be e8c0 163e c6dc 19be
00000310: 0d7d a13d 1b74 223e d5ee a6bb fd9b 5a3d
00000320: 1807 27be a581 0cbe 52b5 8e3c 08c6 74ba
00000330: 5973 df3d 5691 c5bd 5918 e5bc 0b86 0e3e
00000340: 5365 69bd fd39 193d 5abf 6ebc 33cf 6a3d
00000350: 36c0 723c a408 c83d abdb f5bd 39aa 86bd
00000360: 5c58 e03c b4b9 21be d3cd 663b 0efb 353d
00000370: 245f b83d 515f 00bc 83e4 a6b9 fe39 8ebd
00000380: d5b5 0f3b 7a09 d3bd 905e 973d 05ab 323d
00000390: bc5f 0bbd de88 c03c 50a9 073e e399 eebd
000003a0: c073 453e ca8e 8f3d e83a a73d c151 22be
000003b0: 899d e83d a430 2abc c70e a5bd ae80 c73d
000003c0: 1f26 ccbd f239 82bd a1fe 513e 8f4b 263c
000003d0: 82c6 7fbe 3301 cabc c783 993d 2393 523d
000003e0: e772 b5bd de53 6d3d b328 3ebb 2373 de3c
000003f0: 3cc1 253d 626e 8dbd d11c 69bd 04ae 84bd
0.13453309 0.0701133 0.0032734165 0.094180316 -0.17769723 0.12685636 0.072602205 -0.02528629
0.11993331 0.008529623 0.11565679 0.023030756 -0.010767184 -0.1026682 -0.11147797 -0.03424228
-0.17917708 0.048751835 0.13715766 -0.15911771 0.207449 0.14041883 -0.041810617 -0.14918499
-0.07663713 -0.05456863 -0.07457243 -0.13738327 -0.07337654 0.021059722 0.1737674 -0.16220017
0.014381508 -0.029580947 0.07601645 0.0057862815 -0.04332117 0.2454931 -0.013989887 -0.06963031
0.0372549 0.012542445 -0.07324156 0.18691511 0.01470253 -0.092027344 0.07710418 0.0003317966
0.062122058 -0.02033868 0.036039922 0.038159378 0.11703071 -0.1322674 -0.06749394 -0.02117538
0.30228266 0.15440488 0.07576077 0.17530909 0.11906679 0.01985506 -0.028208502 0.0073312554
-0.23776805 -0.042051543 -0.11771573 -0.11044285 0.24883957 0.09389536 0.07863506 0.04704846
0.05313074 -0.08494002 0.09101415 0.06669314 0.04422504 0.09184003 0.052063785 -0.043365974
0.10032635 0.13128696 -0.10681837 -0.2272547 0.0845863 0.11450803 -0.027687732 -0.026232366
0.11635793 0.052218508 0.022165993 0.116888724 0.13054839 0.015304258 0.10841665 0.03221284
0.060255658 0.056280546 0.06889517 0.084857196 0.00482491 0.008674323 0.104926065 0.07783077
0.0031607 -0.040009625 0.17666163 0.019763013 -0.07034276 -0.08352033 0.07765513 0.2853838
-0.008746186 -0.05281331 0.03505708 -0.062388774 -0.041868377 -0.031232636 0.17557195 -0.17933883
0.09388354 0.018467693 -0.10559872 0.10594133 0.024480676 0.13498013 -0.059089743 0.19487473
0.08286595 0.25661686 -0.11034122 0.31274208 -0.031850576 -0.0053296275 0.24840549 -0.011233561
-0.053444847 -0.034858413 -0.24349552 0.0013622902 -0.0019946757 0.077070504 -0.16159755 0.057899315
-0.005038822 0.017005118 -0.10570988 0.019972883 -0.023216642 0.18102798 0.1490227 -0.06636962
-0.089447215 -0.037068296 0.141157 0.041857436 -0.05920304 0.0025292875 -0.13294329 -0.092511475
0.016164688 -0.015354468 0.018279415 0.06481342 0.06138154 -0.15603773 0.1079622 -0.062219005
0.17467988 -0.047330186 -0.17132285 0.081379235 -0.15098521 0.13745706 0.011633124 0.034854658
-0.10229372 -0.074990295 -0.101948015 0.1263491 -0.05077614 -0.04228975 0.13297208 0.030603435
0.027852885 -0.1104163 0.03269235 0.0111694345 0.1590176 -0.020339191 -0.06445333 -0.11824625
-0.13584137 -0.16280311 0.14722025 -0.15025625 0.0788518 0.15864603 -0.005094389 0.05337142
-0.163113 -0.1372133 0.017420445 -0.000933737 0.10910673 -0.09646861 -0.027965711 0.13918321
-0.056981396 0.037408818 -0.014571989 0.057326507 0.0148163345 0.09767273 -0.12004789 -0.06575436
0.027385883 -0.15793496 0.0035217896 0.044428878 0.09002522 -0.007835225 -0.00031832242 -0.06944655
0.0021928449 -0.10304542 0.07391083 0.04362013 -0.034026846 0.023502763 0.13248181 -0.11650445
0.19282436 0.07009657 0.08165532 -0.15851499 0.113581724 -0.010387573 -0.08059459 0.097413406
-0.099682085 -0.063587084 0.2050729 0.0101498505 -0.24978068 -0.024658775 0.07495838 0.05140985
-0.088598065 0.05794131 -0.0029015958 0.02715451 0.040467486 -0.069058195 -0.056912247 -0.06478503

network_body._body_endoder.seq_layers.2.bias f4 [128]
00000000: c4aa 2f3c cda5 233c a0bf 0e3c 9b1d 8d3c
00000010: 6de4 ac3c 43d2 0c3d 26d1 eb3c ea63 20bc
00000020: f012 753b 690c 0d3c 11b4 493a 84fd 0e3d
00000030: 79d2 36bc 4112 8f3c a6eb a93b 27c1 e43c
00000040: 5b6b 2b3d 9cf3 3e3b 4e71 913c 9169 b93c
00000050: ccd6 ac3c 2ed1 803c 700f c73c d213 6d3c
00000060: 98af cc3c 3718 72bc 1466 da3c d749 573c
00000070: 5112 8d3c 207b fc3c 3374 e03b ff62 d53c
00000080: 7194 42bc 9dc2 873c 9431 0e3d 17e2 5c3c
00000090: ce21 3d3c 7917 2e3c ae80 1fbc eace 1dbc
000000a0: 5498 683c 86c8 8e3b cedd 44bb b280 a73c
000000b0: d739 9e3c d919 1abb 0d34 3cbc d895 0a3d
000000c0: 9e9d 32bc 951c 003d fa45 31ba 6730 953c
000000d0: 8330 4f3c ec1a 783c 17b0 1dbc 0d84 ea3c
000000e0: bfb2 943c 3702 133c cf20 743b fa14 eb3b
000000f0: 248b 143b 7fba 0cbc fd09 393c f573 3e3d
00000100: 9734 803c cc4c 813c c371 c3bb 1eb9 1a3c
00000110: f5e9 683c 3e2e 58bb da40 113d 29fa fe3b
00000120: aeb4 013d 046b 43bc 0ce7 5dbc cc23 753c
00000130: f070 323c cb79 37bc c9e8 3dbb e069 ee3c
00000140: 4d02 b23c 8c1f dbba a3f8 aabb ed7f 9b3c
00000150: 3e03 2a3c 03e5 e8bb af38 bd3c 2bb0 7c3c
00000160: 4d92 cc3b 9f65 a23c b3b4 e6bb 829e 99bb
00000170: f49a 49bc 9821 703c a3ee 9b3c bc70 f03c
00000180: d95e 7abc dbb7 6339 8e9f e5bb de46 283c
00000190: 3e47 3d3c 4df9 9a3c 5629 a83b 25b6 0ebc
000001a0: 63f2 c73b 49d4 803c 5527 423d 48ce d93c
000001b0: 3bad c0ba 1d9a af3c 16cd e03b 3d5a 083d
000001c0: 3e32 543c 3cac 50bc c2c4 23bc fc4a b33c
000001d0: 22f8 da3c 10b3 5a3c ed9a f63c e80b 59bc
000001e0: 30b5 06ba 9771 f43c cbc5 d93c 3d1a b239
000001f0: b56f 0e3c c0bf 50bc d885 883a 63ca 1a3c
0.010721866 0.00998826 0.008712679 0.017226031 0.021105016 0.03438021 0.028786253 -0.009789446
0.003739532 0.008608916 0.00076943735 0.03490974 -0.011158579 0.017464759 0.005185562 0.027924133
0.04185043 0.0029136902 0.017754223 0.022633346 0.021098517 0.015724745 0.024299353 0.014470058
0.024986073 -0.014776281 0.026660003 0.013140163 0.017220648 0.03082043 0.0068497895 0.026048182
-0.0118762115 0.016572291 0.03471525 0.013481638 0.011543704 0.0106257135 -0.0097352695 -0.009631852
0.014196474 0.0043574004 -0.0030039432 0.020447109 0.01931469 -0.0023513942 -0.011487019 0.03383431
-0.010901837 0.031277258 -0.00067624415 0.018211557 0.012645843 0.015143137 -0.009624503 0.02862742
0.018151639 0.008972696 0.0037251 0.0071741315 0.0022665942 -0.008589386 0.011293885 0.046497304
0.015650077 0.01578369 -0.005964489 0.009443549 0.014215936 -0.0032986547 0.035462238 0.0077812863
0.03166645 -0.01192737 -0.013543855 0.014962148 0.010891184 -0.011198471 -0.0028977862 0.02910322
0.021729613 -0.0016717776 -0.005217628 0.018981898 0.01037675 -0.0071073784 0.023098318 0.015422861
0.0062430263 0.019823847 -0.007040584 -0.004688085 -0.01230501 0.014656447 0.01903469 0.029350631
-0.0152814025 0.00021716898 -0.007007546 0.010270802 0.01155263 0.018917704 0.0051318808 -0.008710419
0.006101893 0.015726225 0.04740079 0.02658762 -0.0014700064 0.021435792 0.0068603856 0.033289183
0.012951432 -0.012736376 -0.009995641 0.021886341 0.026729647 0.013348356 0.030103171 -0.013247468
-0.00051386934 0.02983932 0.026583573 0.00033970355 0.008693625 -0.012741029 0.0010415865 0.009447667

action_model._discrete_distribution.branches.0.weight f4 [2, 128]
00000000: 8f5a 73bd 4a20 94bd eb49 80bd a81e 1a3c
00000010: 86b8 e23c bffb 483c 1b1d 4f3d a0c1 2cbb
00000020: 9039 76bd 3f55 75bd 048a 20bd e304 523d
00000030: a1d4 15bb fed4 913c 22be 70bc f267 98bc
00000040: 3f47 6f3d 4b56 92bd b83a e43c e75b 013c
00000050: 71e6 8d3c 61e0 983c 3edb 0a3d 67ae 2fbd
00000060: b07f 013d 6ab9 acbc 1244 85bd a229 563c
00000070: 7669 bbbc 23d7 4b3d a477 56bd 1913 123d
00000080: d221 413b f49e e03c 3479 2d3d 50b4 013c
00000090: 54a1 4e3c 9d3e f63b c066 04bb 4633 5cbb
000000a0: 4cdf 783c 9cce 76bd ae0e 77bd 3235 023d
000000b0: 120e c13b c77d 39bb a646 32bb d427 183d
000000c0: 238d e4bb 4457 3d3c b93d 52bd 968d 923c
000000d0: b01b 25bb 7199 78bb 4c8f 08bd 6cf0 25bd
000000e0: 882e 36bd 01c1 25bd 4c89 15bc 9c94 18bc
000000f0: ba8c 34bb 797f 803b a11e c93c 5dd1 703d
00000100: 5295 b23c b073 49bd f52f 88bd 1f8a a8bc
00000110: e199 4fbc d3a9 23bd eadf c13c 37e3 73bd
00000120: 36a5 5f3d b941 6fba 5adc 88bc 269d ec3c
00000130: 9952 c9bc 740c 6d3c 668b bebc 3b83 333d
00000140: 2d18 103d 21cf f6bc 3a2a 28bd f375 e0bc
00000150: d2cd c23c 34cf 68bc ba35 9a3c 2b27 193c
00000160: dad5 7bbd 72f9 a43b a80f b83b adf9 9ebb
00000170: 98d4 eebb 0425 1e3c 1a7e 303d 60bf 253d
00000180: d2a8 99bb 6ae5 56bd 9a40 843c 1caa 423c
00000190: dc85 e93b 2b9f 5d3c b4c9 423c fa6a d8bc
000001a0: a363 56bd 7036 c03c ac6b 243d 0f08 f33c
000001b0: 1d55 19bd 2668 78bd a99d 3d3c 144c cd3b
000001c0: e2df b23c 3202 56bc 02f7 68bc a172 453c
000001d0: d35e ed3c 4a3e 53bd 9a1d d03c 036d 163b
000001e0: 90bd a5bc e34f 423d 6fb2 293d 32e6 2ebd
000001f0: 6ca9 743b ab96 ed3b d9f6 7b3b ed76 163c
00000200: 0c45 6f3d f5a9 693d fced 1f3d a317 9cbc
00000210: d2c0 d2bc 2d7b babc 851c 39bd 7cc4 133c
00000220: 12a8 5b3d 5307 823d 2723 843c 789d 15bd
00000230: 0209 833b 3928 dabc 1680 12bb b4eb 243c
00000240: 4045 6cbd b22f 803d 0e46 15bd c713 13bc
00000250: 2741 a0bc e3ab 12bb db8b 25bd f0e0 443d
00000260: f6d0 b2bc 5a08 983c 6960 753d f41d a03b
00000270: 3272 893a 8ba3 0ebd de47 243d 7e0a b5bc
00000280: 4193 233c 37c3 eebc 9d37 efbc 854b bdbc
00000290: 6b66 e03b ec97 51bc d177 aebb 7f33 c73b
000002a0: b4a9 afbc 4be7 613d d796 273d 57d2 c8bc
000002b0: 3f1d 73bc 7a9e 313c f1a9 0a3b 49f9 50bd
000002c0: b107 16bc ca50 91bc 8544 2d3d 4877 7bbc
000002d0: 4e80 1bbc 5bd5 8abc e5b8 1b3d cd11 8d3d
000002e0: f543 303d 9d49 7d3d 2c82 2c3b ea85 59bc
000002f0: 8b48 49b9 010b ba39 c651 513b c4b5 6dbd
00000300: d01c 00bd 526c 793d 09ef 2f3d 0665 8f3c
00000310: 6f66 a43b 0752 153d 39e0 0aba efed bc3c
00000320: 7752 2ebd 3451 e2bb 22fc c1ba f7b5 a6bc
00000330: 6e6e cb3c 6b02 493c cf04 173c b7e6 49bd
00000340: 75d3 41bc 6052 ee3c f00a 1d3d 2ba6 db3c
00000350: a036 60bb 996a 6a3b 277f ffbc 067a 0a3a
00000360: 2b65 4c3d d822 d3bc 616e dd38 1261 163c
00000370: 6e33 1e3c 04d3 a8bb 295b babc 339b 10bd
00000380: 6da4 763c 7f1d 253d 215a 6b3c 0b9d c9bb
00000390: a33d 9bba a4fe afbc 9af2 3d3c 990c 453c
000003a0: ac6e 683d 84bd 88bc b8ac 21bd 723c 2cbd
000003b0: cbe9 c63c 725f 953d 40fd 033c 70d5 a1bc
000003c0: 7df2 2abc 5c24 083c 868c 063c 7823 9bbc
000003d0: 3b1c 7ebc 1775 2d3d 04b4 80bc d031 c73b
000003e0: e5d9 a33c 1626 44bd ecc7 2abd b2d6 0f3d
000003f0: 96b0 b3ba 2ee0 1d3c e4ea 953c 391b 3839
-0.059412535 -0.07232721 -0.06264099 0.009406723 0.027675878 0.012267052 0.050564867 -0.0026360527
-0.06011349 -0.05989575 -0.039194122 0.05127419 -0.0022862332 0.017801758 -0.014693769 -0.018604252
0.058417555 -0.07145365 0.02786003 0.007895446 0.017321797 0.01866168 0.033900492 -0.042890932
0.031615913 -0.021084506 -0.06507124 0.0130714495 -0.022877436 0.049765717 -0.052360192 0.035662744
0.0029469621 0.027419545 0.042351916 0.007916525 0.012611706 0.0075147883 -0.0020202845 -0.0033599897
0.015189957 -0.06025563 -0.060316734 0.031789012 0.00589157 -0.002830373 -0.0027202754 0.037147358
-0.0069748326 0.01155645 -0.051328395 0.017889779 -0.0025193505 -0.0037933255 -0.033339784 -0.040512487
-0.04447797 -0.040467266 -0.009126972 -0.009312775 -0.00275497 0.003921446 0.024550738 0.058793414
0.021799717 -0.049182594 -0.06649772 -0.020573674 -0.012670965 -0.03995688 0.02366634 -0.05954286
0.054600917 -0.000912692 -0.016706634 0.028883528 -0.024575518 0.014468301 -0.02325983 0.043826323
0.035179306 -0.030128064 -0.041055895 -0.027399993 0.023779783 -0.014209557 0.018824447 0.009347717
-0.06148324 0.005034619 0.0056171007 -0.004851541 -0.0072885267 0.00965238 0.04308901 0.040465713
-0.0046893144 -0.05246488 0.016144086 0.011881378 0.007126553 0.013526718 0.01188891 -0.026418198
-0.052341115 0.023463458 0.040141746 0.029666929 -0.037434686 -0.0606462 0.011573234 0.0062651727
0.021835271 -0.013062047 -0.0142190475 0.012051255 0.02897588 -0.051573075 0.02540474 0.002295316
-0.020231992 0.047439467 0.041429933 -0.0427 0.0037332429 0.007250627 0.0038446693 0.009183628
0.058415458 0.05704685 0.03904532 -0.01905424 -0.02572671 -0.022763813 -0.045193214 0.0090190135
0.05362708 0.06349053 0.016130043 -0.036527127 0.0039988765 -0.026630508 -0.0022354177 0.010065962
-0.05768323 0.06259097 -0.036443762 -0.008976883 -0.019562317 -0.0022380284 -0.04041658 0.04806608
-0.021828156 0.01855867 0.059906397 0.004886383 0.0010486303 -0.034823935 0.0401076 -0.02209973
0.009983839 -0.02914582 -0.029201323 -0.0231073 0.0068481467 -0.012792569 -0.005324342 0.006079137
-0.021443225 0.05515222 0.040915336 -0.02451436 -0.014838516 0.010841006 0.0021158422 -0.051018987
-0.009157107 -0.017738719 0.042301673 -0.015348263 -0.009491039 -0.016947439 0.038018126 0.06888161
0.04303356 0.06183778 0.0026322706 -0.0132765565 -0.00019195878 0.00035484883 0.003193961 -0.058034673
-0.031277478 0.060894318 0.04295257 0.017504226 0.005017094 0.03645518 -0.0005297694 0.023062674
-0.042559113 -0.006906653 -0.0014799873 -0.02035044 0.02483293 0.012268643 0.009217455 -0.049292292
-0.0118302 0.029092014 0.03834051 0.026812633 -0.0034212247 0.0035769104 -0.03118856 0.0005282465
0.04990117 -0.02577345 0.00010558661 0.009178417 0.0096558165 -0.005152108 -0.022748547 -0.03530426
0.015053851 0.040311333 0.01436475 -0.006152754 -0.0011843931 -0.021483727 0.011593485 0.012026929
0.05674617 -0.01669193 -0.039471358 -0.042049833 0.024281403 0.072935954 0.008055985 -0.019755095
-0.01043379 0.00830945 0.008212214 -0.018937811 -0.01550966 0.042347994 -0.015710838 0.006078936
0.020001361 -0.047887884 -0.041694567 0.03511686 -0.0013709243 0.009635968 0.018300481 0.00017557749

action_model._discrete_distribution.branches.0.bias f4 [2]
00000000: 20f7 623c 20f7 62bc
0.0138528645 -0.0138528645
