ML-Game/results/ppo/My Behavior/My Behavior-2766.onnx (onnx, 107404 bytes, 5 tensors)

network_body._body_endoder.seq_layers.0.weight f4 [128, 69]
0	0xbdcc3e6e	-0.09972845
1	0x3cb3c36b	0.021943768
2	0x3dfc303c	0.123138875
3	0xbdd8db03	-0.10588648
4	0xbe10c25a	-0.14136639
5	0xbe23b463	-0.15986781
6	0xbc2aad12	-0.01041724
7	0xbcd0cee0	-0.02548927
8	0xbd5c912d	-0.053849388
9	0xbdde76a5	-0.108624734
10	0xbe67a9e4	-0.22623402
11	0x3dff8b64	0.124777585
12	0x3dabb6d1	0.08384479
13	0xbdd6514c	-0.10464725
14	0xbe1468ac	-0.14493054
15	0x3ddaeebf	0.106900685
16	0xbe5d7e68	-0.21630251
17	0xbe0d0d32	-0.13774565
18	0x3e3fc48b	0.18727319
19	0xbdb60471	-0.08887566
20	0x3d6941ab	0.05694739
21	0x3cc6af0c	0.02425339
22	0x3dadf372	0.08493699
23	0xbcb109e1	-0.021611156
24	0xbde97ba1	-0.114005335
25	0x3c08b102	0.008342983
26	0x3b17e408	0.0023176689
27	0x3dd7a902	0.105302826
28	0x3ca063cf	0.019578842
29	0x3d3af9cf	0.045648392
30	0x3d828745	0.06373457
31	0xbdd563a2	-0.10419394
32	0xbc4519e5	-0.0120300995
33	0xbc69f7cf	-0.014280274
34	0x3e323d69	0.17406239
35	0x3e8f5855	0.2799708
36	0xbd649a93	-0.055811476
37	0x3e2f1a3a	0.17099848
38	0xbe16bc18	-0.1472019
39	0x3e151e3c	0.14562315
40	0x3e2b1010	0.16705346
41	0x3e05b226	0.1305624
42	0xbe0b8646	-0.1362544
43	0xbe198e87	-0.14995776
44	0xbd1797d7	-0.03701004
45	0xbde65018	-0.112457454
46	0x3e205d19	0.15660514
47	0x3d9921c1	0.07477141
48	0xbd660900	-0.056160927
49	0x3daadecc	0.083432764
50	0xbe62013f	-0.22070788
51	0xbe00891f	-0.12552308
52	0x3d336ae6	0.04380312
53	0xbd9460b4	-0.07245007
54	0xbc0dc53e	-0.008652983
55	0x3c9185ff	0.01776409
56	0xbe89a200	-0.2688141
57	0x3e7229af	0.23648714
58	0xbe2f575a	-0.17123166
59	0x3d94df5a	0.072691634
60	0xbe593fc7	-0.21215735
61	0xbe0e5c32	-0.13902357
62	0x3cc907df	0.024539886
63	0x3d11f00d	0.03562932
64	0x3c8c1d88	0.017103925
65	0x3dc86745	0.09785322
66	0xbe2613cc	-0.1621849
67	0x3d32db03	0.043665897
68	0xbdcfbd47	-0.10143524
69	0xbdd40973	-0.10353365
70	0xbe154e53	-0.1458066
71	0xbddcb1c4	-0.107760936
72	0xbde91bcc	-0.11382255
73	0xbe032cab	-0.12810008
74	0x3e298363	0.16554026
75	0x3da6ae23	0.08138683
76	0x3d0854e7	0.033284094
77	0x3de4e424	0.11176327
78	0x3d184a47	0.03718021
79	0x3dea0816	0.114273235
80	0xbce08746	-0.027408253
81	0x3e4a5941	0.1976061
82	0x3d4b419c	0.049623117
83	0x3e1632f4	0.14667875
84	0xbe2eaa3a	-0.17057124
85	0x3d96b3f7	0.07358544
86	0x3e189ea7	0.14904271
87	0x3cded129	0.027199345
88	0x3e033470	0.12812972
89	0x3e413e37	0.1887139
90	0xbddb2c25	-0.10701779
91	0x3cffc8bc	0.031223647
92	0xbdab7a7e	-0.08372973
93	0x3d0843f3	0.033267926
94	0x3e406065	0.18786772
95	0xbdd483e5	-0.103767194
96	0xbdaef71f	-0.08543228
97	0x3e4e1130	0.20123744
98	0x3d6ec5d5	0.058294136
99	0x3c1396d9	0.009008133
100	0xbe3be5ed	-0.18349428
101	0xbddedc97	-0.10881918
102	0xbe5fef46	-0.2186862
103	0xbe00aa76	-0.12565026
104	0xbd2dddb3	-0.042447757
105	0xbd690fc1	-0.05689979
106	0xbe13ffc1	-0.14453031
107	0x3dba6625	0.09101514
108	0xbe93c562	-0.2886153
109	0x3cf2760d	0.029597307
110	0xbd9d4017	-0.0767824
111	0x3d0613af	0.032733615
112	0x3e9d681d	0.30743495
113	0xbe5227c4	-0.20522982
114	0xbe121024	-0.1426397
115	0x3de22a7b	0.11043259
116	0xbc92acda	-0.017904688
117	0x3dd47900	0.103746414
118	0x3ec185d5	0.37797418
119	0x3e199475	0.14998038
120	0xbdbe7275	-0.09299175
121	0xbd995ff2	-0.07489003
122	0xbd509c73	-0.05093045
123	0x3de2d98c	0.1107665
124	0xbc141d26	-0.009040153
125	0xbe31c70b	-0.17361085
126	0x3d0c0a63	0.034189593
127	0xbcd2c7d4	-0.025730051
128	0xbdb2d65a	-0.087322906
129	0x3d988046	0.07446341
130	0xbc97f16c	-0.018547736
131	0xbd0344c4	-0.032048002
132	0xbcb00356	-0.021485966
133	0x3e147085	0.14496048
134	0xbd32df91	-0.04367024
135	0x3d9967eb	0.07490524
136	0xbda77f64	-0.08178595
137	0xbd60c79d	-0.054877866
138	0xbdc9dea0	-0.098569155
139	0x3d131239	0.03590605
140	0xbcb9846d	-0.022646153
141	0xbe107519	-0.14107169
142	0xbdb50314	-0.08838478
143	0xbe1167df	-0.1419978
144	0x3c88c338	0.01669465
145	0x3e1eb4ee	0.15498707
146	0x3d67ddae	0.056607895
147	0x3ca60d70	0.02027008
148	0x3b01f90a	0.0019832277
149	0x3e0be43a	0.1366128
150	0x3e072c62	0.13200524
151	0x3bd87898	0.006606173
152	0x3e5ba383	0.21449094
153	0x3dabc9f3	0.08388128
154	0x3e9bb264	0.3040954
155	0xbe146e19	-0.14495124
156	0x3e2adf40	0.16686726
157	0xbe49899d	-0.19681402
158	0xbda38e2b	-0.07986101
159	0xbd53ee2f	-0.05174082
160	0xbe3fb9bf	-0.187232
161	0x3dfadadb	0.122487746
162	0x3dd033c0	0.101661205
163	0x3e477852	0.19479492
164	0xbe024c27	-0.12724362
165	0xbe01238f	-0.12611221
166	0x3ebb3eff	0.365715
167	0x3c9f0c49	0.019415038
168	0x3c747e13	0.014922637
169	0x3c5b39a0	0.013380438
170	0x3e1ac291	0.15113284
171	0x3d16e4f6	0.036839448
172	0x3d32aa8c	0.043619677
173	0x3eb1fcb4	0.3476311
174	0x3de752cd	0.1129509
175	0xbd9faeba	-0.07796998
176	0x3da262ad	0.07928977
177	0xbdc553d3	-0.09635129
178	0xbc181244	-0.009281699
179	0xbc999905	-0.018749723
180	0x3dd6b41e	0.104835734
181	0x3c0945dd	0.008378473
182	0xbc7f1853	-0.015569764
183	0xbde4a03f	-0.11163377
184	0x3d12d07a	0.03584335
185	0xbe45bf67	-0.19311295
186	0xbbf00f02	-0.007326008
187	0x3e25bd69	0.16185535
188	0xbde84c21	-0.113426454
189	0xbd696513	-0.056981158
190	0x3d4ea9a8	0.050454766
191	0xbe125944	-0.14291865
192	0xbdc4380d	-0.09581003
193	0xbd9b6285	-0.075871505
194	0xbd8feeed	-0.07027993
195	0xbe39f3e3	-0.18159442
196	0x3daf635d	0.08563874
197	0x3dd8c36f	0.10584151
198	0xbdd1e079	-0.10247893
199	0xbd2e9ea4	-0.04263176
200	0x3dbc3cb7	0.09191268
201	0xbd8d6271	-0.06903542
202	0xbc95f7bc	-0.018306606
203	0x39680d38	0.00022130169
204	0x3d7d81f8	0.061891526
205	0xbd8dbe7a	-0.06921096
206	0xba9426e1	-0.0011303091
207	0x3dd66d09	0.104700156
208	0xbc83177c	-0.01600241
209	0x3e4bf6c2	0.1991835
210	0xbdc383a9	-0.095465966
211	0x3d105d89	0.035245452
212	0xbe4fb59c	-0.20284122
213	0xbd12c935	-0.035836417
214	0xbd82cff5	-0.06387321
215	0x3c8d112f	0.017220108
216	0xbe5447d9	-0.20730533
217	0xbdbd0da8	-0.0923112
218	0xbd5351c5	-0.051591653
219	0x3e498e09	0.19683088
220	0xbdff9509	-0.12479598
221	0xbc8133f5	-0.015771845
222	0xbdf48b0a	-0.11940582
223	0x3dedb430	0.11606634
224	0x3da94aa5	0.082661904
225	0x3daf83dd	0.08570073
226	0x3e0d5b65	0.13804395
227	0xbd6cab7e	-0.057780735
228	0xbd92c2d8	-0.0716607
229	0x3d5aa8ec	0.053383753
230	0xbea9fd02	-0.33200842
231	0x3c617e57	0.013763032
232	0xbe5c6697	-0.2152351
233	0xbe396f96	-0.18108973
234	0x3e08ceeb	0.13360183
235	0x3c855b23	0.016278809
236	0x3b3d63a1	0.0028898495
237	0xbdb7c311	-0.08972753
238	0x3cb81680	0.022471666
239	0x3c014d64	0.0078919865
240	0xbd9dd6d8	-0.07706994
241	0x3dd1e8ef	0.10249507
242	0x3e02b2fd	0.12763591
243	0xbdeeb039	-0.116547056
244	0x3e16d5cd	0.14729996
245	0x3cd1f318	0.025628611
246	0xbd5c9dfc	-0.053861603
247	0xbdd08a0c	-0.1018258
248	0x3e1d66be	0.15371224
249	0x3d6d89a1	0.05799258
250	0xbd617235	-0.055040557
251	0x3e236da1	0.15959789
252	0x3e09d899	0.13461532
253	0x3de5bcd4	0.11217657
254	0xbcc21cb3	-0.023695325
255	0xbcb91b48	-0.022596017

network_body._body_endoder.seq_layers.0.bias f4 [128]
0	0x00000000	0.0
1	0x00000000	0.0
2	0x00000000	0.0
3	0x00000000	0.0
4	0x00000000	0.0
5	0x00000000	0.0
6	0x00000000	0.0
7	0x00000000	0.0
8	0x00000000	0.0
9	0x00000000	0.0
10	0x00000000	0.0
11	0x00000000	0.0
12	0x00000000	0.0
13	0x00000000	0.0
14	0x00000000	0.0
15	0x00000000	0.0
16	0x00000000	0.0
17	0x00000000	0.0
18	0x00000000	0.0
19	0x00000000	0.0
20	0x00000000	0.0
21	0x00000000	0.0
22	0x00000000	0.0
23	0x00000000	0.0
24	0x00000000	0.0
25	0x00000000	0.0
26	0x00000000	0.0
27	0x00000000	0.0
28	0x00000000	0.0
29	0x00000000	0.0
30	0x00000000	0.0
31	0x00000000	0.0
32	0x00000000	0.0
33	0x00000000	0.0
34	0x00000000	0.0
35	0x00000000	0.0
36	0x00000000	0.0
37	0x00000000	0.0
38	0x00000000	0.0
39	0x00000000	0.0
40	0x00000000	0.0
41	0x00000000	0.0
42	0x00000000	0.0
43	0x00000000	0.0
44	0x00000000	0.0
45	0x00000000	0.0
46	0x00000000	0.0
47	0x00000000	0.0
48	0x00000000	0.0
49	0x00000000	0.0
50	0x00000000	0.0
51	0x00000000	0.0
52	0x00000000	0.0
53	0x00000000	0.0
54	0x00000000	0.0
55	0x00000000	0.0
56	0x00000000	0.0
57	0x00000000	0.0
58	0x00000000	0.0
59	0x00000000	0.0
60	0x00000000	0.0
61	0x00000000	0.0
62	0x00000000	0.0
63	0x00000000	0.0
64	0x00000000	0.0
65	0x00000000	0.0
66	0x00000000	0.0
67	0x00000000	0.0
68	0x00000000	0.0
69	0x00000000	0.0
70	0x00000000	0.0
71	0x00000000	0.0
72	0x00000000	0.0
73	0x00000000	0.0
74	0x00000000	0.0
75	0x00000000	0.0
76	0x00000000	0.0
77	0x00000000	0.0
78	0x00000000	0.0
79	0x00000000	0.0
80	0x00000000	0.0
81	0x00000000	0.0
82	0x00000000	0.0
83	0x00000000	0.0
84	0x00000000	0.0
85	0x00000000	0.0
86	0x00000000	0.0
87	0x00000000	0.0
88	0x00000000	0.0
89	0x00000000	0.0
90	0x00000000	0.0
91	0x00000000	0.0
92	0x00000000	0.0
93	0x00000000	0.0
94	0x00000000	0.0
95	0x00000000	0.0
96	0x00000000	0.0
97	0x00000000	0.0
98	0x00000000	0.0
99	0x00000000	0.0
100	0x00000000	0.0
101	0x00000000	0.0
102	0x00000000	0.0
103	0x00000000	0.0
104	0x00000000	0.0
105	0x00000000	0.0
106	0x00000000	0.0
107	0x00000000	0.0
108	0x00000000	0.0
109	0x00000000	0.0
110	0x00000000	0.0
111	0x00000000	0.0
112	0x00000000	0.0
113	0x00000000	0.0
114	0x00000000	0.0
115	0x00000000	0.0
116	0x00000000	0.0
117	0x00000000	0.0
118	0x00000000	0.0
119	0x00000000	0.0
120	0x00000000	0.0
121	0x00000000	0.0
122	0x00000000	0.0
123	0x00000000	0.0
124	0x00000000	0.0
125	0x00000000	0.0
126	0x00000000	0.0
127	0x00000000	0.0

network_body._body_endoder.seq_layers.2.weight f4 [128, 128]
0	0xbba91270	-0.0051596686
1	0x3de61994	0.112353474
2	0x3db4dfda	0.08831759
3	0x3dd9e476	0.106392786
4	0xb90de3ec	-0.00013531715
5	0xbcee92dc	-0.029122762
6	0xbda7b8ce	-0.081895456
7	0x3dc730f3	0.09726133
8	0x3c59fa93	0.01330437
9	0x3db800dd	0.0898454
10	0x3d46b6c8	0.048514158
11	0xbd0a4535	-0.033757407
12	0xbd49681c	-0.049171552
13	0x3c841e01	0.016127588
14	0xbc72c5b4	-0.014817644
15	0x3e177bca	0.14793316
16	0xbdb78cbf	-0.08962392
17	0x3d6f50a4	0.058426514
18	0xbd1fa8db	-0.038979392
19	0xbd01b8a7	-0.03167024
20	0x3d466b02	0.048441894
21	0xbdd5b94f	-0.104357354
22	0xbcf152f6	-0.029458504
23	0xbcf6d03e	-0.030128594
24	0xbd68cebb	-0.05683778
25	0x3b3baa9a	0.0028635622
26	0xbd90f531	-0.070780165
27	0x3e489bf7	0.19590746
28	0xbdd113bd	-0.10208843
29	0xbe0aaad3	-0.13541727
30	0x3dd09db7	0.10186332
31	0x3e4af402	0.19819644
32	0xbe00c6a1	-0.12575771
33	0x3d8f822f	0.070072524
34	0xbd6fc65f	-0.05853879
35	0x3e0e1ae9	0.13877453
36	0x3df43471	0.11924065
37	0x3cc90c2e	0.02454194
38	0xbdf87e93	-0.12133517
39	0xbd82dc01	-0.06389619
40	0x3dba86ce	0.09107743
41	0x3bfff7f4	0.0078115407
42	0x3bde6593	0.006787011
43	0xbc72bc35	-0.01481538
44	0xbde829e7	-0.11336117
45	0xbd941ef1	-0.07232464
46	0x3def9489	0.11698253
47	0x3d5c5148	0.053788453
48	0x3e1b37ec	0.15158051
49	0xbdb1d862	-0.0868385
50	0x3d307dbf	0.04308867
51	0xbd00d7a9	-0.03145567
52	0xbd8daf83	-0.06918242
53	0xbd994a1b	-0.074848376
54	0xbcdde481	-0.027086498
55	0xbd395ad0	-0.04525262
56	0xbd11b8c6	-0.035576604
57	0xbd6cf52c	-0.057851
58	0x3e3a29df	0.18180035
59	0x3de11242	0.109898105
60	0x3dafcca9	0.08583958
61	0x3d678ee9	0.056532774
62	0x3d96c9d5	0.07362715
63	0xbdb547ff	-0.08851623
64	0x3dd3b101	0.10336495
65	0x3d4bcdf0	0.049756944
66	0x3c739500	0.014867067
67	0x3e3eb036	0.18621907
68	0x3da17ddd	0.07885335
69	0xbc15eb3a	-0.009150321
70	0xbe0779e7	-0.13230096
71	0xbd91c183	-0.071169876
72	0x3dd1f55d	0.102518775
73	0x3d246509	0.040135417
74	0x3dafefbe	0.08590649
75	0xbd5a2086	-0.053253673
76	0xbcdbc492	-0.02682713
77	0x3e0ab77d	0.13546558
78	0xbd848d46	-0.06472258
79	0xbd08a5e8	-0.033361346
80	0xbdf34c50	-0.1187979
81	0x3da15745	0.078779735
82	0xbd5e3714	-0.054251745
83	0x3e20af51	0.15691878
84	0x3cab81ff	0.02093601
85	0x3a26c7a4	0.0006362146
86	0xbd57c6e6	-0.05267992
87	0x3e05c22e	0.13062355
88	0x3d9c582b	0.07634004
89	0x3db97b34	0.09056702
90	0xbda9a4e5	-0.08283404
91	0x3cb06e78	0.02153705
92	0xbdc0a7a2	-0.094069734
93	0x3d92f77a	0.07176109
94	0x3ca861a1	0.020554366
95	0xbbbe8b78	-0.005814966
96	0xbde541a1	-0.11194158
97	0xbc4f0889	-0.012636312
98	0x3e0f7c15	0.14012177
99	0x3e1709c9	0.14749826
100	0xbd199630	-0.037496746
101	0xbda605c3	-0.08106568
102	0x3d7b4501	0.061345104
103	0xbdbd302e	-0.09237705
104	0xbe48ade7	-0.19597588
105	0x3d2e2ff5	0.042526204
106	0xbd896334	-0.067083746
107	0xbbca6cf0	-0.006177537
108	0xbcb4597b	-0.022015324
109	0x3dc70716	0.097181484
110	0x3d4ae0cb	0.049530786
111	0xbd8a6dcb	-0.067592226
112	0xbd30f3e1	-0.04320133
113	0xbd40785c	-0.046989784
114	0xbdafa2e0	-0.08575988
115	0xbe018f4a	-0.12652317
116	0xbcb7bab4	-0.022427894
117	0x3d685ebd	0.056730974
118	0x3d050085	0.0324712
119	0x3d9e4d52	0.077295914
120	0x3d41f335	0.04735108
121	0xbe1ccdf8	-0.15312946
122	0x3d8dee41	0.06930209
123	0xbd2ff949	-0.042962346
124	0x3d2a3a61	0.04155958
125	0x3c821b4d	0.015882159
126	0x3c327a94	0.010893483
127	0x3d077468	0.033069998
128	0x3c480224	0.012207542
129	0x3cf55e40	0.029952168
130	0x3d87bfab	0.06628355
131	0xbdeada32	-0.11467399
132	0x3bc31150	0.0059529915
133	0xbd61e890	-0.05515343
134	0x3d48dafd	0.04903697
135	0x3dbff64c	0.09373149
136	0x3d3fd05c	0.046829566
137	0xbdc34c7e	-0.09536074
138	0xbc2d2ff7	-0.010570518
139	0xbc7a2417	-0.015267394
140	0xbd80a616	-0.062816784
141	0xbd9397b9	-0.07206673
142	0xbdc315ff	-0.0952568
143	0x3dc3e358	0.09564847
144	0xbdba4056	-0.09094302
145	0xbe0d13be	-0.13777062
146	0xbc3d84b2	-0.011567282
147	0x3d34ce2d	0.044141937
148	0x3ca5d41f	0.020242749
149	0xbd3bf25b	-0.045885425
150	0x3d8d60b2	0.06903209
151	0xbd0752cd	-0.03303795
152	0xbd8da9e5	-0.069171704
153	0xbd6f3aa8	-0.05840555
154	0xbd29f2c8	-0.0414913
155	0x3d3c32ee	0.045947008
156	0xbd03f35e	-0.032214515
157	0xbd1eab6c	-0.0387377
158	0x3bc88dcd	0.0061204196
159	0x3dd12f68	0.1021412
160	0x3decca4f	0.11562025
161	0x3df0d750	0.117598176
162	0xbc8d0109	-0.017212408
163	0xbdb5bd4e	-0.08873998
164	0x3de83368	0.1133793
165	0xbbbc6216	-0.0057489974
166	0x3d2eb17b	0.042649727
167	0xbd9a2014	-0.0752565
168	0xbc1d6039	-0.009605461
169	0x3dbc6ba1	0.09200216
170	0xbcaf7c4a	-0.02142157
171	0xbde5b8fe	-0.11216925
172	0xbde8f0f7	-0.113740854
173	0xbd42b037	-0.047531333
174	0x3de3c9f1	0.11122502
175	0x3dccd2c0	0.10001135
176	0x3d9e655a	0.07734175
177	0xbd288e62	-0.04115141
178	0xbdaf2e2d	-0.08553729
179	0x3df60ac6	0.120137736
180	0xbdd15da3	-0.10222938
181	0x3e289913	0.16464643
182	0x3d9c7543	0.076395534
183	0xbdbf5522	-0.0934241
184	0xbbb32060	-0.005466506
185	0x3cb227d8	0.021747515
186	0xbd2f52df	-0.04280364
187	0x3caf9422	0.02143294
188	0x3c4e746d	0.012601
189	0xbcd79f4c	-0.026321076
190	0xbd946c49	-0.07247216
191	0xbc9d2182	-0.019181017
192	0xbd2caa5b	-0.04215465
193	0xbd4ee6fa	-0.050513245
194	0x3dfeaa10	0.124347806
195	0xbc121844	-0.008916918
196	0x3de573aa	0.11203702
197	0x3db5828a	0.08862789
198	0xbdd921d3	-0.106021546
199	0x3dac9f60	0.08428836
200	0x3d92694d	0.07148991
201	0xbe3a35e0	-0.18184614
202	0x3cd8364a	0.026393075
203	0xbd1f7e47	-0.038938787
204	0x3dec5d07	0.11541181
205	0xbd442c87	-0.047894027
206	0xbc3f5a46	-0.011679238
207	0x3d9fbbe3	0.077995084
208	0x3d98f825	0.07469205
209	0xbdc2da8e	-0.09514342
210	0xbde5629f	-0.11200451
211	0xbd942e2f	-0.07235371
212	0xbd9a443a	-0.075325444
213	0x3cca2261	0.024674596
214	0x3d1900c9	0.037354264
215	0xbd16d9b2	-0.036828704
216	0x3b58ebda	0.0033099563
217	0x3da24c51	0.079247124
218	0xbb290df4	-0.002579567
219	0x3dcb08bf	0.099137776
220	0xbe909b5e	-0.28243536
221	0xbe2c2c7f	-0.16813849
222	0x3d8ea084	0.0696421
223	0x3deff8da	0.117173865
224	0xbd8cf4e7	-0.06882649
225	0x3ccd38e1	0.025051536
226	0x3d876f36	0.06613009
227	0xbd03a032	-0.032135196
228	0xbdc10e98	-0.09426612
229	0x3d181e51	0.037138287
230	0xbd404466	-0.04694023
231	0xbcf2e005	-0.029647836
232	0xbe6b0d55	-0.22954305
233	0x3e6449d1	0.22293784
234	0x3e1ccccd	0.153125
235	0x3d7fc229	0.062441025
236	0xbb18775d	-0.0023264505
237	0xbe2715ba	-0.16316882
238	0x3c06ba69	0.008223155
239	0xbd94c6e0	-0.07264495
240	0xbd2ffaea	-0.0429639
241	0xbd2d89ae	-0.04236763
242	0xbd912e0e	-0.07088862
243	0xbdbf5b7d	-0.09343622
244	0xbcb8e850	-0.022571713
245	0x3e12fbc0	0.14353848
246	0x3d4686ae	0.048468284
247	0x3d6d3b17	0.05791768
248	0xbdbbd671	-0.09171761
249	0x3db5ab8b	0.0887061
250	0xbbfb0db7	-0.007661547
251	0xbdd5d232	-0.10440482
252	0xbb9dc9ad	-0.0048153014
253	0xbd732d6a	-0.059369482
254	0x3dbc2598	0.09186858
255	0xbe65630f	-0.22401069

action_model._discrete_distribution.branches.0.weight f4 [2, 128]
0	0xbc089e0e	-0.008338464
1	0x3b94d5df	0.004542097
2	0xbc38fe6f	-0.01129113
3	0x3b627333	0.0034553527
4	0x3c8832d7	0.016625805
5	0xbc1b2994	-0.009470362
6	0x3b8372a9	0.0040114713
7	0x3c794628	0.01521448
8	0xbb3b36ce	-0.0028566602
9	0xbb6a1d9f	-0.0035723222
10	0x3c34530c	0.011006128
11	0xbab04847	-0.0013449275
12	0x38e1895b	0.000107544205
13	0xbad49f88	-0.001622186
14	0x3a1dbadf	0.00060169207
15	0xba7160e3	-0.00092078577
16	0xbbfc9965	-0.0077087157
17	0xbbeb1dc7	-0.0071751806
18	0xbb50b280	-0.0031844676
19	0xbb9fd911	-0.0048781713
20	0xbb25219f	-0.0025197042
21	0xbc32b479	-0.010907286
22	0x3c977850	0.018489987
23	0xba7d2692	-0.00096569315
24	0xbbf49ceb	-0.007464995
25	0x3b41f21b	0.002959377
26	0xbc46ae93	-0.012126583
27	0x3bf1156a	0.007357289
28	0x3ba88bd1	0.0051436205
29	0x3b567388	0.003272267
30	0xbc3e2984	-0.011606578
31	0x3bceea57	0.0063145566
32	0xbcb02352	-0.021501217
33	0xb8ac6c09	-8.221722e-05
34	0x3a3c089b	0.0007172913
35	0xbb4f457a	-0.0031627105
36	0xbbbd9bc7	-0.0057863924
37	0x3c3cd697	0.011525772
38	0xbb1eae7f	-0.0024212894
39	0xbb1929f3	-0.002337095
40	0xbc3bf2f3	-0.011471498
41	0xbc40e08e	-0.011772288
42	0xbb679303	-0.0035335429
43	0xbc188dbe	-0.009311138
44	0xbbaba445	-0.0052380883
45	0xbc07d730	-0.008291051
46	0xbc0e9876	-0.008703342
47	0x3af6e3c5	0.0018836191
48	0x3c2479f4	0.0100388415
49	0xbbb18e4e	-0.0054185754
50	0xbca70398	-0.020387456
51	0xbb97292e	-0.0046130633
52	0xbbe3a517	-0.0069471705
53	0xbbf4167f	-0.007448971
54	0xbc3b2dfa	-0.011424536
55	0x3bb1458d	0.0054099024
56	0xbb98d883	-0.004664482
57	0x3ae82e70	0.0017714035
58	0x3bc38ddf	0.00596784
59	0xba4e1812	-0.0007861863
60	0xbac1f6c9	-0.0014798279
61	0x3bbeb788	0.0058202185
62	0xbc079e06	-0.008277422
63	0xbc187a9b	-0.009306575
64	0x3c63bb4a	0.013899634
65	0xbc44bead	-0.012008351
66	0x3beff925	0.0073234015
67	0xba4b8b5b	-0.0007764601
68	0x3ba3a37b	0.0049938536
69	0x3c2695a4	0.010167513
70	0x3bb3189b	0.0054655797
71	0x3c4fe2f7	0.01268839
72	0xbc15d6d4	-0.009145457
73	0xbc67763d	-0.014127311
74	0xbc41fbdb	-0.011839832
75	0xbc63ec7b	-0.013911362
76	0x3c0fc455	0.008774837
77	0xbb2e6a1b	-0.0026613537
78	0x3b9b3e27	0.0047376337
79	0x3b9d9620	0.004809156
80	0x3b9a5cfc	0.0047107916
81	0xbabdb4b1	-0.0014473406
82	0xbc462b14	-0.012095232
83	0xbbf0febd	-0.007354586
84	0xbba8f117	-0.0051556933
85	0x3b7f1122	0.0038920124
86	0x3b59cd33	0.003323388
87	0x3c6422f3	0.013924348
88	0x3be3556f	0.0069376747
89	0xbc2bdfb7	-0.0104903495
90	0x3c36e963	0.011164042
91	0xba7ab4d0	-0.00095636863
92	0xbbd0437f	-0.0063557024
93	0x3b918048	0.004440341
94	0x3c936a6f	0.017995087
95	0xbb7b41c2	-0.0038338755
96	0x3c0f090e	0.008730186
97	0xbbff11f8	-0.0077841245
98	0x3c74410d	0.014908087
99	0x3c6ff993	0.0146469055
100	0x3c8b1ba7	0.01698096
101	0xbc838ede	-0.016059335
102	0xbb63e79d	-0.0034775503
103	0xbb66aa13	-0.0035196587
104	0x3c0b228c	0.008492123
105	0xbb2133d8	-0.0024597552
106	0xbc47d2ce	-0.012196256
107	0x3c79dff8	0.015251152
108	0xbbf62668	-0.0075119026
109	0xba9c6f5f	-0.0011935047
110	0xbc188c13	-0.00931074
111	0xbb992e4b	-0.004674708
112	0xbb929d3e	-0.004474311
113	0x3c055259	0.008137309
114	0xbc86cad9	-0.016454147
115	0x3c41d8d3	0.01183148
116	0xbb8ea23f	-0.0043528373
117	0xbbed463d	-0.007241039
118	0xbadafd6d	-0.0016707607
119	0xbb6d040f	-0.003616575
120	0x3b215d80	0.002462238
121	0x3c2116da	0.009832108
122	0x3c1b842d	0.009491962
123	0x3afb4ff0	0.0019173604
124	0xbae97630	-0.0017811712
125	0xbb79e9cf	-0.0038133746
126	0x3b7b2f35	0.0038327698
127	0x3b098c47	0.0020988153
128	0x3ac22a37	0.0014813606
129	0x3bcc8bd4	0.0062422547
130	0x3bf372df	0.007429465
131	0xbb9eb7b3	-0.004843676
132	0xba2e3da0	-0.0006646756
133	0xb9d6c4ed	-0.00040963982
134	0x3c2861c1	0.010277213
135	0xbb801cd3	-0.003909686
136	0x3bd6708d	0.006544179
137	0x3bdb3698	0.0066898577
138	0x3c38aeb0	0.0112721175
139	0xba325bf2	-0.0006803862
140	0xbb1df107	-0.0024099962
141	0x3c03977b	0.008031721
142	0xbc388638	-0.011262469
143	0xbc57dbe3	-0.013174984
144	0x3c0e3d4a	0.008681605
145	0x3c6d2cd3	0.014476019
146	0x3948a3ff	0.0001913458
147	0x3b2cf4b8	0.002639098
148	0xbbaa026d	-0.0051882775
149	0xb822370c	-3.8675076e-05
150	0x3a3404db	0.00068671786
151	0xb9f0193b	-0.00045795165
152	0xba98fefa	-0.0011672669
153	0x3b53ca3b	0.0032316584
154	0xbbebe79f	-0.0071992422
155	0xbc0141d5	-0.007889231
156	0xbc0ebf18	-0.0087125525
157	0xbb8c0ba6	-0.0042738495
158	0x3c25162a	0.010076085
159	0x3c723845	0.0147839235
160	0xbba7ef4d	-0.0051249624
161	0xbbe2915f	-0.0069143022
162	0x3a150ac7	0.0005685505
163	0xbb988d0e	-0.004655487
164	0xbc29e6b7	-0.010369948
165	0xbc2b4464	-0.010453317
166	0xbb872d07	-0.0041252407
167	0xbb5dc19a	-0.003383732
168	0x3c0fa45b	0.008767213
169	0x3b8e272f	0.004338167
170	0x3c3045a9	0.010758796
171	0xbc5d8ad3	-0.013521868
172	0xbc32b79b	-0.010908033
173	0xbc3a70a3	-0.011379394
174	0x3bf1295d	0.007359667
175	0xbb516d4a	-0.003195601
176	0xbc1ba9c6	-0.009500926
177	0xbc38cc64	-0.011279199
178	0x3b6b31ef	0.0035887917
179	0xbc07a253	-0.008278447
180	0xbb1ec500	-0.0024226308
181	0x3bf37397	0.007429551
182	0xba97e998	-0.0011590002
183	0x3ac2996b	0.0014846748
184	0xbaaa7ea6	-0.0013007715
185	0x3bdeaa9b	0.00679524
186	0xbb8ddaef	-0.0043290774
187	0x3be87628	0.0070941634
188	0xbbc83007	-0.006109241
189	0x3b31067b	0.002701192
190	0x3b397b0d	0.0028302104
191	0x39b9538d	0.000353482
192	0xbbfcd5ad	-0.007715902
193	0xbb81652b	-0.0039488277
194	0xbb3993db	-0.0028316888
195	0x35d43587	1.5810809e-06
196	0xbb5383fd	-0.0032274716
197	0x3bc51492	0.006014415
198	0x3a7e6ef0	0.0009705862
199	0x3b5109ad	0.0031896636
200	0x3b226ba7	0.0024783404
201	0xbc2e3f65	-0.010635232
202	0xbc58bc52	-0.013228493
203	0x3c33727f	0.010952591
204	0xbad7cd28	-0.001646434
205	0x3be0a513	0.006855616
206	0x3c11b682	0.008893611
207	0xbc14b412	-0.009076135
208	0xbbe998f3	-0.0071288287
209	0xbc5933b2	-0.013256954
210	0xbc1d29db	-0.009592499
211	0x39be81ad	0.0003633624
212	0xbb980514	-0.0046392772
213	0x3baf9fb1	0.005359613
214	0xbb337283	-0.0027381487
215	0xbabe07d4	-0.0014498183
216	0x3b7a2cef	0.0038173755
217	0xbc2b9810	-0.010473266
218	0x39c9c439	0.00038483905
219	0x3b995284	0.004679026
220	0x3c278368	0.010224201
221	0x3a42b313	0.0007427197
222	0xbc1f75bf	-0.009732663
223	0xba41ba0b	-0.0007390088
224	0xbc8df91f	-0.017330704
225	0x3c358202	0.01107836
226	0xbb2e4187	-0.002658935
227	0xbc4347a3	-0.011918935
228	0x3aa43473	0.0012527838
229	0x3ad72ddb	0.0016416864
230	0xbbd6728a	-0.006544416
231	0xbb306ade	-0.0026919167
232	0x3b99f813	0.004698762
233	0xbad92318	-0.0016566245
234	0xbbbe5297	-0.0058081853
235	0xba6803c2	-0.00088506576
236	0xbc2b3ee7	-0.010452009
237	0x3ba06133	0.0048943995
238	0xba4bb16f	-0.0007770275
239	0x3c1342f3	0.00898813
240	0x3c1c1aab	0.0095278425
241	0xb9002345	-0.0001222017
242	0x3c72d54b	0.014821361
243	0x3c7fc9df	0.015612095
244	0x3caa0ad7	0.020757122
245	0x3c1c5bfd	0.009543416
246	0xbb050e51	-0.0020302723
247	0x3b1de137	0.0024090537
248	0xbb80a218	-0.003925573
249	0x3bc3e427	0.0059781256
250	0xbcca0ceb	-0.024664363
251	0xbaa1d964	-0.0012348113
252	0xbc493e0d	-0.01228286
253	0xbc9f8497	-0.019472403
254	0xbaa428bf	-0.001252435
255	0xb895c075	-7.1407216e-05

action_model._discrete_distribution.branches.0.bias f4 [2]
0	0x00000000	0.0
1	0x00000000	0.0
