ML-Game/results/ppo/My Behavior/My Behavior-500053.onnx (onnx, 187731 bytes, 6 tensors)

network_body._body_endoder.seq_layers.0.weight f4 [128, 225]
00000000: c161 143d bf91 7f3d 3d36 c4bd a4a7 b83c
00000010: 97e4 e2bb c5a9 47be 25ba 723d 7a4b 95bd
00000020: 87b7 c83d 2672 ec3c 139f ac3d 7ea3 313c
00000030: 2fd1 8e3d 1d5c 173d 805a 4d3d bc31 483d
00000040: 9383 913d 0029 4e3d 5a3f a13c 7ff4 1fbd
00000050: 842a b03d 73a8 85bb eb2b e7bc d53e 1cbd
00000060: a87b 5ebd 421f a9bd 674d fc3d 00b4 febb
00000070: 3417 c53d a4cc f1bc 7371 5c3d 63ed bcbb
00000080: 803a 3c3d 03ef 343d f9ef 00be c5f5 bc3b
00000090: 5fb3 1f3d 6ab1 063e 7aac bb3d 4fcc c9bd
000000a0: 785f c2bd 5e5d 8bbd 90cb 65bd c331 613c
000000b0: ae8a 1e3d 9d3c 1f3e 94e6 733d 20c5 9a3d
000000c0: 37f2 0abd a15f 07be 72ec 2d3d 9e33 82bd
000000d0: 0a80 c1bd c54d 27bd 3e1b 9f3d 7a18 84bc
000000e0: 8441 113e a530 84bd 6070 0c3d 3efb 16bc
000000f0: 912a 723c 7691 71bc 9abe f63d 1cf4 143d
00000100: 5dd9 623d 6d1e 03be 76f2 3d3c e6af b1bc
00000110: d029 b4bc cc21 013d 89bc d6bd 0502 5e3d
00000120: 6a72 bb3d 9b49 923c 53d9 8cbd 7bb7 05bd
00000130: bfe2 f13b b5b9 023d f0d9 00bd 35b7 c1bc
00000140: a963 493c 462e 07bd 01e1 5b3d 1833 c93d
00000150: abdf e03d d9e4 373d 65d7 143e 3e69 a5bd
00000160: e8b2 c53d 77ff 91bd e8bb 743a 17c2 4b3d
00000170: d7ec 183d ae87 cb3d 190a e3bc f115 82bd
00000180: da76 40bd 33c1 ce3d e341 563d 2891 c4bd
00000190: 58cd c13d c797 cebc 315e 1cbc 8490 42bc
000001a0: a505 c2bd 41c3 11be 5dde 36bd 33c0 2f3e
000001b0: bf09 7b3d 67e3 103e 2a2e cf3d 6f42 6a3c
000001c0: 02bc 7fbd 53e0 fa3d a040 c23d c9c1 d3bd
000001d0: 7b63 4b3e f081 2ebc fb65 dabc 3c0b 2a3d
000001e0: 3dd8 68bc b56f 30bd dfaf b23d 6fca 7dbc
000001f0: 99d2 703e ad23 113e 1f11 d4bc 42f7 b43d
00000200: 3cac a9bc 751e 6bbd 58cb 323d f6f2 2c3c
00000210: 9b76 c6bd 255c e53d aab3 e2bb c791 8e3c
00000220: 33f6 71bd 61ab 753d 1f8a 8abd fd36 acbc
00000230: 9c38 1d3d f335 8abd 5723 243e ca93 683d
00000240: 61be 923d 99b1 973d 0263 aabc 5302 95bd
00000250: ed8b 963d 8a7f 9f3d 64cf 7f3d cb93 a4bc
00000260: 066c df3d 117d 38bd 05d0 afbd e1a1 d73d
00000270: d8d0 88bd b0af cbbd 4d17 073d fd95 e13c
00000280: cf9f f9bc 23a3 ce3c 9f6b acbd 64c7 6cbd
00000290: 83e4 073e 893c 013d 4a56 fc3d 53d4 893c
000002a0: 9d32 6f3d cdb4 123e ea61 f43d ba6f ee3d
000002b0: 0a0c 143c 172d 133e 1967 aeba fdd5 8c3d
000002c0: 1195 52bc 133e 0e3d 8417 37be a641 a53d
000002d0: 5e98 b03c 7039 dc3a 6234 053e 7c22 523d
000002e0: 7c1b 89bd b01f e13c 35a1 cdbd ea4f aabd
000002f0: a0b1 823c 6169 043e bbb3 0b3c e77a bc3d
00000300: 161d 373c 134f 6bbd 36a3 be3d 430b 6d3d
00000310: 9271 81bd 09d2 063e 2852 51bc d98f dabb
00000320: aaf9 34bd 07b6 153e dd18 783d 1cd8 bebc
00000330: 0e22 893d a401 c3bd 37a0 2b3d ae44 033d
00000340: 5579 e2bd f6ad 2bbd 3381 7ebd 69d4 713d
00000350: c82a 0d3e fb84 0b3d 71a2 853d 8867 b9bb
00000360: bea4 e1bb bd90 18bd 6695 233d a2e6 a73d
00000370: 4902 5fbd 47b5 a83c 7587 b23d e107 36bd
00000380: 08af a53d b942 09be 5d23 bbbd b5c4 a7bd
00000390: ec36 2abe daad 9b3d ba09 5b3c c070 86bd
000003a0: 7909 ed3d 1775 4ebd 1495 f93c fdfe 973d
000003b0: dbce 133d c77c 673d e53f b5bd 1c30 b0bc
000003c0: aebe d63c 7009 c03c fe78 dfbd b37c 11be
000003d0: 4884 103d f02b 01bd fe24 21be 64e8 c0bd
000003e0: 534c a33c 3af9 643c 0c7b 2f3e 7862 0dbe
000003f0: f1ab 113e c629 003d 3699 8e3d 435a 7b3d
0.036226038 0.062394854 -0.09580658 0.022540875 -0.0069242227 -0.19498356 0.059259553 -0.07289787
0.0980063 0.028863024 0.084287785 0.010842202 0.06973492 0.03695308 0.050135136 0.048875555
0.07105174 0.05033207 0.019683529 -0.03905153 0.08601859 -0.0040789186 -0.028219184 -0.03814586
-0.054317147 -0.08257915 0.12319451 -0.0077729225 0.09623566 -0.029516526 0.05381913 -0.0057656034
0.045954227 0.04417325 -0.12591542 0.0057666027 0.03898942 0.13153616 0.09163757 -0.09853422
-0.094908655 -0.06804918 -0.056102335 0.013744774 0.038706474 0.15550466 0.05954607 0.0755713
-0.0339224 -0.13220073 0.04246182 -0.063575014 -0.0944825 -0.04084565 0.07768868 -0.016124953
0.14185148 -0.06454591 0.034286857 -0.009215174 0.014780656 -0.014744153 0.12048073 0.036365613
0.055383075 -0.12804575 0.011593452 -0.02169032 -0.021992594 0.03152637 -0.10485179 0.054201145
0.09152682 0.017857363 -0.06877389 -0.032645684 0.0073817666 0.031915385 -0.03145784 -0.02364693
0.012291827 -0.033003114 0.053681377 0.098241985 0.10980161 0.04489598 0.14535291 -0.08076714
0.09653264 -0.07128804 0.00093358615 0.049745645 0.037335243 0.09937988 -0.027714776 -0.06351841
-0.046988346 0.100954436 0.05230893 -0.09597999 0.09462994 -0.025218857 -0.009543941 -0.0118752755
-0.09473733 -0.1423464 -0.044645656 0.17163162 0.06128859 0.14149247 0.10116227 0.014298066
-0.062435158 0.12249818 0.094849825 -0.10339696 0.19862168 -0.010651097 -0.026659956 0.04151462
-0.0142117115 -0.043075282 0.08724951 -0.015490158 0.23517837 0.14173765 -0.02588707 0.08836223
-0.02071201 -0.057402093 0.043650955 0.010555973 -0.09690591 0.11199216 -0.0069183903 0.017403496
-0.059072684 0.059977893 -0.06764626 -0.021022314 0.038384065 -0.06748571 0.16029106 0.056781568
0.07165218 0.07406921 -0.020799164 -0.07275834 0.073509075 0.07787998 0.062453642 -0.020090004
0.10909276 -0.045041148 -0.085845985 0.10528923 -0.06680459 -0.09945619 0.032981206 0.02753734
-0.03047171 0.025224274 -0.084189646 -0.05780734 0.13270764 0.03155187 0.12321146 0.016824877
0.058397878 0.14326783 0.11932738 0.11642404 0.009036073 0.14372669 -0.0013305872 0.068767525
-0.012852923 0.034727167 -0.17880064 0.08069162 0.02155703 0.0016801786 0.13008264 0.051302418
-0.06694695 0.02748093 -0.100405134 -0.08316024 0.015953839 0.12930824 0.008526738 0.09203129
0.011176368 -0.057448458 0.09308474 0.057872068 -0.0632049 0.1316606 -0.012775935 -0.00666998
-0.04418341 0.14620219 0.060570586 -0.023296408 0.066959485 -0.09521797 0.04190084 0.03204792
-0.110582985 -0.04191395 -0.062134933 0.05904046 0.13785851 0.034062367 0.06525124 -0.005658094
-0.006886094 -0.03724741 0.0399374 0.081982866 -0.05444554 0.020594252 0.08717243 -0.044441108
0.08090025 -0.13404359 -0.091376044 -0.08191816 -0.16622514 0.07601519 0.013369018 -0.06564474
0.115740724 -0.050404634 0.030466594 0.07421682 0.036085945 0.05651548 -0.088500775 -0.021507315
0.02621397 0.023442 -0.10911749 -0.14207725 0.035282403 -0.031536043 -0.15736768 -0.09419325
0.019933855 0.013975436 0.17136782 -0.13807094 0.14225747 0.03128984 0.069628164 0.061365377

network_body._body_endoder.seq_layers.0.bias f4 [128]
00000000: e5d4 a23d 6662 abbd b7bb a7bd f8da aa3d
00000010: 1307 a7bd e34f 9b3d 3766 abbd 030b aa3d
00000020: 2a76 a13d b2dd 9bbd a594 9d3d 0d75 abbd
00000030: e9c9 afbd e56c 9fbd 2ec9 9d3d 8637 a53d
00000040: 5b3f a23d 48ec a5bd 3622 a8bd d882 abbd
00000050: 156f 4c3d a7a2 9e3d fcfb a83d 09b9 b23d
00000060: bd0e a1bd 3450 39bd 77a9 acbd c28e a7bd
00000070: 7e1f 9fbd 34fd ac3d 7d83 8c3d f8eb a63d
00000080: d74a a9bd 4112 a43d d702 a63d 9cb4 a9bd
00000090: 5bf6 973d 8843 a8bd 996d ab3d 4ea8 a83d
000000a0: 5b42 a4bd a6a3 a6bd 71b6 a0bd 9625 a5bd
000000b0: 5f85 9f3d a0ad a33d eaf4 ab3d 53b0 83bd
000000c0: 86e1 9c3d 21cd 91bd ffd1 a53d abdd a8bd
000000d0: 9d17 9d3d 7b2b 9c3d c930 a3bd fbae a8bd
000000e0: 300e abbd 5e2f 9c3d a168 9fbd 4227 a73d
000000f0: fb67 9fbd 100f a13d e564 a43d 5b79 a7bd
00000100: c3cc abbd 3480 9bbd 7cb7 ad3d b15e 9e3d
00000110: 2e15 8fbd 7348 a5bd 4958 a73d c8e0 a9bd
00000120: 6aa4 aabd d084 9abd 512a a6bd 593a a93d
00000130: fdc5 b0bd eb8e 833d 02bf 9e3d 990a a23d
00000140: 6369 a53d c720 aabd 62ba 46bd 87ef a13d
00000150: 71af 863d 8a71 9e3d 4101 b0bd bc58 acbd
00000160: 710f adbd 7ec9 a4bd 9e34 afbd 40de adbd
00000170: c849 ab3d 4949 a1bd 50f3 913d 34b3 afbd
00000180: a33e 9c3d 703a a1bd 96b9 993d 7eeb 98bd
00000190: 73fd ab3d aabb a73d 70ba a83d 32eb 9e3d
000001a0: b57e a73d 158a a5bd 38ab b43d a1cb ab3d
000001b0: 5e52 a93d fb83 a7bd d27a a53d e988 b33d
000001c0: 1cbb 9e3d 8a70 a4bd 5af5 a8bd 6c3b 9fbd
000001d0: 9cd2 a13d ec46 a3bd c993 a63d a954 913d
000001e0: 3915 a33d cd74 23bd e8b9 acbd 3a44 95bd
000001f0: f2a0 a53d 75ef 9fbd 53cf a5bd e88f a8bd
0.07950763 -0.083683774 -0.08190101 0.08342546 -0.08155646 0.075835966 -0.08369105 0.083028816
0.07883866 -0.076106444 0.07694367 -0.08371935 -0.08583433 -0.07784442 0.077043876 0.08067231
0.0792224 -0.08101708 -0.0820965 -0.08374566 0.049910624 0.07745867 0.08251187 0.08726699
-0.07864139 -0.045242503 -0.0843076 -0.08181526 -0.077696785 0.08446732 0.06861017 0.08150476
-0.08266228 0.08011294 0.081060104 -0.08286402 0.074200355 -0.082160056 0.083705135 0.082352266
-0.08020469 -0.08136682 -0.07847298 -0.080638096 0.077891104 0.07992101 0.08396323 -0.064301156
0.07660203 -0.07119203 0.08096694 -0.08245405 0.076705195 0.07625481 -0.079682894 -0.082365
-0.083523154 0.07626222 -0.07783628 0.08161785 -0.077835046 0.07864201 0.080270566 -0.081774436
-0.083886646 -0.07592812 0.084822625 0.07732905 -0.069864616 -0.08070459 0.08171136 -0.08294827
-0.08332141 -0.07544863 -0.0811354 0.08263082 -0.08631513 0.06423744 0.077512756 0.079121776
0.080767415 -0.08307033 -0.048517592 0.07907014 0.065764315 0.077364996 -0.08593989 -0.08415362
-0.08450211 -0.08046244 -0.08554958 -0.084896564 0.08363682 -0.07875306 0.07126486 -0.08579102
0.076291345 -0.07872474 0.07506101 -0.074667916 0.08397951 0.08190091 0.08238685 0.07759704
0.08178464 -0.08082978 0.0882172 0.083884485 0.082676634 -0.0817947 0.08080067 0.08766348
0.07750532 -0.080292776 -0.08249922 -0.07775006 0.07901499 -0.07972512 0.081336565 0.07096226
0.07963032 -0.03990631 -0.08433896 -0.07288404 0.080873385 -0.07809345 -0.080961846 -0.08230573

network_body._body_endoder.seq_layers.2.weight f4 [128, 128]
00000000: df18 24bd 9879 7bbc a77e 4d3e c63d 80be
00000010: 6ffc 4abd 9dc4 0e3d 0f47 13be 5b18 09bc
00000020: 94d7 0f3e 8fd5 0dbc d992 063e b1c2 60bd
00000030: 12d3 fe3c 4f7d 2dbd fcb7 df3d ca5c bbbd
00000040: 7760 db3d 2004 98bd df26 30be 0cdd 17be
00000050: 3a95 afbd 1317 1f3e a46d 143e 7c92 693d
00000060: 757f a5bd 2a33 c4bd 3c8f 9fbd 9067 1dbe
00000070: 18a9 adbc b05c 99bd 0d6f 213d fcfd ed3d
00000080: a637 43bd 4c24 9bbd 2ea7 543d 6bf2 46be
00000090: f4f8 203a 4b3e 3fbe 3eb5 f33d ddd4 cfbb
000000a0: 059f f2bc a005 84bd 4e3a 1dbe 594a dbbd
000000b0: 0454 4c3e e750 f73d d514 3a3e cdf1 a6bd
000000c0: a3c0 94bd f376 abbd 1bc2 0b3e b19a 0abe
000000d0: dbf4 ac3d b2fc 803e 3fe0 2b3d 0054 d93d
000000e0: 1a0d 8cbd 70ac 173e ff9f 9f3c 2ae1 e5bd
000000f0: 214f 39bc 0514 863d a7e2 763d 31c9 8ebd
00000100: 8bc4 4ebe e18f b3bd 3fa6 b8bc a6b7 383e
00000110: 57ea 2fbe daa6 94bd 7746 46bd 4352 68be
00000120: 98ea b1bd 429f 2dbd 3849 28be 7711 dfbc
00000130: b740 2d3c a7eb 1c3e 24b0 133e 93d9 173c
00000140: 9afd 17bd cfb5 98bd 8c48 b2bc 0fc9 f23c
00000150: 4fc0 5a3c 71d9 3dbd da5e 8e3d 4546 c0bd
00000160: 8b65 9c3d 7723 efbb c084 e4bd e9a5 b3bc
00000170: 0efc 89bd 7a64 efbc 7b53 4b3d 9bd7 22be
00000180: 551d 813e 7aa3 703d a4a4 363e 329b 8f3c
00000190: 60d7 abbc 3d62 643e 225e 483d d829 34bd
000001a0: 8fe3 483e 6f1e 28be 2acc 323e 3098 a0bc
000001b0: daaf c1bc efb9 fdbc 5046 783e 241f 803c
000001c0: a07a 723d 0204 58bd 74cd 90bd 51f8 3e3c
000001d0: 6d79 a73d 3e83 b3bd bee7 05bd 42fa 283e
000001e0: a150 a93d 61e5 4abc 24ca 02bd d7d7 2dbe
000001f0: 1d2f 1fbe f8b6 06bd faf4 c4bd 3b6f bfbd
00000200: 313d 9ebc c94f 063e 6175 99bc 77b6 b23c
00000210: 2340 bdbc 6e24 283d c1d4 3fbe c1e4 17bd
00000220: e04a a0bd fc88 c6bd 76d6 0a3e 1d0c 17be
00000230: 534f 65bd 9bb3 abbb 1485 e83a 2a56 aa3d
00000240: a1ae aabd da7a bcbd 6d51 083e fb99 eabd
00000250: e22b e03c 87c1 0dbe 3bfb 55bc 7dd9 adbd
00000260: 8b93 2cbe 7d97 a7bd 5beb e0bd c350 823d
00000270: 3b4c 1dbd 417c 37bd 814b f2bd df86 523e
00000280: 8321 50bc 916e 293e 6965 523e 8fbb ecbc
00000290: 8245 053e fde9 3abd e78f 583a 5b14 babc
000002a0: 3981 48bd 4afe ef3b 9555 dabd 9023 68be
000002b0: 4eee 133d c5ca 17be 9ba5 db3c 1899 b4bd
000002c0: cb51 de3d dcb9 ac3d f8f4 a93c 5155 f93c
000002d0: c639 93bd dd72 0b3d e5e3 be3c 8125 9b3d
000002e0: 50f9 b93c 2aad 603d 38e8 48be 9183 ccbd
000002f0: c6c3 e33d 150e d33d dccd 133e 899e f03b
00000300: 41a8 e3bd cd10 c9bd 13f0 1d3e a249 423e
00000310: 6c05 05be 477b 17be d40a 7d3d 9cf5 663c
00000320: 4b97 febc f02d 083c 79d6 0fbe 074b 8a3c
00000330: 9a46 59be d4be 0bbe 3ed8 a63c 6417 4b3d
00000340: b138 4c3d 0061 36bd a64a c03d b66b 4b3e
00000350: a2ff 7fbd 24e0 fe3d 39da 80bd 06a2 5dbe
00000360: 593f cb3c f767 40be 8732 8dbd 1c8c 12be
00000370: 2a17 ad3d 901c 43be adc8 23bd 5327 32be
00000380: 78c0 fbbc 9d89 d6bd c25f 29bd abce cfbd
00000390: d83b ddba 5a21 b0bd 47ce 213c 2cf2 54bd
000003a0: 21a0 2c3e 200b 5f3d 57bf 41bc 69a1 89bc
000003b0: d7a1 4ebd 8bce 12be 7039 933d 5e89 bebd
000003c0: c4a7 003e e9be 343d 354a da3d 9318 18bb
000003d0: f533 b73d 7200 dcbd cfe0 863c 8238 b43d
000003e0: 6395 2a3d b3e7 213e b67a efbc 518c a5bd
000003f0: 1ded 473e bfb0 2dbd 6741 e2bd 0b0d e0bd
-0.04006278 -0.015348814 0.20067845 -0.2504713 -0.049557146 0.034855474 -0.14382575 -0.008367623
0.1404708 -0.008656873 0.13141955 -0.054873172 0.031106506 -0.04235583 0.10923764 -0.091485575
0.107117586 -0.07422662 -0.17202328 -0.14830416 -0.085733846 0.15536146 0.1449495 0.057024464
-0.08080951 -0.09580071 -0.07790992 -0.15371537 -0.021198794 -0.07488382 0.039412547 0.11620709
-0.047660492 -0.075752825 0.051917247 -0.19428413 0.00061406125 -0.18676107 0.118998036 -0.006342514
-0.029616842 -0.064463854 -0.15354273 -0.1070754 0.19953924 0.12075978 0.1817201 -0.081515886
-0.07263305 -0.08372297 0.13648264 -0.13535573 0.0844514 0.2519279 0.041961905 0.10611725
-0.068384364 0.14811873 0.019485472 -0.11224587 -0.01131037 0.06546787 0.060274746 -0.06971968
-0.20192163 -0.08767677 -0.02254021 0.18038806 -0.17179237 -0.07258387 -0.048407044 -0.2268763
-0.08687323 -0.04238821 -0.1643418 -0.027230008 0.010574511 0.15324269 0.14422661 0.009268182
-0.037107088 -0.07456552 -0.021763109 0.029636888 0.013351514 -0.046349946 0.06951685 -0.09388403
0.07636555 -0.007297929 -0.111581326 -0.021929698 -0.06737529 -0.029222716 0.04964016 -0.1590256
0.2521769 0.058749653 0.17836243 0.017530058 -0.020976722 0.223031 0.048917897 -0.043985218
0.19618057 -0.1641786 0.17460695 -0.019603819 -0.023643423 -0.03097245 0.24245572 0.015639849
0.059198976 -0.052738197 -0.07070437 0.011655883 0.08177457 -0.08765267 -0.03269171 0.16501716
0.08267332 -0.01238379 -0.031931058 -0.16976868 -0.15545316 -0.032889336 -0.09617038 -0.093473874
-0.019316288 0.13116373 -0.018732728 0.021815522 -0.023101872 0.041050367 -0.18733503 -0.03708339
-0.07826781 -0.096940964 0.13558373 -0.14750715 -0.055983853 -0.0052399165 0.0017739856 0.08317216
-0.08334089 -0.092031196 0.13312311 -0.11455151 0.027364675 -0.13843356 -0.013060386 -0.08488748
-0.16853158 -0.08183191 -0.109823905 0.0636306 -0.038402777 -0.044796232 -0.118308075 0.20559262
-0.012703302 0.16546084 0.20546497 -0.028898029 0.13014796 -0.045633305 0.0008261189 -0.022714784
-0.04895136 0.007324015 -0.10660855 -0.22669816 0.036115937 -0.14823444 0.026812365 -0.08818263
0.108554445 0.08433887 0.020746693 0.03043619 -0.07188754 0.03404509 0.023302028 0.07575513
0.02270189 0.054852642 -0.19619834 -0.09986032 0.11121325 0.1030542 0.14433998 0.0073431176
-0.11116076 -0.098176576 0.15423612 0.18973401 -0.1299035 -0.1479312 0.061777905 0.014096644
-0.031078001 0.008311734 -0.14046659 0.016881479 -0.21218339 -0.13647014 0.020366784 0.049582854
0.049858753 -0.0445261 0.09389238 0.19865307 -0.06249965 0.12445095 -0.06291623 -0.21643838
0.02481048 -0.1878966 -0.06894403 -0.1431126 0.08451684 -0.19053864 -0.0399863 -0.17397813
-0.030731425 -0.104754664 -0.041351087 -0.10146841 -0.0016878797 -0.08600111 0.0098758405 -0.051988766
0.1685796 0.05445397 -0.011825404 -0.0168006 -0.05044731 -0.14336602 0.0718869 -0.093035445
0.12563998 0.04412738 0.10658685 -0.0023208007 0.08945457 -0.107422724 0.016464619 0.087998405
0.041646373 0.15811042 -0.029233318 -0.08083404 0.19524045 -0.042404886 -0.11047631 -0.10939988

network_body._body_endoder.seq_layers.2.bias f4 [128]
00000000: 04f8 843d 1125 933d c59a 8d3d 6cb1 973d
00000010: 49b9 803d 195c 943d a7ef 6cbd a45f a03d
00000020: 5304 903d 4e99 8e3d de6d 9b3d 9a6d 873d
00000030: d4b9 7ebd 547b 953d d4c9 993d b744 993d
00000040: 801b 9b3d f567 883d 5042 a13d 45c7 95bd
00000050: 9e53 8c3d 0c50 953d 8f03 95bd f8c0 8fbd
00000060: 2f3c 8bbd 9fdd 913d 3180 9a3d 8115 91bd
00000070: 9990 903d c688 923d a523 8fbd caa1 8ebd
00000080: 110f 2abd 3ba7 8c3d aa4e 91bd 070c 973d
00000090: 6e53 6dbd b627 a23d faa4 8fbd 09e7 85bd
000000a0: 299c 9abd 658d 8d3d 79ef 8fbd 4a50 83bd
000000b0: 1e38 88bd ea98 973d d444 9b3d 0bc3 92bd
000000c0: a0f4 9c3d 5a52 8fbd c174 933d 247d 8dbd
000000d0: 95f8 973d 1370 88bd b390 8c3d 1baa 88bd
000000e0: 258f 85bd c50e 933d 98e4 98bd dbb0 8f3d
000000f0: 2393 9cbd 0b64 933d 7363 84bd 9e48 9b3d
00000100: 001a 8d3d 3759 85bd 85f2 8ebd 0213 4dbd
00000110: 9887 8bbd a67c 913d 79ae 77bd a113 853d
00000120: 006b 92bd abfa 923d 5112 90bd cd4c 9bbd
00000130: 6f70 953d 33eb 8bbd 5b39 60bd c128 8ebd
00000140: f387 83bd 7e78 403d 66ac 8abd f5c3 983d
00000150: d298 88bd 66f2 8f3d 1c53 96bd 9b0b 83bd
00000160: 360d 87bd 3e5e 983d dab7 80bd 68e6 743d
00000170: 865f 8ebd c106 86bd 15e9 89bd 6fcd 963d
00000180: 3366 8dbd cb84 95bd 6fa4 483d 6c71 92bd
00000190: 637d 88bd 0962 8b3d fc84 91bd f3e7 8b3d
000001a0: f514 893d ab77 913d c661 81bd 00f6 2a3d
000001b0: a14b 73bd 89c3 8bbd 107a a63d ed68 8c3d
000001c0: 7ac8 973d 978b 9a3d 4307 813d d32c 88bd
000001d0: 711a 8ebd b209 67bd d60a 943d fa16 893d
000001e0: 32dd 913d 2d7b 93bd 7b0c 91bd 0264 89bd
000001f0: ec59 963d 014f 823d ed51 a3bd e63d 923d
0.06492618 0.07184804 0.069142856 0.074068874 0.0628534 0.07244129 -0.057845738 0.07830742
0.07032075 0.06962834 0.07589315 0.06612702 -0.06218894 0.072989136 0.07509199 0.074838094
0.075736046 0.06660453 0.07873976 -0.07313398 0.06851886 0.07290658 -0.072760694 -0.07019228
-0.067985885 0.07122349 0.07543982 -0.0708418 0.0705883 0.07154994 -0.069892205 -0.069644526
-0.041518275 0.06867834 -0.07095082 0.07375341 -0.057940893 0.079177305 -0.07013889 -0.06538207
-0.075493164 0.069117345 -0.07028098 -0.06411798 -0.066513285 0.07402213 0.07581487 -0.07166108
0.07663846 -0.06998129 0.072000034 -0.06908634 0.0742046 -0.066620015 0.06863537 -0.0667307
-0.06521443 0.071805514 -0.07465476 0.070161544 -0.076452516 0.07196816 -0.06464281 0.0758221
0.06889725 -0.06511157 -0.06979851 -0.050066955 -0.06812972 0.07103853 -0.060469124 0.064978845
-0.07149315 0.07176717 -0.070347436 -0.07583008 0.07296836 -0.0683197 -0.0547422 -0.06941367
-0.06422415 0.04698991 -0.06771164 0.07459251 -0.06669773 0.07028656 -0.073400706 -0.06398698
-0.06594317 0.0743985 -0.06285067 0.059790045 -0.069518134 -0.06544257 -0.0673391 0.07363402
-0.069042586 -0.07300719 0.04898494 -0.0715054 -0.066645406 0.06805808 -0.07105443 0.0683135
0.0669345 0.07102903 -0.06317477 0.04173851 -0.059398297 -0.06824405 0.0812875 0.068559505
0.07411285 0.07546156 0.06300213 -0.066491745 -0.06938637 -0.05640573 0.07228629 0.066938356
0.07122268 -0.07201228 -0.070824586 -0.06708528 0.0734137 0.06362725 -0.079746105 0.071407124

action_model._discrete_distribution.branches.0.weight f4 [2, 128]
00000000: 2cfd 923d 9d9d 663d 1062 8b3d d15d 613d
00000010: 67b5 4a3d ca59 753d 9eb6 58bd c876 4e3d
00000020: 083b a23d 9c58 493d 43e6 673d 9b8c 7c3d
00000030: 0fb1 93bd 97c3 553d a0ca 8c3d 6c3e 603d
00000040: 09fe 643d 5f33 833d 121b 713d efc8 57bd
00000050: a81f aa3d b459 8d3d 7538 61bd c5e0 0fbd
00000060: 6226 71bd 8a95 523d b23c 693d 5832 68bd
00000070: 2b08 7c3d bc9f 803d 3691 6abd 1c9e 44bd
00000080: 8f73 5dbd 6fab 883d 31b8 80bd 0a70 533d
00000090: 9690 3bbd 47e2 6c3d 44d9 4bbd a341 7fbd
000000a0: aba5 54bd 5dd0 843d a802 78bd d4cf 8fbd
000000b0: 11db 47bd 921e 873d 8aa8 833d 277d 81bd
000000c0: 1600 523d fba8 4cbd 89bd 823d 7d4d 5abd
000000d0: 07b2 663d 91a8 8ebd b643 8a3d ed2f 66bd
000000e0: ba9e 92bd 8013 623d e938 83bd 6f90 843d
000000f0: 7274 3dbd c626 7c3d 07a2 8abd 528f 8b3d
00000100: 05e9 933d fef7 69bd 36d8 64bd a71f 74bd
00000110: f393 48bd 4281 683d f848 4ebd fc80 833d
00000120: 32f1 52bd 26b5 6c3d f647 7abd d830 5bbd
00000130: 786a 693d 7857 77bd f99b 54bd 5320 4bbd
00000140: b270 5dbd f030 493d ec86 3ebd 571a 7d3d
00000150: 4b9b 81bd 5c43 843d 3c37 8ebd 9dd3 58bd
00000160: 2665 5cbd d59f 733d 31f5 24bd 4dc5 823d
00000170: 4075 5dbd 10fe 0fbd 584b 64bd 82f1 3d3d
00000180: 6ed5 83bd ec10 82bd ccc3 403d e3c5 52bd
00000190: 8c07 4ebd c426 5f3d 90fe 5ebd 65da 653d
000001a0: 81bf 733d d12d 533d c582 87bd 24e2 4f3d
000001b0: aa0f 0ebd 2a77 71bd 4e04 7b3d 4ed2 7b3d
000001c0: 14f5 513d a150 813d 6e2b 723d 8430 b7bc
000001d0: 4205 86bd c70f 6ebd 317d 303d d7f9 a23d
000001e0: 2afe 913d 8345 32bd 9b11 89bd a774 6fbd
000001f0: 0fcf 793d a6e1 823d 517d 6ebd 2f3d 603d
00000200: b589 72bd 3a0d 89bd 1973 98bd 1303 6abd
00000210: 259c 3cbd 12fe 8dbd 7fba 443d aaa3 4bbd
00000220: b9b9 57bd e89c 8dbd 538f 6cbd 79da 79bd
00000230: 9b48 8f3d 5b92 89bd 63ff 51bd ca92 6abd
00000240: 7271 79bd 4416 adbd 0ba8 4dbd c098 643d
00000250: e28b 77bd f96b 76bd c182 5e3d ec33 573d
00000260: c2b5 4b3d 304f 71bd 6559 67bd 9a10 633d
00000270: 7d5c 5ebd 2368 3dbd 4ae0 7c3d 8a5e 613d
00000280: 413b 083d 4627 39bd 5454 513d c6e6 7bbd
00000290: 009d 443d 4327 7abd ff22 973d b00e 803d
000002a0: d3fd 803d 58fd 50bd 74e5 753d 37ed 6a3d
000002b0: 57ae 9a3d f42b 6abd 648f 5bbd c043 5f3d
000002c0: d63b 63bd 60e8 993d 0560 63bd 6091 583d
000002d0: b365 5fbd 34e6 613d ad41 61bd da17 613d
000002e0: 66b2 873d 73fb 7dbd 1f59 543d 458d 45bd
000002f0: 1a86 5a3d 5250 71bd 398a 153d 1cb5 62bd
00000300: 9073 5abd e316 943d 9ee6 823d cebc 203d
00000310: 7c12 783d d9ea 38bd 8aaa 2d3d 2bd4 85bd
00000320: ba83 8f3d edae 5cbd b4dd 433d 6a13 543d
00000330: 8ca8 86bd e3c8 883d c78d 593d 2185 7a3d
00000340: 4e84 453d d917 1dbd 14ab 783d e6e5 54bd
00000350: 9035 793d 97d3 7ebd 35db 403d 222d 803d
00000360: 8412 543d e44e 59bd fba2 7e3d 8f1a 51bd
00000370: bd97 713d 14c4 723d 5239 7f3d 4cdd 6bbd
00000380: f082 363d 12de 553d 3c73 4bbd d599 723d
00000390: 2908 833d b0c0 59bd faa2 773d 206c 8abd
000003a0: 39b0 7abd 08e3 89bd 0314 9b3d ca37 28bd
000003b0: c0b1 103d 182a 423d 51ae 73bd 2534 67bd
000003c0: b2f7 84bd 3c4e 82bd 6aa0 3dbd 573c 523d
000003d0: d832 3c3d d347 263d 8f11 6cbd 61d8 72bd
000003e0: 6672 5fbd 46b0 7c3d d1bc 623d 58fd 883d
000003f0: b383 7cbd 3937 86bd 7f15 633d f73d 5bbd
0.07177195 0.056302655 0.06805813 0.05502111 0.049489405 0.059900083 -0.052908532 0.050406247
0.079214156 0.04915677 0.05661608 0.06165753 -0.072115056 0.052188482 0.06874585 0.05474703
0.05590633 0.06406283 0.058863707 -0.05268186 0.08306819 0.06901875 -0.054985482 -0.035126466
-0.058874495 0.051412143 0.05694265 -0.056688637 0.061531227 0.06280467 -0.05726739 -0.048002347
-0.054065283 0.06673323 -0.06285132 0.05162052 -0.045792185 0.057832982 -0.049767748 -0.062318455
-0.051915806 0.06485055 -0.06054941 -0.07022062 -0.048792902 0.06597628 0.06428631 -0.06322699
0.051269613 -0.04996584 0.06383807 -0.053296555 0.056322124 -0.06965745 0.06751196 -0.05619805
-0.07159181 0.055194378 -0.06407339 0.06472861 -0.04625363 0.061560415 -0.067691855 0.068144456
0.07222179 -0.05712127 -0.055870257 -0.0596005 -0.04896922 0.056763895 -0.050362557 0.06421086
-0.051499553 0.057789944 -0.061103784 -0.053513378 0.056986302 -0.06038615 -0.05190656 -0.049591374
-0.054062553 0.049118936 -0.04651539 0.061792698 -0.06328448 0.0645816 -0.06944129 -0.052936185
-0.0538074 0.0594786 -0.040272895 0.063852884 -0.054066896 -0.035154402 -0.055735916 0.046372898
-0.06437193 -0.06350884 0.047061726 -0.05145825 -0.050300166 0.05448033 -0.05444199 0.05611648
0.059508804 0.051557366 -0.06616739 0.050752774 -0.034682907 -0.058951534 0.061283402 0.06147986
0.051259115 0.06314207 0.05912345 -0.022362001 -0.065439716 -0.058120515 0.04308814 0.079578094
0.07128556 -0.043523323 -0.06692811 -0.058460858 0.060988482 0.06390695 -0.05822498 0.05474585
-0.05921336 -0.06691976 -0.07443828 -0.057131838 -0.04604735 -0.06933226 0.04802942 -0.04971663
-0.052667353 -0.06914693 -0.057753872 -0.060999367 0.0699627 -0.06717368 -0.051268946 -0.057268895
-0.060899206 -0.084515125 -0.050209086 0.055809736 -0.060436137 -0.060161564 0.054323915 0.05253975
0.049733885 -0.05891341 -0.056481738 0.055435754 -0.054287422 -0.04624189 0.061737336 0.0550218
0.033259634 -0.04520347 0.051105812 -0.06149938 0.04800129 -0.0610726 0.07379722 0.062528014
0.06298413 -0.051022857 0.060033277 0.057355132 0.07552784 -0.057170823 -0.053603545 0.05450797
-0.055476986 0.07515025 -0.055511493 0.052873015 -0.054540347 0.05515118 -0.054994274 0.054954387
0.06625824 -0.06200738 0.051842805 -0.04823043 0.053350545 -0.05891449 0.036508773 -0.0553485
-0.053332865 0.07230928 0.06391643 0.03924256 0.060564503 -0.045145843 0.042398967 -0.065346085
0.07007547 -0.05387776 0.047818854 0.051776327 -0.065751165 0.06678941 0.053113725 0.061162118
0.04822188 -0.03835282 0.060710028 -0.05197706 0.060842097 -0.062213507 0.047084052 0.062586084
0.05177547 -0.05305375 0.06216715 -0.05105072 0.0589826 0.059269026 0.062310524 -0.057584092
0.044558465 0.052213736 -0.049670443 0.059228737 0.06398041 -0.053162277 0.06045816 -0.067589045
-0.061203215 -0.06732756 0.07572176 -0.04106883 0.035325766 0.047403425 -0.059492413 -0.056446213
-0.06492557 -0.06362578 -0.04629556 0.051327076 0.045946926 0.04059584 -0.057633933 -0.059288386
-0.05455246 0.061691545 0.05535585 0.066889465 -0.061649036 -0.06553502 0.055440422 -0.05352589

action_model._discrete_distribution.branches.0.bias f4 [2]
00000000: 95cb 4f3d 94cb 4fbd
0.05073126 -0.050731257
