ML-Game/results/ppo/My Behavior/My Behavior-17047.pt (torch, 441146 bytes, 33 tensors)

network_body._body_endoder.seq_layers.0.weight f4 [128, 6]
-0.39236486 -0.76456845 -0.05030238 0.12640329 0.38856015 0.2530424 -0.4256421 0.2104792
0.053049732 -0.26530263 0.25269976 -0.17703961 -0.008080582 -0.3152259 -0.4002275 0.19777998
0.056671925 0.28689528 -0.2770567 -0.11941092 -0.025983647 -0.41402942 -0.14302102 -0.12422277
0.053376593 -0.98315376 -0.31697035 -0.4486163 -0.56176823 -0.0884244 -0.12262285 -0.68192726
0.49192214 -0.01837457 -0.19349344 -0.28268903 0.31492624 -0.29829153 0.6140996 0.25015736
0.421988 0.26439896 -0.17240451 -0.35187215 0.65536064 -0.056318395 0.17594767 0.5420224
0.4787583 0.39427885 -0.37282744 0.10320882 -0.05334972 0.3714223 -0.042617038 -0.39344838
-0.98258954 0.7474146 -0.46168134 0.09546108 0.19723146 0.073915735 -0.065301865 -0.3336258
-0.13504045 0.69749755 0.13466062 -0.17522177 -0.8159454 -0.54012394 -0.10120754 -0.25915733
-0.23710969 -0.5596131 0.45014727 0.090417705 0.14747572 0.08159678 -0.42174745 0.3888655
0.05516719 0.262425 -0.04211542 0.7961404 -0.60298926 -0.17248762 -0.072294354 0.7907887
0.057399914 0.037655015 0.6855702 0.82831854 -0.2756107 -0.014850692 0.2250812 -0.07345558
0.048574995 -0.34256372 -0.7461173 0.11196768 -0.17515804 -0.0060488572 0.10809801 -0.19457534
-0.35478774 0.37493396 -0.2877279 -0.22817944 0.013429558 -0.09287579 0.3352269 -0.41155356
0.12780115 0.77806884 -0.53904295 -0.11268999 -0.20518607 -0.60078716 -0.30859482 0.43283945
-0.21765074 0.45265943 0.7423128 -0.733122 -0.5488703 -0.2808821 0.15252885 -0.5951694
0.0029912286 -1.0120218 0.3184082 -0.1456047 -0.29257482 -0.254806 0.29950786 -0.3132832
0.20425113 0.039018743 -0.2238561 0.35549438 1.0560677 -0.1309279 -0.08178226 0.9504776
0.31811163 0.79980236 -0.12031262 -0.25425088 0.60180277 -0.17825504 0.23030497 0.48205227
-0.30588767 0.0077934475 -0.6034213 0.011258751 0.06847132 0.26496753 0.27501267 0.08254382
0.11214536 0.17755443 -0.38956022 -0.006185982 0.40283617 0.28433126 -0.38934022 0.90531486
-1.0229678 -0.21807957 -0.18304604 0.3477547 0.21859092 0.6358311 -0.60690737 0.7924768
-0.15873852 -0.07398708 -0.21386631 0.43685457 0.9873088 0.67196083 0.26964256 -0.4777284
0.17340548 0.0903666 -0.09197366 -0.26296386 0.25129294 -0.59497803 0.63001144 0.15949251
-0.044545352 -0.36288086 0.20660377 0.00218804 0.14696078 0.11325552 0.16707264 0.30225578
-0.07904433 -0.25096694 0.12681635 -0.17928824 -0.29628685 -0.22967009 -0.09973329 0.18469504
0.46916717 -0.06682577 0.2792965 -0.9309689 0.6237608 0.22417974 0.09678518 -0.224479
0.45839787 0.41123623 -0.52339387 -0.2512527 0.31748456 0.63914585 0.012318423 0.4940564
0.5677944 0.03900376 -1.0783726 0.09417288 -0.7399275 -0.20068376 0.24430496 0.69041926
0.4122432 -0.035585534 -0.498019 -0.62451977 -0.65486896 -0.17907982 -0.40756345 0.16346624
-0.01038168 -0.5835039 0.06545726 1.0689754 0.06018025 -0.5089326 0.17694017 -0.09443084
0.33020368 -0.42176238 -0.28434294 -0.90696895 0.20410748 0.47894728 -0.42862156 0.4823631
00000000: 0ce4 c8be c2ba 43bf de09 4ebd dd6f 013e
00000010: 5bf1 c63e c68e 813e c3ed d9be dc87 573e
00000020: ad4a 593d bfd5 87be dd61 813e df49 35be
00000030: 6b64 04bc 4a65 a1be 9eea ccbe d686 4a3e
00000040: d220 683d f0e3 923e 60da 8dbe b68d f4bd
00000050: a8db d4bc aafb d3be 1a74 12be 8268 febd
00000060: 6aa1 5a3d f7af 7bbf f049 a2be 09b1 e5be
00000070: 0bd0 0fbf da17 b5bd b021 fbbd c992 2ebf
00000080: 38dd fb3e 4486 96bc 2523 46be 9ebc 90be
00000090: 033e a13e abb9 98be a235 1d3f a014 803e
000000a0: d00e d83e 4d5f 873e cf8a 30be 9628 b4be
000000b0: b7c5 273f 1eae 66bd a02b 343e fbc1 0a3f
000000c0: cf1f f53e ebde c93e 3de3 bebe 255f d33d
000000d0: 3c85 5abd 102b be3e 348f 2ebd 1172 c9be
000000e0: fd8a 7bbf 9056 3f3f 7f61 ecbe 1981 c33d
000000f0: 0bf7 493e 2261 973d fcbc 85bd 00d1 aabe
00000100: 0b48 0abe 338f 323f 79e4 093e 566d 33be
00000110: cce1 50bf 9045 0abf e645 cfbd 45b0 84be
00000120: e2cc 72be ce42 0fbf b479 e63e eb2c b93d
00000130: e003 173e 361c a73d 48ef d7be 6119 c73e
00000140: fef6 613d 925c 863e 3881 2cbd dbcf 4b3f
00000150: 815d 1abf 98a0 30be 100f 94bd 2171 4a3f
00000160: 2c1c 6b3d 253c 1a3d 8781 2f3f af0c 543f
00000170: d81c 8dbe 5150 73bc b07b 663e e16f 96bd
00000180: 93f6 463d 8364 afbe 8b01 3fbf 504f e53d
00000190: a15c 33be 7e35 c6bb 7d62 dd3d c23e 47be
000001a0: bda6 b5be 58f7 bf3e 1251 93be dfa7 69be
000001b0: a607 5c3c aa35 bebd dca2 ab3e 26b7 d2be
000001c0: 4ede 023e 852f 473f b8fe 09bf 02ca e6bd
000001d0: 4c1c 52be 30cd 19bf 2400 9ebe 229d dd3e
000001e0: d6df 5ebe fac2 e73e 3608 3e3f e2ad 3bbf
000001f0: c482 0cbf c7cf 8fbe 8630 1c3e 065d 18bf
00000200: 7d08 443b ee89 81bf 6606 a33e 6619 15be
00000210: 5ecc 95be ef75 82be 1859 993e a866 a0be
00000220: 3527 513e 1ed2 1f3d 893a 65be 5c03 b63e
00000230: 3a2d 873f f711 06be 757d a7bd 8052 733f
00000240: 87df a23e d9bf 4c3f 7766 f6bd 2c2d 82be
00000250: bf0f 1a3f 7d88 36be 11d5 6b3e 8ecf f63e
00000260: 4f9d 9cbe 2d60 ff3b d179 1abf a076 383c
00000270: b13a 8c3d d3a9 873e 76ce 8c3e bc0c a93d
00000280: 77ac e53d d4d0 353e 7074 c7be c7b3 cabb
00000290: 8b40 ce3e de93 913e 9a57 c7be b7c2 673f
000002a0: 9cf0 82bf 4050 5fbe 6c70 3bbe e70c b23e
000002b0: 4cd6 5f3e d4c5 223f 485e 1bbf c2df 4a3f
000002c0: 5a8c 22be 8a86 97bd c5ff 5abe 67ab df3e
000002d0: 45c0 7c3f a005 2c3f 970e 8a3e d198 f4be
000002e0: 3591 313e 2012 b93d b05c bcbd 33a3 86be
000002f0: 78a9 803e 7b50 18bf 6e48 213f 0152 233e
00000300: 3075 36bd 85cb b9be f08f 533e 3865 0f3b
00000310: e37c 163e 83f2 e73d 1715 2b3e 45c1 9a3e
00000320: fee1 a1bd bd7e 80be 25dc 013e 5697 37be
00000330: e9b2 97be a32e 6bbe f840 ccbd b220 3d3e
00000340: ae36 f03e f3db 88bd f3ff 8e3e fa53 6ebf
00000350: caae 1f3f 608f 653e 4f37 c63d d3dd 65be
00000360: 20b3 ea3e 8e8d d23e 24fd 05bf 32a4 80be
00000370: 568d a23e 109f 233f 36d3 493c f6f4 fc3e
00000380: f95a 113f 68c2 1f3d 1d08 8abf b6dd c03d
00000390: e36b 3dbf 0b80 4dbe 142b 7a3e 51bf 303f
000003a0: 8a11 d33e 23c2 11bd 59fc febe 87e0 1fbf
000003b0: 7ea5 27bf b360 37be 28ac d0be b263 273e
000003c0: ec17 2abc 8360 15bf 750e 863d 30d4 883f
000003d0: 917f 763d 6849 02bf ce2f 353e f564 c1bd
000003e0: 7510 a93e 3df1 d7be 6695 91be 1e2f 68bf
000003f0: 8d01 513e 9438 f53e 4974 dbbe 4cf8 f63e

network_body._body_endoder.seq_layers.0.bias f4 [128]
-0.0028853668 -0.004989429 0.005886526 -0.004379879 0.0014402979 0.0002831804 -0.0013355829 -0.0015952688
0.0008069908 0.0020117075 -0.00038334378 -0.0027656239 -0.0042445064 0.0043225135 -0.0057449522 0.001791019
-0.00053184445 -0.002016264 -0.0032162252 -0.0041108117 0.00059861393 -0.0030014166 -0.0051155197 -0.002911409
0.00439463 -0.0027770158 -0.0036675076 -0.0030360874 0.0034867092 -0.0023745832 -0.007947674 0.0053793355
0.00045002246 0.0030460395 -0.00397213 0.007901233 -0.0004696113 0.004153452 -0.004412095 0.0056958552
0.00055729016 -0.0028459195 0.0023524289 -0.0040011527 -0.0037702778 0.0057704314 -0.0037791275 0.0018010965
-0.00088461593 0.0023142153 -0.0032276798 -0.0013799584 0.0024656204 0.006588876 0.0024154757 -0.0043692915
9.024063e-05 -0.004037552 -0.00047843676 0.007969278 -0.0037471044 0.0012098664 -0.0016522448 -0.004592596
0.0061619314 0.0010517738 0.0030190279 -0.0055234376 0.0013680322 -0.0021905284 -0.002553348 0.00045104878
-0.0054159896 -0.004472319 -0.0022721842 0.0014096646 -0.004913177 -0.0033260596 -0.0018188134 -0.0011063116
0.00042597906 -0.00083421066 -0.0035157648 -2.1293492e-05 0.0003247787 0.0051296954 -0.0049547274 -0.0051115835
-0.0022279778 0.005001359 0.0053970832 -0.0042620264 -0.0027023698 0.0011830946 0.001120544 0.0021691844
-0.0031809828 0.0020924313 0.0013690672 0.0033476823 -0.003449917 -0.0022192239 -0.0034762877 -0.0029935606
0.0030971973 -0.004462379 0.0038470416 -0.0023298715 0.0042328346 0.005277054 -0.0014149597 -0.0004857307
-0.0005040589 0.0010074967 0.00019169277 0.0004203124 -0.0049367775 -0.00323967 -0.004399127 0.0026363148
-0.006702691 -0.0048184907 0.004096274 -0.0026177338 -0.0032966593 0.0039105127 -0.0051738024 0.0005101022
00000000: 6c18 3dbb 5d7e a3bb c2e3 c03b 1785 8fbb
00000010: 61c8 bc3a d477 9439 ba0e afba 5718 d1ba
00000020: 3c8c 533a dad6 033b 88fb c8b9 783f 35bb
00000030: 8015 8bbb dfa3 8d3b 2740 bcbb a0c0 ea3a
00000040: 7a6b 0bba 4c23 04bb 4ec7 52bb fdb3 86bb
00000050: 4dec 1c3a 6ab3 44bb 17a0 a7bb 56cd 3ebb
00000060: d400 903b 98fe 35bb 915a 70bb 18f9 46bb
00000070: 4681 643b e59e 1bbb f636 02bc 2345 b03b
00000080: fef0 eb39 10a0 473b a428 82bb 2c74 013c
00000090: 2936 f6b9 ae19 883b 5693 90bb 4ca4 ba3b
000000a0: 1c17 123a 9b82 3abb 352b 1a3b 1a1c 83bb
000000b0: c416 77bb e315 bd3b 3dab 77bb c512 ec3a
000000c0: 92e5 67ba 17aa 173b 7b87 53bb b8df b4ba
000000d0: 3f96 213b 7fe7 d73b f54c 1e3b 462c 8fbb
000000e0: 923f bd38 714d 84bb b2d6 fab9 9391 023c
000000f0: fb91 75bb 6194 9e3a 2390 d8ba 7d7d 96bb
00000100: 07ea c93b acdb 893a e2da 453b f4fd b4bb
00000110: 8b4f b33a f88e 0fbb 1256 27bb be7a ec39
00000120: 9d78 b1bb 888c 92bb ede8 14bb 7fc4 b83a
00000130: b7fe a0bb 05fa 59bb 4065 eeba a801 91ba
00000140: f155 df39 eeae 5aba bf68 66bb 6d9f b2b7
00000150: 0f47 aa39 0117 a83b 445b a2bb 127f a7bb
00000160: 4403 12bb 71e2 a33b 04da b03b 78a8 8bbb
00000170: 3e1a 31bb 1112 9b3a 38df 923a e028 0e3b
00000180: 0978 50bb 2c21 093b 4672 b33a ca64 5b3b
00000190: 0118 62bb 6670 11bb 6ed2 63bb 9d2f 44bb
000001a0: 59fa 4a3b 2639 92bb a61e 7c3b c2b0 18bb
000001b0: 97b3 8a3b 23eb ac3b 2b76 b9ba aca9 feb9
000001c0: d222 04ba fb0d 843a 2301 4939 605d dc39
000001d0: b1c4 a1bb a550 54bb 8d26 90bb 06c6 2c3b
000001e0: 3fa2 dbbb 6ee4 9dbb 093a 863b 498e 2bbb
000001f0: c40c 58bb c223 803b 0089 a9bb 61b8 053a

network_body._body_endoder.seq_layers.2.weight f4 [128, 128]
0.0029294174 -0.08242654 -0.10838719 -0.10931174 0.16737026 -0.08737154 0.07955429 0.076051466
0.025797406 0.019309778 -0.14990827 -0.032960698 0.123094335 -0.025926288 0.09053476 -0.08589306
-0.16576599 0.019261975 -0.050637532 -0.014177937 0.04456771 0.026626308 0.008102216 -0.023041595
0.041567136 -0.014223591 0.008434288 0.14469625 0.1425266 -0.14298855 0.022949548 0.09660974
0.12442034 -0.018918652 0.012669254 -0.026673824 0.039497267 0.01763975 0.06593761 -0.12410283
-0.0546799 0.1335378 -0.075911894 -0.098772325 0.15097119 -0.012009756 -0.095980644 0.098948196
-0.06289132 0.074605495 -0.054938454 0.020025805 -0.0642047 -0.059570238 -0.07878136 -0.06714727
-0.07661727 -0.041417424 0.08348838 0.009906715 0.060151406 -0.04538714 0.13713324 0.06502186
-0.066566676 0.13870949 0.07371846 -0.23181297 0.060640406 0.070080265 0.053201035 0.015464059
-0.069278084 -0.007995249 -0.12025146 -0.039074 0.00020462513 -0.11645392 -0.08558496 0.14441961
0.0017682707 0.1061529 -0.10831747 -0.09169113 0.05616212 0.049810898 -0.031223416 -0.011164892
0.23847221 -0.030337939 -0.013146267 0.12344504 -0.045988325 -0.017342575 -0.024091149 -0.030651499
-0.2072747 0.035667017 0.035189427 0.009568678 -0.048446447 -0.1487062 -0.23327076 0.016253673
0.10271965 -0.07341484 0.026659744 -0.047111157 -0.04395601 -0.0019564591 -0.07709246 -0.03476029
-0.028909652 0.00045054738 0.120289624 0.05626127 -0.07148515 -0.028373484 -0.06268904 -0.06809355
-0.12645611 -0.06390362 0.036418907 0.13794547 0.061257266 -0.037436772 0.03022411 0.14823197
-0.055571847 0.07455032 -0.02774969 0.113692924 -0.02647281 -0.0061460226 -0.015920894 0.018190624
-0.09948884 0.04632731 0.081344366 -0.1274551 0.02596993 0.11750083 0.07441192 -0.06012097
0.12525907 0.05788861 -0.035275143 0.037678335 -0.05345749 -0.024901083 0.021130737 -0.1018422
0.122482635 -0.07130915 0.04325671 -0.023314822 0.040665872 -0.035566367 0.01556679 -0.008122619
-0.020701466 -0.048548494 -0.07694343 -0.07626266 0.005109448 -0.020563873 -0.031945195 -0.11753739
-0.01891921 -0.11342975 -0.066075936 -0.09987815 -0.11252148 -0.03541615 0.070996754 0.0017653331
-0.046016462 0.06460825 -0.12416647 0.066663206 -0.10640496 -0.14437686 0.06408683 0.011698653
0.025638448 0.030590573 0.013909629 -0.09805001 0.1350936 -0.05679729 -0.032165144 -0.12561229
-0.012984996 -0.06084136 -0.015528498 -0.117932886 -0.06556856 0.07781307 -0.050732393 0.05401229
0.028177895 -0.078269966 0.07212758 -0.0119150365 0.0745793 -0.04308853 -0.04792308 0.18535279
-0.010710916 0.056785155 -0.010223259 0.002555956 0.05673966 0.009242617 -0.07602962 -0.02557246
-0.06723374 0.0002181295 -0.1727551 -0.04946256 0.029601678 0.01158461 0.017892823 0.08221108
-0.11623917 0.024600245 -0.005472513 -0.014364033 -0.016686436 0.05780721 -0.037623238 0.17915648
-0.20822124 0.056227043 0.07991478 -0.043085545 -0.06911347 -0.033513438 0.03081511 0.17930992
0.016566023 0.10579089 0.060563654 -0.11782569 -0.13896078 -0.03442523 -0.085120946 0.15052234
-0.08190836 0.16761968 -0.11221081 -0.0016885923 -0.05505992 -0.11139352 0.023074204 -0.05835542
00000000: 78fb 3f3b 3fcf a8bd 1afa ddbd d5de dfbd
00000010: 1c63 2b3e daef b2bd 5ced a23d dfc0 9b3d
00000020: 1555 d33c 8a2f 9e3c 8e81 19be cc01 07bd
00000030: e218 fc3d 5e63 d4bc 4a6a b93d b3e8 afbd
00000040: 8fbe 29be 4acb 9d3c 4d69 4fbd 944a 68bc
00000050: a28c 363d 6a1f da3c 28bf 043c bac1 bcbc
00000060: 4d42 2a3d 110a 69bc f82f 0a3c 412b 143e
00000070: 7ef2 113e 976b 12be b100 bc3c 54db c53d
00000080: 17d0 fe3d 4afb 9abc b492 4f3c 1083 dabc
00000090: e3c7 213d 3d81 903c 4c0a 873d a029 febd
000000a0: 08f8 5fbd 22be 083e b277 9bbd 2549 cabd
000000b0: 3198 1a3e 91c4 44bc 8091 c4bd 5aa5 ca3d
000000c0: 2acd 80bd c4ca 983d 2507 61bd 280d a43c
000000d0: c17d 83bd ecff 73bd 1f58 a1bd 8284 89bd
000000e0: 84e9 9cbd 51a5 29bd f5fb aa3d c64f 223c
000000f0: 5261 763d dee7 39bd a86c 0c3e 2e2a 853d
00000100: 1c54 88bd dc09 0e3e b4f9 963d 6160 6dbe
00000110: 1362 783d 3e86 8f3d 54e9 593d f75c 7d3c
00000120: abe1 8dbd 81fe 02bc 6646 f6bd 0f0c 20bd
00000130: a490 5639 657f eebd 2b47 afbd bce2 133e
00000140: 52c5 e73a b166 d93d 8dd5 ddbd 8fc8 bbbd
00000150: 400a 663d 8306 4c3d 40c8 ffbc f4ec 36bc
00000160: 0f32 743e 4587 f8bc 7163 57bc c1d0 fc3d
00000170: 415e 3cbd 0412 8ebc cd5a c5bc da18 fbbc
00000180: d23f 54be 9417 123d ca22 103d f2c5 1c3c
00000190: c86f 46bd 7046 18be 88de 6ebe 6c26 853c
000001a0: ae5e d23d 855a 96bd 8965 da3c a1f7 40bd
000001b0: 380b 34bd f037 00bb a7e2 9dbd ce60 0ebd
000001c0: efd3 ecbc 7237 ec39 685a f63d 3872 663d
000001d0: ce66 92bd 826f e8bc 1d63 80bd a274 8bbd
000001e0: b67d 01be e7df 82bd fe2b 153d 9441 0d3e
000001f0: e6e8 7a3d 4d57 19bd 8e98 f73c 1fca 173e
00000200: 4e9f 63bd d7ad 983d 5153 e3bc d6d7 e83d
00000210: 82dd d8bc 9364 c9bb 896c 82bc 8104 953c
00000220: cec0 cbbd b5c1 3d3d e097 a63d 9783 02be
00000230: e4be d43c 46a4 f03d 4765 983d 6841 76bd
00000240: ea43 003e 9b1c 6d3d ab7c 10bd 9954 1a3d
00000250: 3ef6 5abd 5bfd cbbc 5e1a ad3c a592 d0bd
00000260: 2dd8 fa3d 880a 92bd f32d 313d bafe bebc
00000270: 4291 263d 0aae 11bd d90b 7f3c bc14 05bc
00000280: 1f96 a9bc c9da 46bd 8494 9dbd 992f 9cbd
00000290: 286d a73b 9175 a8bc f7d8 02bd 71b7 f0bd
000002a0: 76fc 9abc db4d e8bd d252 87bd ea8c ccbd
000002b0: a971 e6bd 8610 11bd bf66 913d c062 e73a
000002c0: c27b 3cbd 5551 843d fd4a febd b886 883d
000002d0: d8ea d9bd 87d7 13be f53f 833d b5ab 3f3c
000002e0: b907 d23c 1599 fa3c 36e5 633c 72ce c8bd
000002f0: fa55 0a3e 46a4 68bd 99bf 03bd 82a0 00be
00000300: 05bf 54bc ca34 79bd 3e6b 7ebc cc86 f1bd
00000310: cf48 86bd 755c 9f3d c5cc 4fbd fe3b 5d3d
00000320: 54d5 e63c 014c a0bd a0b7 933d 4937 43bc
00000330: 08bd 983d 997d 30bd fe4a 44bd 1fcd 3d3e
00000340: d67c 2fbc 8d97 683d 757f 27bc d381 273b
00000350: d967 683d 586e 173c 6bb5 9bbd 567d d1bc
00000360: d8b1 89bd b1b9 6439 b7e6 30be 4199 4abd
00000370: 387f f23c 60cd 3d3c f893 923c 485e a83d
00000380: cd0e eebd 7486 c93c c452 b3bb 1f57 6bbc
00000390: feb1 88bc 41c7 6c3d d31a 1abd cc74 373e
000003a0: f337 55be 544e 663d 5caa a33d 787a 30bd
000003b0: 5d8b 8dbd 6345 09bd f86f fc3c 059d 373e
000003c0: 78b5 873c e5a8 d83d 9811 783d 984e f1bd
000003d0: bc4b 0ebe 7801 0dbd e453 aebd 8722 1a3e
000003e0: 92bf a7bd 7ea4 2b3e c8ce e5bd c153 ddba
000003f0: 8386 61bd 4922 e4bd 1d06 bd3c 1806 6fbd

network_body._body_endoder.seq_layers.2.bias f4 [128]
0.001045697 0.0025627217 -0.0010443905 -0.0040323394 0.00592371 0.004576771 -0.0034207068 -0.0048548225
-0.0053024394 0.0040725525 0.0026412008 -0.0034307768 0.0034152342 -0.0052306904 0.0003669615 -0.004539136
-0.0038155837 -0.004556989 0.00396897 -0.001006259 0.0034636147 0.0031254282 0.004299666 0.005307088
-0.0028888022 -0.0015722176 -0.0012826592 0.0028123108 -0.0053352444 0.002507453 -0.0036888835 0.0036905953
-0.0037954287 -0.0033479475 0.0032669632 0.0033905774 -0.001691462 -0.0047483332 0.0054237414 0.0025558884
0.0030386935 -0.003319288 -0.003012655 -0.0028630137 -0.0013902853 0.0036277936 0.0003318216 -0.004888084
-0.0036300542 -0.0047904737 0.00053535984 -0.0047572926 0.003738742 -0.0070493864 0.008279999 -0.005197273
-0.0033236018 -0.003171941 0.0015223218 -0.0069244015 -0.0033418136 -0.0028857414 0.006373517 0.0048915995
0.005529774 0.0016451451 -0.0030015304 -0.0037462108 -0.0021451816 -0.0038834019 -0.0011962908 0.003982336
0.0006877798 0.0049877996 0.0056861183 -0.005816972 -0.0012909109 0.0054775113 -0.003891926 -0.0036057879
0.0010576809 -0.0051180543 -0.0034728316 0.0032448878 -0.0032629133 -0.0014125879 -0.0014558109 -0.001663773
0.0031974274 -0.0018705344 -0.0041217003 -0.003868347 -0.0011214586 -0.0056670127 0.0008286118 -0.0036775537
0.005417625 -0.0022925285 -0.0047301864 0.0056054033 -0.0036839321 0.0031487742 0.003146447 -0.0043221693
0.003180135 0.006367896 -0.004776659 -0.003953987 -0.0028244453 0.0033631762 0.0037800113 0.002127526
0.004822262 -0.003905303 -0.0022197578 0.0030622673 -0.0034900906 -0.0016305218 -0.0026360455 0.0037906745
-0.001973075 0.0070679393 -0.0032336342 0.00083722273 0.006303597 0.0029464548 0.0031785097 -0.0038032115
00000000: c50f 893a 56f3 273b eee3 88ba b721 84bb
00000010: ae1b c23b bdf8 953b f02d 60bb 3415 9fbb
00000020: 16c0 adbb 0c73 853b ff17 2d3b e2d6 60bb
00000030: 1fd2 5f3b 3666 abbb bd64 c039 08bd 94bb
00000040: df0e 7abb cb52 95bb 220e 823b 73e4 83ba
00000050: d0fd 623b fcd3 4c3b 36e4 8c3b 15e7 ad3b
00000060: 0f52 3dbb de12 ceba e71e a8ba bf4e 383b
00000070: 46d3 aebb 1554 243b 32c1 71bb eadd 713b
00000080: babc 78bb 3d69 5bbb 8c1a 563b 7334 5e3b
00000090: 0cb4 ddba e897 9bbb a4b9 b13b b180 273b
000000a0: d124 473b 6988 59bb f76f 45bb 66a1 3bbb
000000b0: 3c3a b6ba 47c0 6d3b 57f8 ad39 382c a0bb
000000c0: 34e6 6dbb 68f9 9cbb 6457 0c3a 10e3 9bbb
000000d0: af05 753b 8afe e6bb d5a8 073c e34d aabb
000000e0: c9d0 59bb 57e0 4fbb a588 c73a 17e6 e2bb
000000f0: 5402 5bbb b51e 3dbb f0d8 d03b b649 a03b
00000100: 1b33 b53b e9a1 d73a 53b5 44bb fd82 75bb
00000110: 2d96 0cbb ac80 7ebb dccc 9cba 417e 823b
00000120: 1f4c 343a b270 a33b 9e52 ba3b 4c9c bebb
00000130: c833 a9ba b27c b33b af0f 7fbb 154f 6cbb
00000140: e2a1 8a3a 5ab5 a7bb 7298 63bb 2fa8 543b
00000150: 9ad6 55bb 9626 b9ba e8d0 beba f512 daba
00000160: ee8b 513b b82c f5ba 540f 87bb 1884 7dbb
00000170: e8fd 92ba 59b2 b9bb 3237 593a 1d03 71bb
00000180: 5586 b13b 3f3e 16bb aeff 9abb 88ad b73b
00000190: 206e 71bb aa5b 4e3b 9f34 4e3b fca0 8dbb
000001a0: d069 503b c9a9 d03b 8585 9cbb 7290 81bb
000001b0: 541a 39bb bc68 5c3b 11ba 773b f76d 0b3b
000001c0: 1104 9e3b 1df0 7fbb 5b79 11bb 52b0 483b
000001d0: 01ba 64bb 3cb7 d5ba 81c1 2cbb f76c 783b
000001e0: b54e 01bb 2c9a e73b 61eb 53bb 1179 5b3a
000001f0: 678e ce3b 4f19 413b 8b4e 503b 4d3f 79bb

action_model._discrete_distribution.branches.0.weight f4 [2, 128]
0.00915244 -0.00275634 0.004495439 -0.011371595 -0.02500474 0.0027097233 -0.004746066 -0.002469827
-0.004607422 0.007937353 0.0036812618 -0.012111859 0.0042276084 -0.016573235 0.002281085 -0.006353175
0.01500716 0.0005425589 0.01196727 -0.004580678 0.005165465 0.007039524 -0.010477848 0.015571132
-0.009873151 0.007310927 0.0034480696 -0.00026298093 -0.0034780405 -0.00093543116 -0.0074877455 0.0068371287
-0.010718845 0.0027540687 0.00044533427 0.011478127 0.002431451 -0.008567224 -0.009746936 -0.006748941
0.014808792 -0.0050484613 0.0025717744 -0.0008533873 0.0073133917 0.00147999 0.0013544741 -0.017393483
-0.0019620224 -0.0068246573 -0.0028186322 -0.0014345552 -0.010376855 0.0022702108 -0.0067689023 0.007127436
0.010103286 -0.004653578 0.0015117899 0.00069884176 -0.0143030165 0.002776724 0.00063265517 0.008707602
0.01851467 -0.0051484476 0.0049508447 -0.015703797 0.0022781137 -0.0074279187 0.00048319134 0.012584271
0.01621306 -0.012089006 0.019962303 -0.0011061477 -0.0047954083 -0.008621713 0.003530248 -0.009929514
0.006206725 -0.010737281 -0.0014445775 -0.006344677 -0.008150227 -0.0006294684 -0.0136918435 -0.0035226566
0.010752147 -0.0016562921 -0.0021708547 -0.0099495845 0.005482698 0.003901784 -0.012011795 -0.0063128876
0.0051892656 -0.0048291585 0.0045432313 -0.011933655 -0.0022089137 -0.0065222722 0.011552785 0.012444305
7.110123e-05 -0.004478994 -0.015651468 -0.014821579 -0.009644474 0.005087074 -0.011777821 0.014363946
-0.003655924 -0.0042080395 -0.0043197265 0.006714301 -0.016013911 -0.0070417626 -0.0036368784 0.015951142
-0.00229615 0.0038490263 0.0017868943 -0.009718639 0.0037839059 0.0039335447 -0.0027932818 -0.009703182
0.008654199 -0.0026747014 -0.00019500591 0.00065030437 0.008799234 -0.0014064648 0.014480558 0.0065732095
0.0006327452 -0.011500474 -0.0070801014 0.010853731 0.0077477065 -0.0016552248 0.02010971 -0.0068102092
0.015933147 -0.0053393594 -0.0003481639 -0.008851545 -0.007338289 -0.017650146 -0.0065473923 -0.015020695
0.003183548 -0.0061487067 0.010367198 -0.01052774 0.0015028242 -0.015594169 0.0016199012 0.0035956088
0.0021110862 0.019006914 -0.004826382 -0.00052901695 -0.0013460508 -0.004985674 -0.000732321 0.010273527
-0.00779833 0.008219576 0.010428002 0.013800077 0.0013614126 -0.0017998456 0.008078585 0.001216646
0.012604803 -0.00819217 -0.005300276 0.0023639055 -0.013092376 0.011777134 0.025154805 0.008847738
0.018269585 0.010582877 -0.0072785793 0.011441504 -0.0038916909 0.004712023 0.0068187476 0.00924086
-0.003558962 0.013054488 0.006691325 -0.0052086418 0.005497087 0.00018264294 -0.003652984 0.00029097995
0.01311883 -0.0058192625 -0.0030807704 0.017540101 -0.0071023023 0.006489759 0.009640914 -0.00319767
-0.0112571055 0.008885131 -0.0014889565 -0.017366948 0.016151723 -0.005746807 0.013943058 -0.00024156118
-0.01025295 -0.0014245298 0.003090045 0.0004869253 0.0049718525 0.0064157806 0.0138075305 0.0023858408
-0.006000432 0.0050930143 -0.007624193 0.0013942986 -0.0014941588 -0.011574245 -0.0008104837 0.0075730425
-0.011521958 0.0048940084 0.010540421 -0.018640477 0.004255417 -0.006450224 -0.014270562 -0.008194102
-0.001434565 0.0040197605 -0.002496947 -0.015048889 0.0062801805 0.0030265902 0.006784256 -0.007365218
0.008266062 0.013463069 0.0154907815 -0.018759105 0.008715133 -0.009723676 -0.014615004 0.0056504207
00000000: 1ef4 153c b6a3 34bb 7a4e 933b ed4f 3abc
00000010: bed6 ccbc 9d95 313b e384 9bbb d2dc 21bb
00000020: dbf9 96bb ac0b 023c 5341 713b d270 46bc
00000030: c087 8a3b 98c4 87bc 417e 153b 4b2e d0bb
00000040: 97e0 753c 833a 0e3a 5e12 443c 8319 96bb
00000050: 1043 a93b cfab e63b 48ab 2bbc 101e 7f3c
00000060: ffc2 21bc 8090 ef3b 02f9 613b b4e0 89b9
00000070: d6ef 63bb b937 75ba c35b f5bb fe09 e03b
00000080: 189e 2fbc 9b7d 343b c17b e939 c10e 3c3c
00000090: fb58 1f3b 8b5d 0cbc 9db1 1fbc 3826 ddbb
000000a0: 93a0 723c 906d a5bb 378b 283b dab5 5fba
000000b0: 2da5 ef3b 39fc c13a 9c88 b13a c77c 8ebc
000000c0: 4695 00bb 60a1 dfbb cdb8 38bb af07 bcba
000000d0: af03 2abc d1c7 143b abcd ddbb 448d e93b
000000e0: 4188 253c 0b7d 98bb 4027 c63a 7a32 373a
000000f0: 3357 6abc b3f9 353b c5d8 253a 54aa 0e3c
00000100: 14ac 973c 4fb4 a8bb b23a a23b 40a5 80bc
00000110: 684c 153b e665 f3bb d854 fd39 422e 4e3c
00000120: 40d1 843c f710 46bc fc87 a33c 28fc 90ba
00000130: cd22 9dbb 1642 0dbc bc5b 673b 66af 22bc
00000140: c861 cb3b 6ceb 2fbc fa57 bdba 02e7 cfbb
00000150: 8888 05bc e902 25ba c153 60bc 5fdc 66bb
00000160: c629 303c f117 d9ba e644 0ebb 9503 23bc
00000170: 34a8 b33b 13b5 7f3b 1fcd 44bc 57dc cebb
00000180: b70a aa3b eb3d 9ebb 63df 943b 6085 43bc
00000190: 6cc3 10bb c9b8 d5bb e447 3d3c 33e3 4b3c
000001a0: 2f1c 9538 86c4 92bb 8237 80bc 35d6 72bc
000001b0: db03 1ebc 78b1 a63b c3f7 40bc c256 6b3c
000001c0: 3a98 6fbb 98e3 89bb 7e8c 8dbb a403 dc3b
000001d0: 9b2f 83bc 96be e6bb b258 6ebb f8ab 823c
000001e0: 017b 16bb f23f 7c3b 3936 ea3a ed3a 1fbc
000001f0: 68fb 773b f7e4 803b 7e0f 37bb 18fa 1ebc
00000200: 57ca 0d3c 0b4a 2fbb 807a 4cb9 3079 2a3a
00000210: aa2a 103c 2159 b8ba dd3f 6d3c 1464 d73b
00000220: d0de 253a 7c6c 3cbc 3200 e8bb d9d3 313c
00000230: 79e0 fd3b 21f4 d8ba 1ebd a43c 2d28 dfbb
00000240: 3b86 823c cbf5 aebb c589 b6b9 1206 11bc
00000250: 0876 f0bb 0a97 90bc 828b d6bb 5c19 76bc
00000260: 13a3 503b 177b c9bb 2edb 293c 8b7c 2cbc
00000270: 6afa c43a af7e 7fbc dd52 d43a 4ea4 6b3b
00000280: 265a 0a3b 63b4 9b3c a026 9ebb baad 0aba
00000290: f86d b0ba dd5e a3bb 3bf9 3fba 4c52 283c
000002a0: 2289 ffbb 67ab 063c 36da 2a3c b819 623c
000002b0: 6d71 b23a cce8 ebba 0b5c 043c de77 9f3a
000002c0: 6084 4e3c 7438 06bc f0ad adbb c1eb 1a3b
000002d0: 6881 56bc e1f4 403c 7311 ce3c 1af6 103c
000002e0: 19aa 953c ce63 2d3c 2681 eebb 2575 3b3c
000002f0: bd0b 7fbb 5067 9a3b cd6f df3b fa66 173c
00000300: 793d 69bb 7ee2 553c e742 db3b 41ad aabb
00000310: e820 b43b d783 3f39 e766 6fbb ab8e 9839
00000320: 5cf0 563c 83af bebb c0e6 49bb 42b0 8f3c
00000330: 6eba e8bb 0ba8 d43b edf4 1d3c 0090 51bb
00000340: b96f 38bc f192 113c 1729 c3ba 2145 8ebc
00000350: 9e50 843c b64f bcbb 6d71 643c 964b 7db9
00000360: fdfb 27bc 4ab7 baba 5a82 4a3b 024a ff39
00000370: ecea a23b 783b d23b fb38 623c c45b 1c3b
00000380: 469f c4bb 4de3 a63b 5ed4 f9bb e6c0 b63a
00000390: a6d7 c3ba e7a1 3dbc a476 54ba 4927 f83b
000003a0: 98c6 3cbc eb5d a03b bbb1 2c3c eab3 98bc
000003b0: 0671 8b3b 675c d3bb 13cf 69bc 8e40 06bc
000003c0: 0408 bcba 32b8 833b d2a3 23bb 9e8f 76bc
000003d0: f9c9 cd3b c259 463b 774e de3b ed57 f1bb
000003e0: 606e 073c 3494 5c3c 0ccd 7d3c b2ac 99bc
000003f0: ebc9 0e3c 0e50 1fbc c573 6fbc 2a27 b93b

action_model._discrete_distribution.branches.0.bias f4 [2]
0.0036274744 -0.0036274744
00000000: ecba 6d3b ecba 6dbb

exp_avg f4 [128, 6]
0.000105857485 2.4408873e-05 0.0 5.9993516e-05 -1.7859874e-06 0.0 -0.00032618147 8.1164406e-05
0.0 -6.537041e-05 1.7972282e-06 0.0 4.0006257e-06 0.00010544697 0.0 -4.4444998e-05
1.6982423e-05 0.0 -4.542747e-06 7.344053e-06 0.0 5.2032276e-05 -0.0004825535 0.0
6.9719805e-05 8.905226e-05 0.0 0.00015495732 -0.005075164 0.0 1.6515216e-05 0.00012035187
0.0 5.6087098e-05 -0.0011004736 0.0 -2.7970953e-05 1.3875998e-05 0.0 4.215387e-05
2.8496177e-07 0.0 6.2442785e-05 -1.7030945e-05 0.0 4.474179e-05 -3.31348e-06 0.0
-0.00014074301 -3.4689238e-05 0.0 6.129392e-05 -0.0026702576 0.0 0.00033917403 -3.955598e-06
0.0 -0.00021137818 0.0040688547 0.0 -0.00020137694 1.5642756e-05 0.0 6.814919e-05
-0.0027336627 0.0 0.00036016255 -0.0001470597 0.0 0.00037826732 -0.00039879026 0.0
-9.480872e-05 8.4986736e-05 0.0 9.163117e-05 -8.366304e-07 0.0 0.00026118328 -2.78573e-05
0.0 -9.8699435e-05 0.0012585996 0.0 -0.0003251325 0.00011607065 0.0 0.00013699602
-0.000882935 0.0 3.8414782e-05 -2.9007992e-05 0.0 1.1302937e-05 -2.588716e-07 0.0
-6.614741e-05 2.1966585e-05 0.0 7.2400703e-06 -0.000862082 0.0 6.726216e-05 4.42241e-05
0.0 -1.2826266e-06 0.0013780833 0.0 -2.2451992e-05 -2.1999738e-05 0.0 -4.3692136e-05
-3.88924e-06 0.0 -0.00018497433 6.69885e-05 0.0 2.1343756e-05 -0.0016187665 0.0
-8.414038e-05 0.00010614796 0.0 -3.4604938e-07 -0.0023645551 0.0 0.00053194695 -0.00015886912
0.0 0.0004626808 -8.3589075e-06 0.0 -5.3715623e-05 7.072349e-05 0.0 0.00018745624
-3.654517e-06 0.0 -3.416583e-05 -1.5459895e-05 0.0 5.490002e-05 0.0009130667 0.0
-0.00017322296 0.00020562731 0.0 -0.0002571476 -4.8169904e-06 0.0 0.00023910397 -0.0002884335
0.0 0.00021726529 -0.0010557332 0.0 -0.0002451586 4.563806e-05 0.0 0.00028169743
2.5879233e-06 0.0 -9.888716e-06 1.1844649e-05 0.0 1.15872845e-05 0.0010493438 0.0
1.7802104e-05 9.498492e-05 0.0 -0.0004982845 -9.58778e-05 0.0 -8.36698e-05 0.00016439513
0.0 -0.00017009609 0.0017527321 0.0 -1.9046689e-05 1.3124742e-05 0.0 -6.6417974e-06
8.828041e-07 0.0 -2.9099041e-05 8.569317e-05 0.0 -0.00028540217 2.4152466e-06 0.0
3.875839e-05 7.7375094e-05 0.0 1.3484187e-06 -2.7872318e-06 0.0 -0.0001793226 0.00015541776
0.0 -0.00017553227 1.0893989e-05 0.0 -0.00028955625 0.00015859261 0.0 0.00017899585
7.787431e-07 0.0 9.7337164e-05 6.84623e-05 0.0 -3.920828e-05 1.449301e-06 0.0
0.00026589277 -0.00019219186 0.0 0.00017105274 -2.9011233e-06 0.0 0.00024399279 0.00012979205
0.0 -0.0004164255 0.0040068235 0.0 -0.0004516755 0.00023909802 0.0 0.00023282744
-1.541623e-05 0.0 0.00015369192 -9.10538e-06 0.0 -0.0002797905 0.00046154324 0.0
-0.00024422485 5.1347775e-05 0.0 0.00019553603 -0.0015630076 0.0 0.0001447211 -5.106881e-05
0.0 0.00013291108 0.00010832051 0.0 8.411124e-05 -3.1019288e-05 0.0 -0.00017418727
00000000: ceff dd38 a8c1 cc37 0000 0000 8ca1 7b38
00000010: 0fb6 efb5 0000 0000 5603 abb9 cf36 aa38
00000020: 0000 0000 7917 89b8 4a38 f135 0000 0000
00000030: 1d3d 8636 6923 dd38 0000 0000 746a 3ab8
00000040: 7a75 8e37 0000 0000 e66d 98b6 ef6c f636
00000050: 0000 0000 3b3d 5a38 3cff fcb9 0000 0000
00000060: 8936 9238 91c1 ba38 0000 0000 0a7c 2239
00000070: 904d a6bb 0000 0000 288a 8a37 6b65 fc38
00000080: 0000 0000 103f 6b38 c43d 90ba 0000 0000
00000090: 2aa3 eab7 f5cc 6837 0000 0000 60ce 3038
000000a0: d9fc 9834 0000 0000 b7f3 8238 addd 8eb7
000000b0: 0000 0000 22a9 3b38 275d 5eb6 0000 0000
000000c0: 6a94 13b9 497f 11b8 0000 0000 ec8a 8038
000000d0: 7dff 2ebb 0000 0000 2bd3 b139 54ba 84b6
000000e0: 0000 0000 66a5 5db9 0754 853b 0000 0000
000000f0: b628 53b9 9038 8337 0000 0000 51eb 8e38
00000100: 4027 33bb 0000 0000 33d4 bc39 0a34 1ab9
00000110: 0000 0000 2e52 c639 b914 d1b9 0000 0000
00000120: 0bd4 c6b8 e83a b238 0000 0000 1c2a c038
00000130: ce94 60b5 0000 0000 6def 8839 19af e9b7
00000140: 0000 0000 dbfc ceb8 98f7 a43a 0000 0000
00000150: 8c76 aab9 f56a f338 0000 0000 97a6 0f39
00000160: c474 67ba 0000 0000 8f1f 2138 3056 f3b7
00000170: 0000 0000 bfa1 3d37 0bfb 8ab4 0000 0000
00000180: 9fb8 8ab8 e244 b837 0000 0000 bbef f236
00000190: 58fd 61ba 0000 0000 190f 8d38 447d 3938
000001a0: 0000 0000 b726 acb5 cda0 b43a 0000 0000
000001b0: 4957 bcb7 148c b8b7 0000 0000 1342 37b8
000001c0: 5180 82b6 0000 0000 abf5 41b9 2d7c 8c38
000001d0: 0000 0000 5e0b b337 ca2c d4ba 0000 0000
000001e0: 8674 b0b8 c19b de38 0000 0000 aac8 b9b4
000001f0: a7f6 1abb 0000 0000 5b72 0b3a 1b96 26b9
00000200: 0000 0000 f793 f239 3c3d 0cb7 0000 0000
00000210: b64c 61b8 6251 9438 0000 0000 e78f 4439
00000220: 2040 75b6 0000 0000 484d 0fb8 dfaf 81b7
00000230: 0000 0000 7344 6638 de5a 6f3a 0000 0000
00000240: 2fa3 35b9 a99d 5739 0000 0000 c4d1 86b9
00000250: a2a1 a1b6 0000 0000 fcb7 7a39 e438 97b9
00000260: 0000 0000 b5d1 6339 8760 8aba 0000 0000
00000270: a188 80b9 7e6b 3f38 0000 0000 cab0 9339
00000280: 2fac 2d36 0000 0000 b6e7 25b7 61b8 4637
00000290: 0000 0000 0267 4237 238a 893a 0000 0000
000002a0: ba55 9537 a432 c738 0000 0000 4f9f 02ba
000002b0: 0012 c9b8 0000 0000 e277 afb8 7b61 2c39
000002c0: 0000 0000 d25b 32b9 eebb e53a 0000 0000
000002d0: 74c6 9fb7 5632 5c37 0000 0000 9bdc deb6
000002e0: d6f9 6c35 0000 0000 b719 f4b7 2cb6 b338
000002f0: 0000 0000 08a2 95b9 9f15 2236 0000 0000
00000300: 8190 2238 7044 a238 0000 0000 50fb b435
00000310: 470c 3bb6 0000 0000 8b08 3cb9 a3f7 2239
00000320: 0000 0000 160f 38b9 54c5 3637 0000 0000
00000330: 95cf 97b9 e14b 2639 0000 0000 d5b0 3b39
00000340: d10a 5135 0000 0000 7e21 cc38 6b93 8f38
00000350: 0000 0000 9273 24b8 9a85 c235 0000 0000
00000360: 8667 8b39 1c87 49b9 0000 0000 9f5c 3339
00000370: ebb0 42b6 0000 0000 51d8 7f39 ca18 0839
00000380: 0000 0000 af53 dab9 ac4b 833b 0000 0000
00000390: dcce ecb9 63b6 7a39 0000 0000 2423 7439
000003a0: 1a52 81b7 0000 0000 5c28 2139 4fc3 18b7
000003b0: 0000 0000 d8b0 92b9 49fb f139 0000 0000
000003c0: 4e0b 80b9 415e 5738 0000 0000 ce08 4d39
000003d0: d5dd ccba 0000 0000 46c0 1739 b832 56b8
000003e0: 0000 0000 0c5e 0b39 222a e338 0000 0000
000003f0: e164 b038 b51a 02b8 0000 0000 0aa6 36b9

exp_avg_sq f4 [128, 6]
3.329633e-09 5.334557e-10 0.0 2.440344e-09 2.487816e-12 0.0 5.353442e-08 9.533782e-09
0.0 7.628478e-09 3.0598603e-12 0.0 1.0004177e-09 3.369224e-10 0.0 1.3443546e-09
1.2098107e-10 0.0 1.6811466e-08 3.3652792e-09 0.0 4.2860604e-09 7.4875913e-07 0.0
7.0751646e-08 1.8288128e-08 0.0 6.0763355e-08 1.4275307e-05 0.0 5.6822222e-09 1.2669955e-09
0.0 3.68685e-09 7.835996e-07 0.0 1.5689469e-10 3.0059073e-11 0.0 3.8381495e-10
7.2733235e-14 0.0 4.5542042e-10 1.04023075e-10 0.0 1.2366502e-09 7.1901586e-12 0.0
2.354066e-08 6.6707684e-09 0.0 1.9075442e-08 5.2652667e-06 0.0 1.0592585e-07 2.3384773e-08
0.0 1.1232679e-07 1.24742355e-05 0.0 1.7289612e-08 4.5895243e-09 0.0 1.7633415e-08
3.524502e-06 0.0 1.3475218e-08 2.8930673e-09 0.0 8.813386e-09 4.567683e-07 0.0
8.614545e-09 1.2939148e-09 0.0 4.8170765e-09 2.2441562e-11 0.0 1.1385396e-07 2.1750404e-08
0.0 5.0918636e-08 1.9988767e-07 0.0 3.2240397e-08 6.078421e-09 0.0 1.1939447e-08
8.3444814e-07 0.0 2.2039659e-10 1.6837816e-10 0.0 6.422415e-11 4.7285895e-13 0.0
3.0007683e-09 7.67429e-10 0.0 2.6285985e-09 5.947318e-07 0.0 1.0073137e-08 2.8189997e-09
0.0 8.923561e-09 1.8532982e-06 0.0 1.220984e-09 3.065783e-10 0.0 2.9462174e-10
5.9746375e-12 0.0 9.984591e-09 2.0522088e-09 0.0 5.0173607e-09 1.3478252e-06 0.0
2.5790344e-08 8.023095e-09 0.0 2.0917373e-08 4.2338384e-06 0.0 2.4106999e-08 4.0076173e-09
0.0 1.0489557e-08 1.6146692e-11 0.0 8.676273e-08 1.825192e-08 0.0 7.2290267e-09
4.0065402e-11 0.0 6.846226e-08 1.3300614e-08 0.0 6.4571466e-08 1.7987897e-07 0.0
2.3770705e-08 1.008809e-08 0.0 5.722548e-09 1.590438e-11 0.0 1.909073e-08 1.1186099e-08
0.0 7.619925e-09 2.0405884e-07 0.0 9.566895e-08 1.790826e-08 0.0 7.190877e-08
9.247662e-11 0.0 2.2359332e-08 5.821385e-09 0.0 2.6074684e-08 1.765599e-06 0.0
1.6295462e-07 3.5085396e-08 0.0 1.0388258e-07 2.182807e-09 0.0 3.16048e-08 6.89585e-09
0.0 3.6371166e-08 5.339468e-07 0.0 2.1604087e-11 9.311031e-12 0.0 4.3525457e-12
1.9835828e-13 0.0 3.1250764e-08 8.226698e-09 0.0 8.8637435e-09 1.8879825e-11 0.0
8.516401e-10 1.8610581e-10 0.0 7.7744783e-10 4.9287597e-12 0.0 3.947586e-09 2.4283173e-09
0.0 1.4303022e-09 1.8834297e-11 0.0 5.9010457e-08 8.593714e-09 0.0 3.9401655e-08
3.371721e-12 0.0 7.2137896e-10 1.8208839e-10 0.0 2.6767366e-10 9.52222e-11 0.0
4.371868e-09 2.4773994e-09 0.0 2.8145493e-09 1.804675e-11 0.0 9.141283e-08 1.9682178e-08
0.0 2.2553072e-08 6.263749e-06 0.0 1.673825e-07 2.9395355e-08 0.0 6.5078304e-08
1.4904919e-10 0.0 3.822966e-08 8.296462e-09 0.0 8.592778e-09 4.7505128e-07 0.0
8.368124e-08 1.4763316e-08 0.0 1.2240315e-07 1.6893131e-06 0.0 2.086722e-09 5.3548116e-10
0.0 2.0966924e-09 1.3058896e-07 0.0 1.04618124e-07 1.8996314e-08 0.0 1.4017554e-07
00000000: 86cf 6431 9ca2 1230 0000 0000 fcb2 2731
00000010: 8210 2f2c 0000 0000 b8ed 6533 04ca 2332
00000020: 0000 0000 670e 0332 8b51 572c 0000 0000
00000030: 127f 8930 9d39 b92f 0000 0000 46c4 b830
00000040: 2505 052f 0000 0000 ce68 9032 9e42 6731
00000050: 0000 0000 9644 9331 56fe 4835 0000 0000
00000060: 21f0 9733 0518 9d32 0000 0000 027d 8233
00000070: fa7f 6f37 0000 0000 5b3d c331 7122 ae30
00000080: 0000 0000 c05b 7d31 8e58 5235 0000 0000
00000090: ee81 2c2f 8233 042e 0000 0000 2701 d32f
000000a0: dbc7 a329 0000 0000 ba5e fa2f c9bf e42e
000000b0: 0000 0000 c3f6 a930 31fb fc2c 0000 0000
000000c0: 7536 ca32 b334 e531 0000 0000 57db a332
000000d0: 4cac b036 0000 0000 5a79 e333 a9df c832
000000e0: 0000 0000 4e38 f133 6f48 5137 0000 0000
000000f0: 4284 9432 e2b1 9d31 0000 0000 4a78 9732
00000100: 7c86 6c36 0000 0000 a380 6732 61cf 4631
00000110: 0000 0000 ae69 1732 c239 f534 0000 0000
00000120: 2bff 1332 94d5 b130 0000 0000 7483 a531
00000130: e865 c52d 0000 0000 e07f f433 a5d5 ba32
00000140: 0000 0000 a2b1 5a33 b4a0 5634 0000 0000
00000150: b178 0a33 5bda d031 0000 0000 3e1e 4d32
00000160: d7fe 5f35 0000 0000 2054 722f 3d22 392f
00000170: 0000 0000 fb3a 8d2e 1419 052b 0000 0000
00000180: 1336 4e31 04f3 5230 0000 0000 cba2 3431
00000190: a8a5 1f35 0000 0000 200e 2d32 5eb8 4131
000001a0: 0000 0000 3c4e 1932 d7be f835 0000 0000
000001b0: 8ecf a730 0f8b a82f 0000 0000 53f8 a12f
000001c0: c036 d22c 0000 0000 b288 2b32 d706 0d31
000001d0: 0000 0000 2c65 ac31 ece6 b435 0000 0000
000001e0: 9189 dd32 f2d5 0932 0000 0000 caad b332
000001f0: 6510 8e36 0000 0000 da13 cf32 60b3 8931
00000200: 0000 0000 8f35 3432 1e07 8e2d 0000 0000
00000210: 5152 ba33 66c8 9c32 0000 0000 3163 f831
00000220: a235 302e 0000 0000 8705 9333 b880 6432
00000230: 0000 0000 8aaa 8a33 c124 4134 0000 0000
00000240: 5530 cc32 e44f 2d32 0000 0000 11a0 c431
00000250: 7be5 8b2d 0000 0000 f6fc a332 fc2c 4032
00000260: 0000 0000 c9e8 0232 441b 5b34 0000 0000
00000270: 9072 cd33 aed4 9932 0000 0000 446c 9a33
00000280: b55b cb2e 0000 0000 b110 c032 7205 c831
00000290: 0000 0000 d6fa df32 85f9 ec35 0000 0000
000002a0: a0f8 2e34 cdb0 1633 0000 0000 0d16 df33
000002b0: 5900 1631 0000 0000 d8bd 0733 8af0 ec31
000002c0: 0000 0000 8536 1c33 8b54 0f35 0000 0000
000002d0: 1408 be2d 28cd 232d 0000 0000 3f24 992c
000002e0: e254 5f2a 0000 0000 9438 0633 6755 0d32
000002f0: 0000 0000 2847 1832 9611 a62d 0000 0000
00000300: d818 6a30 21a0 4c2f 0000 0000 07b4 5530
00000310: 526a ad2c 0000 0000 55a3 8731 69df 2631
00000320: 0000 0000 4994 c430 11ab a52d 0000 0000
00000330: af72 7d33 8ea3 1332 0000 0000 943a 2933
00000340: 8743 6d2c 0000 0000 884a 4630 5335 482f
00000350: 0000 0000 b827 932f 5565 d12e 0000 0000
00000360: 5c37 9631 df3e 2a31 0000 0000 136a 4131
00000370: abbd 9e2d 0000 0000 bc4e c433 9111 a932
00000380: 0000 0000 bbba c132 322d d236 0000 0000
00000390: c0b9 3334 1281 fc32 0000 0000 2dc1 8b33
000003a0: 9ee1 232f 0000 0000 f531 2433 3a88 0e32
000003b0: 0000 0000 709f 1332 8d0a ff34 0000 0000
000003c0: 40b4 b333 c0a1 7d32 0000 0000 ec6d 0334
000003d0: 5bbc e235 0000 0000 0066 0f31 2331 1330
000003e0: 0000 0000 6715 1031 0538 0c34 0000 0000
000003f0: 6caa e033 562d a332 0000 0000 2983 1634

exp_avg f4 [128]
-2.1171496e-05 6.52363e-05 -8.0012273e-07 9.0854934e-07 -1.394397e-05 -3.3030449e-06 5.594192e-06 -1.2488557e-05
2.81486e-05 -6.783479e-05 4.0275387e-05 -7.2032504e-05 1.8961744e-05 -5.223666e-05 6.50265e-05 -7.6829565e-06
1.3229484e-05 -1.345243e-05 4.4903986e-06 3.699487e-05 1.6828088e-05 -0.0001063894 1.0743135e-05 6.8331456e-06
3.464458e-05 -4.7820806e-05 4.903173e-05 1.9777563e-06 -3.5604342e-06 1.6733953e-05 3.8093378e-06 5.819812e-06
-7.751679e-06 3.5864527e-05 5.791125e-05 -1.9467436e-05 -5.3178548e-05 -4.8798567e-05 9.033508e-05 -3.0738374e-05
4.8844966e-05 -2.8944214e-05 -1.6822258e-05 2.8791872e-05 -1.4144676e-05 -3.674874e-05 3.8477615e-06 5.5314063e-06
1.2566543e-05 -8.561964e-06 -1.1332025e-05 7.221866e-05 -6.839505e-05 -2.9568087e-05 -1.9823456e-05 8.570198e-05
1.1154685e-05 6.7707166e-05 -2.0010382e-05 -1.1627291e-05 1.7830977e-06 -2.3646871e-06 3.7755306e-06 1.5928328e-05
1.2371098e-06 -4.274301e-05 -6.794056e-08 2.3844411e-06 5.2137057e-06 7.068346e-05 5.207625e-05 -2.3082292e-05
-1.7446198e-06 -1.0534294e-06 1.2344863e-05 -6.590681e-05 5.0778e-05 3.0887284e-05 4.1606863e-06 -7.343728e-06
1.176439e-05 -3.744319e-05 2.4195377e-05 1.6981625e-05 1.4567332e-05 3.0393947e-05 4.352994e-06 1.5946554e-05
-4.684944e-06 -4.33029e-05 -2.2998134e-05 0.00013867176 -0.000104328945 2.86927e-05 2.3788281e-05 -6.200026e-06
3.1408897e-05 3.234736e-06 -8.918378e-06 -3.029027e-06 9.213057e-06 2.898974e-05 9.265225e-05 1.51049e-05
3.9284037e-05 -1.8108218e-05 -3.424126e-05 5.5238568e-05 1.2745858e-05 -3.015291e-07 -1.6482918e-06 2.2779888e-05
1.8948676e-05 7.860761e-06 -9.885043e-06 2.632746e-05 5.722859e-07 6.372151e-05 5.9131868e-05 5.7571466e-05
2.800315e-05 5.697976e-05 -2.3004955e-05 4.210476e-05 1.6452701e-05 -7.355218e-05 -3.5077164e-06 -4.3997185e-05
00000000: 7199 b1b7 79cf 8838 04c8 56b5 09e3 7335
00000010: e5f0 69b7 e1a9 5db6 beb5 bb36 f285 51b7
00000020: a920 ec37 8742 8eb8 5eed 2838 2810 97b8
00000030: 0910 9f37 b018 5bb8 d65e 8838 0ce6 00b7
00000040: 33f4 5d37 bfb1 61b7 3bac 9636 f02a 1b38
00000050: 0b2a 8d37 601d dfb8 6a3d 3437 4648 e536
00000060: 564f 1138 3393 48b8 6ba7 4d38 98b9 0436
00000070: cbef 6eb6 e45f 8c37 eda3 7f36 ce47 c336
00000080: 350d 02b7 3e6d 1638 bbe5 7238 004e a3b7
00000090: 080c 5fb8 10ad 4cb8 4772 bd38 14ed 00b8
000000a0: e2de 4c38 3acd f2b7 861d 8db7 1386 f137
000000b0: ec4e 6db7 a922 1ab8 051c 8136 6b9a b936
000000c0: e4d4 5237 5ba5 0fb7 ad1e 3eb7 1974 9738
000000d0: 506f 8fb8 fc08 f8b7 8c4a a6b7 e6ba b338
000000e0: 0225 3b37 02fe 8d38 f8db a7b7 d612 43b7
000000f0: c552 ef35 04b1 1eb6 1f5f 7d36 d39d 8537
00000100: c50a a635 f546 33b8 b8e6 91b3 6304 2036
00000110: 64f1 ae36 e53b 9438 736c 5a38 d8a0 c1b7
00000120: ae28 eab5 8f63 8db5 c81c 4f37 7337 8ab8
00000130: 76fa 5438 f88c 0138 069c 8b36 256a f6b6
00000140: ac5f 4537 520c 1db8 2df7 ca37 c373 8e37
00000150: 3766 7437 81f6 fe37 ef0f 9236 f7c4 8537
00000160: 5d33 9db6 23a0 35b8 1eec c0b7 6b68 1139
00000170: 2dcb dab8 1bb1 f037 f28c c737 d109 d0b6
00000180: 0cbd 0338 5714 5936 24a0 15b7 4a46 4bb6
00000190: c791 1a37 fe2e f337 4c4e c238 0d6b 7d37
000001a0: eac4 2438 1ae7 97b7 469e 0fb8 f6af 6738
000001b0: 0bd7 5537 d8e1 a1b4 e03a ddb5 7017 bf37
000001c0: f9f3 9e37 b6e1 0337 f0d7 25b7 cad9 dc37
000001d0: 309f 1935 3aa2 8538 5c04 7838 e478 7138
000001e0: 4fe8 ea37 8dfd 6e38 c4fa c0b7 a499 3038
000001f0: e803 8a37 0740 9ab8 1c66 6bb6 9e89 38b8

exp_avg_sq f4 [128]
1.3318535e-10 2.141377e-09 4.0016712e-11 6.7245864e-10 2.8300664e-09 2.2728888e-10 6.275786e-12 1.821682e-11
9.416262e-10 4.237034e-09 6.915845e-10 5.390088e-10 3.445818e-10 4.5541575e-09 1.289616e-09 8.815866e-12
1.2003074e-10 4.0292544e-10 4.8839353e-11 3.993837e-10 1.0316138e-09 9.642797e-10 3.4705099e-09 2.7384905e-09
9.508281e-10 7.6362916e-10 3.8267594e-09 8.9437335e-10 6.518186e-09 1.2641919e-09 8.6416334e-13 1.2500306e-09
3.4065608e-11 1.5790341e-10 2.3604172e-09 2.8855163e-11 1.7487475e-10 3.6565138e-09 6.6953003e-09 1.5291866e-09
3.3472487e-09 8.346888e-11 4.1847255e-09 2.738899e-09 2.5321908e-10 9.04539e-10 1.5100513e-11 2.1813487e-09
6.0110267e-10 4.8323203e-09 5.564566e-09 2.6502165e-09 1.5718096e-09 6.18314e-11 1.8732722e-09 5.7554432e-09
1.8346476e-10 5.989937e-09 2.0771708e-10 5.6375655e-12 2.5536417e-11 2.1404736e-10 4.9233386e-12 1.9940845e-09
8.8411e-12 7.0659596e-11 1.3336679e-13 1.2183206e-09 1.2335319e-09 2.252179e-09 1.3377921e-09 2.792433e-10
4.6274593e-09 7.9895644e-13 7.9883994e-10 1.5918069e-09 3.5430805e-09 3.228763e-10 8.930298e-11 1.7701762e-10
1.6247887e-11 1.7639489e-09 6.5338215e-09 2.2956145e-10 2.0625758e-10 3.1157754e-10 1.5457392e-10 1.9189915e-11
1.258752e-09 2.787182e-10 9.532177e-10 6.518861e-09 8.6945134e-10 6.313505e-10 4.901294e-10 7.7502305e-10
1.1413256e-09 4.742014e-10 2.9532085e-10 9.904965e-13 3.6034884e-09 2.3289481e-09 1.1324257e-08 3.104279e-10
3.5858064e-10 3.8677983e-10 8.7129737e-10 4.0699115e-09 3.6354658e-10 6.172427e-12 1.3738592e-10 2.7714622e-10
1.3423221e-10 4.8723164e-10 3.0390246e-11 5.9963995e-10 9.328727e-10 3.5830514e-09 1.749482e-09 8.271746e-10
2.6588853e-10 8.6880647e-10 3.973179e-09 6.5809097e-10 1.13033284e-10 7.24734e-10 3.2433586e-10 9.986972e-10
00000000: 5870 122f 8127 1331 d0fe 2f2e 12d8 3830
00000010: 0e7b 4231 22e8 792f 41cf dc2c a23c a02d
00000020: 876a 8130 5895 9131 ef19 3e30 5f29 1430
00000030: 946f bd2f cb7a 9c31 543e b130 2117 1b2d
00000040: a6f9 032f b782 dd2f 39cc 562e 4290 db2f
00000050: afc8 8d30 9387 8430 db7d 6e31 0930 3c31
00000060: 4aae 8230 a0e7 5130 887c 8331 eed7 7530
00000070: 92f6 df31 ccbf ad30 883d 732b 8bcd ab30
00000080: 77d2 152e dc9d 2d2f e634 2231 0dd0 fd2d
00000090: de46 402f 1246 7b31 7c0c e631 782b d230
000000a0: 6c05 6631 cd8c b72e 3cc9 8f31 3937 3c31
000000b0: 6b35 8b2f 46a3 7830 55d3 842d b1e6 1531
000000c0: d73a 2530 8a09 a631 7132 bf31 1a1f 3631
000000d0: 2207 d830 fcf7 872e f4ba 0031 6ac1 c531
000000e0: bdb8 492f 0bd0 cd31 2963 642f ad5a c62c
000000f0: e69e e02d fa58 6b2f 7e39 ad2c 4e08 0931
00000100: c688 1b2d d161 9b2e 5c28 162a d871 a730
00000110: 0c89 a930 c1c4 1a31 60dd b730 0084 992f
00000120: 90ff 9e31 e1e2 602b 5d95 5b30 bac6 da30
00000130: 887a 7331 cd80 b12f 1c61 c42e 08a2 422f
00000140: fdea 8e2d 6f6f f230 1a80 e031 ce67 7c2f
00000150: 59c8 622f a44a ab2f b1f4 292f d9cb a82d
00000160: 6600 ad30 193a 992f 5e02 8330 82fc df31
00000170: 33fe 6e30 588b 2d30 cab9 0630 6609 5530
00000180: d3dc 9c30 f558 0230 b75a a22f 6666 8b2b
00000190: 3da1 7731 4a0b 2031 9c8c 4232 d8a8 aa2f
000001a0: bd21 c52f 6ca2 d42f 1a80 6f30 52d7 8b31
000001b0: a2dc c72f 482c d92c b30e 172f dd5c 982f
000001c0: 0297 132f e1ed 0530 60a8 052e e9d3 2430
000001d0: 8a36 8030 b539 7631 6d72 f030 3d5f 6330
000001e0: 7c2c 922f d2d0 6e30 7484 8831 09e5 3430
000001f0: 1590 f82e 9f36 4730 374e b22f 8942 8930
