ML-Game/results/ppo/My Behavior/My Behavior-268494.onnx (onnx, 187731 bytes, 6 tensors)

network_body._body_endoder.seq_layers.0.weight f4 [128, 225]
-0.02209197 0.020888578 0.09019704 -0.08057513 -0.1068788 -0.058349356 0.012090867 -0.001532683
0.03993897 -0.12265526 -0.03444029 -0.09042281 -0.015793955 0.029416025 -0.08006766 -0.045369286
0.016428368 0.0042341943 0.2083692 0.036517207 0.052033227 -0.042122357 -0.08119346 -0.036796547
-0.03771597 0.10742087 -0.053419717 -0.09094647 -0.0021177982 -0.020671459 0.085505016 0.1858137
0.009447114 -0.011416305 0.031228842 0.0074979416 0.054323345 -0.08868366 0.027739726 0.030991964
-0.025386218 0.02922832 0.047407247 -0.16146566 -0.030591222 0.078549966 -0.021459484 0.045133315
-0.027438385 0.01615223 0.034861494 -0.054401357 -0.0021683208 0.0057921847 -0.20527075 0.14259848
-0.083215356 -0.079639606 0.04879187 0.08584514 0.013277209 -0.04326743 0.013201814 0.016112702
-0.0617475 0.04680735 0.03227006 0.046567604 0.00082133256 0.101811334 -0.018038206 -0.080748655
-0.07019018 0.06328536 0.014778366 -0.078891344 -0.007551969 0.07901901 0.023426142 0.06647953
-0.050712083 -0.07732443 0.04826669 -0.07020022 0.11071938 -0.017662078 -0.094902344 0.020572646
0.07782724 -0.07223891 0.02259416 0.0064868797 -0.079817876 -0.004769502 0.072937064 -0.063964
0.10186006 -0.008487611 -0.18998267 0.060279988 0.024260795 0.021811275 -0.14267632 -0.025907103
-0.061462473 0.05794021 -0.017388515 -0.121717185 -0.07355089 -0.06116421 -0.0236368 -0.020901764
0.11552128 -0.040057573 -0.06947474 0.047688577 -0.048980955 -0.109929085 0.006803782 -0.014461944
0.078651175 0.07529928 -0.032444168 -0.10166173 0.020770865 -0.10672108 0.072075956 -0.09236435
-0.019646648 0.10870102 -0.036534894 -0.077425115 0.00775198 0.07041997 -0.028402595 -0.005755529
-0.08894239 0.056512676 -0.012076666 0.045552187 -0.017983146 -0.10115128 0.07607954 0.004805071
0.061811835 0.1060198 0.00094691163 -0.04163004 -0.106896654 -0.086575314 -0.0072565796 0.06098363
-0.052306753 -0.10486572 0.11548432 -0.0017358693 0.02952529 0.065468445 -0.058537915 0.053724002
-0.04584163 -0.042879365 0.08732113 -0.017676022 -0.031197235 0.025852568 0.015530885 -0.07649376
-0.043715134 -0.0015586778 -0.06524174 0.078945555 -0.018848551 -0.010764847 -0.10921074 -0.0545147
-0.016245471 0.05598648 -0.048593786 -0.01646203 0.04036776 -0.09429156 -0.16586012 -0.004233458
0.058888208 -0.16078779 -0.018364774 0.016937966 -0.043025557 -0.05383511 0.010832327 -0.09699872
-0.16821706 0.005856664 3.6499005e-05 0.0072398605 0.031254794 -0.110946186 -0.14145842 0.012219908
0.06309226 -0.12859312 -0.041705854 0.0425296 -0.018972093 0.039324764 -0.18426044 -0.021742135
-0.14194155 0.016343374 -0.016004795 0.04437389 -0.06807285 0.052339386 -0.090435795 -0.10712561
-0.10692921 0.09401017 -0.0020088265 0.00109198 -0.05134681 0.020365288 -0.02766436 -0.039158538
-0.045301784 -0.08908157 0.0032673432 -0.021537358 -0.07086591 -0.02064988 0.113891624 0.025672412
-0.06332691 -0.086392105 -0.09913305 0.046492822 0.09842317 0.042569205 0.07567317 0.009355643
0.008074727 0.014322701 -0.059024885 0.10812667 0.042506594 0.07037243 -0.058509137 0.015317949
0.0169658 -0.0093193725 0.012926364 -0.13051617 0.03800486 0.058851853 -0.024079036 -0.07026446
00000000: 38fa b4bc 861e ab3c 3ab9 b83d 9304 a5bd
00000010: 46e3 dabd bcff 6ebd c618 463c 4fe4 c8ba
00000020: 0c97 233d ae32 fbbd 4311 0dbd 982f b9bd
00000030: 5362 81bc e0f9 f03c 83fa a3bd 25d5 39bd
00000040: c994 863c ffbe 8a3b bc5e 553e 1193 153d
00000050: cb20 553d 7e88 2cbd c248 a6bd fab7 16bd
00000060: 107c 1abd 79ff db3d a2ce 5abd 2542 babd
00000070: c2ca 0abb 3157 a9bc 411d af3d f245 3e3e
00000080: 11c8 1a3c 740b 3bbc a1d3 ff3c 4bb1 f53b
00000090: 2882 5e3d c79f b5bd 6c3e e33c dce2 fd3c
000000a0: c2f6 cfbc 3b70 ef3c 1a2e 423d 4157 25be
000000b0: 719a fabc cede a03d cdcb afbc b6dd 383d
000000c0: 77c6 e0bc ae51 843c edca 0e3d f5d3 5ebd
000000d0: 631a 0ebb 5ecc bd3b 7f32 52be 5605 123e
000000e0: d06c aabd 171a a3bd fcd9 473d 94cf af3d
000000f0: a788 593c 3039 31bd 6c4c 583c c9fe 833c
00000100: f2ea 7cbd 10b9 3f3d 9c2d 043d acbd 3e3d
00000110: b24e 573a 7682 d03d dcc4 93bc 8d5f a5bd
00000120: debf 8fbd c19b 813d f620 723c c991 a1bd
00000130: 8276 f7bb b8d4 a13d 2ee8 bf3c 6b26 883d
00000140: 79b7 4fbd 455c 9ebd 4bb3 453d 22c5 8fbd
00000150: d8c0 e23d 10b0 90bc 295c c2bd f787 a83c
00000160: e363 9f3d fef1 93bd 6317 b93c e48f d43b
00000170: 8e77 a3bd 7c49 9cbb 0760 953d 8fff 82bd
00000180: 029c d03d 9f0f 0bbc d18a 42be 26e8 763d
00000190: 93be c63c 8fad b23c be19 12be 223b d4bc
000001a0: 13c0 7bbd b752 6d3d 5c72 8ebc dc46 f9bd
000001b0: d9a1 96bd 5387 7abd f6a1 c1bc 2d3a abbc
000001c0: 6c96 ec3d 6913 24bd c648 8ebd 1955 433d
000001d0: 41a0 48bd 8022 e1bd 43f2 de3b caf1 6cbc
000001e0: de13 a13d 8236 9a3d 2de4 04bd 0634 d0bd
000001f0: a927 aa3c 9590 dabd 8f9c 933d 8529 bdbd
00000200: 02f2 a0bc a49e de3d 9da5 15bd 0f91 9ebd
00000210: 5204 fe3b 5838 903d 8fac e8bc e098 bcbb
00000220: 6e27 b6bd d679 673d 35dd 45bc ee94 3a3d
00000230: 6451 93bc 6728 cfbd 97cf 9b3d db73 9d3b
00000240: 682e 7d3d e920 d93d 2a3a 783a 4384 2abd
00000250: a2ec dabd 664e b1bd 9ac8 edbb f9c9 793d
00000260: 9b3f 56bd d7c3 d6bd 0b83 ec3d 1c86 e3ba
00000270: 05df f13c 5214 863d 74c5 6fbd b30d 5c3d
00000280: 6fc4 3bbd 46a2 2fbd 6cd5 b23d 4ecd 90bc
00000290: 5891 ffbc c4c8 d33c 4175 7e3c c3a8 9cbd
000002a0: a40e 33bd 8c4c ccba 769d 85bd 35ae a13d
000002b0: 4768 9abc 0a5f 30bc e1a9 dfbd ce4a 5fbd
000002c0: 3915 85bc 1452 653d 470a 47bd 61db 86bc
000002d0: aa58 253d ef1b c1bd 3cd7 29be d2b8 8abb
000002e0: c334 713d 8ea5 24be b971 96bc 7dc1 8a3c
000002f0: 913b 30bd 3482 5cbd 137a 313c 44a7 c6bd
00000300: 1841 2cbe 42e9 bf3b 8216 1938 5a3c ed3b
00000310: 0705 003d c137 e3bd 7ada 10be 0236 483c
00000320: 8436 813d eaad 03be c2d3 2abd 8533 2e3d
00000330: 5d6b 9bbc 0113 213d c5ae 3cbe 901c b2bc
00000340: 2059 11be 8ae2 853c 7d1c 83bc 65c1 353d
00000350: c769 8bbd d361 563d 6736 b9bd ac64 dbbd
00000360: b4fd dabd 6788 c03d 84a6 03bb c520 8f3a
00000370: 0851 52bd 1bd5 a63c 5ea0 e2bc b464 20bd
00000380: 5d8e 39bd 6670 b6bd ec20 563b 1d6f b0bc
00000390: 2522 91bd f029 a9bc 0340 e93d f34e d23c
000003a0: 8ab1 81bd 58ee b0bd 4506 cbbd 426f 3e3d
000003b0: 1692 c93d 0c5d 2e3d 89fa 9a3d 6948 193c
000003c0: dc4b 043c c3a9 6a3c 14c4 71bd 8471 dd3d
000003d0: 651b 2e3d 6c1f 903d 47a7 6fbd 22f8 7a3c
000003e0: ddfb 8a3c 48b0 18bc 1ac9 533c 08a6 05be
000003f0: fcaa 1b3d a40e 713d 6641 c5bc d0e6 8fbd

network_body._body_endoder.seq_layers.0.bias f4 [128]
-0.06770636 -0.06673259 0.07410748 0.078028455 0.081701495 -0.07497632 0.074354 0.06880938
-0.08498931 -0.07764779 -0.07822861 0.07374666 0.0764296 -0.074139126 -0.072717324 0.08363096
-0.073145024 -0.075378075 0.08115878 -0.07815727 0.07212919 0.07950138 0.07706548 0.07858688
-0.07709271 0.06820918 -0.063975416 0.07497188 -0.07823781 -0.06389842 0.07656435 0.076682016
0.0744142 -0.07873386 -0.078428015 -0.079632044 0.0564518 -0.06902387 0.07923759 -0.0809862
-0.08130254 0.0756079 0.07325958 -0.0459459 0.07790857 0.07632031 -0.0759638 -0.074434206
-0.080884606 -0.0765341 0.0800193 -0.06427312 -0.079007104 -0.07906611 -0.06517558 0.075090565
-0.079519436 -0.06711856 0.072320096 0.07964444 0.07778366 -0.07256476 0.07589671 0.08177079
-0.077205196 -0.07707271 -0.07895183 -0.07173715 0.07744449 0.07452558 0.07304876 -0.06741225
-0.06887592 -0.08316139 -0.07358876 -0.07423511 -0.061794423 -0.07723781 0.08263813 -0.07906022
-0.06291223 0.080718614 0.07071463 -0.07852255 -0.07780947 -0.073608674 -0.079686455 0.07722016
0.068906195 0.078810036 -0.07993703 0.08094753 0.07553821 0.080075026 -0.07863037 0.07667581
0.0728273 0.08460426 -0.07688027 -0.07545527 0.0760266 -0.08246189 0.0629097 -0.07939436
-0.07611715 0.05991054 0.076378904 -0.07788386 0.07720963 0.08106787 0.076060794 -0.076610565
-0.079460666 0.07443918 -0.07580696 -0.07793002 0.077067345 -0.07820525 -0.07844721 0.07105481
0.07988167 0.054043934 -0.07790722 -0.07347911 0.07932432 0.08011698 0.0751417 0.07723297
00000000: a2a9 8abd 19ab 88bd aac5 973d 62cd 9f3d
00000010: 1d53 a73d 2f8d 99bd e946 983d efeb 8c3d
00000020: e00e aebd ce05 9fbd 5236 a0bd 7d08 973d
00000030: 1f87 9c3d 41d6 97bd d2ec 94bd b546 ab3d
00000040: 0fcd 95bd d25f 9abd 9336 a63d eb10 a0bd
00000050: 78b8 933d 9fd1 a23d 82d4 9d3d 28f2 a03d
00000060: c8e2 9dbd 41b1 8b3d 8b05 83bd db8a 993d
00000070: 253b a0bd 2ddd 82bd c5cd 9c3d 760b 9d3d
00000080: 7966 983d 383f a1bd de9e a0bd 2016 a3bd
00000090: 013a 673d 635c 8dbd 5147 a23d 18dc a5bd
000000a0: f281 a6bd 51d8 9a3d 1e09 963d c531 3cbd
000000b0: 878e 9f3d d34d 9c3d e992 9bbd f670 98bd
000000c0: d4a6 a5bd e9bd 9cbd 29e1 a33d a0a1 83bd
000000d0: 7ace a1bd 6aed a1bd c67a 85bd 15c9 993d
000000e0: 16db a2bd 7575 89bd 8f1c 943d a01c a33d
000000f0: 0a4d 9f3d d59c 94bd bc6f 9b3d 7277 a73d
00000100: c21d 9ebd 4cd8 9dbd 7fb1 a1bd edea 92bd
00000110: 379b 9e3d dea0 983d 979a 953d 6f0f 8abd
00000120: d10e 8dbd 8550 aabd b4b5 96bd 9408 98bd
00000130: 261c 7dbd db2e 9ebd 2e3e a93d 53ea a1bd
00000140: 21d8 80bd cd4f a53d d5d2 903d 6ed0 a0bd
00000150: 925a 9fbd 25c0 96bd a732 a3bd 9a25 9e3d
00000160: b11e 8d3d 2867 a13d 07b6 a3bd d2c7 a53d
00000170: c7b3 9a3d 60fe a33d f608 a1bd 3508 9d3d
00000180: 7b26 953d 0045 ad3d 6773 9dbd 4b88 9abd
00000190: d6b3 9b3d c8e1 a8bd cdd6 803d 8399 a2bd
000001a0: 4fe3 9bbd c164 753d 8b6c 9c3d 9381 9fbd
000001b0: 1520 9e3d e906 a63d c3c5 9b3d 00e6 9cbd
000001c0: 46bc a2bd 9273 983d ae40 9bbd c699 9fbd
000001d0: 7cd5 9d3d 132a a0bd eea8 a0bd 2f85 913d
000001e0: 0099 a33d 2c5d 5d3d d28d 9fbd 377c 96bd
000001f0: ca74 a23d 5f14 a43d e4e3 993d 522c 9e3d

network_body._body_endoder.seq_layers.2.weight f4 [128, 128]
0.09529391 0.09517805 -0.029926777 -0.075752944 0.025026787 0.051341385 0.047312394 -0.08486617
0.2855572 -0.010772659 -0.076014325 -0.017878942 -0.113664046 0.15547274 0.1792179 -0.10100497
0.07256738 -0.083790764 -0.103621475 0.054417573 -0.16472282 -0.24664278 0.02065577 -0.053473957
0.04859246 0.055409014 -0.003206159 0.036909264 0.16443524 0.054132357 -0.17971873 0.0794233
-0.02664449 0.3345908 0.12796403 -0.0621312 0.012723321 0.078935154 0.07818233 -0.053150576
-0.0064265095 0.07304753 -0.17303202 -0.0029142578 -0.05172171 0.14975096 -0.0009915353 -0.0014181891
0.06753906 0.17989704 -0.0648907 0.099071376 -0.00064493495 0.06450822 0.08955192 0.056492724
0.0032966526 0.07620795 -0.07644682 -0.035878614 -0.014633682 -0.022837145 -0.031759944 -0.079247296
0.12489301 -0.033692166 0.09225581 0.048476122 -0.118110634 -0.11960605 -0.0503871 0.07474671
0.15978327 0.14762102 0.038157467 0.010487752 0.050081573 0.023003306 -0.071604215 0.025122559
-0.01730333 -0.007757732 0.018798355 0.025239946 0.16225742 0.1666428 0.030213093 -0.0479267
-0.010052295 -0.07971901 0.20376347 -0.14631635 0.060413513 -0.14689621 -0.0007071002 -0.2493901
0.09418932 0.13744688 -0.01522503 0.11759124 0.021893492 0.078301795 0.04237804 0.0148528805
0.13020653 -0.06023622 -0.04338713 0.02880455 -0.039482065 0.02349996 0.001314263 -0.00093516195
0.13113667 -0.0447409 0.121168084 0.068702444 -0.289063 0.061129503 0.004474323 -0.16282189
0.0032089595 -0.012902681 0.04243184 0.09166478 -0.052241337 0.039516926 -0.12914519 -0.24696061
-0.09153327 0.018655002 0.11516425 0.050154433 -0.038666155 -0.16280656 -0.020849748 0.15360586
0.014313868 -0.1269248 -0.13572478 -0.16628355 0.16320276 -0.12231032 -0.24072886 0.11451947
-0.061088476 -0.07194378 0.17139865 -0.01937153 0.18827914 -0.19320957 -0.030286934 0.019398365
-0.12691194 0.006813051 -0.13879211 0.07003647 -0.075269386 0.23380208 -0.13388525 -0.015052094
0.07480622 -0.15790448 -0.015645215 -0.06362059 0.1136928 -0.17414647 -0.035886902 -0.04410977
-0.1382354 0.11389408 0.045508057 0.08752227 0.028714469 0.08263742 -0.13177273 -0.043477356
-0.08157363 0.06206559 0.0039305203 0.0075846086 -0.017521553 -0.034160018 0.059142035 0.1297356
-0.04176287 -0.07835291 -0.006716066 0.0055814567 0.042542297 -0.059607875 0.13986988 -0.0834623
-0.09919242 -0.14054635 -0.16646026 0.15773714 0.02409218 0.17505096 0.00034746726 -0.03929626
-0.14527746 -0.13472807 -0.23177212 -0.08897345 -0.04531388 -0.10606519 -0.036843114 -0.038609426
-0.047873773 0.13151036 0.033485472 -0.17985223 -0.21539636 -0.113219246 -0.13690937 -0.075859696
0.027804205 0.112029955 -0.12055041 0.1025573 0.17913176 0.016182544 -0.048196778 0.06456005
-0.038205393 0.13725764 -0.018020896 -0.108052 -0.014879018 -0.12454592 -0.02550241 -0.049535338
0.0066854423 0.034168545 -0.11332284 -0.093003765 0.12658758 0.032125454 0.03198527 -0.002070417
-0.04244797 -0.1258912 -0.11420913 -0.06168258 -0.0031255279 -0.12967348 -0.121139094 0.010139393
0.20304202 0.07352506 0.054747887 -0.16919345 0.010430537 0.035684083 -0.016785769 0.098618865
00000000: 7429 c33d b6ec c23d 0029 f5bc 5c24 9bbd
00000010: fa04 cd3c 584b 523d a4ca 413d 51ce adbd
00000020: 8e34 923e cf7f 30bc 66ad 9bbd dc76 92bc
00000030: b2c8 e8bd 3f34 1f3e e684 373e b2db cebd
00000040: 359e 943d 7e9a abbd 7f37 d4bd f6e4 5e3d
00000050: 19ad 28be ed8f 7cbe 4a36 a93c 8207 5bbd
00000060: e308 473d 90f4 623d 6c1e 52bb 2b2e 173d
00000070: b661 283e e4b9 5d3d 3008 38be afa8 a23d
00000080: 8c45 dabc 7c4f ab3e 0109 033e 497d 7ebd
00000090: 7a75 503c c1a8 a13d 0f1e a03d 6bb4 59bd
000000a0: 7895 d2bb f299 953d 4e2f 31be 22fd 3ebb
000000b0: 25da 53bd 5158 193e 67f6 81ba 88e2 b9ba
000000c0: eb51 8a3d ee36 383e 6ae5 84bd efe5 ca3d
000000d0: da10 29ba e31c 843d ff66 b73d ea64 673d
000000e0: a70c 583b ea12 9c3d 2690 9cbd 74f5 12bd
000000f0: 1cc2 6fbc f714 bbbc b716 02bd 684c a2bd
00000100: e8c7 ff3d cc00 0abd 9df0 bc3d e68e 463d
00000110: fde3 f1bd 04f4 f4bd b462 4ebd ce14 993d
00000120: 3a9e 233e f729 173e 014b 1c3d d2d4 2b3c
00000130: 5622 4d3d 6e71 bc3c 3ba5 92bd d3cd cd3c
00000140: b7bf 8dbc 9334 febb 02ff 993c 01c4 ce3c
00000150: cf26 263e 69a4 2a3e 7381 f73c ca4e 44bd
00000160: 62b2 24bc b843 a3bd 5fa7 503e f4d3 15be
00000170: 2974 773d f66b 16be b15c 39ba 1e60 7fbe
00000180: 55e6 c03d e0be 0c3e 6772 79bc add3 f03d
00000190: fb59 b33c b15c a03d 9894 2d3d 7f59 733c
000001a0: dc54 053e 41ba 76bd b4b6 31bd 85f7 eb3c
000001b0: f2b7 21bd fd82 c03c 5943 ac3a a825 75ba
000001c0: b148 063e 3c42 37bd f926 f83d deb3 8c3d
000001d0: 1100 94be ee62 7a3d 579d 923b c8ba 26be
000001e0: 684d 523b c465 53bc 02cd 2d3d bfba bb3d
000001f0: 03fb 55bd 80dc 213d a33e 04be 3ee3 7cbe
00000200: cc75 bbbd 60d2 983c 3cdb eb3d bc6e 4d3d
00000210: 6760 1ebd c3b6 26be 17cd aabc db4a 1d3e
00000220: b784 6a3c 93f8 01be 70fb 0abe 3c46 2abe
00000230: a01e 273e d57d fabd a081 76be 2f89 ea3d
00000240: e937 7abd 4357 93bd 2183 2f3e 0bb1 9ebc
00000250: 3fcc 403e bbd8 45be 4e1c f8bc 52e9 9e3c
00000260: 34f5 01be 0440 df3b 851f 0ebe 486f 8f3d
00000270: d626 9abd d069 6f3e 3719 09be 0f9d 76bc
00000280: 0134 993d b6b1 21be 652a 80bc 834b 82bd
00000290: c5d7 e83d 7453 32be 25fe 12bd 72ac 34bd
000002a0: 958d 0dbe 4d41 e93d a866 3a3d e03e b33d
000002b0: 9b3a eb3c cf3d a93d 6eef 06be 5015 32bd
000002c0: 1310 a7bd 7d38 7e3d 98cb 803b 4f88 f83b
000002d0: 5c89 8fbc 60eb 0bbd eb3e 723d 69d9 043e
000002e0: 8b0f 2bbd 7e77 a0bd 7212 dcbb a7e4 b63b
000002f0: d540 2e3d 6327 74bd 0d3a 0f3e 48ee aabd
00000300: 6525 cbbd 62eb 0fbe 8f74 2abe d885 213e
00000310: f75c c53c 8f40 333e 442c b639 1df5 20bd
00000320: 9dc3 14be 28f6 09be ac55 6dbe b637 b6bd
00000330: 0c9b 39bd b538 d9bd cee8 16bd eb24 1ebd
00000340: 4a17 44bd a7aa 063e 1028 093d 2f2b 38be
00000350: dd90 5cbe 7edf e7bd f831 0cbe 545c 9bbd
00000360: a5c5 e33c f66f e53d 22e3 f6bd 9009 d23d
00000370: 516e 373e 4191 843c fc69 45bd 0f38 843d
00000380: 427d 1cbd 448d 0c3e 8fa0 93bc 5e4a ddbd
00000390: 20c7 73bc ee11 ffbd 6eea d0bc 91e5 4abd
000003a0: 8e11 db3b 51f4 0b3d ce15 e8bd c278 bebd
000003b0: 2da0 013e fb95 033d fd02 033d d5af 07bb
000003c0: ecdd 2dbd 9fe9 00be 7ae6 e9bd dfa6 7cbd
000003d0: a8d5 4cbb 20c9 04be c617 f8bd b21f 263c
000003e0: 3fea 4f3e 4f94 963d 523f 603d 0c41 2dbe
000003f0: d8e4 2a3c 7929 123d 4f82 89bc b0f8 c93d

network_body._body_endoder.seq_layers.2.bias f4 [128]
-0.06262237 0.0637375 0.07216658 0.06966192 -0.065994345 0.06561461 -0.069264635 0.07115059
0.06968049 0.07767859 0.07037517 -0.051366508 -0.063391134 0.05553077 -0.06289253 0.07165744
0.07164223 -0.062203243 -0.06507659 0.070440486 0.06687009 0.07103075 -0.06379454 0.07576028
0.070170596 -0.06817473 0.06412831 0.068254076 -0.06980051 -0.06349192 0.07671632 0.06403715
0.07363091 -0.07103493 -0.06417551 -0.07382521 -0.06285233 -0.06232454 -0.064841114 0.06564369
0.07163712 -0.06467185 0.07240174 -0.061021104 0.064563766 0.06858586 0.07000369 -0.060140938
0.07030136 -0.064702176 0.0677523 -0.057762474 -0.06665104 0.07319543 -0.06130853 -0.06251702
0.06986992 0.07506558 -0.06670107 0.06898897 -0.06319552 0.066904694 0.071449764 -0.06958723
0.0606265 -0.058603827 0.06806903 0.06568118 0.07476478 -0.06906578 0.064342245 -0.047768127
-0.06900991 -0.06532719 0.07194688 0.073595084 -0.070031434 0.07340958 -0.06452921 0.068267874
0.07217914 0.074114114 -0.05793728 -0.068772696 -0.06299481 0.059947334 0.070119165 0.07068884
0.075189345 -0.05317407 0.064455956 -0.06541923 -0.06425432 -0.06096527 -0.06401436 -0.062785596
0.065670885 -0.063853964 0.068140514 -0.06474735 -0.06277404 -0.06816536 0.066145994 0.067717716
-0.06944446 -0.065768465 -0.048926026 -0.052045643 0.0675497 -0.06642099 -0.061324738 0.07053783
0.06632018 0.027042363 0.07278832 -0.06758718 0.06506266 -0.06220909 -0.062004775 0.07943063
0.072252974 0.076558106 -0.06169083 -0.043376464 -0.06350615 0.07507182 -0.07157321 -0.06682162
00000000: 2840 80bd ce88 823d 12cc 933d e9aa 8e3d
00000010: 0b28 87bd f460 863d 9eda 8dbd 67b7 913d
00000020: a5b4 8e3d f415 9f3d db20 903d b065 52bd
00000030: 36d3 81bd 3c74 633d cccd 80bd 23c1 923d
00000040: 29b9 923d d4c8 7ebd e046 85bd 1a43 903d
00000050: 30f3 883d 9278 913d b6a6 82bd 3528 9b3d
00000060: 9ab5 8f3d 319f 8bbd b455 833d cbc8 8b3d
00000070: 92f3 8ebd 0d08 82bd 721d 9d3d e925 833d
00000080: cdcb 963d c37a 91bd 736e 83bd ac31 97bd
00000090: b9b8 80bd 0448 7fbd 6bcb 84bd 3370 863d
000000a0: 7bb6 923d ad72 84bd 5d47 943d 44f1 79bd
000000b0: 023a 843d be76 8c3d 185e 8f3d 5856 76bd
000000c0: 29fa 8f3d 9382 84bd b8c1 8a3d 5898 6cbd
000000d0: 5780 88bd 7ce7 953d a71e 7bbd ec08 80bd
000000e0: f617 8f3d fcbb 993d 929a 88bd 174a 8d3d
000000f0: a76c 81bd 5405 893d 4154 923d c083 8ebd
00000100: 7e53 783d 910a 70bd c767 8b3d db83 863d
00000110: 471e 993d 5c72 8dbd dec5 833d 83a8 43bd
00000120: 1155 8dbd 43ca 85bd e358 933d 05b9 963d
00000130: a46c 8fbd c357 963d e427 84bd 07d0 8b3d
00000140: a8d2 933d 24c9 973d a44f 6dbd b3d8 8cbd
00000150: 6c03 81bd 568b 753d a39a 8f3d 4fc5 903d
00000160: dffc 993d 0ecd 59bd 7c01 843d 84fa 85bd
00000170: c597 83bd b8b6 79bd f619 83bd bc95 80bd
00000180: 757e 863d dec5 82bd 418d 8b3d 429a 84bd
00000190: ad8f 80bd 489a 8bbd 8d77 873d 96af 8a3d
000001a0: e638 8ebd 9eb1 86bd a866 48bd d02d 55bd
000001b0: 7f57 8a3d ba07 88bd a62f 7bbd 2376 903d
000001c0: e0d2 873d f287 dd3c 0b12 953d 266b 8abd
000001d0: 923f 853d f5ce 7ebd b8f8 7dbd 87ac a23d
000001e0: 5ef9 933d 7fca 9c3d 86af 7cbd 85ab 31bd
000001f0: 830f 82bd 41bf 993d fa94 92bd c6d9 88bd

action_model._discrete_distribution.branches.0.weight f4 [2, 128]
-0.07797858 0.057502687 0.050441887 0.050867077 -0.05790658 0.046063144 -0.06940502 0.06093154
0.04905908 0.058986828 0.055255678 -0.036585934 -0.05987174 0.050035514 -0.06630629 0.067049496
0.07275621 -0.06981473 -0.055031795 0.052971993 0.063830584 0.062079098 -0.06393527 0.061959844
0.063133344 -0.057086054 0.06849045 0.060240664 -0.060500577 -0.0559658 0.052583896 0.07013454
0.04627881 -0.060194284 -0.06624544 -0.06920692 -0.05870464 -0.060349137 -0.05736654 0.052543897
0.06345257 -0.056670874 0.06851466 -0.05283553 0.05095881 0.048663434 0.05681293 -0.06613302
0.05757016 -0.058546446 0.061117575 -0.07395319 -0.055419173 0.055163823 -0.05789967 -0.06301491
0.0567323 0.061413586 -0.06910516 0.05731196 -0.058705356 0.056592803 0.061786402 -0.037759494
0.041236524 -0.061599344 0.061873473 0.064262025 0.05986598 -0.05815005 0.064804554 -0.0387277
-0.05520907 -0.05027164 0.054364316 0.05829123 -0.06499148 0.056681328 -0.05721123 0.063905716
0.06717016 0.061803386 -0.045329247 -0.060845938 -0.05008413 0.05092222 0.05253176 0.06392402
0.055923596 -0.04960547 0.06633655 -0.058171265 -0.072102144 -0.06589668 -0.07144291 -0.054068033
0.06388803 -0.06340537 0.061804987 -0.06644888 -0.052799303 -0.058018025 0.06720957 0.05954122
-0.06686186 -0.050723527 -0.047651034 -0.049655158 0.07313013 -0.04603832 -0.07629145 0.054523252
0.06103932 0.034425676 0.05066687 -0.04338389 0.045418248 -0.06659853 -0.05589318 0.05634421
0.04840565 0.0696855 -0.06685205 -0.04286309 -0.062196445 0.048309874 -0.055009555 -0.06781958
0.053494953 -0.074078895 -0.060487915 -0.067928135 0.068786636 -0.07071877 0.06056811 -0.04581139
-0.06922282 -0.055342603 -0.06731653 0.04679182 0.065211765 -0.04400757 0.060835022 -0.06579646
-0.048170246 0.057483263 0.057671014 -0.06447406 -0.066809915 -0.060530756 0.059714515 -0.06066803
-0.070949234 0.06326099 -0.06822433 -0.05311906 0.05704712 0.07285696 -0.059718795 -0.060901154
-0.06834207 0.040120974 0.05646807 0.038437534 0.071362466 0.06878961 0.069098525 -0.07024544
-0.050441403 0.06645905 -0.05360055 0.07872197 -0.050062116 -0.069165565 -0.07307966 0.065655805
-0.058157984 0.059507795 -0.06301346 0.067594625 0.0601022 -0.058255814 0.06695353 0.046368577
-0.057550322 -0.06080597 0.06020789 -0.05946486 0.047723807 -0.060345042 -0.055896778 0.06271002
-0.057940528 0.05118431 -0.05684262 -0.06181344 -0.054580446 0.07169548 -0.07579435 0.04944965
0.061697204 0.07381843 -0.05753306 -0.06698846 0.053460035 -0.061068323 0.054954004 -0.068304054
-0.05669275 -0.05354646 0.05158368 0.05397624 0.05375365 -0.04497009 -0.059294958 -0.053761285
-0.06935419 0.052425444 -0.073496796 0.061792992 0.055992007 0.06731802 0.061882157 0.0692376
-0.079783835 0.049016353 -0.062215187 0.061562043 0.040516578 0.058858357 -0.07015396 -0.050825655
0.057657357 0.06735434 0.055430472 0.06001784 -0.05456253 0.060854316 0.06132245 -0.061824385
-0.07506602 -0.032625325 -0.063357115 0.05505302 -0.040811036 0.063605405 0.07098754 -0.053294156
-0.07305524 -0.045948032 0.058421772 0.04595136 0.060431104 -0.06510015 0.061391115 0.05329233
00000000: 3cb3 9fbd f087 6b3d 279c 4e3d ff59 503d
00000010: 732f 6dbd b5ac 3c3d 3824 8ebd 5a93 793d
00000020: 2df2 483d 2c9c 713d c753 623d 22db 15bd
00000030: 123c 75bd 0af2 4c3d 98cb 87bd 3f51 893d
00000040: 3501 953d 06fb 8ebd 0569 61bd 29f9 583d
00000050: 9cb9 823d a746 7e3d 7ff0 82bd 9bc9 7d3d
00000060: 0e4c 813d 11d3 69bd b944 8c3d eabe 763d
00000070: 74cf 77bd 653c 65bd 3662 573d b3a2 8f3d
00000080: d98e 3d3d 488e 76bd b0ab 87bd 5cbc 8dbd
00000090: 4774 70bd a830 77bd 2df9 6abd 4538 573d
000000a0: 6cf3 813d b81f 68bd 6a51 8c3d 126a 58bd
000000b0: 2fba 503d 4f53 473d adb4 683d c070 87bd
000000c0: b0ce 6b3d 66ce 6fbd 6c56 7a3d c574 97bd
000000d0: 37ff 62bd 76f3 613d 3428 6dbd f60d 81bd
000000e0: 2160 683d d08c 7b3d 0287 8dbd f2bf 6a3d
000000f0: 0775 70bd dbcd 673d bd13 7d3d b3a9 1abd
00000100: a1e7 283d 984f 7cbd 0a6f 7d3d cf9b 833d
00000110: 0836 753d bf2e 6ebd 40b8 843d f0a0 1ebd
00000120: e822 62bd a3e9 4dbd 1ead 5e3d c9c2 6e3d
00000130: 411a 85bd ae2a 683d 5356 6abd 00e1 823d
00000140: 8290 893d 8c25 7d3d 29ab 39bd 9739 79bd
00000150: 0425 4dbd d193 503d 8b2b 573d 99ea 823d
00000160: 2410 653d 1b2f 4bbd 75db 873d fe44 6ebd
00000170: 4aaa 93bd d7f4 86bd a950 92bd 7176 5dbd
00000180: bad7 823d adda 81bd 3a27 7d3d 5a16 88bd
00000190: 1544 58bd 4fa4 6dbd 2ca5 893d 7fe1 733d
000001a0: dfee 88bd 79c3 4fbd bb2d 43bd 3563 4bbd
000001b0: 40c5 953d ad92 3cbd b13e 9cbd c653 5f3d
000001c0: 5e04 7a3d f001 0d3d 1088 4f3d 4eb3 31bd
000001d0: 7c08 3a3d cf64 88bd 3ff0 64bd 30c9 663d
000001e0: 0145 463d 45b7 8e3d bae9 88bd 3591 2fbd
000001f0: b3c1 7ebd 93e0 453d b351 61bd fee4 8abd
00000200: 861d 5b3d adb6 97bd 2dc2 77bd e81d 8bbd
00000210: 02e0 8c3d 01d5 90bd 4416 783d b9a4 3bbd
00000220: b2c4 8dbd edae 62bd 40dd 89bd c8a8 3f3d
00000230: bf8d 853d 4841 34bd 252e 793d 4bc0 86bd
00000240: 2a4e 45bd 9273 6b3d 7138 6c3d fa0a 84bd
00000250: a3d3 88bd 19ef 77bd 3597 743d 0a7f 78bd
00000260: d54d 91bd fa8e 813d 33b9 8bbd 5f93 59bd
00000270: 3eaa 693d 0836 953d b29b 74bd 7d73 79bd
00000280: edf6 8bbd e455 243d 104b 673d ad70 1d3d
00000290: 7c26 923d 91e1 8c3d 8783 8d3d d7dc 8fbd
000002a0: a59b 4ebd af1b 883d 408c 5bbd fc38 a13d
000002b0: ef0d 4dbd ada6 8dbd caaa 95bd 8d76 863d
000002c0: 1137 6ebd 72be 733d 330d 81bd 0d6f 8a3d
000002d0: b92d 763d a69d 6ebd ef1e 893d faec 3d3d
000002e0: e3b9 6bbd ae0f 79bd 8c9c 763d 6d91 73bd
000002f0: 0a7a 433d 5d2c 77bd 05f4 64bd 1c6e 803d
00000300: 0c53 6dbd a4a6 513d cfd3 68bd 1730 7dbd
00000310: bf8f 5fbd 14d5 923d 113a 9bbd b78b 4a3d
00000320: 35b6 7c3d 1e2e 973d c9a7 6bbd 3f31 89bd
00000330: e9f8 5a3d c722 7abd 7317 613d ffe2 8bbd
00000340: a836 68bd 8853 5bbd 6949 533d 3116 5d3d
00000350: ca2c 5c3d 8f32 38bd 45df 72bd cb34 5cbd
00000360: 9209 8ebd 10bc 563d 7d85 96bd a61a 7d3d
00000370: e057 653d 08de 893d 2578 7d3d 71cc 8d3d
00000380: b565 a3bd 5fc5 483d 5ad5 7ebd 7b28 7c3d
00000390: b6f4 253d 7615 713d e1ac 8fbd 902e 50bd
000003a0: 1f2a 6c3d 12f1 893d 100b 633d 44d5 753d
000003b0: f67c 5fbd 6042 793d 402d 7b3d 913b 7dbd
000003c0: 37bc 99bd 22a2 05bd 60c1 81bd 477f 613d
000003d0: 7929 27bd 8d43 823d ea61 913d f94a 5abd
000003e0: fc9d 95bd 0134 3cbd ab4b 6f3d 7e37 3c3d
000003f0: 9b86 773d 3a53 85bd 4075 7b3d 0f49 5a3d

action_model._discrete_distribution.branches.0.bias f4 [2]
0.047591038 -0.047591038
00000000: d2ee 423d d2ee 42bd
