ML-Game/results/ppo/My Behavior/My Behavior-123075.onnx (onnx, 75599 bytes, 6 tensors)

network_body._body_endoder.seq_layers.0.weight f4 [128, 6]
00000000: 2085 723f 40cb 13bf 917d 2cbe 0c1e 2e3e
00000010: 0979 033e a6a9 a53e 9756 143f 5725 0b3f
00000020: 68bd 89bf 0309 253f e99c b6be 5760 bcbe
00000030: 0576 463f ad19 093f 155c 493e d313 803e
00000040: dc99 21bf 55cb 01bf ac1e 62bc 5542 21bf
00000050: dd1f 0d3f b114 8bbe 08b7 5d3e 8cea a3bd
00000060: 463a 1a3f b165 7bbe 1e69 1e3d 74a1 acbe
00000070: c204 ad3e 05cb db3e cbf5 afbe 8091 21be
00000080: d22d 5dbf 4062 0e3f c78e 0ebf 5994 c73c
00000090: 411d e0bd 9daf b2bd 0824 f93e 9e80 12bd
000000a0: 2d3a 543f e606 6a3e 83c5 9a3e f9ed 07be
000000b0: 6b13 003f 342c 993d 7a99 b13e 07b4 a8bd
000000c0: 8472 2d3e 7224 23bf 377b 30be 784e 37be
000000d0: 1fe5 3f3d 7d83 683e f0ab 3b3e 8d97 dcbe
000000e0: fc62 033f b229 653e 9a09 19be 53ad a7be
000000f0: 1572 95be db4f 77bf ab26 7b3d 1339 fa3e
00000100: 311b 74be f40d e83e ca90 163e 330e 7fbf
00000110: 5218 703f efea d43e 704f 313f c923 f23e
00000120: 8f9b 28bf e47a 5a3e 385e 733c 4168 253d
00000130: eee3 24bf 8c30 a9bc 927e ca3e a0b5 4f3e
00000140: 0681 99be 2201 033f 4a37 323f ef81 b43e
00000150: 77bf c0be 8d02 efbd 90e4 803e 36cc ad3e
00000160: 7b9d a03d 7548 b53c 3e59 42bd 0d3a 41be
00000170: 8bad 843f 31e7 8bbd 31af 983e 194f e9be
00000180: a58a 3b3e d732 70be 44a6 c83e fe76 283e
00000190: 1d94 84bd 801e bf3e ee5f dbbd d8b6 efbd
000001a0: 6679 233f 3695 b83d f8f1 72bf a8c8 fabe
000001b0: 73f3 68bd 71e3 dfbe 1af2 0fbe e2d6 1a3f
000001c0: 32eb 2d3e ae45 203f da91 eebe 8782 8c3e
000001d0: 4d85 66be c726 cd3e f9ce 053f efa5 aebe
000001e0: f62d 213e 5b6e 9abc 2724 943e 3fc5 fcbe
000001f0: 39be 813d 0288 b0be 8ca0 133e 54ba 44bf
00000200: 3455 c93e c170 e1be 2f20 6fbe 7e9f 3a3f
00000210: 50b3 02bf e23b c2bd f312 de3e 4eff 3a3e
00000220: 9614 e33e 78ee ae3d 3797 1abf 3d50 3abe
00000230: c1f4 3abf 9073 d63d 7771 083f e7dd 8cbe
00000240: 1408 82be e8a4 90be c4aa 193f 6961 ab3e
00000250: 0725 16be 6cba 0d3e de7f 0abf ad7e 0ebf
00000260: 256c 983e 0a3e 3f3d d85c 1ebf 5cad d6be
00000270: 2a7b 3bbe 4cfb 383e 3afb 8b3e 2e73 0c3f
00000280: b84c babc f87c 36be dc4f a23d 3888 1fbf
00000290: fc81 64bd 7af2 08bd 346c e33c b926 be3e
000002a0: e422 cfbd a6a6 6a3f fa68 c93e 903d e6be
000002b0: afc4 573d 0964 22be 7330 633d 30f7 25be
000002c0: 293e 96be 0203 73bd 78f8 e4be f959 c5be
000002d0: de57 80be 32c5 38bf b37a 61bf 99dd b7be
000002e0: 2e42 94be 7e8d b2be 2519 403e fcb7 03bf
000002f0: 7ea4 f8be 5520 313f b153 8f3d 82ca 613d
00000300: e0ac 41bc 9e5d c03e 94eb 98be d0a1 153f
00000310: 80d0 dd3e de33 5d3e 39c2 98bd 30b0 913e
00000320: 3aeb 803e ce26 e53e 8436 b4be f269 4bbc
00000330: 9797 1f3e 7d9a 58be 4bc8 5c3f 3265 4d3f
00000340: fdf2 433f b5a4 a13d 12a7 0f3e 57d7 f7be
00000350: 2c0c cebe 08fd 743e 0f49 3abf d0e0 6cbc
00000360: 5652 0c3f 5bc3 783e a4c5 ab3e 6131 0a3f
00000370: 0adc 12be a2e3 aebe 5417 9bbe 14cb ff3c
00000380: c0fc 9b3e 922b ca3e 30e0 e63e 3aa6 0d3f
00000390: 331a c53d 820a 013e 79cd 5c3f 8c1e 80bd
000003a0: aab4 cebe f734 a7bc 3afd d83d 2232 65be
000003b0: 2601 52be 249c 25be ce71 2a3c 5346 443f
000003c0: 93d5 3f3f 8b0f c63e 2aa3 afbe a5cc 45bf
000003d0: cf0f f5be 5e58 883e cc08 04be 6715 c63e
000003e0: 1a8c c33b 2df8 773e 6322 6c3e 401b a23d
000003f0: 5943 973e cd5a 1b3e 0cd4 d4bd b97e 0dbf
0.9473438 -0.5773201 -0.16844775 0.1700365 0.1283914 0.32355994 0.57944626 0.5435385
-1.0760927 0.64466876 -0.35666588 -0.3679225 0.77523834 0.53554803 0.19664033 0.25015125
-0.63125396 -0.50700885 -0.013801258 -0.6299184 0.55126745 -0.27164224 0.21651852 -0.08003721
0.6024517 -0.24550511 0.038674466 -0.3371693 0.33792692 0.4292833 -0.34367213 -0.1577816
-0.8639804 0.5561867 -0.5568661 0.02436273 -0.1094308 -0.08724902 0.48660302 -0.03576719
0.8290127 0.22854194 0.30228814 -0.13274373 0.5002963 0.07479134 0.34687406 -0.082374625
0.16938215 -0.63727486 -0.17234503 -0.17901027 0.046849366 0.22706409 0.18327308 -0.43084374
0.51322913 0.22379187 -0.14945069 -0.32749423 -0.291886 -0.96606225 0.061316174 0.4887167
-0.23838498 0.45323145 0.1470367 -0.9963104 0.9378711 0.4158549 0.69261837 0.47292927
-0.65862364 0.21335942 0.0148540065 0.040382627 -0.64410293 -0.020653032 0.3954969 0.20284128
-0.2998125 0.51173604 0.69615614 0.3525538 -0.37646076 -0.116704084 0.2517438 0.33944863
0.07842537 0.022129277 -0.04744839 -0.18869801 1.0365461 -0.06831206 0.2982116 -0.4556816
0.18314607 -0.23456894 0.3918935 0.16451642 -0.06473563 0.37327957 -0.107116565 -0.117047966
0.63857114 0.09012835 -0.94900465 -0.48981214 -0.056872796 -0.43728212 -0.14057198 0.60484135
0.16984251 0.6260632 -0.4659565 0.27443334 -0.22511788 0.40068647 0.5226894 -0.34110972
0.15740189 -0.01885145 0.28933832 -0.49369237 0.0633511 -0.34478766 0.14416713 -0.76846814
0.39322817 -0.44031337 -0.23352121 0.72899616 -0.5105486 -0.09484078 0.43373832 0.18261454
0.44351643 0.08541578 -0.60386986 -0.18194671 -0.73029715 0.104712605 0.53298134 -0.27513048
-0.25396788 -0.28250813 0.6002619 0.33472756 -0.14662562 0.13840646 -0.5410136 -0.5566204
0.29770008 0.046690024 -0.6186042 -0.41929138 -0.18308702 0.18064612 0.27340108 0.5486325
-0.02274166 -0.1782111 0.07925388 -0.6231723 -0.055788025 -0.03343437 0.027761556 0.37138918
-0.10114077 0.91660535 0.39337903 -0.44968843 0.052677806 -0.15858473 0.055466127 -0.16207576
-0.293443 -0.05932904 -0.44720817 -0.38545206 -0.25067037 -0.72175896 -0.8807785 -0.35911253
-0.2895674 -0.34873575 0.18759592 -0.5145261 -0.48562998 0.6918996 0.06998385 0.055124767
-0.011821002 0.37571424 -0.29867232 0.5845003 0.43323135 0.21601817 -0.0745892 0.28454733
0.25179464 0.44756168 -0.35197842 -0.012415396 0.1558517 -0.21152683 0.8624312 0.80232537
0.76542646 0.078927435 0.14028576 -0.4840648 -0.4024366 0.23924649 -0.7276773 -0.014457896
0.54813135 0.24293272 0.33549225 0.53981596 -0.1434175 -0.34158045 -0.30291235 0.031224765
0.3046627 0.39486367 0.45092916 0.55331767 0.09624138 0.12601665 0.86251026 -0.06255826
-0.4037221 -0.020410998 0.10595174 -0.22382405 -0.2050825 -0.16172844 0.01040311 0.76669806
0.74935263 0.38683733 -0.34304172 -0.7726539 -0.47863623 0.2662992 -0.1289398 0.38688204
0.005967629 0.24215765 0.23059992 0.07915354 0.2954357 0.15171356 -0.10392007 -0.5527149

network_body._body_endoder.seq_layers.0.bias f4 [128]
00000000: a607 0f3d bd07 f13c e5c0 ce3c 615f 423c
00000010: e336 8b3c 74ca a03b 3a49 7e3c 9d53 57bc
00000020: a392 2b3d 610a 433d 56cd a03b 51cb 533d
00000030: 9fff 393c dab1 873a 6aa7 993c b79a 94bb
00000040: 2066 833b d23e 18bc 984b 3f3c bbd5 bd3c
00000050: cee2 543c e63c 5d3d 9737 b43c ea02 013c
00000060: 317c 0f3c c34a 963c 376f ca3c 562d 4c3d
00000070: cb6d fb3c f14b 853c a409 b5ba 6fe6 1e3d
00000080: 8396 7bba 79c2 d63c 141f 6cbc 7138 743d
00000090: 1443 1c3c 0b16 d43c 7182 633c 0832 8a3c
000000a0: 2164 ab3b 3818 1c3d 3aa7 b23a 1419 003d
000000b0: fac6 16bc d816 cf3c dcd4 9c3c 45e9 a73c
000000c0: 82e9 923c a9b0 653c ce4a d1bc 0957 563a
000000d0: 8e31 10bc e682 cb3c 4efd 663c 6db2 a13c
000000e0: 375e 783c 413c bf3c ac02 88bc 36cb 27bc
000000f0: dc68 803c f1c3 3dbc df8e 8a3c 1768 c03c
00000100: abb2 003d d9db c23c 876b e83c 1d77 703b
00000110: 3e61 2abc 23a0 f23b b14a 873c f517 9d3c
00000120: 27dc 1f3c e6e7 4cbb b8e8 d0bc 8ded 51bc
00000130: e3aa f2bb 54e2 abba 535f ad3c 7cf0 cf3c
00000140: 4730 2d3b fd5c c1ba a652 0b3c 2f1f 6c3c
00000150: 631c d03c 1e12 8e3c f36f ccbb 5a63 6bbc
00000160: 36ed ae3c 0c3d e83b aaa6 513c 8560 a63c
00000170: b22f 3dbc 9e21 d33c feaa 013c 49a2 a6bc
00000180: b37b 033d 67ed 463c 8009 ca3b 58a5 6bbc
00000190: 9cc8 a33c a839 233d b516 083c fc18 47bc
000001a0: f6a7 bf3c 52f9 a13c 405b 013d 52ac b2bc
000001b0: 8a52 83bc 8c1b e33c 529f 643c 9522 9a3c
000001c0: e8cc 29bd cb0d eb3c b6be 563c 56d7 b73c
000001d0: 55af abbb 0325 f9ba 9a86 493c 87cf b93c
000001e0: e413 da3b 612d 4d3c 54da 133d 80e9 a73c
000001f0: a3cb 813c 6e0e a63c 007d 873c 1ac4 ff3b
0.034919403 0.029422635 0.025238464 0.01186356 0.016993945 0.004906947 0.015520388 -0.013142494
0.04188789 0.04761732 0.0049072905 0.05170757 0.011352449 0.0010352687 0.018756587 -0.004535045
0.004009977 -0.009292321 0.011675738 0.023173204 0.012993528 0.054013155 0.021999164 0.00787423
0.008757637 0.018346196 0.024711234 0.049847923 0.030692002 0.016271563 -0.0013812077 0.038793977
-0.0009597318 0.026215779 -0.0144117065 0.05962414 0.009537477 0.025889417 0.01388608 0.01686956
0.005230442 0.038109034 0.001363016 0.031273916 -0.009202713 0.025279447 0.019144468 0.020496974
0.01793361 0.01401917 -0.025548365 0.00081764214 -0.008800877 0.02484269 0.0140984785 0.0197384
0.015159181 0.023344161 -0.016602837 -0.01024132 0.015675 -0.011582361 0.01691383 0.023487134
0.03142039 0.023786472 0.028371586 0.003669209 -0.010399161 0.0074043437 0.016515108 0.019176463
0.009757078 -0.0031266152 -0.025501594 -0.012812984 -0.007405625 -0.0013113716 0.021163618 0.025383227
0.002642648 -0.0014752444 0.008503592 0.014411732 0.02540416 0.017342623 -0.0062389313 -0.014366949
0.021353345 0.0070873555 0.012796083 0.020309696 -0.011547016 0.025772866 0.007914303 -0.020341055
0.03210039 0.012141562 0.0061656833 -0.014382683 0.019993119 0.039849907 0.008306195 -0.012151953
0.02339552 0.019772206 0.031581163 -0.021810684 -0.016030569 0.027723096 0.013954001 0.018815318
-0.04145518 0.0286931 0.0131069925 0.022441547 -0.005239407 -0.0019008223 0.012300158 0.022681965
0.006655203 0.012523026 0.036096886 0.020497084 0.015844172 0.020270552 0.016539097 0.0078053595

network_body._body_endoder.seq_layers.2.weight f4 [128, 128]
00000000: f12b 3a3b a483 02be 2ea6 9a3b cc1d 133e
00000010: dab3 aebc 78c0 d3bd cd41 bdbd c54b 913c
00000020: fd09 dbbc 6c03 a53c 5764 f83d b3ce 5b3d
00000030: 68fa 063c 9492 d63d e26c 9c3c 3dec c5bd
00000040: f3db 3fbc ee44 21bd a215 713c f36d c03d
00000050: 7867 a33d 37e4 edbd 001f 253d d2a7 1a3e
00000060: d290 253d c3c7 493d 8498 0c3e d53b 2e3e
00000070: a81c 3c3e a0eb d53d 57e8 b03d d05c fbbd
00000080: 264f 7dbd d81f eebc 8b49 c23c c765 df3c
00000090: 6ae5 b43c 4ff0 14be 98d0 8ebd db63 1e3e
000000a0: b3b8 9ebc 9d7c ed3b 1d4a 9cbd 3661 ebbc
000000b0: 6832 dc3c d994 333e 4f87 27bd 0e5d c63c
000000c0: eaf4 c5bd ca4b 813e aa47 eebd 8d25 10be
000000d0: 862c e1bc 13ae aebc aeb7 26be edd6 f03d
000000e0: 000c 6d3d e20f 8b3d d5af 20bd aac7 a9bd
000000f0: 3fce f53d d02b d6bd 98f8 1a3b cfdd e03c
00000100: eba2 0fbe 5eff 263d c9f4 0dbd 70a9 a7bc
00000110: 6666 8c3d 25c1 fdbd 8fea 28be 3cb6 063d
00000120: 426c 0ebe 7e15 6fbd 1683 89bd f033 9c3d
00000130: 4815 b1bd 3c74 923c e5af 553e f586 4dbe
00000140: 34d0 ee3c 6d60 5abd e1ec bfbc 75c0 3d3d
00000150: fc8c 09bb 227a f63d 961a 773d 766a b03d
00000160: 4da2 243b 5180 a43d d236 adbd d38b 76bd
00000170: 7e8c fa3c 7d85 ba3d 7c09 4abc 15e8 e0bd
00000180: 15b3 9c3b feb2 9dbd c223 9c3d 6e01 443c
00000190: 3d4a e33d b7db 4fbc 2fdb 3cbd fcc3 0f3d
000001a0: d5bf 4c3e 0727 233d 9307 5fbc f4a8 b53d
000001b0: fca6 1eb9 730a 9a3e c11a 1c3e d672 003e
000001c0: 1679 f03d 1875 83bc 0577 bebd 50cb 5abd
000001d0: bb1f fc3d e667 383e 007c d93d 5f4e db3c
000001e0: 3fc2 b63c 10d8 00be 550b 7cbc ff8d 61bd
000001f0: aeb6 003e 6d0d 08be 78d0 193e 3e26 a7bd
00000200: 0683 2a3e dd53 14be f190 a6bc 82c9 373d
00000210: 67ac fdbc b473 84bd 9aa0 713d 2135 b53d
00000220: ebea 7f3e 5133 313e d44f 92bd 2b32 8f3d
00000230: 77ac fcbd 2e9f 11be 25ba 2ebd 7c27 803d
00000240: f390 d0bd a565 ac3d 7c7e 033d ffc4 173d
00000250: 87d6 f4bd 7500 bc3d b405 0fbd 0b24 0e3d
00000260: cc42 4abd 3a84 9e3c b973 873d 1c37 cc3d
00000270: d8f1 9cbd 9239 6fba 572d f23d 95f3 a23c
00000280: 0621 1a3e 1428 b9bd a090 b73c a03e 863b
00000290: 4dde 66bc c970 6f3d c57f d0bc 05f2 033e
000002a0: 58f3 453d 2aed d5bd 706b 14be 2386 b73d
000002b0: 8d05 303d 2baf 193c f364 013e 815d 283d
000002c0: 9906 823d a141 113d 6212 633d fbed 993e
000002d0: ce00 643c b5c9 323d 5e47 0e3e cade 48bc
000002e0: a048 37bd 373d e5bc e4b4 9a3c 6b92 993d
000002f0: b8d1 d8bb c24b 9d3c 7554 eb3d 908d 40bc
00000300: f032 ef3d e72c d33b bef1 60bd 7813 5e3e
00000310: 526f 023e 7ba5 3f3e 4950 c0ba 26ee 493e
00000320: 71cf acbd 61f0 ae3c 154e f4bc f047 e6bc
00000330: 9f51 753d 456c 03bd a078 31bd 3818 eebd
00000340: 5130 4dbd 7967 1e3d 3e92 4b3d df74 f33d
00000350: 41cb e53a 17d9 42bd 1bd0 ee3c af3d e73d
00000360: 29ba 96bc f629 283e 2b56 07bd c957 8c3c
00000370: 1ed2 f6bc 42a6 2fbe fda7 d63d 5993 c3bd
00000380: 642e 6cbd a243 483d 3078 013c 5219 f43d
00000390: 9f41 4e3b f873 513e 909e 35bd aad8 383d
000003a0: a50e 5bba 6dc5 a0bd e0aa 133e bd75 a6bd
000003b0: a8fb 9cbd 320c 84bd cf3e f93c 327e 963c
000003c0: ccda 7cbd 8ad2 a2bd 0d41 d23d 5f9c 5c3e
000003d0: 6fda aa3d 4b12 ce3c b659 813d 1678 e9bd
000003e0: 99f2 37be b093 653d 684f fc3d 8d25 3d3d
000003f0: c786 03be e187 f8bd a83e a1bd e756 03bc
0.0028407539 -0.1274553 0.004719517 0.14366835 -0.021325994 -0.10339445 -0.09241066 0.017736325
-0.026738161 0.020143233 0.12128513 0.05366392 0.008238412 0.10477176 0.019094888 -0.096641995
-0.011710155 -0.039372377 0.01471463 0.09395971 0.079787195 -0.11615794 0.040312767 0.15103081
0.040421315 0.049262773 0.13730055 0.17015012 0.18370306 0.104453325 0.08638065 -0.12273562
-0.06184306 -0.029067919 0.023716709 0.02727021 0.02208205 -0.14544795 -0.0697338 0.1546778
-0.01937518 0.007247521 -0.076313235 -0.028732877 0.026879504 0.1753725 -0.040900525 0.024214294
-0.09665854 0.25253135 -0.116347626 -0.14076824 -0.02748705 -0.02132324 -0.16281006 0.11759744
0.057872772 0.06790139 -0.039230186 -0.08290036 0.12002229 -0.10457575 0.0023646709 0.027449517
-0.14026992 0.04077088 -0.034657273 -0.020466536 0.068554685 -0.12390355 -0.16495727 0.032888636
-0.13908485 -0.058370106 -0.06714456 0.07627094 -0.08646637 0.01787769 0.2086788 -0.20071013
0.029152013 -0.053314615 -0.023428382 0.04632612 -0.0020988574 0.12035014 0.06032809 0.08614056
0.0025121153 0.08032287 -0.08457722 -0.06019194 0.03058457 0.09107492 -0.012331363 -0.10981766
0.0047820904 -0.07700156 0.07624008 0.0119632315 0.11098144 -0.012686661 -0.046107467 0.035099015
0.19995053 0.03983214 -0.013612646 0.08870116 -0.0001513026 0.30086097 0.15244581 0.12543806
0.11741845 -0.016047046 -0.09300045 -0.05341655 0.123107396 0.18008384 0.10619354 0.026770769
0.02230942 -0.12582421 -0.015383561 -0.05506706 0.12569687 -0.13286372 0.15020931 -0.08161591
0.16651544 -0.14485116 -0.020332785 0.044869907 -0.030965997 -0.06467381 0.058991052 0.08848024
0.24991958 0.17304732 -0.07144132 0.06991991 -0.123375826 -0.14220878 -0.04265799 0.06257531
-0.10183897 0.08417825 0.032103047 0.037053104 -0.1195498 0.09179775 -0.03491755 0.034702342
-0.04938011 0.01935016 0.06613869 0.09971449 -0.076633155 -0.0009125705 0.11825054 0.01989154
0.1505166 -0.090408474 0.02240783 0.004096821 -0.014091087 0.05845717 -0.02545155 0.12885292
0.048327774 -0.10445626 -0.14494109 0.089611314 0.042974044 0.009380142 0.12636165 0.041104797
0.06348915 0.03546298 0.055437453 0.30064377 0.0139162075 0.043649394 0.13894412 -0.012260148
-0.044746995 -0.027983291 0.018885083 0.0749863 -0.0066167973 0.019201163 0.11490718 -0.011752501
0.116796374 0.0064445618 -0.054918043 0.21687114 0.12737778 0.1871547 -0.0014672364 0.19719753
-0.08438004 0.021354856 -0.029822389 -0.028110474 0.059892293 -0.032085676 -0.043327928 -0.11625713
-0.050094906 0.038672898 0.049700014 0.11887526 0.0017531888 -0.047570314 0.029151967 0.11291062
-0.018399315 0.16422257 -0.03304116 0.017131703 -0.030129489 -0.17153266 0.1048126 -0.09549589
-0.05766143 0.048892625 0.00790219 0.11918892 0.0031472219 0.20454395 -0.04434067 0.045128502
-0.0008356369 -0.07850156 0.14420652 -0.081279255 -0.07665187 -0.064476386 0.030425457 0.018370721
-0.0617321 -0.079503134 0.10266314 0.21544026 0.08342444 0.025155207 0.06315939 -0.11399858
-0.17963637 0.05604905 0.12319833 0.04617839 -0.12844382 -0.12135292 -0.07873279 -0.008016325

network_body._body_endoder.seq_layers.2.bias f4 [128]
00000000: 617e 6d3c 7c8b 4cbc 6a14 1bbc 387e 9c3c
00000010: 57e6 523c a4a0 9abc 80b1 fbb9 c1b4 24bc
00000020: 7c21 b63c f29c 20bc dff5 893c 043e a6bb
00000030: 8bd0 843c 5c6b 3b3c df78 dd3b 57ba 6ebb
00000040: fa0f 943c e823 7a3c 91f2 50bc 3cda e039
00000050: 5e78 933c 1455 15bc 797e e33c 5697 b13c
00000060: 8033 aa3c 95e3 363a 49bf c5bb acfb bc38
00000070: 3e93 433c 3a39 523c cb7e bf3a 65f3 a73c
00000080: 0020 533b 1a3b a63c 6d50 563c 1603 9e3c
00000090: 26fe dd3c 2b06 c639 816b c73b b38b c8bb
000000a0: a94b 303c 4033 dfba ea4a b23c 52f5 73bc
000000b0: 9f3e 823c f2a4 55bb b554 06ba de5c f93b
000000c0: 2fc8 d23c cdb6 b3bb 9058 1b3d 6afe bcbb
000000d0: 3f0b 273b 3b5d 0e39 fd21 9d3c 195b 23bc
000000e0: fc35 32bc 9421 b13c 6496 9e3c c1e3 993c
000000f0: c5de 823c 155f 3c3c 2539 903c 01ad 7d3c
00000100: 36ca a73c 1c77 debb e8a5 6d3c a94d 0abc
00000110: 71e4 98bb 810c 69ba 5e78 16bc 0d5d 53bb
00000120: 37cc 0ebc 3022 193c 4e5a 223d c7af 253c
00000130: 338d c8bb b468 cdbb 9286 a83c 2227 42bc
00000140: fed0 a43c 9d6f b83b 3c10 d83c 9bf8 5a3c
00000150: 2289 79bc be89 43ba 2610 61ba 707c 6ebc
00000160: 6690 28bc 4fc0 8a3c 2649 693b 94ae d53c
00000170: 4c07 893b 0175 d43b f17d ab3c 8900 a83c
00000180: 97d1 a33c 066a 3ebb e1cd 5bbb c7c5 e4bb
00000190: 01a7 abbb 3d92 10ba 763d 613c b48c c13b
000001a0: 9ca2 5a3c eb49 be3c 8747 7fbb 3faf 663b
000001b0: a6a4 4c3c b45f db3c 5a70 82bb 5018 3f3a
000001c0: 62c6 ddbb 6801 60bc 2dde 803c d64f 4c3c
000001d0: 1fb0 8e3c 14cb 7f3c f66a 83bb c750 9f3a
000001e0: c17e c43b ee21 903c 67c1 333a 211d 6c3c
000001f0: 0cad 6e3c af47 803c af19 803c b26b 123d
0.014495463 -0.012484428 -0.009465316 0.019103155 0.0128723 -0.018875428 -0.00048006698 -0.010052861
0.022232763 -0.009803044 0.016840873 -0.005073311 0.016212722 0.011439171 0.0067587937 -0.0036426985
0.018074024 0.01526735 -0.012753145 0.00042887207 0.018001731 -0.0091145225 0.027770268 0.021678608
0.02077651 0.00069766614 -0.006034766 9.011416e-05 0.011936961 0.012831027 0.0014609931 0.020501802
0.0032215118 0.020291854 0.013080698 0.01928858 0.027098726 0.00037770098 0.0060858135 -0.006120169
0.010760226 -0.0017028823 0.021764237 -0.014890032 0.015899 -0.0032599536 -0.00051243167 0.0076099476
0.02573022 -0.005484438 0.037926257 -0.005767633 0.002548888 0.00013576906 0.019181246 -0.00997045
-0.010877129 0.021622457 0.019358821 0.01878536 0.015975365 0.011497279 0.017605374 0.015483142
0.020482164 -0.0067891013 0.014504887 -0.008441367 -0.004665904 -0.0008890108 -0.009183971 -0.0032251508
-0.008715681 0.00934653 0.039636903 0.010112709 -0.006120348 -0.006268585 0.02057198 -0.01185015
0.020119186 0.0056285397 0.026374929 0.013364936 -0.015230449 -0.0007459185 -0.0008585475 -0.014556035
-0.0102883335 0.016937403 0.0035596578 0.026084222 0.004181778 0.0064836745 0.020934077 0.020508068
0.019997401 -0.0029054894 -0.0033539461 -0.0069815847 -0.0052384143 -0.0005514955 0.013747564 0.0059066657
0.013344433 0.023228606 -0.0038952546 0.003519967 0.012490427 0.026779033 -0.0039806785 0.00072896946
-0.006768034 -0.01367221 0.015730942 0.012470206 0.017417965 0.015612382 -0.0040105535 0.0012154811
0.0059965556 0.017594304 0.00068571273 0.014411242 0.014567625 0.015659181 0.015637247 0.035747238

action_model._discrete_distribution.branches.0.weight f4 [2, 128]
00000000: cc65 c23c cb25 73bc 0b36 ddbc 97e0 e33c
00000010: 858f 8ebc 8c97 85bc 52ab e8bc 7cd2 0ebc
00000020: 7197 df3c c5ea c2bc 5a47 9dbc 4c9f ffbb
00000030: e375 923c 1939 33bd 99ae 20bc d350 23bd
00000040: 6810 bf3c ad13 ef3c dfc0 223c 0938 d0bc
00000050: 1bb2 9c3b 7de2 f7bb 3b1b 243d 5c81 ce3c
00000060: 44d0 be3c a716 6bbc 12fb bbbc 0de8 ab3b
00000070: c71f c2bc 9bdd 05bd c91b 8fbc f181 f03c
00000080: 778f e3bc 1a97 5b3c d26f 603c 9df7 6b3c
00000090: 2b16 0d3d b3e1 30bd d92a 593c 2d98 66bd
000000a0: 315b 15bc d2ca 52bd 707e a83c 0a3d adbc
000000b0: 211f ea3c 105c 16bd 89dd c93a 10d0 8d3b
000000c0: cb3b 163d fcb5 bcbc a8b6 0a3d 80bc 89ba
000000d0: 5202 1b3c d4eb 58ba d9c6 ec3c 7168 5dbc
000000e0: f4c8 743a c65d e13c 462d 023d f109 53bd
000000f0: da0d 6bbc 6ff0 19bc 56e1 de3b e149 b33c
00000100: 1aa8 3f3c cb6d c4bb a6c1 9fbc c661 d63b
00000110: 96e7 9dbc e405 d8bb d100 14bc a3eb 7b39
00000120: 45bd 59bc 416a 09bd 2be0 c63c 57f3 babc
00000130: 41f8 afb7 2c55 1d3b 98b0 073d e510 f8bc
00000140: 4be0 893c f31a a0bc 4011 963c ab6c 8d3c
00000150: 78bc d6bc baf8 abbc 4a76 0bbc 1b76 a7bc
00000160: 5000 c7bc 30e9 b2bc 1736 14bd a3c5 113d
00000170: 5319 43bd 1847 52bc fd02 cd3c 1251 f73c
00000180: 35c4 16bd b59a 7abc 5caa 95bc 4343 8abd
00000190: d7f8 51bd c3d0 a9bc 58a3 60bd 984d 99bc
000001a0: f0e1 aabc 87ee fe3c fbe2 47bd 5ffb 5f3c
000001b0: 0bf7 903c a81f 1f3d b339 e2bc ee89 7cbc
000001c0: 873a aebc 86b9 e7bc f054 043d 8d70 c43b
000001d0: 1e97 f4bc 91e8 0b3d c3c7 bebc 9ee3 4ebd
000001e0: 046f 393c 2d7e a03c 7cec fbbc b11b aebc
000001f0: abcc ddbc 102c 253c a647 c0bc db2f 073d
00000200: bea6 9bbc 244d 8c3c 7540 163d f5f2 f7bc
00000210: 0b34 133c 6b33 76bc d2ea fbbb 2f72 1f3c
00000220: 78fb 08bd 9630 9e3c 4560 7a3c e964 ac3c
00000230: fc05 c1bc 485c 133d eb55 24bc b817 1b3d
00000240: 7ef1 82bc 6e50 a0bc fd77 39bb 913a 0c3d
00000250: 6f53 a6bc 1920 56ba c9f0 babc fe77 dbbc
00000260: 7ec7 a8bc 9859 48bb 07da d23b a816 bf3c
00000270: 3830 f83c 529c 653d 5a2a 2d3c 19a1 15bc
00000280: 049f ad3c 0d2c 05bd b495 10bc 34f1 24bd
00000290: e80c d9bc b39b ca3c b670 783b db86 623d
000002a0: 03b1 4e3c de08 303d 9aee 2abc 3fc3 bb3c
000002b0: 49c0 a7bc 8d27 213d 2363 173c 2089 3cbc
000002c0: 1536 67bc 7bc2 183d bbdc 2dbd 8ae2 ec3a
000002d0: 6a02 c2bb ae6e 3a3c fab2 aebc 53cb f63b
000002e0: c204 b13c fadd 8dbc d49d e9bc 07ac 2b3d
000002f0: 92c7 e33c fe05 a53c bb67 d2bc f095 0fbd
00000300: 7ec6 c7bc b382 70bb ccee d13c 1570 323b
00000310: 9acf cf3c c23b c23b ff9d ca3c eca9 1c3c
00000320: 0a4d bb3c ac59 233d e485 02bd d023 343d
00000330: d1a8 12bb eaed e6ba c5bd 16bd 164b 453d
00000340: 6ff7 bfbc d983 9b3c 0ff3 c9bc 344e c9bb
00000350: 7cb9 ea3c 6530 683c 89ae 933c 6611 5a3c
00000360: 3420 5b3d 4488 0b3d 9d89 723c 6998 41bd
00000370: 2bd0 0d3d c34f ae3c 81a4 d0bc 46c1 0abd
00000380: 0ef1 c43c 3663 763c 3860 b13c 8e59 2a3d
00000390: 5921 143d 9132 c7bb a556 0c3d ec64 28b9
000003a0: 2685 f53b f384 49bc b2f3 2c3d 7a4e 133a
000003b0: f9ab 5ebc 0da3 07bd 5136 013c 0df8 c13c
000003c0: ba84 303d fe83 8f3c 3dff a9bc 181a b5bc
000003d0: a4ed f93c 5326 75bc 5f3f c03c 97ee 623d
000003e0: f46f 0dbc 7a42 c3bc 35f4 023d 7fb4 093d
000003f0: e311 aa3c 869c 92bc 4b9d 043d 9081 c2bc
0.023730181 -0.0148405535 -0.027003309 0.027817054 -0.01740242 -0.016307615 -0.028402004 -0.008717176
0.027293893 -0.023793587 -0.019199062 -0.007800972 0.017878478 -0.043755624 -0.009807252 -0.039872
0.023323253 0.029184187 0.009933679 -0.025417345 0.004781974 -0.0075648413 0.04006503 0.025208168
0.023292668 -0.014348662 -0.022946868 0.0052461685 -0.023696793 -0.032682043 -0.017469304 0.029358836
-0.02777837 0.013402725 0.013698535 0.014402297 0.03444497 -0.043183994 0.013254845 -0.05629747
-0.00911598 -0.051462956 0.020568103 -0.02114727 0.028579297 -0.03670889 0.0015401106 0.0043277815
0.036678117 -0.023035996 0.0338656 -0.0010508448 0.009461002 -0.0008274887 0.028903412 -0.01351367
0.00093378057 0.027510535 0.031781457 -0.051523153 -0.014346564 -0.009395703 0.0068017645 0.021885814
0.011697793 -0.0059945337 -0.019501518 0.006542417 -0.019275468 -0.006592499 -0.009033398 0.00024025007
-0.013289754 -0.033548597 0.024276813 -0.022821112 -2.0977228e-05 0.0024007065 0.033127397 -0.030281493
0.016830584 -0.0195441 0.018318772 0.017263731 -0.026212916 -0.020992626 -0.008512089 -0.02044206
-0.024292141 -0.021839708 -0.036184397 0.03558887 -0.047631573 -0.012834333 0.025025839 0.030190025
-0.03680821 -0.015295674 -0.01826971 -0.067511104 -0.051262703 -0.020729428 -0.054843277 -0.018713757
-0.020859689 0.031119598 -0.04880045 0.013670771 0.017695924 0.03884855 -0.027615404 -0.015413744
-0.021268142 -0.028286707 0.032307565 0.0059948624 -0.029857215 0.03415734 -0.023288613 -0.05051004
0.011317972 0.019591415 -0.030752413 -0.021253439 -0.027075132 0.010081306 -0.023471665 0.033004623
-0.019000407 0.017126627 0.036682565 -0.030267218 0.008984576 -0.015026907 -0.007687905 0.009731813
-0.033442944 0.019310277 0.0152817415 0.021044211 -0.023562424 0.035976678 -0.01003025 0.037864417
-0.015984293 -0.019569602 -0.0028300278 0.03423554 -0.020303456 -0.0008168235 -0.022819893 -0.026790615
-0.020602938 -0.003057098 0.0064346823 0.023326233 0.03029643 0.05605728 0.010569179 -0.009132647
0.021193989 -0.032512713 -0.0088247545 -0.04026909 -0.026495412 0.024732446 0.0037908978 0.05530439
0.012615445 0.042977206 -0.010432864 0.022920249 -0.02047743 0.03934436 0.009239945 -0.0115073025
-0.014112015 0.037294846 -0.042446833 0.0018072885 -0.005920698 0.011378927 -0.021325577 0.0075315624
0.021608714 -0.01731776 -0.028517641 0.041912105 0.027805123 0.020144459 -0.025684228 -0.0350551
-0.02438664 -0.0036698997 0.025626563 0.002722745 0.025367547 0.005927534 0.024733542 0.009561997
0.022863884 0.03988044 -0.03186597 0.043979466 -0.0022378454 -0.0017618511 -0.036802072 0.04816731
-0.023433415 0.018983768 -0.024652032 -0.0061433557 0.028652899 0.014171694 0.01802756 0.013309812
0.05349751 0.0340655 0.014803317 -0.04726449 0.034622353 0.021278268 -0.025469067 -0.033875726
0.024040725 0.015038302 0.021652326 0.041589312 0.036164615 -0.006079026 0.03426232 -0.00016059325
0.007492679 -0.012299764 0.042224593 0.0005619299 -0.013590806 -0.03311448 0.007886485 0.02367785
0.043095328 0.017518993 -0.02075159 -0.022107169 0.030508824 -0.0149627505 0.023467718 0.05540332
-0.008632649 -0.02383541 0.031971175 0.0336194 0.020760482 -0.017896902 0.03237657 -0.02374342

action_model._discrete_distribution.branches.0.bias f4 [2]
00000000: 85c3 473c 86c3 47bc
0.012192612 -0.0121926125
