ML-Game/results/ppo/My Behavior/My Behavior-111168.pt (torch, 597875 bytes, 33 tensors)

network_body._body_endoder.seq_layers.0.weight f4 [128, 57]
-0.22965601 0.033618517 0.0016689104 -0.0322344 0.0047594523 0.16446939 0.08066695 0.1223749
-0.12289433 -0.10484309 -0.08479773 0.09925079 0.08966843 -0.17470762 -0.24275903 0.08958966
-0.077854685 -0.08289874 -0.13781753 0.043698974 -0.16728532 -0.1606321 0.0025951185 -0.107985765
0.2371129 0.13339712 0.2355262 -0.07010016 -0.02243294 0.072975375 0.13759467 -0.036537766
0.040114373 -0.06976177 -0.14590351 0.08918038 -0.107623056 0.1947695 -0.016175997 0.2484776
0.067354314 0.04540867 -0.010895188 0.15294838 0.10162991 0.07620923 -0.09350892 0.07520566
0.14179188 0.06580405 -0.1422864 0.032425966 0.0112199 0.29714 -0.057629917 -0.09261657
0.07039268 -0.1469885 0.135706 0.09023246 0.22312795 0.018831298 -0.018206565 0.19582443
0.05598665 -0.116424136 -0.09751142 0.20740758 0.1831434 0.0235183 -0.10972075 -0.10652509
-0.3662261 0.03975727 0.3042821 0.0091321925 0.14618245 0.074438915 -0.13604799 -0.009377191
0.13704057 0.0104769245 -0.11995513 0.10734424 0.09869487 -0.09711396 -0.1788397 -0.042499352
0.081286825 0.23997387 -0.064007826 0.046780314 -0.13956608 -0.032898203 0.07605328 -0.06715074
-0.024395587 0.1283112 -0.0040584346 0.07915666 0.022994965 -0.08380822 -0.039883137 0.18775994
0.1231385 -0.36099577 -0.16877426 0.09369283 -0.05369991 0.15621871 0.16902512 -0.11886233
-0.069863416 -0.06801449 0.04602063 -0.12158746 -0.09945034 0.06321051 0.13932422 -0.0505172
-0.0868348 -0.07803781 0.09850418 0.015429058 0.01236602 -0.14048314 -0.33491516 0.06531816
0.005267812 -0.026813688 -0.063646644 -0.082902 -0.041165255 -0.00898408 0.12863076 -0.16498032
-0.1166851 -0.13852681 -0.14847969 -0.026649214 -0.12376937 -0.07852449 -0.13035855 -0.1515373
0.008641059 -0.08414656 -0.053390913 0.12817177 0.11414577 -0.07420687 -0.23647472 -0.08983204
0.07113594 -0.09313394 -0.07588438 -0.11489649 0.13200203 -0.06657501 -0.066600844 -0.13532615
0.1594427 0.028068043 -0.016461235 0.18102634 0.058849197 -0.1308073 0.0044296863 0.35521904
-0.06031685 0.19413647 -0.11218826 0.023368564 -0.2535117 -0.15262085 -0.079065956 -0.007856195
-0.20360577 -0.18243292 0.090660274 -0.06747834 0.12529764 -0.14628091 0.05294587 -0.10824553
0.07693678 0.31880763 -0.058518935 -0.015763942 -0.12872419 0.07139506 -0.1644164 -0.03378985
-0.07123302 0.087983236 -0.015529699 -0.07404368 0.019510536 0.253238 -0.0740392 0.22390155
-0.066268295 -0.038478464 0.03351009 -0.09209277 0.14044352 -0.0111974245 -0.005573079 -0.011514174
0.105629906 -0.21317592 -0.08645891 0.10420232 -0.11680582 0.026033806 -0.060290102 0.121931024
0.1259574 -0.09178628 -0.057401676 0.013619988 -0.23357813 0.15754968 -0.086965255 -0.2630541
-0.008858857 0.3662711 -0.048244055 -0.0769578 0.1235557 -0.05066156 -0.059985865 -0.27203324
-0.047924872 -0.12961471 -0.08520854 -0.044617325 0.20450933 0.10958121 0.07918511 -0.015181659
-0.18855263 -0.061742112 -0.049289104 -0.29056567 0.03449953 -0.2011075 0.17210712 0.17472818
-0.018214585 0.046899498 0.08629736 -0.0034421794 0.024587551 -0.3604962 -0.1606666 0.0070638824
00000000: f22a 6bbe 92b3 093d 57bf da3a 3808 04bd
00000010: 2ef5 9b3b aa6a 283e b734 a53d b19f fa3d
00000020: 06b0 fbbd f9b7 d6bd 6faa adbd 0044 cb3d
00000030: 15a4 b73d 8ee6 32be d395 78be c97a b73d
00000040: 4772 9fbd d1c6 a9bd 0a20 0dbe b2fd 323d
00000050: d84c 2bbe be7c 24be dd12 2a3b a427 ddbd
00000060: b9cd 723e 4199 083e c82d 713e ac90 8fbd
00000070: 49c5 b7bc 1d74 953d 9ee5 0c3e a0a8 15bd
00000080: f84e 243d 42df 8ebd bb67 15be 34a4 b63d
00000090: 7a69 dcbd a871 473e 8683 84bc e970 7e3e
000000a0: 0ff1 893d 71fe 393d bb81 32bc 809e 1c3e
000000b0: 5823 d03d 9613 9c3d 9b81 bfbd 6d05 9a3d
000000c0: e431 113e 46c4 863d 87b3 11be 17d1 043d
000000d0: acd3 373c bc22 983e 590d 6cbd c2ad bdbd
000000e0: 0a2a 903d 2784 16be 83f6 0a3e cccb b83d
000000f0: a77b 643e 1844 9a3c ef25 95bc 3386 483e
00000100: 4252 653d c76f eebd 11b4 c7bd a762 543e
00000110: f289 3b3e 73a9 c03c 46b5 e0bd d429 dabd
00000120: fd81 bbbe 85d8 223d ddca 9b3e 319f 153c
00000130: dab0 153e 6e73 983d 2a50 0bbe caa2 19bc
00000140: 5d54 0c3e 68a7 2b3c 09ab f5bd 4cd7 db3d
00000150: 8920 ca3d afe3 c6bd c121 37be cd13 2ebd
00000160: b579 a63d b6bb 753e 8916 83bd b79c 3f3d
00000170: 69ea 0ebe 44c0 06bd d2c1 9b3d 5486 89bd
00000180: 41d9 c7bc 0364 033e 9efc 84bb e31c a23d
00000190: f05f bc3c a5a3 abbd 805c 23bd 2444 403e
000001a0: 0a30 fc3d 70d4 b8be 29d3 2cbe 07e2 bf3d
000001b0: 70f4 5bbd ccf7 1f3e ec14 2d3e 186e f3bd
000001c0: 8d14 8fbd 2e4b 8bbd 2180 3c3d d902 f9bd
000001d0: 9fac cbbd 8374 813d 02ab 0e3e 20eb 4ebd
000001e0: 72d6 b1bd 4ad2 9fbd 8fbc c93d 29ca 7c3c
000001f0: d99a 4a3c d0da 0fbe 007a abbe 87c5 853d
00000200: 9c9d ac3b 61a8 dbbc 2c59 82bd 86c8 a9bd
00000210: e69c 28bd f631 13bc c8b7 033e 9af0 28be
00000220: 99f8 eebd f9d9 0dbe 0f0b 18be 744f dabc
00000230: cc7a fdbd 73d1 a0bd b67c 05be 982c 1bbe
00000240: 3a93 0d3c 0855 acbd 6eb0 5abd 763f 033e
00000250: 42c5 e93d c5f9 97bd 6e26 72be dcf9 b7bd
00000260: b8af 913d 02bd bebd 4569 9bbd da4e ebbd
00000270: 8a2b 073e 7b58 88bd 0666 88bd f092 0abe
00000280: f244 233e f4ee e53c b6d9 86bc f85e 393e
00000290: db0b 713d 59f2 05be e726 913b 45df b53e
000002a0: cd0e 77bd b6cb 463e f5c2 e5bd 6e6f bf3c
000002b0: 49cc 81be a448 1cbe 55ed a1bd 45b7 00bc
000002c0: 087e 50be b2cf 3abe 18ac b93d 1532 8abd
000002d0: 064e 003e aaca 15be c5dd 583d d5af ddbd
000002e0: 0891 9d3d c13a a33e 8db1 6fbd 6223 81bc
000002f0: 46d0 03be 9337 923d c65c 28be 3a67 0abd
00000300: 9ee2 91bd 8e30 b43d 4770 7ebc 37a4 97bd
00000310: 8fd4 9f3c 69a8 813e dda1 97bd 7346 653e
00000320: acb7 87bd 989b 1dbd e041 093d 229b bcbd
00000330: 6dd0 0f3e 6775 37bc 609e b6bb f2a5 3cbc
00000340: 7e54 d83d ca4a 5abe 5e11 b1bd 0768 d53d
00000350: e437 efbd d944 d53c c1f2 76bd f9b6 f93d
00000360: fafa 003e 72fa bbbd 051e 6bbd 5f26 5f3c
00000370: 1b2f 6fbe b454 213e d71a b2bd 07af 86be
00000380: bd24 11bc e387 bb3e 8f9b 45bd 0d9c 9dbd
00000390: c50a fd3d 7f82 4fbd bdb3 75bd f147 8bbe
000003a0: df4c 44bd b8b9 04be d181 aebd a8c0 36bd
000003b0: e56a 513e 1d6c e03d ce2b a23d 7ebc 78bc
000003c0: f113 41be 4ce5 7cbd 5fe3 49bd 06c5 94be
000003d0: 614f 0d3d 20ef 4dbe d93c 303e f2eb 323e
000003e0: c136 95bc b019 403d acbc b03d 3096 61bb
000003f0: d56b c93c f592 b8be c985 24be 2478 e73b

network_body._body_endoder.seq_layers.0.bias f4 [128]
0.00022876848 0.012363849 0.01186091 -0.011371143 0.00084287464 0.012137876 -0.01166658 0.005520205
-0.0017381669 -0.010581101 -0.0115947435 -0.012159716 -0.0026554267 -0.008897824 0.0073739346 -0.0006447336
-0.009667348 0.012062904 -0.011290855 0.012266667 -0.011868381 -0.0078033796 -0.011180655 0.012251698
-0.010898226 0.0048271515 0.01222364 -0.012132512 -0.010208736 -0.0003605237 0.0123183 0.006363716
-0.011189107 0.009934449 0.0021349718 0.01097425 0.010169114 -0.011387762 0.004844051 -0.008454564
0.01170978 7.2813627e-06 -0.0047081974 0.012323843 -0.0103757875 0.0046634376 -0.0057161413 -0.011298077
0.0022217499 -0.011334446 -0.012258558 0.012054974 -0.011061422 -0.010380532 0.0101518165 0.004674064
-0.006759284 -0.0062090256 0.008751993 -0.0028360088 0.012286375 -0.0063162264 -0.010076039 0.010491717
0.0030585495 0.010726046 0.012402155 0.009394696 0.0125509305 0.009309326 -0.0033663963 0.012112579
0.010904803 3.1857187e-05 -0.0049361195 -9.638806e-05 0.010523869 0.012485541 0.008064489 0.011431864
-0.00014954546 -0.011592074 -0.01067126 0.012020011 0.008714746 0.002341999 0.011636575 -0.010487168
-0.00771506 -0.011464973 0.012449999 -0.008044782 0.0121718235 -0.0062670363 0.009492757 -0.011919977
-0.011625081 -0.010924351 -0.004991648 -0.005861222 -0.011691988 0.0006634626 -0.008603008 -0.010829155
0.012411594 0.006744399 0.010335586 0.010975681 0.012326908 -0.010863275 -0.012117221 0.0005785395
0.012414854 -0.0063321507 -0.001612587 -0.007703742 -0.010969391 0.012212351 -0.011600294 0.0011929884
-0.009523332 -0.01116375 -0.00629134 0.005005237 -0.011778179 0.0123424465 0.011965523 -0.006583027
00000000: 92e1 6f39 be91 4a3c 4354 423c 084e 3abc
00000010: 5cf4 5c3a f1dd 463c 2f25 3fbc d6e2 b43b
00000020: 34d3 e3ba 5b5c 2dbc e1f7 3dbc 8c39 47bc
00000030: ab06 2ebb 2ec8 11bc 0ca1 f13b 5703 29ba
00000040: cc63 1ebc 7da3 453c 47fd 38bc 21fa 483c
00000050: 9973 42bc 7eb3 ffbb 112f 37bc 59bb 483c
00000060: 798e 32bc 152d 9e3b aa45 483c 72c7 46bc
00000070: 8b42 27bc ac04 bdb9 b2d2 493c b886 d03b
00000080: 8452 37bc 19c4 223c e2ea 0b3b 57cd 333c
00000090: 5b9c 263c bc93 3abc d8ba 9e3b 0385 0abc
000000a0: 61da 3f3c 6e52 f436 3947 9abb f2e9 493c
000000b0: 35ff 29bc c0cf 983b 784e bbbb 921b 39bc
000000c0: c79a 113b 1db4 39bc 1ed8 48bc 3a82 453c
000000d0: f73a 35bc 1b13 2abc ce53 263c e428 993b
000000e0: fc7c ddbb 1575 cbbb 8564 0f3c 55dc 39bb
000000f0: cb4c 493c 59f8 cebb f815 25bc 73e5 2b3c
00000100: f271 483b 4cbc 2f3c 6932 4b3c 36ec 193c
00000110: 6ba2 4d3c 2586 183c c29e 5cbb d773 463c
00000120: 0faa 323c 659e 0538 2cbf a1bb f223 cab8
00000130: 4e6c 2c3c 2890 4c3c eb20 043c b74c 3b3c
00000140: 4ecf 1cb9 afec 3dbc 82d6 2ebc 95ef 443c
00000150: 4bc8 0e3c 397c 193b 55a7 3e3c 5fd2 2bbc
00000160: 9dce fcbb 95d7 3bbc 15fb 4b3c 43ce 03bc
00000170: 546c 473c b65b cdbb 8287 1b3c 024c 43bc
00000180: 2077 3ebc 0dfc 32bc fa90 a3bb 7e0f c0bb
00000190: c18f 3fbc 39ec 2d3a a2f3 0cbc c56c 31bc
000001a0: 005a 4b3c 1f00 dd3b 9756 293c 58d3 333c
000001b0: cdf6 493c e1fb 31bc 4f87 46bc 21a9 173a
000001c0: ac67 4b3c ee7d cfbb 715d d3ba ac6f fcbb
000001d0: f6b8 33bc 5016 483c 290f 3ebc 0c5e 9c3a
000001e0: c007 1cbc 29e8 36bc 9627 cebb f902 a43b
000001f0: 43f9 40bc f937 4a3c 0a0b 443c 6fb6 d7bb

network_body._body_endoder.seq_layers.2.weight f4 [128, 128]
-0.13656844 -0.08503425 -0.08507051 -0.103229426 0.1059888 -0.08362186 -0.0013541525 -0.23341596
-0.10670208 0.10259599 -0.011423338 0.03978341 -0.038904916 0.017014712 -0.010521393 0.043601237
-0.12935309 0.021342713 0.003756389 -0.0039270488 -0.19223565 -0.0030757699 -0.0961683 0.21269849
-0.08311044 0.12249015 -0.015930573 -0.11888802 -0.13283576 0.051874347 -0.03326364 0.09455658
0.059020564 0.10496882 -0.11243452 -0.19179595 -0.15582687 -0.0065363743 0.20516898 0.021410523
0.013428292 0.1609998 0.0467096 0.010437922 -0.011514695 -0.009207206 0.019922206 -0.09499055
0.10916344 -0.011123302 -0.08950038 0.2980165 0.032030992 0.19486116 0.010672087 0.17742166
0.050424725 0.05280472 0.03075877 -0.10687242 0.09045791 -0.041724484 0.00946058 -0.069997236
-0.23566687 -0.14786519 0.07576662 0.018454332 -0.051775884 -0.03511924 -0.043556318 0.06735432
0.009047487 0.046766154 -0.16354297 0.032825254 -0.017496014 -0.07149343 0.09907901 0.0672339
-0.05158884 -0.15729176 -0.053942095 0.05088995 0.019699106 -0.027860392 -0.115312144 -0.118482046
0.016563796 -0.024757853 -0.1806822 0.08661046 0.0060979608 -0.02670067 0.0035161918 -0.0032632765
-0.03879501 0.09676813 0.046743754 -0.03301521 -0.034616414 -0.030333314 0.0073295403 -0.115776
0.044276193 -0.07298479 0.123690754 -0.039711814 0.026213784 -0.07216352 -5.87354e-05 -0.040369462
-0.09951242 0.09686043 -0.13041885 0.044862486 0.023251696 -0.15471676 0.062105123 0.007204657
0.104475506 0.03799001 0.10188693 0.056702394 0.029549286 0.11830014 0.07178062 -0.22080323
-0.00041546428 0.074103184 -0.0036915792 -0.12905982 -0.013474121 -0.053734902 0.19649827 0.010485639
0.15507136 -0.08817279 -0.22891805 -0.03780042 -0.15350352 0.06095193 -0.07161282 -0.050888866
0.17424886 -0.008428653 0.11482872 0.07717347 -0.061122585 -0.026187252 0.058202595 0.024985587
-0.10581606 -0.13235691 -0.099778205 -0.123458646 -0.13635589 -0.10166711 -0.030456683 -0.04120147
0.021168508 0.083278395 0.09608909 0.0032539135 -0.034862544 0.12048832 0.04220006 0.06881289
0.0765895 0.15390354 0.012488962 -0.061388757 0.12113501 0.07902874 -0.016578602 0.0058105923
-0.05557385 -0.19125299 0.23103027 -0.0077421824 -0.10608759 0.025897017 0.038871687 0.016371813
0.071944475 0.07929155 -0.044239372 -0.02543901 0.12085195 -0.047857042 -0.10489225 0.04920095
-0.041942023 -0.023737997 0.16721207 0.07300596 0.028484304 0.15402159 -0.076156266 -0.043533377
0.022679446 -0.02372426 -0.02303235 0.18744561 0.18526255 0.043845635 0.027925963 0.0178545
-0.1542114 -0.055269815 -0.12763695 0.10818403 0.06314853 0.07322698 0.13213141 -0.09362705
0.10000947 -0.05599941 0.02873927 0.06946295 0.12389101 0.03169987 0.047502052 0.070760384
-0.08576152 0.037960656 0.0356264 0.24055149 -0.13006076 0.07803959 -0.18170145 -0.033950284
0.04830508 0.13480297 0.022495091 0.17511575 0.08054427 0.06984896 -0.0139174815 -0.02837686
0.014168033 0.022809671 -0.038079195 -0.06428014 0.13592573 -0.04645594 -0.09968298 -0.01138036
0.017343156 -0.08108365 -0.1094385 0.112937644 0.021510001 0.056305137 0.11101264 0.0812736
00000000: 99d8 0bbe 7026 aebd 7339 aebd f369 d3bd
00000010: a810 d93d f041 abbd d17d b1ba 9804 6fbe
00000020: 9f86 dabd d91d d23d f428 3bbc eef3 223d
00000030: c35a 1fbd 7062 8b3c ec61 2cbc 3697 323d
00000040: 2375 04be ead6 ae3c c02d 763b 79ae 80bb
00000050: 6cd9 44be db92 49bb e3f3 c4bd a2cd 593e
00000060: ce35 aabd 1edc fa3d d580 82bc 907b f3bd
00000070: 1906 08be 327a 543d 743f 08bd e1a6 c13d
00000080: 8cbf 713d e5f9 d63d 1244 e6bd 2866 44be
00000090: 1491 1fbe 152f d6bb d117 523e 1f65 af3c
000000a0: 5702 5c3c 22dd 243e 9152 3f3d d103 2b3c
000000b0: 22a8 3cbc d2d9 16bc e533 a33c 688a c2bd
000000c0: 1591 df3d 833e 36bc fa4b b7bd 9e95 983e
000000d0: ee32 033d af89 473e fad9 2e3c 06ae 353e
000000e0: 288a 4e3d c349 583d d1f9 fb3c eddf dabd
000000f0: ff41 b93d 4be7 2abd 8c00 1b3c b65a 8fbd
00000100: a852 71be f969 17be 882b 9b3d 8a2d 973c
00000110: f312 54bd 31d9 0fbd 1c68 32bd 10f1 893d
00000120: e93b 143c de8d 3f3d cf77 27be c673 063d
00000130: cd53 8fbc 266b 92bd f0e9 ca3d edb1 893d
00000140: d24e 53bd 1711 21be 63f2 5cbd fb71 503d
00000150: 0560 a13c 7a3b e4bc c628 ecbd b7a6 f2bd
00000160: ccb0 873c fbd0 cabc c104 39be d360 b13d
00000170: 67d1 c73b 5dbb dabc e96f 663b b2dc 55bb
00000180: 84e7 1ebd 5f2e c63d 6176 3f3d f53a 07bd
00000190: f1c9 0dbd 927d f8bc a42c f03b f81b edbd
000001a0: f45a 353d 0d79 95bd 9451 fd3d dba8 22bd
000001b0: 4abe d63c 78ca 93bd a85a 76b8 735a 25bd
000001c0: 2bcd cbbd c35e c63d 858c 05be bac1 373d
000001d0: 577a be3c 126e 1ebe f161 7e3d 0b15 ec3b
000001e0: 41f7 d53d 6a9b 1b3d 18aa d03d c540 683d
000001f0: 5811 f23c 5847 f23d b801 933d 3e1a 62be
00000200: acd2 d9b9 69c3 973d 6cee 71bb 4228 04be
00000210: 8fc2 5cbc 2119 5cbd d836 493e f5cb 2b3c
00000220: 07cb 1e3e f093 b4bd 7e69 6abe 9dd4 1abd
00000230: 0730 1dbe bba8 793d bea9 92bd d870 50bd
00000240: 4b6e 323e 5518 0abc 522b eb3d 200d 9e3d
00000250: ad5b 7abd a686 d6bc d865 6e3d 93ae cc3c
00000260: 17b6 d8bd 9288 07be 8458 ccbd e3d7 fcbd
00000270: e1a0 0bbe d936 d0bd 4b80 f9bc dfc2 28bd
00000280: 9469 ad3c dd8d aa3d 5bca c43d 9c3f 553b
00000290: 07cc 0ebd 95c2 f63d f8d9 2c3d c6ed 8c3d
000002a0: f5da 9c3d e498 1d3e 819e 4c3c c772 7bbd
000002b0: a215 f83d d2d9 a13d d9cf 87bc c866 be3b
000002c0: 68a1 63bd d3d7 43be 3393 6c3e 22b2 fdbb
000002d0: 7344 d9bd fb25 d43c eb37 1f3d 2e1e 863c
000002e0: a057 933d 9c63 a23d 5834 35bd 7865 d0bc
000002f0: 3a81 f73d bf05 44bd bfd1 d6bd ef86 493d
00000300: 66cb 2bbd 3076 c2bc a439 2b3e 2684 953d
00000310: ea57 e93c d6b7 1d3e d1f7 9bbd 0e50 32bd
00000320: 3fca b93c 6159 c2bc 57ae bcbc bef1 3f3e
00000330: 77b5 3d3e 7b97 333d fdc4 e43c 9a43 923c
00000340: 98e9 1dbe 9a62 62bd 43b3 02be 978f dd3d
00000350: 0454 813d 07f8 953d 754d 073e 8abf bfbd
00000360: c4d1 cc3d a35f 65bd 9e6e eb3c 9742 8e3d
00000370: 92ba fd3d b9d7 013d 8391 423d d2ea 903d
00000380: bca3 afbd a27c 1b3d fdec 113d 2153 763e
00000390: a62e 05be 38d3 9f3d f20f 3abe 740f 0bbd
000003a0: 8cdb 453d ca09 0a3e a047 b83c 8b51 333e
000003b0: 65f4 a43d f90c 8f3d 2606 64bc 9776 e8bc
000003c0: 0a21 683c 59db ba3c eef8 1bbd 4ea5 83bd
000003d0: 1d30 0b3e 9548 3ebd 9726 ccbd b174 3abc
000003e0: 3c13 8e3c 2f0f a6bd 4b21 e0bd da4b e73d
000003f0: be35 b03c 37a0 663d 985a e33d c672 a63d

network_body._body_endoder.seq_layers.2.bias f4 [128]
0.012367105 0.012161242 0.007942418 -0.0027458535 0.012101166 0.012134721 -0.0021283885 0.012410971
-0.0015675671 0.01215059 -0.011385693 0.011440196 -0.002758624 -0.010314208 -0.006139999 -0.01117019
0.00017501306 -0.0030410571 -0.010689087 -0.011957848 0.011890479 0.012159132 -0.01161707 -0.011165255
-0.008548947 -0.0108512 0.012036905 0.004523647 0.012284631 0.006752562 -0.009035784 0.012514747
-0.011493364 -0.010996311 0.0037202889 -0.009844056 -0.010123449 -0.011326358 0.007761741 -0.0030768402
0.006758977 0.010550148 -0.010940084 0.007702528 -0.011695793 -0.010831911 0.012424744 0.00876765
-0.009419657 -0.01024273 -0.0049836715 -0.011120606 0.0034366706 0.0064040297 -0.0053631035 0.012255563
0.005919824 -0.011588645 -0.007300196 0.012335122 -0.0094969 -0.0055934386 -0.006766749 -0.0030732523
-0.0047128387 -0.0047587114 -0.010406693 -0.008921716 0.012305157 -0.010581852 0.009736054 -0.011654285
0.0075060194 0.012113408 -0.0054100496 0.012248761 -0.011182422 0.012219909 -0.0024769467 0.007685993
-0.008113273 0.012235529 -0.011599506 -0.009463897 0.012095691 -0.0086877635 -0.003141644 -0.01052655
-0.010060374 -0.007533088 -0.006185894 -0.01152062 -0.008576352 -0.0051402296 0.00024029506 0.012090064
-0.011393777 0.01204511 0.012417929 -0.009450682 0.0012156146 -0.009309443 0.00089886313 0.00763963
-0.006834546 0.012193054 -0.0114374515 -0.0116724 0.012388335 0.0056012366 -0.009578935 -0.003753922
0.00088213524 0.0059609897 -0.011915801 0.010454297 0.012115527 0.012340881 -0.002084076 -0.011140876
-0.01121582 -0.009836737 -0.006734741 -0.010985227 -0.0070132646 0.012480986 -0.0002715431 0.007558454
00000000: 669f 4a3c f23f 473c ea20 023c c7f3 33bb
00000010: f843 463c b5d0 463c 6f7c 0bbb 6357 4b3c
00000020: d376 cdba 4513 473c 0f8b 3abc a96f 3b3c
00000030: 08ca 34bb edfc 28bc 0b32 c9bb 2c03 37bc
00000040: b683 3739 794c 47bb 4821 2fbc daea 43bc
00000050: 49d0 423c 1937 473c 8655 3ebc 79ee 36bc
00000060: e210 0cbc 3bc9 31bc 7036 453c 1a3b 943b
00000070: 7a45 493c 9844 dd3b d30a 14bc a70a 4d3c
00000080: aa4e 3cbc df29 34bc 17d0 733b f748 21bc
00000090: d3dc 25bc 3092 39bc 3456 fe3b d0a4 49bb
000000a0: 697a dd3b 87da 2c3c 0a3e 33bc 7d65 fc3b
000000b0: b69f 3fbc 5478 31bc 2791 4b3c 31a6 0f3c
000000c0: e854 1abc 20d1 27bc 114e a3bb 3433 36bc
000000d0: c439 613b e5d8 d13b f9bc afbb 8fcb 483c
000000e0: 15fb c13b 4dde 3dbc 7c36 efbb 4019 4a3c
000000f0: e398 1bbc 2a49 b7bb 9bbb ddbb 9e68 49bb
00000100: 286e 9abb f7ee 9bbb d680 2abc 642c 12bc
00000110: 929b 493c 815f 2dbc f883 1f3c 9df1 3ebc
00000120: 0ef5 f53b 5177 463c c946 b1bb 07af 483c
00000130: 7a36 37bc 0336 483c 4554 22bb c8da fb3b
00000140: 89ed 04bc 8777 483c db0b 3ebc 760e 1bbc
00000150: 012d 463c 1f57 0ebc 0ae4 4dbb 8d77 2cbc
00000160: 44d4 24bc 1fd8 f6bb 0ab3 cabb fcc0 3cbc
00000170: d483 0cbc 5f6f a8bb b7f7 7b39 6715 463c
00000180: f7ac 3abc da58 453c 9274 4b3c 09d7 1abc
00000190: 4255 9f3a a286 18bc afa1 6b3a dd55 fa3b
000001a0: 54f4 dfbb 60c5 473c 2664 3bbc 983d 3fbc
000001b0: 71f8 4a3c 948a b73b f7f0 1cbc 5c04 76bb
000001c0: 183f 673a 6854 c33b 7e3a 43bc 8048 2b3c
000001d0: 3480 463c 6831 4a3c fe94 08bb 3988 36bc
000001e0: 8fc2 37bc 442a 21bc 1aaf dcbb 62fb 33bc
000001f0: 87cf e5bb 0d7d 4c3c e65d 8eb9 e8ac f73b

action_model._discrete_distribution.branches.0.weight f4 [2, 128]
0.0035298625 0.016085278 0.013258278 0.012035586 0.011279348 0.01441289 -0.016340686 0.014260811
0.0007668478 0.018091086 -0.012170604 0.0105673475 -0.012130001 -0.025077384 -0.003402488 -0.019950122
-0.0091571845 -0.0006883773 -0.019110963 -0.010524821 0.0077621383 0.023950065 -0.013909024 -0.014241639
-0.01755095 -0.00850301 0.03110303 -0.010218773 0.021818338 0.010840462 -0.019156398 0.022310961
-0.0096673155 -0.011738323 0.0063906796 -0.0065860953 -0.013062143 -0.011731688 0.0025203424 0.008644271
-0.0090157855 -0.00048278552 -0.021324985 0.007846157 -0.01638287 -0.026323829 0.015854253 -0.009773483
-0.024645533 -0.027053533 -0.0013618504 -0.022022475 0.0094116125 -0.0030752532 -0.018295499 0.008127909
0.00090642663 -0.009985603 -0.004845212 -0.0005709494 -0.02713455 -0.008991939 -0.02419297 0.0044350005
0.00052854203 -0.0075285924 -0.023499507 -0.011264812 0.0116201 -0.008525234 0.005478982 -0.02242141
0.015556159 0.007387382 -0.007608593 0.02017362 -0.010719376 0.020714305 -0.0019849916 0.0024729474
-0.018751264 0.019498013 -0.026550489 -0.01130058 0.018980907 -0.004549655 0.006046024 -0.021010352
-0.02307039 0.0034460712 -0.01052192 -0.02454851 -0.024467546 -0.009215461 -0.008019869 0.02669397
-0.004735663 0.030881409 0.022964947 -0.017501188 -0.010479602 -0.00896347 -0.00055777514 -0.010405017
-0.0056683505 0.006529245 -0.01726833 -0.017906701 0.011649949 0.008681899 -0.0150374 0.0028110878
-5.6009892e-05 0.0111957 -0.009392137 0.00862228 0.036017198 0.009283554 -0.011632882 -0.009125559
-0.009558722 -0.01969866 -0.009664661 -0.022836188 -0.016332256 0.015206817 -0.012467658 0.01732003
-0.021202471 -0.008753294 0.005541443 0.011755475 -0.014629393 -0.02863356 -0.0013109811 -0.012402407
-0.008803195 -0.029193811 0.023127504 -0.01297521 0.0032432794 0.0069710794 0.014987378 0.011834151
0.000980376 0.018616216 0.012489112 0.014068912 -0.016447494 -0.016764283 0.014143578 0.012934564
0.014851686 0.017369865 -0.01359874 -0.0024217702 -0.013048249 -0.00971455 0.025523506 -0.008713043
0.018616613 0.012270593 0.008572683 0.01805875 0.01533124 0.01731816 -0.018493257 -0.0018516076
-0.0035841016 -0.017910028 0.016848497 -0.013267896 0.016310023 0.003962138 -0.009716624 -0.00814272
0.005798174 0.017135486 -0.0004134373 0.015898222 -0.0058747516 0.0017139233 -6.853947e-05 -0.016329989
0.004000062 0.011970912 -0.00016203133 -0.025862044 0.03439851 0.011347625 -0.002397046 -0.0017840537
-0.008540769 0.011698325 0.0064711994 0.011802803 -0.022947384 0.027766144 -0.01736306 0.005962804
0.0061196964 -0.016967157 0.010759944 -0.011580824 0.018826496 -0.01728412 0.0025648896 -0.008719635
0.024747625 -0.017331949 0.011326654 0.027506473 -0.014898202 0.0009797023 -0.003589477 0.022446612
0.024529433 0.0028089194 -0.0063178074 0.008419375 -0.0028445842 0.0081793815 0.004478099 -0.023273604
0.01533247 -0.015133575 -0.00519117 0.006720326 -0.0065915035 0.02007325 0.010506936 -0.005130916
0.016286455 -0.017718274 0.008729061 0.0076195723 -0.018742515 -0.011209596 -0.00023847143 -0.0036795766
-0.012872304 -0.007721395 0.014812415 -0.014094025 -0.0045606573 -0.01853208 -0.017130455 0.01986728
0.017380822 -0.0036562786 0.015691593 0.0099995015 0.0041241623 -0.012763669 0.0013928753 0.011071252
00000000: 4455 673b 46c5 833c 4039 593c e830 453c
00000010: 04cd 383c 0b24 6c3c e7dc 85bc 2da6 693c
00000020: 4906 493a c233 943c 3767 47bc ab22 2d3c
00000030: e9bc 46bc 166f cdbc 47fc 5ebb 706e a3bc
00000040: 0408 16bc 3874 34ba 988e 9cbc 4c70 2cbc
00000050: 8959 fe3b ed32 c43c ade2 63bc c355 69bc
00000060: 03c7 8fbc 3550 0bbc c8cb fe3c a46c 27bc
00000070: 5fbc b23c 319c 313c e1ed 9cbc 7ac5 b63c
00000080: a963 1ebc 1852 40bc e868 d13b 2cd0 d7bb
00000090: 9902 56bc 4436 40bc 542c 253b b3a0 0d3c
000000a0: f2b6 13bc 601e fdb9 bcb1 aebc 2b8d 003c
000000b0: 5e35 86bc 12a5 d7bc c7e0 813c f520 20bc
000000c0: 6ee5 c9bc 5f9f ddbc 1e80 b2ba 7a68 b4bc
000000d0: 2a33 1a3c 308a 49bb 71e0 95bc ec2a 053c
000000e0: 439d 6d3a a89a 23bc 96c4 9ebb c4ab 15ba
000000f0: 4749 debc ed52 13bc 5630 c6bc 7b53 913b
00000100: db8d 0a3a 69b2 f6bb 0a82 c0bc 0c90 38bc
00000110: 3b62 3e3c 6cad 0bbc 0889 b33b 1bad b7bc
00000120: 43df 7e3c da11 f23b 8151 f9bb 2643 a53c
00000130: 52a0 2fbc 0cb1 a93c a216 02bb 2c11 223b
00000140: 409c 99bc 4cba 9f3c 6980 d9bc 1126 39bc
00000150: d97d 9b3c 4615 95bb ba1d c63b e71d acbc
00000160: 1dfe bcbc 7bd7 613b 2264 2cbc f519 c9bc
00000170: 2a70 c8bc 72fc 16bc c565 03bc 50ad da3c
00000180: 9f2d 9bbb 02fb fc3c fc20 bc3c a75e 8fbc
00000190: a3b2 2bbc 85db 12bc a837 12ba ce79 2abc
000001a0: 92bd b9bb 47f3 d53b 5076 8dbc 13b1 92bc
000001b0: 6ddf 3e3c 863e 0e3c 6d5f 76bc 3a3a 383b
000001c0: 2aec 6ab8 2b6e 373c 7ae1 19bc 7744 0d3c
000001d0: c586 133d 0c1a 183c d897 3ebc 5e83 15bc
000001e0: 309c 1cbc 165f a1bc 8758 1ebc f512 bbbc
000001f0: 39cb 85bc 0326 793c 2645 4cbc bce2 8d3c
00000200: ceb0 adbc fa69 0fbc fe94 b53b 099a 403c
00000210: 1fb0 6fbc ed90 eabc 3ad5 abba 7733 4bbc
00000220: 473b 10bc dc27 efbc e475 bd3c fa95 54bc
00000230: 338d 543b a76d e43b 9f8d 753c 07e4 413c
00000240: f67f 803a 0981 983c 229f 4c3c 4b81 663c
00000250: e5bc 86bc 4055 89bc 77ba 673c 7eeb 533c
00000260: 7c54 733c 3f4b 8e3c 40cd 5ebc 90b6 1ebb
00000270: 53c8 55bc c729 1fbc ac16 d13c 27c1 0ebc
00000280: de81 983c 990a 493c 7074 0c3c f2ef 933c
00000290: e22f 7b3c d0de 8d3c 2c7f 97bc a4b1 f2ba
000002a0: 3fe3 6abb 0db8 92bc dc05 8a3c 9761 59bc
000002b0: 999c 853c d3d4 813b 7a32 1fbc 0b69 05bc
000002c0: 9cfe bd3b b85f 8c3c 9dc2 d8b9 fd3c 823c
000002d0: fd80 c0bb b9a5 e03a d9bc 8fb8 78c6 85bc
000002e0: f412 833b a521 443c f4e6 29b9 a3dc d3bc
000002f0: 74e5 0c3d 64eb 393c c217 1dbb e9d6 e9ba
00000300: 95ee 0bbc 55aa 3f3c 5b0c d43b 8b60 413c
00000310: 27fc bbbc d375 e33c fa3c 8ebc a063 c33b
00000320: bc87 c83b b5fe 8abc 7a4a 303c 7fbd 3dbc
00000330: 063a 9a3c 6d97 8dbc b517 283b cddc 0ebc
00000340: 88bb ca3c bbfb 8dbc 6e93 393c 4155 e13c
00000350: 9717 74bc 5b69 803a 6e3d 6bbb f5e1 b73c
00000360: f3f1 c83c d915 383b 9c05 cfbb 6bf1 093c
00000370: 346c 3abb d002 063c 04bd 923b 49a8 bebc
00000380: 0a35 7b3c d0f2 77bc b11a aabb 2e36 dc3b
00000390: 8afd d7bb a870 a43c 4925 2c3c 3e21 a8bb
000003a0: 2c6b 853c ea25 91bc 5604 0f3c 9bad f93b
000003b0: e789 99bc 74a8 37bc 300e 7ab9 0d25 71bb
000003c0: 5be6 52bc c203 fdbb c5af 723c a0ea 66bc
000003d0: 9171 95bb 97d0 97bc 2b55 8cbc b5c0 a23c
000003e0: 3a62 8e3c 2d9e 6fbb a88b 803c f3d4 233c
000003f0: fb23 873b b51e 51bc 2491 b63a 3264 353c

action_model._discrete_distribution.branches.0.bias f4 [2]
0.011201177 -0.011201178
00000000: 2485 373c 2585 37bc

exp_avg f4 [128, 57]
0.0 2.5838259e-05 2.5838259e-05 0.0 2.5838259e-05 2.5838259e-05 0.0 2.5838259e-05
2.5838259e-05 0.0 2.5838259e-05 2.5838259e-05 0.0 2.5838259e-05 2.5838259e-05 0.0
2.5838259e-05 2.5838259e-05 0.0 2.5838259e-05 2.5838259e-05 0.0 2.5838259e-05 2.5838259e-05
0.0 2.5838259e-05 2.5838259e-05 0.0 2.5838259e-05 2.5838259e-05 0.0 2.5838259e-05
2.5838259e-05 0.0 2.5838259e-05 2.5838259e-05 0.0 2.5838259e-05 2.5838259e-05 0.0
2.5838259e-05 2.5838259e-05 0.0 2.5838259e-05 2.5838259e-05 0.0 2.5838259e-05 2.5838259e-05
0.0 2.5838259e-05 2.5838259e-05 0.0 2.5838259e-05 2.5838259e-05 0.0 2.5838259e-05
2.5838259e-05 0.0 7.449188e-05 7.449188e-05 0.0 7.449188e-05 7.449188e-05 0.0
7.449188e-05 7.449188e-05 0.0 7.449188e-05 7.449188e-05 0.0 7.449188e-05 7.449188e-05
0.0 7.449188e-05 7.449188e-05 0.0 7.449188e-05 7.449188e-05 0.0 7.449188e-05
7.449188e-05 0.0 7.449188e-05 7.449188e-05 0.0 7.449188e-05 7.449188e-05 0.0
7.449188e-05 7.449188e-05 0.0 7.449188e-05 7.449188e-05 0.0 7.449188e-05 7.449188e-05
0.0 7.449188e-05 7.449188e-05 0.0 7.449188e-05 7.449188e-05 0.0 7.449188e-05
7.449188e-05 0.0 7.449188e-05 7.449188e-05 0.0 7.449188e-05 7.449188e-05 0.0
7.449188e-05 7.449188e-05 0.0 1.2464066e-05 1.2464066e-05 0.0 1.2464066e-05 1.2464066e-05
0.0 1.2464066e-05 1.2464066e-05 0.0 1.2464066e-05 1.2464066e-05 0.0 1.2464066e-05
1.2464066e-05 0.0 1.2464066e-05 1.2464066e-05 0.0 1.2464066e-05 1.2464066e-05 0.0
1.2464066e-05 1.2464066e-05 0.0 1.2464066e-05 1.2464066e-05 0.0 1.2464066e-05 1.2464066e-05
0.0 1.2464066e-05 1.2464066e-05 0.0 1.2464066e-05 1.2464066e-05 0.0 1.2464066e-05
1.2464066e-05 0.0 1.2464066e-05 1.2464066e-05 0.0 1.2464066e-05 1.2464066e-05 0.0
1.2464066e-05 1.2464066e-05 0.0 1.2464066e-05 1.2464066e-05 0.0 1.2464066e-05 1.2464066e-05
0.0 1.2464066e-05 1.2464066e-05 0.0 -2.929127e-05 -2.929127e-05 0.0 -2.929127e-05
-2.929127e-05 0.0 -2.929127e-05 -2.929127e-05 0.0 -2.929127e-05 -2.929127e-05 0.0
-2.929127e-05 -2.929127e-05 0.0 -2.929127e-05 -2.929127e-05 0.0 -2.929127e-05 -2.929127e-05
0.0 -2.929127e-05 -2.929127e-05 0.0 -2.929127e-05 -2.929127e-05 0.0 -2.929127e-05
-2.929127e-05 0.0 -2.929127e-05 -2.929127e-05 0.0 -2.929127e-05 -2.929127e-05 0.0
-2.929127e-05 -2.929127e-05 0.0 -2.929127e-05 -2.929127e-05 0.0 -2.929127e-05 -2.929127e-05
0.0 -2.929127e-05 -2.929127e-05 0.0 -2.929127e-05 -2.929127e-05 0.0 -2.929127e-05
-2.929127e-05 0.0 -2.929127e-05 -2.929127e-05 0.0 5.954353e-06 5.954353e-06 0.0
5.954353e-06 5.954353e-06 0.0 5.954353e-06 5.954353e-06 0.0 5.954353e-06 5.954353e-06
0.0 5.954353e-06 5.954353e-06 0.0 5.954353e-06 5.954353e-06 0.0 5.954353e-06
5.954353e-06 0.0 5.954353e-06 5.954353e-06 0.0 5.954353e-06 5.954353e-06 0.0
00000000: 0000 0000 3dbf d837 3dbf d837 0000 0000
00000010: 3dbf d837 3dbf d837 0000 0000 3dbf d837
00000020: 3dbf d837 0000 0000 3dbf d837 3dbf d837
00000030: 0000 0000 3dbf d837 3dbf d837 0000 0000
00000040: 3dbf d837 3dbf d837 0000 0000 3dbf d837
00000050: 3dbf d837 0000 0000 3dbf d837 3dbf d837
00000060: 0000 0000 3dbf d837 3dbf d837 0000 0000
00000070: 3dbf d837 3dbf d837 0000 0000 3dbf d837
00000080: 3dbf d837 0000 0000 3dbf d837 3dbf d837
00000090: 0000 0000 3dbf d837 3dbf d837 0000 0000
000000a0: 3dbf d837 3dbf d837 0000 0000 3dbf d837
000000b0: 3dbf d837 0000 0000 3dbf d837 3dbf d837
000000c0: 0000 0000 3dbf d837 3dbf d837 0000 0000
000000d0: 3dbf d837 3dbf d837 0000 0000 3dbf d837
000000e0: 3dbf d837 0000 0000 8638 9c38 8638 9c38
000000f0: 0000 0000 8638 9c38 8638 9c38 0000 0000
00000100: 8638 9c38 8638 9c38 0000 0000 8638 9c38
00000110: 8638 9c38 0000 0000 8638 9c38 8638 9c38
00000120: 0000 0000 8638 9c38 8638 9c38 0000 0000
00000130: 8638 9c38 8638 9c38 0000 0000 8638 9c38
00000140: 8638 9c38 0000 0000 8638 9c38 8638 9c38
00000150: 0000 0000 8638 9c38 8638 9c38 0000 0000
00000160: 8638 9c38 8638 9c38 0000 0000 8638 9c38
00000170: 8638 9c38 0000 0000 8638 9c38 8638 9c38
00000180: 0000 0000 8638 9c38 8638 9c38 0000 0000
00000190: 8638 9c38 8638 9c38 0000 0000 8638 9c38
000001a0: 8638 9c38 0000 0000 8638 9c38 8638 9c38
000001b0: 0000 0000 8638 9c38 8638 9c38 0000 0000
000001c0: 8638 9c38 8638 9c38 0000 0000 c11c 5137
000001d0: c11c 5137 0000 0000 c11c 5137 c11c 5137
000001e0: 0000 0000 c11c 5137 c11c 5137 0000 0000
000001f0: c11c 5137 c11c 5137 0000 0000 c11c 5137
00000200: c11c 5137 0000 0000 c11c 5137 c11c 5137
00000210: 0000 0000 c11c 5137 c11c 5137 0000 0000
00000220: c11c 5137 c11c 5137 0000 0000 c11c 5137
00000230: c11c 5137 0000 0000 c11c 5137 c11c 5137
00000240: 0000 0000 c11c 5137 c11c 5137 0000 0000
00000250: c11c 5137 c11c 5137 0000 0000 c11c 5137
00000260: c11c 5137 0000 0000 c11c 5137 c11c 5137
00000270: 0000 0000 c11c 5137 c11c 5137 0000 0000
00000280: c11c 5137 c11c 5137 0000 0000 c11c 5137
00000290: c11c 5137 0000 0000 c11c 5137 c11c 5137
000002a0: 0000 0000 c11c 5137 c11c 5137 0000 0000
000002b0: 86b6 f5b7 86b6 f5b7 0000 0000 86b6 f5b7
000002c0: 86b6 f5b7 0000 0000 86b6 f5b7 86b6 f5b7
000002d0: 0000 0000 86b6 f5b7 86b6 f5b7 0000 0000
000002e0: 86b6 f5b7 86b6 f5b7 0000 0000 86b6 f5b7
000002f0: 86b6 f5b7 0000 0000 86b6 f5b7 86b6 f5b7
00000300: 0000 0000 86b6 f5b7 86b6 f5b7 0000 0000
00000310: 86b6 f5b7 86b6 f5b7 0000 0000 86b6 f5b7
00000320: 86b6 f5b7 0000 0000 86b6 f5b7 86b6 f5b7
00000330: 0000 0000 86b6 f5b7 86b6 f5b7 0000 0000
00000340: 86b6 f5b7 86b6 f5b7 0000 0000 86b6 f5b7
00000350: 86b6 f5b7 0000 0000 86b6 f5b7 86b6 f5b7
00000360: 0000 0000 86b6 f5b7 86b6 f5b7 0000 0000
00000370: 86b6 f5b7 86b6 f5b7 0000 0000 86b6 f5b7
00000380: 86b6 f5b7 0000 0000 86b6 f5b7 86b6 f5b7
00000390: 0000 0000 81cb c736 81cb c736 0000 0000
000003a0: 81cb c736 81cb c736 0000 0000 81cb c736
000003b0: 81cb c736 0000 0000 81cb c736 81cb c736
000003c0: 0000 0000 81cb c736 81cb c736 0000 0000
000003d0: 81cb c736 81cb c736 0000 0000 81cb c736
000003e0: 81cb c736 0000 0000 81cb c736 81cb c736
000003f0: 0000 0000 81cb c736 81cb c736 0000 0000

exp_avg_sq f4 [128, 57]
0.0 1.8121294e-09 1.8121294e-09 0.0 1.8121294e-09 1.8121294e-09 0.0 1.8121294e-09
1.8121294e-09 0.0 1.8121294e-09 1.8121294e-09 0.0 1.8121294e-09 1.8121294e-09 0.0
1.8121294e-09 1.8121294e-09 0.0 1.8121294e-09 1.8121294e-09 0.0 1.8121294e-09 1.8121294e-09
0.0 1.8121294e-09 1.8121294e-09 0.0 1.8121294e-09 1.8121294e-09 0.0 1.8121294e-09
1.8121294e-09 0.0 1.8121294e-09 1.8121294e-09 0.0 1.8121294e-09 1.8121294e-09 0.0
1.8121294e-09 1.8121294e-09 0.0 1.8121294e-09 1.8121294e-09 0.0 1.8121294e-09 1.8121294e-09
0.0 1.8121294e-09 1.8121294e-09 0.0 1.8121294e-09 1.8121294e-09 0.0 1.8121294e-09
1.8121294e-09 0.0 1.267915e-08 1.267915e-08 0.0 1.267915e-08 1.267915e-08 0.0
1.267915e-08 1.267915e-08 0.0 1.267915e-08 1.267915e-08 0.0 1.267915e-08 1.267915e-08
0.0 1.267915e-08 1.267915e-08 0.0 1.267915e-08 1.267915e-08 0.0 1.267915e-08
1.267915e-08 0.0 1.267915e-08 1.267915e-08 0.0 1.267915e-08 1.267915e-08 0.0
1.267915e-08 1.267915e-08 0.0 1.267915e-08 1.267915e-08 0.0 1.267915e-08 1.267915e-08
0.0 1.267915e-08 1.267915e-08 0.0 1.267915e-08 1.267915e-08 0.0 1.267915e-08
1.267915e-08 0.0 1.267915e-08 1.267915e-08 0.0 1.267915e-08 1.267915e-08 0.0
1.267915e-08 1.267915e-08 0.0 1.0775257e-09 1.0775257e-09 0.0 1.0775257e-09 1.0775257e-09
0.0 1.0775257e-09 1.0775257e-09 0.0 1.0775257e-09 1.0775257e-09 0.0 1.0775257e-09
1.0775257e-09 0.0 1.0775257e-09 1.0775257e-09 0.0 1.0775257e-09 1.0775257e-09 0.0
1.0775257e-09 1.0775257e-09 0.0 1.0775257e-09 1.0775257e-09 0.0 1.0775257e-09 1.0775257e-09
0.0 1.0775257e-09 1.0775257e-09 0.0 1.0775257e-09 1.0775257e-09 0.0 1.0775257e-09
1.0775257e-09 0.0 1.0775257e-09 1.0775257e-09 0.0 1.0775257e-09 1.0775257e-09 0.0
1.0775257e-09 1.0775257e-09 0.0 1.0775257e-09 1.0775257e-09 0.0 1.0775257e-09 1.0775257e-09
0.0 1.0775257e-09 1.0775257e-09 0.0 5.917595e-09 5.917595e-09 0.0 5.917595e-09
5.917595e-09 0.0 5.917595e-09 5.917595e-09 0.0 5.917595e-09 5.917595e-09 0.0
5.917595e-09 5.917595e-09 0.0 5.917595e-09 5.917595e-09 0.0 5.917595e-09 5.917595e-09
0.0 5.917595e-09 5.917595e-09 0.0 5.917595e-09 5.917595e-09 0.0 5.917595e-09
5.917595e-09 0.0 5.917595e-09 5.917595e-09 0.0 5.917595e-09 5.917595e-09 0.0
5.917595e-09 5.917595e-09 0.0 5.917595e-09 5.917595e-09 0.0 5.917595e-09 5.917595e-09
0.0 5.917595e-09 5.917595e-09 0.0 5.917595e-09 5.917595e-09 0.0 5.917595e-09
5.917595e-09 0.0 5.917595e-09 5.917595e-09 0.0 9.661119e-11 9.661119e-11 0.0
9.661119e-11 9.661119e-11 0.0 9.661119e-11 9.661119e-11 0.0 9.661119e-11 9.661119e-11
0.0 9.661119e-11 9.661119e-11 0.0 9.661119e-11 9.661119e-11 0.0 9.661119e-11
9.661119e-11 0.0 9.661119e-11 9.661119e-11 0.0 9.661119e-11 9.661119e-11 0.0
00000000: 0000 0000 a30e f930 a30e f930 0000 0000
00000010: a30e f930 a30e f930 0000 0000 a30e f930
00000020: a30e f930 0000 0000 a30e f930 a30e f930
00000030: 0000 0000 a30e f930 a30e f930 0000 0000
00000040: a30e f930 a30e f930 0000 0000 a30e f930
00000050: a30e f930 0000 0000 a30e f930 a30e f930
00000060: 0000 0000 a30e f930 a30e f930 0000 0000
00000070: a30e f930 a30e f930 0000 0000 a30e f930
00000080: a30e f930 0000 0000 a30e f930 a30e f930
00000090: 0000 0000 a30e f930 a30e f930 0000 0000
000000a0: a30e f930 a30e f930 0000 0000 a30e f930
000000b0: a30e f930 0000 0000 a30e f930 a30e f930
000000c0: 0000 0000 a30e f930 a30e f930 0000 0000
000000d0: a30e f930 a30e f930 0000 0000 a30e f930
000000e0: a30e f930 0000 0000 7ed3 5932 7ed3 5932
000000f0: 0000 0000 7ed3 5932 7ed3 5932 0000 0000
00000100: 7ed3 5932 7ed3 5932 0000 0000 7ed3 5932
00000110: 7ed3 5932 0000 0000 7ed3 5932 7ed3 5932
00000120: 0000 0000 7ed3 5932 7ed3 5932 0000 0000
00000130: 7ed3 5932 7ed3 5932 0000 0000 7ed3 5932
00000140: 7ed3 5932 0000 0000 7ed3 5932 7ed3 5932
00000150: 0000 0000 7ed3 5932 7ed3 5932 0000 0000
00000160: 7ed3 5932 7ed3 5932 0000 0000 7ed3 5932
00000170: 7ed3 5932 0000 0000 7ed3 5932 7ed3 5932
00000180: 0000 0000 7ed3 5932 7ed3 5932 0000 0000
00000190: 7ed3 5932 7ed3 5932 0000 0000 7ed3 5932
000001a0: 7ed3 5932 0000 0000 7ed3 5932 7ed3 5932
000001b0: 0000 0000 7ed3 5932 7ed3 5932 0000 0000
000001c0: 7ed3 5932 7ed3 5932 0000 0000 1118 9430
000001d0: 1118 9430 0000 0000 1118 9430 1118 9430
000001e0: 0000 0000 1118 9430 1118 9430 0000 0000
000001f0: 1118 9430 1118 9430 0000 0000 1118 9430
00000200: 1118 9430 0000 0000 1118 9430 1118 9430
00000210: 0000 0000 1118 9430 1118 9430 0000 0000
00000220: 1118 9430 1118 9430 0000 0000 1118 9430
00000230: 1118 9430 0000 0000 1118 9430 1118 9430
00000240: 0000 0000 1118 9430 1118 9430 0000 0000
00000250: 1118 9430 1118 9430 0000 0000 1118 9430
00000260: 1118 9430 0000 0000 1118 9430 1118 9430
00000270: 0000 0000 1118 9430 1118 9430 0000 0000
00000280: 1118 9430 1118 9430 0000 0000 1118 9430
00000290: 1118 9430 0000 0000 1118 9430 1118 9430
000002a0: 0000 0000 1118 9430 1118 9430 0000 0000
000002b0: b753 cb31 b753 cb31 0000 0000 b753 cb31
000002c0: b753 cb31 0000 0000 b753 cb31 b753 cb31
000002d0: 0000 0000 b753 cb31 b753 cb31 0000 0000
000002e0: b753 cb31 b753 cb31 0000 0000 b753 cb31
000002f0: b753 cb31 0000 0000 b753 cb31 b753 cb31
00000300: 0000 0000 b753 cb31 b753 cb31 0000 0000
00000310: b753 cb31 b753 cb31 0000 0000 b753 cb31
00000320: b753 cb31 0000 0000 b753 cb31 b753 cb31
00000330: 0000 0000 b753 cb31 b753 cb31 0000 0000
00000340: b753 cb31 b753 cb31 0000 0000 b753 cb31
00000350: b753 cb31 0000 0000 b753 cb31 b753 cb31
00000360: 0000 0000 b753 cb31 b753 cb31 0000 0000
00000370: b753 cb31 b753 cb31 0000 0000 b753 cb31
00000380: b753 cb31 0000 0000 b753 cb31 b753 cb31
00000390: 0000 0000 4473 d42e 4473 d42e 0000 0000
000003a0: 4473 d42e 4473 d42e 0000 0000 4473 d42e
000003b0: 4473 d42e 0000 0000 4473 d42e 4473 d42e
000003c0: 0000 0000 4473 d42e 4473 d42e 0000 0000
000003d0: 4473 d42e 4473 d42e 0000 0000 4473 d42e
000003e0: 4473 d42e 0000 0000 4473 d42e 4473 d42e
000003f0: 0000 0000 4473 d42e 4473 d42e 0000 0000

exp_avg f4 [128]
2.5838259e-05 7.449186e-05 1.2464072e-05 -2.929128e-05 5.9543536e-06 8.893422e-05 -3.0350717e-05 -9.829865e-11
4.266063e-05 -4.7270645e-05 -3.45379e-05 -3.0952233e-05 -1.1673363e-08 -3.3374086e-05 0.00017980488 -8.663399e-06
-7.196167e-06 0.00018107344 -5.1234154e-05 0.00026680055 -6.188743e-05 -2.9476207e-06 -5.2315325e-05 0.00026723728
-1.12704865e-05 0.00028667867 0.00026241993 -5.175723e-05 -5.308103e-07 -7.437338e-08 0.0003215169 0.00022454366
-3.952115e-05 6.7707704e-05 -1.4485305e-07 0.00010181947 9.979191e-05 -2.0774216e-05 3.733466e-05 -1.2949923e-05
0.00014054491 4.639252e-06 5.030142e-10 4.292783e-05 -1.7282293e-05 2.5392632e-05 4.173831e-05 -3.3681572e-05
-2.9720595e-05 -2.0018912e-05 -2.295117e-05 0.00010897358 -2.0819403e-05 -1.1104628e-05 0.00015122794 -1.7901547e-10
-8.171445e-06 -2.3193043e-09 9.804129e-06 -8.7535955e-06 0.00044204685 2.9323774e-05 -2.708528e-07 0.00022872002
4.2278148e-06 1.3465558e-06 0.0002666373 0.00019450854 0.0002783854 -6.3434773e-06 1.8170796e-05 0.0001809858
0.0002466689 8.267344e-05 -3.9684503e-05 -1.047289e-05 3.0285041e-06 2.0447986e-05 0.00021502114 6.2015366e-05
-2.8547998e-05 -4.9134327e-05 -2.223147e-06 0.00021437065 0.00028404972 0.0001245023 0.000121037854 -1.5390158e-05
5.1187503e-06 4.6958058e-07 0.00047094293 1.6107044e-05 0.0002056463 -6.5958975e-06 2.9083814e-05 -5.0788167e-05
-3.420444e-05 -2.1087215e-05 -3.597702e-07 -9.071829e-06 -2.802466e-05 -4.78214e-08 -2.8094973e-06 -4.250007e-05
0.00014961667 0.00010072225 3.2886393e-05 2.096412e-06 0.0004107591 -6.1983183e-06 -3.3980697e-05 8.827446e-05
0.00018802824 5.4869124e-06 -1.3933272e-06 -8.06671e-05 -1.17887585e-05 0.00018790943 -1.0422843e-05 -1.3133837e-07
-4.5171513e-05 -1.4210378e-05 -1.0596923e-05 0.00014702778 -6.215419e-05 0.0002293213 0.0001299788 -2.6256394e-10
00000000: 3dbf d837 8338 9c38 c81c 5137 8bb6 f5b7
00000010: 82cb c736 3282 ba38 ab99 feb7 3829 d8ae
00000020: 81ee 3238 7844 46b8 cadc 10b8 b5d2 01b8
00000030: fe8b 48b2 27fb 0bb8 018a 3c39 0459 11b7
00000040: 9b76 f1b6 88de 3d39 41e4 56b8 5de1 8b39
00000050: 90c9 81b8 bdcf 45b6 276d 5bb8 fb1b 8c39
00000060: 5f16 3db7 5c4d 9639 6895 8939 e715 59b8
00000070: 027d 0eb5 33b7 9fb3 4591 a839 7b73 6b39
00000080: 83c3 25b8 4cfe 8d38 e788 1bb4 e987 d538
00000090: 6047 d138 4a44 aeb7 c997 1c38 7f43 59b7
000000a0: 3d5f 1339 dfaa 9b36 7a44 0a30 680d 3438
000000b0: 71f9 90b7 4302 d537 2b10 2f38 5045 0db8
000000c0: 7e50 f9b7 49ee a7b7 4387 c0b7 bf88 e438
000000d0: 54a5 aeb7 044e 3ab7 f192 1e39 60d4 44af
000000e0: 1718 09b7 a261 1fb1 6a7c 2437 68dc 12b7
000000f0: 86c2 e739 53fc f537 ba69 91b4 90d4 6f39
00000100: a7dc 8d36 4ebb b435 74cb 8b39 fdf4 4b39
00000110: 42f4 9139 0eda d4b6 7d6d 9837 01c7 3d39
00000120: 5753 8139 f760 ad38 e972 26b8 b8b4 2fb7
00000130: 4e3d 4b36 b787 ab37 4c77 6139 3f0e 8238
00000140: 5c7a efb7 9515 4eb8 6031 15b6 afc8 6039
00000150: 82ec 9439 d58c 0239 b4d5 fd38 1d1a 81b7
00000160: bbc1 ab36 aa1a fc34 e4e8 f639 9d1d 8737
00000170: c2a2 5739 5452 ddb6 04f9 f337 6105 55b8
00000180: bd76 0fb8 73e4 b0b7 7126 c1b4 3533 18b7
00000190: 8016 ebb7 2f64 4db3 cc8a 3cb6 1a42 32b8
000001a0: 6be2 1c39 d93a d338 7fef 0938 15b0 0c36
000001b0: 275b d739 26fb cfb6 7f86 0eb8 fd1f b938
000001c0: 7229 4539 381c b836 5c02 bbb5 d22b a9b8
000001d0: 55c8 45b7 8e09 4539 c5dd 2eb7 0406 0db4
000001e0: 8b76 3db8 1c69 6eb7 70c9 31b7 782b 1a39
000001f0: c758 82b8 f875 7039 eb4a 0839 9758 90af

exp_avg_sq f4 [128]
1.8121298e-09 1.267915e-08 1.0775255e-09 5.917594e-09 9.661119e-11 2.6004738e-08 7.639023e-09 1.3480332e-11
3.2903118e-09 5.414016e-09 1.1177537e-08 3.6658476e-09 3.1804362e-12 4.4739155e-09 6.9442635e-08 2.0994785e-10
1.7782401e-09 6.2245725e-08 1.0447788e-08 1.9996007e-07 1.8932484e-08 1.9633091e-10 6.7884978e-09 2.582483e-07
2.0358746e-09 1.9672247e-07 2.1243e-07 1.0707027e-08 7.5124205e-11 9.187789e-12 2.5428182e-07 1.0300577e-07
7.081761e-09 7.083866e-09 2.2016738e-13 2.6527113e-08 1.995043e-08 3.6673669e-09 2.5062512e-09 1.0875555e-09
4.8023313e-08 4.2031337e-11 2.840645e-12 6.8104513e-09 8.9948475e-09 6.8935097e-10 2.4074618e-09 7.394473e-09
1.9127095e-09 1.9966757e-09 1.911838e-09 3.374889e-08 7.482873e-10 9.422731e-09 4.5204725e-08 6.965953e-12
3.9021578e-10 3.170818e-11 3.7260522e-10 5.150973e-10 5.259466e-07 1.4040162e-09 3.2317007e-11 1.067921e-07
2.4251245e-10 3.6072704e-11 1.8461385e-07 7.698794e-08 1.927283e-07 1.2641951e-10 8.19709e-10 1.1938361e-07
1.264699e-07 1.0472978e-08 2.9104448e-09 2.8556774e-10 5.467344e-10 1.7531159e-09 1.0504941e-07 7.0665105e-09
2.1209374e-09 1.2449194e-08 1.8592774e-09 1.2800578e-07 1.6992966e-07 2.6088458e-08 2.893109e-08 1.392749e-09
7.08616e-11 2.8144204e-11 6.8243065e-07 1.9572812e-09 1.0634938e-07 3.0882893e-10 2.0951216e-09 1.0376156e-08
5.1547207e-09 3.5614236e-09 2.940632e-11 1.7146227e-10 5.640594e-09 2.4035275e-12 2.4258396e-11 6.572162e-09
4.6198195e-08 1.6470871e-08 8.596037e-09 6.0404244e-11 5.8208406e-07 3.7116524e-10 5.1258318e-09 1.3039139e-08
9.062444e-08 1.1584865e-09 9.66329e-12 1.6768029e-08 7.799284e-10 8.266215e-08 1.1772335e-09 4.3043637e-12
5.2123106e-09 1.4559115e-09 4.581994e-10 4.383077e-08 1.9608702e-08 1.2575879e-07 3.6411745e-08 7.683985e-12
00000000: a60e f930 7ed3 5932 0f18 9430 b553 cb31
00000010: 4473 d42e 0661 df32 c73c 0332 0526 6d2d
00000020: c71b 6231 3006 ba31 5407 4032 46ea 7b31
00000030: a5cd 5f2c fab8 9931 7e20 9533 11d7 662f
00000040: 4366 f430 f3ab 8533 dc7d 3332 9bb4 5634
00000050: f9a0 a232 3dde 572f 4240 e931 60a5 8a34
00000060: 7ce7 0b31 a93a 5334 5018 6434 01f2 3732
00000070: 2b33 a52e 20a2 212d 3a84 8834 0534 dd33
00000080: d453 f331 5866 f331 ede2 772a bddd e332
00000090: 765f ab32 0005 7c31 703a 2c31 f578 9530
000000a0: 3142 4e33 14db 382e 83e4 472c 5d01 ea31
000000b0: c287 1a32 c37c 3d30 8470 2531 7912 fe31
000000c0: be70 0331 e435 0931 6961 0331 4cf3 1033
000000d0: 0ab0 4d30 9ce1 2132 1f27 4233 ba17 f52c
000000e0: fd85 d62f 3d74 0b2e 86d7 cc2f c096 0d30
000000f0: c62e 0d35 6ef7 c030 b721 0e2e 9455 e533
00000100: 9852 852f 41a6 1e2e 453a 4634 9154 a533
00000110: c0f0 4e34 eeff 0a2f e551 6130 eb2f 0034
00000120: c8cb 0734 a5ec 3332 1601 4831 16fe 9c2f
00000130: 0349 1630 48f2 f030 8697 e133 afcd f231
00000140: edbf 1131 22e0 5532 8289 ff30 f671 0934
00000150: e975 3634 2019 e032 2484 f832 006b bf30
00000160: 89d3 9b2e 1d8f f72d 4730 3735 db80 0631
00000170: 3162 e433 cfc7 a92f c5f9 0f31 d142 3232
00000180: 671d b131 3abd 7431 9354 012e 5786 3c2f
00000190: 31cf c131 1a22 292c 0d61 d52d 59d1 e131
000001a0: 746b 4633 d47b 8d32 c5ad 1332 91d4 842e
000001b0: 8340 1c35 dd0c cc2f 4b1f b031 bd02 6032
000001c0: 509d c233 9f38 9f30 97ff 292d 4909 9032
000001d0: 9562 5630 ff83 b133 39cc a130 4372 972c
000001e0: f817 b331 5519 c830 d5e5 fb2f 7140 3c33
000001f0: fe6f a832 5008 0734 2363 1c33 982d 072d
