ML-Game/results/ppo/My Behavior/My Behavior-499988.pt (torch, 524147 bytes, 33 tensors)

network_body._body_endoder.seq_layers.0.weight f4 [128, 33]
0	0xbe1bcb9a	-0.15214387
1	0xbc424abf	-0.011858641
2	0xbdb6f538	-0.089334905
3	0xbdf746a3	-0.1207402
4	0xbe8e3021	-0.27771094
5	0x3e064320	0.13111544
6	0xbe0f4b12	-0.13993481
7	0xbb0e10d9	-0.0021677522
8	0xbe28e99b	-0.16495363
9	0xbdb15cc9	-0.086602755
10	0x3e3bf866	0.18356475
11	0x3dcdc98b	0.10048207
12	0x3dd0f754	0.10203424
13	0x3e035b84	0.12827879
14	0x3e7da9e6	0.24771842
15	0xbe03789d	-0.12838979
16	0x3c6950f5	0.014240493
17	0xbe398e05	-0.18120582
18	0x3dc62b7b	0.09676262
19	0xbe24bcc3	-0.16087632
20	0xbe4609d1	-0.19339682
21	0xbd9c62ed	-0.07636056
22	0x3df7ce07	0.120998435
23	0xbdbc1c6c	-0.091851085
24	0xbdb5cf46	-0.08877425
25	0x3ebf3ad6	0.37349576
26	0x3e9fb5b6	0.31193322
27	0xbe8f87bb	-0.28033242
28	0xbe373166	-0.17889938
29	0x3e7a8bd8	0.24467409
30	0x3dd48bbc	0.10378215
31	0xbe9ac2d1	-0.30226758
32	0xbdc43b51	-0.09581626
33	0x3dddb87d	0.10826204
34	0x3e0fb592	0.14034107
35	0xbd3fe243	-0.04684664
36	0x3e302b47	0.17204009
37	0xbdf1da54	-0.11809221
38	0xbcf24e7b	-0.029578438
39	0x3e4e155f	0.2012534
40	0xbe2b13cb	-0.16706769
41	0xbdd25969	-0.1027096
42	0x3e65687d	0.2240314
43	0x3e21b30a	0.15790954
44	0x3f03c7e6	0.51476896
45	0xbddb6580	-0.10712719
46	0xbe81878f	-0.25298735
47	0x3e04ea37	0.12979971
48	0x3d6e07de	0.05811297
49	0xbe97e654	-0.29667914
50	0xbe2ce4c6	-0.16884145
51	0xbd52fd90	-0.051511347
52	0xbcf9fd78	-0.030516371
53	0xbcabaad6	-0.020955484
54	0x3e398234	0.18116075
55	0xbce30d0e	-0.027716186
56	0x3e292284	0.16517073
57	0x3c0da507	0.008645303
58	0xbe10a0dc	-0.14123863
59	0xbe687049	-0.22699083
60	0x3dd8f56e	0.10593687
61	0xbe0f6283	-0.14002423
62	0xbd568dbf	-0.052381273
63	0xbdc16628	-0.09443313
64	0xbda67741	-0.08128215
65	0xbdf4172f	-0.119184844
66	0xbcc4b2ab	-0.024010977
67	0x3d8b816b	0.06811794
68	0xbd0c301f	-0.03422558
69	0x3d0448f5	0.03229614
70	0x3ea42ea9	0.3206685
71	0x3e68a03c	0.22717375
72	0xbdf857f2	-0.12126149
73	0xbd85d7b3	-0.06535282
74	0xbcd6df12	-0.026229415
75	0xbe5e6e49	-0.21721758
76	0xbd6b8a5d	-0.057505
77	0xbe17b369	-0.14814533
78	0xbdef2086	-0.11676125
79	0x3ce85492	0.028360639
80	0xbd1d6b2f	-0.038432296
81	0xbdcc4463	-0.09973981
82	0x3e59a452	0.2125409
83	0x3c9f8ca6	0.019476246
84	0x3b7c38d6	0.0038486025
85	0xbda5824a	-0.08081491
86	0xbcbfaad1	-0.023396881
87	0xba01807f	-0.0004940107
88	0x3e372427	0.17884885
89	0xbd8a589c	-0.06755182
90	0xbd533994	-0.051568583
91	0x3ca359ce	0.019940283
92	0x3e88c334	0.26711428
93	0xbdf69419	-0.12039966
94	0x3d5f2780	0.05448103
95	0xbb045b93	-0.0020196184
96	0x3d55172e	0.05202406
97	0xbd46b07f	-0.048508164
98	0x3e18b93c	0.14914411
99	0xbe815b16	-0.25264806
100	0x3d91c6bc	0.07117984
101	0xbe96b520	-0.29435062
102	0xbe8b9cb2	-0.27267987
103	0x3e19c872	0.1501787
104	0x3d0122cc	0.031527326
105	0x3e7095a7	0.23494588
106	0xbe5e3256	-0.21698889
107	0xbd5c3690	-0.053762972
108	0xbec47186	-0.38367862
109	0x3dba6220	0.09100747
110	0x3e203fa7	0.15649281
111	0x3c8ce23c	0.01719772
112	0x3e27dbd2	0.16392449
113	0x3c5de0c4	0.013542358
114	0x3e43242f	0.19056772
115	0xbe8ceded	-0.27525273
116	0xbcdf6b5d	-0.027272874
117	0xbd763a97	-0.06011447
118	0x3c9ca1f4	0.019120194
119	0xbc833ea0	-0.016021073
120	0x3d994551	0.07483924
121	0x3d0000e2	0.031250842
122	0x3ed37d79	0.41306666
123	0xbe1b1ca9	-0.15147652
124	0x3d54ebad	0.05198257
125	0x3eb4e359	0.35329702
126	0x3dcc9ed8	0.099912345
127	0x3e45cdbf	0.19316767
128	0xbdffa515	-0.12482659
129	0x3d99ed7d	0.075160004
130	0x3d90e9cb	0.070758425
131	0xbd954897	-0.07289236
132	0x3e810b9c	0.2520417
133	0xbd94e2a4	-0.07269791
134	0x3e26bc0c	0.16282672
135	0xbd1688fc	-0.036751732
136	0x3be15069	0.0068760407
137	0xbdb87883	-0.09007361
138	0x3d519485	0.05116703
139	0x3ea826d4	0.32842124
140	0xbe34240b	-0.17591874
141	0xbe420834	-0.18948442
142	0xbcfcdb2a	-0.030866224
143	0x3e39d5bc	0.1814794
144	0x3dd204ad	0.10254798
145	0x3ece4db7	0.40293667
146	0xbac242f3	-0.0014820978
147	0xbced5e43	-0.028975612
148	0xbcd882c0	-0.026429534
149	0xbe445cbb	-0.19175999
150	0xbe13e70c	-0.14443606
151	0x3ea6695d	0.3250226
152	0xbd1bc1fc	-0.038026795
153	0x3d152f21	0.0364219
154	0xbe292514	-0.1651805
155	0xbea7ac9d	-0.3274888
156	0x3efa2f5f	0.48864266
157	0xbe25faa7	-0.16208898
158	0x3e78d6c6	0.2430068
159	0x3d385999	0.045007322
160	0xbb69c135	-0.003566814
161	0xbe07053c	-0.1318559
162	0x3e4f7a72	0.20261553
163	0xbdbc97b7	-0.09208625
164	0xbd077395	-0.033069212
165	0xbdfda63f	-0.123852246
166	0xbd1fa07e	-0.038971417
167	0x3e732d0a	0.2374765
168	0x3db889a0	0.09010625
169	0xbe8993eb	-0.26870665
170	0x3e9304d8	0.28714633
171	0x3e8156e4	0.25261605
172	0x3e0a3a6a	0.13498846
173	0xbe3e487b	-0.18582337
174	0x3eb650d8	0.35608554
175	0x3dcb2cd3	0.09920659
176	0xbe5c0406	-0.2148591
177	0x3e1a8949	0.15091433
178	0xbbd8d59a	-0.00661726
179	0x3ddb84a5	0.10718659
180	0xbda2c7a2	-0.07948233
181	0x3eecd73e	0.46257967
182	0x3e721bbc	0.23643392
183	0xbe4bd29c	-0.1990456
184	0x3eb29f08	0.34886956
185	0x3b7a9f53	0.0038241937
186	0xbe3ffcd3	-0.18748789
187	0xbeaeda7f	-0.34151074
188	0x3e5179ae	0.20456573
189	0xbdf28238	-0.118412435
190	0x3d6a8fb7	0.057265963
191	0xbd6b8dfa	-0.057508446
192	0xbd396e86	-0.04527142
193	0x3e2f1412	0.170975
194	0xbb79219d	-0.003801442
195	0xbe016c05	-0.12638862
196	0x3cd1f348	0.0256287
197	0xbdd65dd8	-0.10467118
198	0x3e65885f	0.22415303
199	0xbcc58f01	-0.024116041
200	0xbdbce0e2	-0.092225805
201	0xbd0890d4	-0.033341244
202	0x3e0671e0	0.13129377
203	0x3e87bc9b	0.26511082
204	0x3e44e426	0.19227657
205	0xbe03feb7	-0.12890135
206	0xbe8c93df	-0.27456567
207	0x3e17ca9e	0.14823386
208	0x3ccd5f03	0.02506972
209	0x3e906085	0.2819864
210	0xbe68aaf8	-0.2272147
211	0xbea618a8	-0.32440686
212	0xbd78d2f4	-0.060748056
213	0x3d0e7005	0.0347748
214	0x3e5558bb	0.20834629
215	0xbdc87954	-0.097887665
216	0xbb8b9557	-0.004259746
217	0xbeb18291	-0.34669927
218	0x3eb4736f	0.3524432
219	0x3dbc7f62	0.09203984
220	0xbd2ca64e	-0.042150788
221	0x3c510054	0.012756426
222	0xbda0d784	-0.07853606
223	0x3dc67e8b	0.09692105
224	0xbe23e577	-0.16005503
225	0xbe961ff6	-0.2932126
226	0x3e87a0ee	0.26489967
227	0x3d618a01	0.05506325
228	0x3f1b9beb	0.60784787
229	0xbdcaa1d1	-0.09894145
230	0x3de46994	0.1115295
231	0xbe821583	-0.25407037
232	0xbe5de356	-0.21668753
233	0x3ec0bfa0	0.37646198
234	0xbc64a242	-0.013954701
235	0xbdb170b7	-0.08664077
236	0x3e4dafa8	0.20086539
237	0x3dbf1c5e	0.093315825
238	0x3dca7d05	0.09887127
239	0xbe565324	-0.20930153
240	0xbceb9c21	-0.028760972
241	0x3e080a2f	0.13285135
242	0x3c1e51b7	0.009663037
243	0xbe41023e	-0.18848512
244	0x3d32ce00	0.04365349
245	0x3e0e27a8	0.13882315
246	0x3daff2e2	0.08591248
247	0x3d1a84d0	0.037724316
248	0x3e00f6ac	0.12594098
249	0x3e33d4fd	0.17561717
250	0xbe9e27a3	-0.30889615
251	0x3d6812b9	0.05665848
252	0x3dfe71a1	0.12424017
253	0x3e43d10c	0.19122714
254	0xbe51fa5d	-0.20505662
255	0x3d8ea66d	0.06965337

network_body._body_endoder.seq_layers.0.bias f4 [128]
0	0xbdc0245b	-0.09381934
1	0x3daf10f0	0.085481524
2	0xbdbed7f1	-0.09318531
3	0xbd1c2b1a	-0.038127042
4	0xbdc23e63	-0.094845556
5	0x3d58aaae	0.052897148
6	0x3dc2d554	0.09513345
7	0x3db66592	0.08906092
8	0x3d8e10de	0.06936811
9	0xbdb6bb1c	-0.08922407
10	0xbdb51eb2	-0.08843745
11	0xbdc6a220	-0.09698892
12	0x3dc405de	0.095714316
13	0xbdbb9958	-0.091601074
14	0x3db409b9	0.08790917
15	0x3d98198d	0.074267484
16	0xbdba13bf	-0.090857975
17	0x3da90318	0.08252543
18	0xbdaee834	-0.08540383
19	0xbda73e73	-0.08166208
20	0xbd2020fe	-0.039093964
21	0xbdb0a8f2	-0.08625974
22	0xbdc1cacb	-0.09462508
23	0x3d9b1e80	0.07574177
24	0xbdb83014	-0.08993545
25	0xbdb51517	-0.08841913
26	0x3dc3e15a	0.09564467
27	0x3dab19fd	0.08354566
28	0x3db6458c	0.08899984
29	0xbdc5d2e9	-0.096593685
30	0xbda634a2	-0.08115508
31	0x3daecbe8	0.08534986
32	0xbdbfe9af	-0.093707435
33	0xbdb711c7	-0.08938938
34	0x3db8b6ba	0.09019227
35	0xbdc009ee	-0.09376894
36	0x3da7215a	0.08160658
37	0xbdb76515	-0.08954827
38	0x3dc544c3	0.09632256
39	0xbdc5b8e4	-0.09654406
40	0x3db8b362	0.090185896
41	0x3da75e15	0.081722416
42	0xbd8b9178	-0.06814855
43	0xbd990fac	-0.07473692
44	0x3d958011	0.07299817
45	0x3dae8624	0.08521679
46	0xbdbd378a	-0.09239109
47	0x3db4c944	0.08827451
48	0x3dbc9bdd	0.09209416
49	0x3daa7d28	0.08324653
50	0x3db5469c	0.08851358
51	0x3d837739	0.06419224
52	0xbdba0660	-0.09083247
53	0x3d9fd4eb	0.07804283
54	0xbdc8ad2d	-0.09798656
55	0xbdc3b8a2	-0.095567
56	0x3dc2bbdd	0.09508488
57	0x3dacb8d8	0.08433694
58	0xbdbb3739	-0.09141392
59	0x3dbdac43	0.09261372
60	0xbdbcad26	-0.09212713
61	0x3dc3db1e	0.09563278
62	0x3db3e159	0.08783216
63	0xbdb5dff3	-0.088806055
64	0xbdb93313	-0.09042945
65	0x3dc0a632	0.09406699
66	0x3db0b18b	0.08627614
67	0x3dbb6d33	0.091516875
68	0xbdc08f00	-0.09402275
69	0x3db9b600	0.09067917
70	0xbdb439a7	-0.08800059
71	0x3daad7bf	0.083419316
72	0x3db8e64d	0.090283014
73	0x3db9a061	0.09063793
74	0x3dc0b67f	0.09409808
75	0xbdc73be9	-0.09728224
76	0xbda408d0	-0.08009493
77	0xbdafa06c	-0.0857552
78	0x3dabd1a5	0.08389596
79	0xbdbcf23e	-0.092258915
80	0xbd998e86	-0.07497887
81	0x3dbb941c	0.09159109
82	0x3db8a14b	0.09015139
83	0xbdb9d50c	-0.090738386
84	0x3dc06260	0.093937635
85	0x3db4f3a7	0.088355355
86	0xbd77547d	-0.06038331
87	0x3d90a0a0	0.07061887
88	0x3db36b00	0.08760643
89	0xbd828fba	-0.0637507
90	0x3db1d064	0.086823255
91	0xbdaa257b	-0.0830793
92	0xbdce641d	-0.10077689
93	0x3dc36d15	0.0954229
94	0xbdb7484f	-0.08949339
95	0x3dc5efe1	0.09664894
96	0xbdb96d1f	-0.09054016
97	0xbdb2febe	-0.087399945
98	0xbdc26b61	-0.09493137
99	0x3dbf2e2f	0.09334981
100	0xbd9d1a26	-0.07671003
101	0xbd9960b3	-0.07489147
102	0xbdb902ab	-0.09033712
103	0xbd96f331	-0.07370604
104	0xbd9ce066	-0.07659988
105	0x3db3a81d	0.087722994
106	0xbda882a0	-0.0822804
107	0x3dc6e216	0.09711091
108	0xbdc218d1	-0.094773896
109	0xbdc57314	-0.0964109
110	0xbdc2e10a	-0.09515579
111	0x3db20501	0.08692361
112	0x3da9a4a8	0.08283359
113	0x3dc51fcb	0.09625205
114	0xbdb424ed	-0.087961055
115	0x3db96ce1	0.0905397
116	0x3dba829c	0.09106943
117	0x3dc639eb	0.09679016
118	0xbd9dfe82	-0.07714559
119	0x3daf5dbb	0.085627995
120	0xbdcb5b64	-0.09929541
121	0x3d7c3ad7	0.06157955
122	0x3d989c55	0.07451693
123	0xbdab4c53	-0.08364167
124	0x3dc04836	0.09388773
125	0xbdc30e02	-0.09524156
126	0x3dc505ed	0.09620271
127	0xbdc3f931	-0.09569014

network_body._body_endoder.seq_layers.2.weight f4 [128, 128]
0	0x3d012742	0.03153158
1	0xbe3d77f9	-0.18502797
2	0x3ccd7e36	0.025084596
3	0xbd3c0547	-0.04590347
4	0x3e5a0a67	0.2129303
5	0xbe0bca53	-0.136514
6	0xbe03780b	-0.12838762
7	0xbe12fcb5	-0.14354213
8	0xbd0ca620	-0.034338117
9	0x3e5f3388	0.21797001
10	0x3dfb5898	0.12272757
11	0x3df2c4a1	0.1185391
12	0xbd94d3a5	-0.072669305
13	0x3e655032	0.22393873
14	0xbc6c8072	-0.014434921
15	0xbdc82dc8	-0.09774357
16	0x3e36b6fd	0.17843242
17	0xbc4d5762	-0.012533041
18	0x3cf435a2	0.02981073
19	0x3db86019	0.09002704
20	0xbdf7d571	-0.121012576
21	0x3d6977cf	0.056999024
22	0x3dec501a	0.11538716
23	0xbe25d642	-0.16195014
24	0x3e6418f1	0.2227514
25	0x3d0f25db	0.03494821
26	0x3d12ee9e	0.035872094
27	0x3df62e1d	0.12020514
28	0xbeab71be	-0.33485216
29	0x3dd0ba54	0.10191789
30	0xbcfeba7e	-0.031094786
31	0xbcfd0257	-0.030884905
32	0x3e715dc6	0.23570928
33	0x3d7b8434	0.061405376
34	0x3d1b435a	0.03790603
35	0x3d946da1	0.072474726
36	0x3c9f1c2a	0.01942261
37	0x3d664616	0.056219183
38	0xbe7e3acc	-0.24827117
39	0x3e30fc4a	0.1728374
40	0xbdc002ae	-0.09375511
41	0xbc92966b	-0.01789399
42	0x3d5dc5d4	0.05414374
43	0x3d5eb39f	0.05437052
44	0x3e02513e	0.12726304
45	0x3d5c7770	0.053824842
46	0x3ccbd061	0.024879636
47	0xbcca0cb7	-0.024664266
48	0xbd985cfe	-0.07439612
49	0xbd05872b	-0.03259961
50	0xbd0af554	-0.03392537
51	0xbd16be2c	-0.036802456
52	0xbca439db	-0.020047119
53	0xbd2bb8ef	-0.041924413
54	0xbd2ad238	-0.041704386
55	0x3d3db4ee	0.046315126
56	0xbe217178	-0.15765941
57	0xbe355dd5	-0.17711575
58	0x3cd70adc	0.026250295
59	0xbd9d4342	-0.07678844
60	0x3e13a091	0.1441672
61	0xbd9d60ed	-0.07684503
62	0xbe4363ba	-0.19081011
63	0x3df664b9	0.1203093
64	0x3e1339a6	0.1437746
65	0xbe0dd0d8	-0.13849199
66	0xbe12f80d	-0.14352436
67	0xbe2426bc	-0.16030401
68	0xbe2ba7ec	-0.16763276
69	0xbdc85552	-0.097818986
70	0xb980d081	-0.0002456941
71	0x3c8288a9	0.015934305
72	0xbdca3130	-0.09872663
73	0x3d4b69e0	0.049661517
74	0xbccfec48	-0.025381222
75	0x3dca82b8	0.09888214
76	0x3c990f48	0.018684044
77	0xbd3af007	-0.045639064
78	0xbe22b8d4	-0.15890819
79	0x3e590e58	0.21196878
80	0x3e615a58	0.2200712
81	0xbcc4367b	-0.02395176
82	0xbd35e81c	-0.04441081
83	0x3d3f13f8	0.046649903
84	0x3dd17ec4	0.10229257
85	0xbe7ac4c2	-0.2448912
86	0x3d923e18	0.0714075
87	0xbdef33ac	-0.116797775
88	0xbd91333c	-0.0708985
89	0xbca61381	-0.020272972
90	0xbd0f0932	-0.03492088
91	0x3dc2690d	0.09492693
92	0x3d0095ab	0.031392734
93	0x3d4c88d8	0.049935192
94	0x3e1e3770	0.15450835
95	0xbe12b615	-0.14327271
96	0xbe0136e9	-0.12618603
97	0xbcfc3359	-0.030786203
98	0x3d989c3b	0.074516736
99	0xbc8ecbd1	-0.017431172
100	0x3d3a96a8	0.045553833
101	0x3e0c391a	0.13693658
102	0x3d4a9db9	0.049466822
103	0x3d5fdef7	0.054655995
104	0x3d1d8ec4	0.03846623
105	0xbdd3ba46	-0.10338263
106	0x3cb3db54	0.02195517
107	0xbe57106f	-0.21002363
108	0x3dcff65e	0.10154413
109	0xbe0e34cd	-0.1388733
110	0x3de2ffc7	0.11083942
111	0xbdedeb88	-0.1161719
112	0xbe3fbaa0	-0.18723536
113	0x3cd7202d	0.02626046
114	0x3d837353	0.06418481
115	0xbe0b2043	-0.13586526
116	0x3d3de018	0.04635629
117	0xbdf58e19	-0.119899936
118	0xbc041e0e	-0.008063806
119	0xbd2af43f	-0.041736837
120	0x3e03058e	0.12795088
121	0x3e184375	0.14869483
122	0xbd2b04c6	-0.0417526
123	0x3c1f233e	0.009712992
124	0xbdca0edf	-0.09866118
125	0x3db9aa42	0.09065677
126	0xbdf3a9e9	-0.11897642
127	0x3dc041be	0.09387539
128	0xbdc9bb84	-0.09850219
129	0xbe2bab41	-0.16764547
130	0x3c0d5813	0.008626956
131	0x3d4ef932	0.05053062
132	0x3d5db2ac	0.054125473
133	0x3dddafe0	0.10824561
134	0xbd190a37	-0.037363257
135	0xbc7198cd	-0.014745903
136	0xbd524cc0	-0.051342726
137	0x3dc14f17	0.09438913
138	0xbb589261	-0.0033046233
139	0xbd9161b6	-0.07098715
140	0xbe257879	-0.16159238
141	0x3e712a19	0.23551215
142	0xbe2a39b2	-0.16623572
143	0xbdcbe9d7	-0.09956711
144	0x3d390fd5	0.045181114
145	0xbda2565e	-0.079266295
146	0x3c195624	0.009358916
147	0x3e6d08b0	0.23147845
148	0x3ca87c75	0.020567158
149	0x3db0eff8	0.086395204
150	0x3e00493c	0.12527937
151	0x3c81640e	0.01579478
152	0x3d433185	0.047654647
153	0x3d3db3e4	0.046314135
154	0xbd36a4b7	-0.044590678
155	0xbd437bdc	-0.047725543
156	0x3c9765ca	0.018481154
157	0xbd92aea6	-0.07162218
158	0xbba3f4dd	-0.005003555
159	0x3d4685ad	0.048467327
160	0xbc60db3b	-0.013724144
161	0xbb4c1e95	-0.0031146158
162	0x3d33d149	0.04390076
163	0xbd26a9a5	-0.04068913
164	0x3cf4d9cf	0.029889015
165	0x3de0ff95	0.109862484
166	0xbdc38678	-0.09547132
167	0xbd2181f7	-0.039430585
168	0x3dc87930	0.0978874
169	0x3da5e4cf	0.081002824
170	0xbc839cb9	-0.016065942
171	0xbe29191e	-0.16513488
172	0xbd9c92b6	-0.076451704
173	0xbc96fbe6	-0.018430661
174	0xbad16c75	-0.0015977757
175	0xbd61fbed	-0.055171896
176	0xbdbb5171	-0.09146393
177	0xbd5d1c1d	-0.05398189
178	0x3d799831	0.060936157
179	0x3df3e320	0.11908555
180	0x3e296f3c	0.16546339
181	0xbd47c836	-0.04877492
182	0x3cd4ca0d	0.025975252
183	0x3e168cf5	0.14702208
184	0x3c2af3b2	0.010434078
185	0xbd755cbd	-0.059902895
186	0x3e759d68	0.23985827
187	0xbe244f06	-0.1604577
188	0xbd4516ab	-0.04811732
189	0x3db141bd	0.08655117
190	0xbe18bd40	-0.14915943
191	0x3e5e9285	0.2173558
192	0x3dc2480e	0.094863996
193	0xbe1db4c3	-0.15400986
194	0xbe609ddd	-0.2193522
195	0xbd8fae09	-0.070156164
196	0xbd49c821	-0.049263123
197	0xbd8cc3e0	-0.06873298
198	0x3de7bc53	0.11315217
199	0x3d585084	0.05281116
200	0xbc1e4d24	-0.009661946
201	0xbe0b12b8	-0.1358136
202	0xbdc4eb13	-0.09615149
203	0x3c991a35	0.018689254
204	0x3e24f89c	0.16110462
205	0x3d8af0cf	0.06784212
206	0xbd99c198	-0.07507628
207	0x3c845483	0.01615358
208	0x3caf2dd9	0.021384167
209	0x3d95efa3	0.07321098
210	0xbe357ccf	-0.17723392
211	0x3cd096c7	0.025462521
212	0xbe160205	-0.14649208
213	0xbd9a6dd9	-0.07540483
214	0xbd4dd9aa	-0.05025641
215	0xbd66bf84	-0.056334987
216	0xbdff1dd1	-0.12456859
217	0x3d51199b	0.05104981
218	0xbcd1232b	-0.025529465
219	0x3d8645eb	0.065563045
220	0x3d59caa1	0.053171758
221	0xbcf92296	-0.030412
222	0x3e25a4f7	0.1617621
223	0x3df81bf0	0.12114704
224	0x3e0eb3ae	0.1393573
225	0x3da7ccd9	0.081933685
226	0x3ce16bfa	0.027517308
227	0xbdf2e2e6	-0.11859684
228	0x3dd7b18d	0.10531912
229	0x3e1bdd94	0.15221244
230	0x3e5320cf	0.20617984
231	0xbdab6241	-0.0836835
232	0x3e12de1f	0.14342545
233	0x3e12e848	0.14346421
234	0x3df35dbc	0.11883113
235	0xbe01a6c7	-0.12661277
236	0x3d3960aa	0.0452582
237	0x3e1eeaa3	0.15519194
238	0xbdbe662a	-0.0929683
239	0x3e770f63	0.24126963
240	0xbdb0569a	-0.08610268
241	0xbe40bd66	-0.1882225
242	0x3d2c81a9	0.04211584
243	0xbd267283	-0.04063655
244	0xbcbf5c94	-0.023359574
245	0xbddcdbb5	-0.10784093
246	0xbd313910	-0.04326731
247	0xbb074ed0	-0.002064634
248	0xbdcf96ee	-0.101362094
249	0xbe272442	-0.16322425
250	0xbe090837	-0.1338204
251	0x3d352d64	0.04423274
252	0xbdc885df	-0.09791159
253	0x3de412c1	0.111363895
254	0xbe294078	-0.16528499
255	0xbc6c20e9	-0.014412143

network_body._body_endoder.seq_layers.2.bias f4 [128]
0	0xbda16c67	-0.07882004
1	0xbd887f9c	-0.066649646
2	0xbda7057f	-0.08155345
3	0xbda13f28	-0.07873374
4	0xbd9af2f5	-0.075658716
5	0xbda3e7af	-0.080031745
6	0x3d86c0e3	0.06579759
7	0x3da3b5c1	0.07993651
8	0xbd9f0f8d	-0.07766638
9	0x3dad3eb5	0.08459226
10	0x3da449b3	0.080218695
11	0x3dae7e11	0.08520139
12	0x3d964e84	0.073391944
13	0xbda3b7ee	-0.07994066
14	0x3da0db3a	0.07854314
15	0x3dad6597	0.08466642
16	0xbda39717	-0.079878025
17	0xbd9fc999	-0.078021236
18	0xbda94f96	-0.08267133
19	0x3da65848	0.08122307
20	0xbd93942c	-0.07205996
21	0x3da3afbe	0.079925045
22	0x3da7ab5c	0.08186981
23	0xbda13bc2	-0.07872726
24	0x3daa4070	0.08313072
25	0x3daa4277	0.083134584
26	0xbd9ce479	-0.07660765
27	0xbd95346c	-0.07285389
28	0xbdaccbcb	-0.08437308
29	0xbd9d6dc7	-0.07686954
30	0xbd967984	-0.07347396
31	0xbda05983	-0.07829573
32	0xbda64a6e	-0.08119665
33	0x3da6d38d	0.08145819
34	0x3da51b5c	0.08061859
35	0x3d995a8f	0.07487976
36	0xbd981b12	-0.07427038
37	0x3da8b2c9	0.082372256
38	0xbd9f33f0	-0.07773578
39	0xbcc3df52	-0.023910198
40	0xbda18a65	-0.07887725
41	0x3da9902b	0.08279451
42	0xbd92140d	-0.07132731
43	0x3da6ea9b	0.08150216
44	0x3da9ecdc	0.082971305
45	0xbda5fa23	-0.081043504
46	0xbd948a35	-0.072529234
47	0x3d9cad64	0.07650259
48	0xbd9f2cd5	-0.07772223
49	0xbda5e85e	-0.08100961
50	0xbda9638c	-0.0827094
51	0x3dbe48d9	0.09291238
52	0xbdae178d	-0.08500586
53	0x3d930737	0.071791105
54	0xbd7a3c78	-0.061092824
55	0x3daeddcc	0.08538398
56	0x3d99fc24	0.07518795
57	0x3d7b1dd1	0.061307732
58	0xbd8e137a	-0.069373086
59	0x3da8e566	0.08246879
60	0xbda4d276	-0.08047955
61	0x3da31e4c	0.07964763
62	0x3db748e5	0.089494504
63	0xbda84721	-0.08216692
64	0xbd9d39cf	-0.07677042
65	0x3da5f364	0.08103064
66	0x3d5f82f3	0.054568242
67	0x3db182bd	0.086675145
68	0x3da22a5a	0.07918234
69	0x3d9320fb	0.07184025
70	0xbda12019	-0.0786745
71	0x3daed8d1	0.08537448
72	0x3da6bca9	0.08141453
73	0xbd9fd758	-0.078047454
74	0x3db72d5e	0.089442
75	0x3d9a616e	0.075381145
76	0xbdac511c	-0.08413908
77	0xbd80b70b	-0.06284913
78	0x3da24bf0	0.0792464
79	0x3da54335	0.08069459
80	0xbd90897f	-0.07057475
81	0x3dbb9b34	0.09160462
82	0xbda69aa8	-0.08134967
83	0xbd986a64	-0.074421674
84	0xbd97eda0	-0.0741837
85	0xbda58e10	-0.08083737
86	0x3d99b0f6	0.07504456
87	0xbda46c04	-0.08028415
88	0xbd8f3b93	-0.06993785
89	0x3d9df81e	0.0771334
90	0xbda0c758	-0.07850522
91	0xbd90c589	-0.07068927
92	0xbdb3c76f	-0.08778273
93	0xbda0ddf4	-0.07854834
94	0x3da3d83c	0.08000228
95	0x3da0a1c6	0.07843356
96	0x3d9b14a4	0.07572296
97	0x3d6b5517	0.057454195
98	0xbdab08ca	-0.08351286
99	0xbda40101	-0.08008004
100	0xbda5d8e3	-0.080980085
101	0xbda6761f	-0.081279986
102	0x3da7946e	0.081826076
103	0xbd9d2952	-0.07673897
104	0x3da40522	0.080087915
105	0x3da4c196	0.08044736
106	0xbd9f6d7d	-0.07784555
107	0xbd87a024	-0.06622341
108	0x3db2031c	0.08691999
109	0x3d9e5951	0.077318795
110	0xbd9d0a74	-0.076680094
111	0xbd9d8c9d	-0.076928355
112	0x3da9333f	0.082617275
113	0x3da3cff8	0.07998651
114	0x3d9e4d21	0.07729555
115	0x3d9a0c84	0.075219184
116	0xbd9176ec	-0.07102761
117	0x3d9fdb88	0.07805544
118	0xbd9ccad2	-0.076558724
119	0x3dab4bb7	0.08364051
120	0x3da25006	0.079254195
121	0xbd9605f0	-0.07325351
122	0x3daa3e29	0.08312637
123	0xbda1f524	-0.07908085
124	0x3d9d916f	0.07693755
125	0xbdae5f1f	-0.08514237
126	0x3da4bff2	0.08044423
127	0xbd8489ed	-0.0647162

action_model._discrete_distribution.branches.0.weight f4 [2, 128]
0	0xbd6da512	-0.05801875
1	0xbd2c4215	-0.04205521
2	0xbd45eff5	-0.048324544
3	0xbd87d9d0	-0.06633341
4	0xbd8bd2d3	-0.06827321
5	0xbd3352bd	-0.043780077
6	0x3d5ace4f	0.053419407
7	0x3d1c977e	0.03823041
8	0xbd894352	-0.067022935
9	0x3d238928	0.039925724
10	0x3d82f366	0.06394081
11	0x3d774aac	0.060373947
12	0x3d17c65f	0.037054416
13	0xbd87f357	-0.0663821
14	0x3d4b0a18	0.049570173
15	0x3d7e658d	0.062108565
16	0xbd61416a	-0.054994024
17	0xbd854aa4	-0.06508377
18	0xbd82db7a	-0.06389518
19	0x3d5694e0	0.052388072
20	0xbd985169	-0.07437403
21	0x3d8f4038	0.06994671
22	0x3d505dc6	0.05087068
23	0xbd5a7f01	-0.053343777
24	0x3d478743	0.04871298
25	0x3d5f4725	0.054511208
26	0xbd930e96	-0.071805164
27	0xbd97b27a	-0.074070886
28	0xbd8a1e1e	-0.06744026
29	0xbd8a963a	-0.06766935
30	0xbd8b389c	-0.06797907
31	0xbd74b5e3	-0.059743773
32	0xbd949e7e	-0.072567925
33	0x3d675ef9	0.056487057
34	0x3d4825d1	0.04886419
35	0x3d5eb766	0.05437412
36	0xbd891431	-0.06693304
37	0x3d63eca1	0.05564559
38	0xbd9759e4	-0.07390192
39	0xbcc5fe3b	-0.024169078
40	0xbd6c8076	-0.057739697
41	0x3d4c7fd9	0.049926613
42	0xbd8125f2	-0.063060656
43	0x3d4f1bc7	0.0505636
44	0x3d73173a	0.059348322
45	0xbd94c5b4	-0.072642714
46	0xbd621019	-0.055191133
47	0x3d2bc568	0.04193631
48	0xbd61b841	-0.05510736
49	0xbd853055	-0.06503359
50	0xbd5f85f7	-0.05457112
51	0x3d8699da	0.065723136
52	0xbd9200bc	-0.07129046
53	0x3d922d68	0.07137567
54	0xbd1b5d74	-0.03793092
55	0x3d6472e6	0.05577364
56	0x3d6fbe8c	0.05853133
57	0x3d4f6e5e	0.050642364
58	0xbd91b24d	-0.07114086
59	0x3d7aa1cf	0.06118947
60	0xbd36c5dd	-0.04462229
61	0x3d496f2f	0.0491783
62	0x3d6ab9f9	0.057306264
63	0xbd94d0b3	-0.07266369
64	0xbd7c37ab	-0.061576527
65	0x3d4b0536	0.049565516
66	0x3d244924	0.040108815
67	0x3d5865bb	0.052831393
68	0x3d665e72	0.056242414
69	0x3d75ff2b	0.0600578
70	0xbd89b520	-0.06724
71	0x3d43f558	0.0478414
72	0x3d8064ad	0.062692024
73	0xbda01800	-0.07817078
74	0x3d5ee448	0.054416925
75	0x3d176919	0.036965463
76	0xbd835acc	-0.064138025
77	0xbd7c57c2	-0.06160713
78	0x3d2ef2b2	0.04271192
79	0x3d1567c5	0.036475915
80	0xbd4aa458	-0.049473137
81	0x3d8778e7	0.06614857
82	0xbd706e35	-0.05869885
83	0xbd928a1b	-0.07155248
84	0xbd7f4594	-0.062322214
85	0xbd6f14dd	-0.058369506
86	0x3d698fd0	0.057021916
87	0xbd5e0ce0	-0.054211497
88	0xbda40818	-0.08009356
89	0x3d5066f1	0.050879423
90	0xbd68d47b	-0.056843262
91	0xbd197a07	-0.03746989
92	0xbd8582e7	-0.06519108
93	0xbd711a2d	-0.058862854
94	0x3d9bda68	0.07610017
95	0x3d2bf4d9	0.04198155
96	0x3d5c2c99	0.05375347
97	0x3d332e6d	0.043745447
98	0xbd756dd3	-0.05991919
99	0xbd801088	-0.06253153
100	0xbd84272a	-0.064527825
101	0xbd4a9829	-0.049461517
102	0x3d34eafc	0.04416941
103	0xbd7dbd6c	-0.061948225
104	0x3d5022ef	0.050814565
105	0x3d84aae6	0.06477909
106	0xbd90f66e	-0.07078253
107	0xbd57c7b5	-0.05268069
108	0x3d8c86f6	0.06861679
109	0x3d753853	0.059868168
110	0xbd8437f0	-0.06455982
111	0xbd84976a	-0.064741924
112	0x3d58385f	0.052788135
113	0x3d728f44	0.05921866
114	0x3d848f89	0.0647269
115	0x3d75ed8d	0.060041
116	0xbd82cb9b	-0.06386491
117	0x3d45899f	0.04822695
118	0xbd65cec8	-0.056105405
119	0x3d81e2b2	0.06342067
120	0x3d6cc35f	0.057803508
121	0xbd91a2ec	-0.07111153
122	0x3d5245ba	0.051336028
123	0xbd8809e4	-0.066425115
124	0x3d9765ad	0.0739244
125	0xbd813616	-0.06309144
126	0x3d673342	0.056445368
127	0xbd39c1ca	-0.045350827
128	0x3d6e2566	0.058141135
129	0x3d5b9d9c	0.053617105
130	0x3d9d8f23	0.07693317
131	0x3d493639	0.049123976
132	0x3d806991	0.06270135
133	0x3d8af473	0.06784906
134	0xbd7eab06	-0.06217482
135	0xbd29bc20	-0.041439176
136	0x3d83662e	0.064159736
137	0xbd634774	-0.055488065
138	0xbd7290ae	-0.05922001
139	0xbd2c4ef8	-0.042067498
140	0xbd38251d	-0.04495727
141	0x3d660e6a	0.05616609
142	0xbd715f69	-0.05892888
143	0xbd546592	-0.051854677
144	0x3d80165b	0.06254264
145	0x3d2ebda2	0.042661317
146	0x3d783991	0.060601775
147	0xbd796f34	-0.060897067
148	0x3d952b14	0.07283607
149	0xbd83a1ba	-0.06427331
150	0xbd709d4a	-0.058743753
151	0x3d8ab266	0.06772308
152	0xbd421064	-0.047378913
153	0xbd8ac7c6	-0.06776385
154	0x3d6d3d3a	0.05791972
155	0x3d8b02f8	0.067876756
156	0x3d53a529	0.05167118
157	0x3d937dc8	0.07201725
158	0x3d922c9d	0.071374156
159	0x3d89e9a7	0.06734019
160	0x3d5c0340	0.053714037
161	0xbd8742fa	-0.06604572
162	0xbcfc398d	-0.030789161
163	0xbd6e6e31	-0.058210555
164	0x3d99e073	0.075135134
165	0xbd3720ee	-0.04470914
166	0x3d748885	0.059700508
167	0x3c4f4a50	0.012651995
168	0x3d8cb4a6	0.068703935
169	0xbd6ae13d	-0.05734371
170	0x3d948bbf	0.07253217
171	0xbd75a960	-0.05997598
172	0xbd29b61b	-0.041433435
173	0x3d6a9974	0.05727525
174	0x3d940608	0.07227713
175	0xbd7a6b2b	-0.06113736
176	0x3d6fa33b	0.058505278
177	0x3d5b58d8	0.053551525
178	0x3d63c0dc	0.055603847
179	0xbd7cf8b6	-0.061760627
180	0x3d6177f9	0.055046055
181	0xbd839d24	-0.064264566
182	0x3d5d8fa0	0.05409205
183	0xbd771cf7	-0.060330357
184	0xbd929482	-0.07157232
185	0xbd4211b9	-0.047380183
186	0x3d596522	0.053074963
187	0xbd5d520a	-0.054033317
188	0x3d8f6c01	0.07003022
189	0xbd6069f6	-0.054788552
190	0xbd7e6a98	-0.062113374
191	0x3d864fc8	0.06558186
192	0x3d73f29a	0.059557535
193	0xbd2f50b0	-0.04280156
194	0xbd47e72e	-0.048804455
195	0xbd47fad1	-0.04882318
196	0xbd4ee9f4	-0.050516084
197	0xbd804991	-0.06264032
198	0x3d754811	0.05988318
199	0xbd54fcec	-0.051999018
200	0xbd5de64b	-0.054174703
201	0x3d3dc015	0.04632576
202	0xbd71ec1b	-0.05906306
203	0xbd3bbd7f	-0.045835014
204	0x3d91f84e	0.071274385
205	0x3d3b5679	0.045736764
206	0xbd24ba68	-0.040216833
207	0xbd4791b6	-0.048722945
208	0x3d75afc4	0.059982076
209	0xbd4e16aa	-0.050314583
210	0x3d70805f	0.058716174
211	0x3d8a3a66	0.0674942
212	0x3d97ed97	0.074183635
213	0x3d7679b7	0.06017467
214	0xbd5c28b1	-0.053749744
215	0x3d8badf9	0.06820292
216	0x3d9a5bd4	0.07537046
217	0xbd889118	-0.066682994
218	0x3d81b5fb	0.06333538
219	0x3d5ba68c	0.05362563
220	0x3d74866d	0.05969851
221	0x3d7d4604	0.06183435
222	0xbd8d98c9	-0.06913907
223	0xbd1d0ff7	-0.038345303
224	0xbd8ac616	-0.06776063
225	0xbd445be6	-0.047939204
226	0x3d635856	0.055504166
227	0x3d69c30d	0.05707078
228	0x3d791f8a	0.060821094
229	0x3d82bfb1	0.063842185
230	0xbd6149d7	-0.05500206
231	0x3d86053e	0.065439686
232	0xbd717de9	-0.058957968
233	0xbd4b1fd6	-0.049590908
234	0x3d625b25	0.055262703
235	0x3d3ebd10	0.046567023
236	0xbd547fbb	-0.051879626
237	0xbd8a18bb	-0.06742998
238	0x3d9bb265	0.076023854
239	0x3d78cf40	0.060744524
240	0xbd5fc9c1	-0.054635767
241	0xbd3b9231	-0.045793716
242	0xbd7910f6	-0.06080719
243	0xbd5f144b	-0.054462712
244	0x3d9e9610	0.07743466
245	0xbd429c04	-0.04751207
246	0x3d9d5918	0.07683009
247	0xbd5bb214	-0.053636625
248	0xbd8b6d2f	-0.068079345
249	0x3d8b7fea	0.06811507
250	0xbd2b459a	-0.041814424
251	0x3d860876	0.065445825
252	0xbd660561	-0.056157473
253	0x3d6fc3e2	0.058536418
254	0xbd3a9a00	-0.045557022
255	0x3d79dd0b	0.06100182

action_model._discrete_distribution.branches.0.bias f4 [2]
0	0x3d653bdf	0.0559653
1	0xbd653bde	-0.055965297

exp_avg f4 [128, 33]
0	0xb082bb2d	-9.511943e-10
1	0x00000004	6e-45
2	0x2f540653	1.9283534e-10
3	0xb1a7fe03	-4.8892175e-09
4	0x00000004	6e-45
5	0x2f0cfe51	1.2823277e-10
6	0x00000004	6e-45
7	0x00000004	6e-45
8	0x2f6a2d0c	2.129818e-10
9	0xb1a7fe03	-4.8892175e-09
10	0x00000004	6e-45
11	0x2f0f5c6c	1.3038609e-10
12	0x00000004	6e-45
13	0x00000000	0.0
14	0x2f7c71da	2.2959715e-10
15	0xb1a850e7	-4.898641e-09
16	0x00000004	6e-45
17	0x2f133be0	1.3390844e-10
18	0x00000004	6e-45
19	0x00000000	0.0
20	0x2f8435a8	2.4048785e-10
21	0xb1a8349a	-4.8954236e-09
22	0x2d74e08b	1.3919653e-11
23	0x2f192b96	1.3930754e-10
24	0x00000004	6e-45
25	0x00000000	0.0
26	0x2f90575a	2.6255514e-10
27	0xb1a70ddd	-4.8619158e-09
28	0x00000000	0.0
29	0x2f1f934f	1.45133e-10
30	0x00000004	6e-45
31	0x00000000	0.0
32	0x2fa47fe2	2.9922292e-10
33	0x325f6fa8	1.3005696e-08
34	0x80000004	-6e-45
35	0xb0bcbbf7	-1.3732223e-09
36	0x3343ef66	4.5619707e-08
37	0x80000004	-6e-45
38	0xb0656f32	-8.346773e-10
39	0x80000004	-6e-45
40	0x80000004	-6e-45
41	0xb0e19783	-1.6413967e-09
42	0x3343ef66	4.5619707e-08
43	0x80000004	-6e-45
44	0xb069471c	-8.486596e-10
45	0x80000004	-6e-45
46	0x00000000	0.0
47	0xb0f51a25	-1.7833527e-09
48	0x3344051f	4.5639464e-08
49	0x80000004	-6e-45
50	0xb06fce7a	-8.7241114e-10
51	0x80000004	-6e-45
52	0x00000000	0.0
53	0xb10232f0	-1.8946444e-09
54	0x3343f9ac	4.562905e-08
55	0xae0ee0be	-3.2486673e-11
56	0xb0799953	-9.080356e-10
57	0x80000004	-6e-45
58	0x00000000	0.0
59	0xb10ef31f	-2.0801918e-09
60	0x334370cf	4.5504574e-08
61	0x00000000	0.0
62	0xb083150f	-9.53749e-10
63	0x80000004	-6e-45
64	0x00000000	0.0
65	0xb122383e	-2.3606073e-09
66	0xb1704f22	-3.4969578e-09
67	0x00000004	6e-45
68	0x2ffb8887	4.5753643e-10
69	0xb259f4b1	-1.2686699e-08
70	0x00000004	6e-45
71	0x2fa874aa	3.0641917e-10
72	0x00000004	6e-45
73	0x00000004	6e-45
74	0x3011b863	5.301272e-10
75	0xb259f4b1	-1.2686699e-08
76	0x00000004	6e-45
77	0x2fab47a6	3.1155628e-10
78	0x00000004	6e-45
79	0x00000000	0.0
80	0x301d436b	5.7212074e-10
81	0xb25a2f85	-1.2700075e-08
82	0x00000004	6e-45
83	0x2fb0026a	3.201593e-10
84	0x00000004	6e-45
85	0x00000000	0.0
86	0x3025cd65	6.0318534e-10
87	0xb25a19ba	-1.269512e-08
88	0x2dae8f22	1.9845074e-11
89	0x2fb72926	3.3316744e-10
90	0x00000004	6e-45
91	0x00000000	0.0
92	0x30350e24	6.586751e-10
93	0xb2592054	-1.2638413e-08
94	0x00000000	0.0
95	0x2fbfd39c	3.4893055e-10
96	0x00000004	6e-45
97	0x00000000	0.0
98	0x304d57a0	7.470309e-10
99	0xb0ab9580	-1.2484378e-09
100	0x80000004	-6e-45
101	0x2f8a0541	2.5105787e-10
102	0xb1c909a1	-5.8509646e-09
103	0x80000004	-6e-45
104	0x2f40e614	1.7544038e-10
105	0x80000004	-6e-45
106	0x80000004	-6e-45
107	0x2f9890fa	2.775165e-10
108	0xb1c909a1	-5.8509646e-09
109	0x80000004	-6e-45
110	0x2f442180	1.7837998e-10
111	0x80000004	-6e-45
112	0x00000000	0.0
113	0x2fa3f944	2.982664e-10
114	0xb1c928bf	-5.854502e-09
115	0x80000004	-6e-45
116	0x2f49a3a3	1.8338979e-10
117	0x80000004	-6e-45
118	0x00000000	0.0
119	0x2fad61ae	3.1537922e-10
120	0xb1c9185d	-5.8526397e-09
121	0x2caf2c7f	4.978739e-12
122	0x2f51e1af	1.9088618e-10
123	0x80000004	-6e-45
124	0x00000000	0.0
125	0x2fbd5fd4	3.444699e-10
126	0xb1c846c6	-5.828812e-09
127	0x00000000	0.0
128	0x2f5cc3cf	2.0078449e-10
129	0x80000004	-6e-45
130	0x00000000	0.0
131	0x2fd6394a	3.896708e-10
132	0xb1e72b7f	-6.7279298e-09
133	0x00000004	6e-45
134	0x30020c2c	4.731102e-10
135	0xb2ac6af8	-2.0072079e-08
136	0x00000004	6e-45
137	0x2f8ac884	2.524453e-10
138	0x00000004	6e-45
139	0x00000004	6e-45
140	0x3027b70f	6.101439e-10
141	0xb2ac6af8	-2.0072079e-08
142	0x00000004	6e-45
143	0x2f8d1c4c	2.5667857e-10
144	0x00000004	6e-45
145	0x00000000	0.0
146	0x303781d0	6.6759487e-10
147	0xb2ac6acb	-2.0072e-08
148	0x00000004	6e-45
149	0x2f911f72	2.639769e-10
150	0x00000004	6e-45
151	0x00000000	0.0
152	0x304440b7	7.139635e-10
153	0xb2ac64bb	-2.0069242e-08
154	0x2c66f42f	3.2820515e-12
155	0x2f9715c5	2.7482208e-10
156	0x00000004	6e-45
157	0x00000000	0.0
158	0x30585da2	7.87134e-10
159	0xb2ac1787	-2.0034134e-08
160	0x00000000	0.0
161	0x2f9f2d17	2.895397e-10
162	0x00000004	6e-45
163	0x00000000	0.0
164	0x3075c841	8.941506e-10
165	0x314d7d9f	2.9902834e-09
166	0x80000004	-6e-45
167	0xafde5984	-4.044517e-10
168	0x32428eab	1.1324725e-08
169	0x80000004	-6e-45
170	0xaf92dfde	-2.6716312e-10
171	0x00000004	6e-45
172	0x80000004	-6e-45
173	0xb0004dfd	-4.6676957e-10
174	0x32428eab	1.1324725e-08
175	0x80000004	-6e-45
176	0xaf9555c4	-2.7163882e-10
177	0x00000004	6e-45
178	0x00000000	0.0
179	0xb00aaba9	-5.044805e-10
180	0x3242b01a	1.1332327e-08
181	0x80000004	-6e-45
182	0xaf997f21	-2.7920868e-10
183	0x00000004	6e-45
184	0x00000000	0.0
185	0xb012af63	-5.336373e-10
186	0x32429cb6	1.1327918e-08
187	0xad6855ae	-1.3206698e-11
188	0xaf9fc1a0	-2.905951e-10
189	0x00000004	6e-45
190	0x00000000	0.0
191	0xb0208dde	-5.8409266e-10
192	0x3241de2b	1.1284594e-08
193	0x00000000	0.0
194	0xafa78f3d	-3.04789e-10
195	0x00000004	6e-45
196	0x00000000	0.0
197	0xb0361b86	-6.625033e-10
198	0x3216cfc0	8.778386e-09
199	0x80000004	-6e-45
200	0xb0608c03	-8.1689694e-10
201	0x32e7775d	2.694622e-08
202	0x80000004	-6e-45
203	0xb00e34ee	-5.1734517e-10
204	0x80000004	-6e-45
205	0x80000004	-6e-45
206	0xb08916c9	-9.974538e-10
207	0x32e7775d	2.694622e-08
208	0x80000004	-6e-45
209	0xb01096f2	-5.26014e-10
210	0x80000004	-6e-45
211	0x00000000	0.0
212	0xb094c5ad	-1.08246e-09
213	0x32e79a94	2.6962233e-08
214	0x80000004	-6e-45
215	0xb0149cbf	-5.4064836e-10
216	0x80000004	-6e-45
217	0x00000000	0.0
218	0xb09d9d03	-1.1467879e-09
219	0x32e785ce	2.6952787e-08
220	0xadf5885f	-2.7913836e-11
221	0xb01aab96	-5.626871e-10
222	0x80000004	-6e-45
223	0x00000000	0.0
224	0xb0acac6e	-1.2563655e-09
225	0x32e69a06	2.6845566e-08
226	0x00000000	0.0
227	0xb0222e44	-5.9001004e-10
228	0x80000004	-6e-45
229	0x00000000	0.0
230	0xb0c44f4e	-1.4283417e-09
231	0x31e80d5a	6.7536066e-09
232	0x80000004	-6e-45
233	0xb096cecf	-1.0972715e-09
234	0x32edc63a	2.7680574e-08
235	0x80000004	-6e-45
236	0xb04efda9	-7.5302836e-10
237	0x80000004	-6e-45
238	0x80000004	-6e-45
239	0xb0aa4f70	-1.2391705e-09
240	0x32edc63a	2.7680574e-08
241	0x80000004	-6e-45
242	0xb0527550	-7.6564266e-10
243	0x80000004	-6e-45
244	0x00000000	0.0
245	0xb0b77818	-1.3349135e-09
246	0x32edf8fd	2.7703658e-08
247	0x80000004	-6e-45
248	0xb0585256	-7.869735e-10
249	0x80000004	-6e-45
250	0x00000000	0.0
251	0xb0c1b8fa	-1.4095172e-09
252	0x32ede2e0	2.7693602e-08
253	0xae1a5afa	-3.509635e-11
254	0xb0612387	-8.190501e-10
255	0x80000004	-6e-45

exp_avg_sq f4 [128, 33]
0	0x2db711b0	2.0812546e-11
1	0x2bdf4465	1.5864086e-12
2	0x2ea07b8c	7.297904e-11
3	0x2f54cdca	1.9354399e-10
4	0x2bdf4465	1.5864086e-12
5	0x2ea8b35c	7.671616e-11
6	0x2891aa37	1.6172053e-14
7	0x2bdf4465	1.5864086e-12
8	0x2ea0ee78	7.318318e-11
9	0x2f54c2a1	1.9350434e-10
10	0x2bdf4465	1.5864086e-12
11	0x2eae40c6	7.92411e-11
12	0x2809328d	7.615989e-15
13	0x00000000	0.0
14	0x2ea605e3	7.549852e-11
15	0x2f19d714	1.399168e-10
16	0x2be765b9	1.6441771e-12
17	0x2eb5657a	8.248953e-11
18	0x2802eca6	7.267765e-15
19	0x00000000	0.0
20	0x2e7841f2	5.6447243e-11
21	0x2eb844da	8.379582e-11
22	0x2bf5779d	1.7441496e-12
23	0x2ec0937e	8.757349e-11
24	0x2802eca6	7.267765e-15
25	0x00000000	0.0
26	0x2e20eed2	3.6591903e-11
27	0x2e855a82	6.064217e-11
28	0x00000000	0.0
29	0x2ec8d447	9.132655e-11
30	0x2802eca6	7.267765e-15
31	0x00000000	0.0
32	0x2ddffc19	2.5464119e-11
33	0x3105f9e5	1.9496096e-09
34	0x2c93a6c2	4.196505e-12
35	0x31374aef	2.66726e-09
36	0x325745ef	1.2530548e-08
37	0x2c93a6c2	4.196505e-12
38	0x314161ad	2.8140719e-09
39	0x2c834259	3.73061e-12
40	0x2c93a6c2	4.196505e-12
41	0x3136900a	2.6566362e-09
42	0x32573f0c	1.2528982e-08
43	0x2c93a6c2	4.196505e-12
44	0x3147e58a	2.908879e-09
45	0x2c4b66fa	2.8905199e-12
46	0x00000000	0.0
47	0x313cabcf	2.7455263e-09
48	0x3237f91d	1.0708644e-08
49	0x2c9f4b79	4.527431e-12
50	0x315135c8	3.0444074e-09
51	0x2c49bd4d	2.86689e-12
52	0x00000000	0.0
53	0x311a2f4b	2.2436832e-09
54	0x3216a16e	8.767854e-09
55	0x2cb9c09f	5.2794015e-12
56	0x315e8a13	3.2383738e-09
57	0x2c49bd4d	2.86689e-12
58	0x00000000	0.0
59	0x30dc5a44	1.6032762e-09
60	0x31fed2b1	7.4163258e-09
61	0x00000000	0.0
62	0x316c179a	3.4355936e-09
63	0x2c49bd4d	2.86689e-12
64	0x00000000	0.0
65	0x30a4b052	1.1982684e-09
66	0x2ed69a6d	9.759025e-11
67	0x2c9c4b96	4.4421784e-12
68	0x2f7566e3	2.2319173e-10
69	0x3041ff66	7.0575934e-10
70	0x2c9c4b96	4.4421784e-12
71	0x2f810199	2.3466099e-10
72	0x299c8272	6.95042e-14
73	0x2c9c4b96	4.4421784e-12
74	0x2f755095	2.2311249e-10
75	0x3041f7e4	7.0565265e-10
76	0x2c9c4b96	4.4421784e-12
77	0x2f8542f7	2.424014e-10
78	0x2937703b	4.0731507e-14
79	0x00000000	0.0
80	0x2f7d1dbb	2.3020778e-10
81	0x30194e69	5.5772503e-10
82	0x2ca21f36	4.607782e-12
83	0x2f8b0f6c	2.529491e-10
84	0x29346a16	4.0060044e-14
85	0x00000000	0.0
86	0x2f44b5c5	1.7890674e-10
87	0x2fd092cf	3.7939293e-10
88	0x2caa2d6a	4.8367326e-12
89	0x2f93a21f	2.6854338e-10
90	0x29346a16	4.0060044e-14
91	0x00000000	0.0
92	0x2f04b797	1.2070554e-10
93	0x2f9a3536	2.8050245e-10
94	0x00000000	0.0
95	0x2f9af080	2.8183322e-10
96	0x29346a16	4.0060044e-14
97	0x00000000	0.0
98	0x2ebd100d	8.597576e-11
99	0x2c4a94b5	2.8788476e-12
100	0x28454434	1.0950486e-14
101	0x2d44a004	1.1176841e-11
102	0x2e253963	3.7567626e-11
103	0x28454434	1.0950486e-14
104	0x2d4fe939	1.18183735e-11
105	0x28e9b4df	2.5946637e-14
106	0x28454434	1.0950486e-14
107	0x2d45428d	1.1212931e-11
108	0x2e25324f	3.756134e-11
109	0x28454434	1.0950486e-14
110	0x2d56eb8c	1.22167935e-11
111	0x28ba4a35	2.068233e-14
112	0x00000000	0.0
113	0x2d4bddd0	1.1588466e-11
114	0x2e0c2344	3.1863637e-11
115	0x28453768	1.0947711e-14
116	0x2d60d0d0	1.27792915e-11
117	0x28b9f7ef	2.064665e-14
118	0x00000000	0.0
119	0x2d218632	9.181588e-12
120	0x2db7b8e8	2.0886806e-11
121	0x284d8b6e	1.141002e-14
122	0x2d6e9b9e	1.3563288e-11
123	0x28b9f7ef	2.064665e-14
124	0x00000000	0.0
125	0x2cde4bcd	6.318035e-12
126	0x2d8be044	1.5902064e-11
127	0x00000000	0.0
128	0x2d7c704f	1.4349479e-11
129	0x28b9f7ef	2.064665e-14
130	0x00000000	0.0
131	0x2ca09c30	4.564814e-12
132	0x2f0962eb	1.249522e-10
133	0x2ac3a5b6	3.4753943e-13
134	0x2eba08b2	8.459845e-11
135	0x30239a78	5.951857e-10
136	0x2ac3a5b6	3.4753943e-13
137	0x2ec422b0	8.91921e-11
138	0x2a8373e4	2.335069e-13
139	0x2ac3a5b6	3.4753943e-13
140	0x2eb784b6	8.345451e-11
141	0x302394d7	5.951057e-10
142	0x2ac3a5b6	3.4753943e-13
143	0x2ecab930	9.2187924e-11
144	0x2a3b9403	1.6660288e-13
145	0x00000000	0.0
146	0x2ebd9c4a	8.6224874e-11
147	0x3015d9d7	5.4515453e-10
148	0x2ac8d952	3.5677933e-13
149	0x2ed4d152	9.6778266e-11
150	0x2a3a4928	1.65455e-13
151	0x00000000	0.0
152	0x2ea46372	7.4755216e-11
153	0x30066adc	4.890077e-10
154	0x2ad4d026	3.7803197e-13
155	0x2ee28041	1.03000726e-10
156	0x2a3a4928	1.65455e-13
157	0x00000000	0.0
158	0x2e7b5705	5.714808e-11
159	0x2fedc917	4.3252932e-10
160	0x00000000	0.0
161	0x2ef2fe88	1.10501e-10
162	0x2a3a4928	1.65455e-13
163	0x00000000	0.0
164	0x2e44fab2	4.4787903e-11
165	0x2cbc947a	5.3597656e-12
166	0x29f9ec54	1.1098818e-13
167	0x2d607bb5	1.2760394e-11
168	0x2e8de769	6.4530443e-11
169	0x29f9ec54	1.1098818e-13
170	0x2d6d90c1	1.3504032e-11
171	0x286819ce	1.2884183e-14
172	0x29f9ec54	1.1098818e-13
173	0x2d6025cb	1.27413175e-11
174	0x2e8dd851	6.450363e-11
175	0x29f9ec54	1.1098818e-13
176	0x2d757b8b	1.395407e-11
177	0x283f8c97	1.06331154e-14
178	0x00000000	0.0
179	0x2d676f95	1.3155606e-11
180	0x2e7e415f	5.7810975e-11
181	0x29fe1a4c	1.1284428e-13
182	0x2d80a238	1.4623955e-11
183	0x2838a403	1.0249616e-14
184	0x00000000	0.0
185	0x2d3c1347	1.0690843e-11
186	0x2e3e78cf	4.3308298e-11
187	0x2a0b38d4	1.2365396e-13
188	0x2d8863fa	1.5505808e-11
189	0x2838a403	1.0249616e-14
190	0x00000000	0.0
191	0x2d055b70	7.580478e-12
192	0x2e23ac72	3.721507e-11
193	0x00000000	0.0
194	0x2d910a0f	1.6489058e-11
195	0x2838a403	1.0249616e-14
196	0x00000000	0.0
197	0x2cc62e30	5.6326263e-12
198	0x2fa55b6e	3.007829e-10
199	0x2b415ce2	6.8696275e-13
200	0x2fecf4ac	4.3102e-10
201	0x30e46c6c	1.6619999e-09
202	0x2b415ce2	6.8696275e-13
203	0x2ff9048b	4.5296064e-10
204	0x2ae18db6	4.006636e-13
205	0x2b415ce2	6.8696275e-13
206	0x2febbdcc	4.288111e-10
207	0x30e469ea	1.6619286e-09
208	0x2b415ce2	6.8696275e-13
209	0x3000b473	4.682256e-10
210	0x2aa3f487	2.9124291e-13
211	0x00000000	0.0
212	0x2ff3a1a1	4.4316287e-10
213	0x30bf1c2e	1.3905088e-09
214	0x2b4ef8f4	7.3531394e-13
215	0x3006bb4a	4.901507e-10
216	0x2aa286cf	2.8870523e-13
217	0x00000000	0.0
218	0x2fc51e39	3.5855566e-10
219	0x308a100a	1.004538e-09
220	0x2b5cef01	7.8491385e-13
221	0x300f0d37	5.2041876e-10
222	0x2aa286cf	2.8870523e-13
223	0x00000000	0.0
224	0x2f884e03	2.4793687e-10
225	0x30512e29	7.6099355e-10
226	0x00000000	0.0
227	0x3017b9d9	5.5197585e-10
228	0x2aa286cf	2.8870523e-13
229	0x00000000	0.0
230	0x2f451746	1.7925314e-10
231	0x300882b1	4.9662235e-10
232	0x2c848cf3	3.767314e-12
233	0x30a29115	1.1828286e-09
234	0x319b9da2	4.5290145e-09
235	0x2c848cf3	3.767314e-12
236	0x30abb789	1.2494051e-09
237	0x2b88f40f	9.731121e-13
238	0x2c848cf3	3.767314e-12
239	0x30a29e73	1.1832085e-09
240	0x319b99b0	4.528566e-09
241	0x2c848cf3	3.767314e-12
242	0x30b17e4e	1.2914343e-09
243	0x2b5cc37e	7.8431e-13
244	0x00000000	0.0
245	0x30a80abe	1.2226662e-09
246	0x31803213	3.730983e-09
247	0x2c8d55ee	4.017001e-12
248	0x30b9a3f6	1.3507122e-09
249	0x2b5c28ef	7.821651e-13
250	0x00000000	0.0
251	0x30872e8d	9.835773e-10
252	0x313dca62	2.761816e-09
253	0x2c9894f0	4.3366352e-12
254	0x30c54ec5	1.4356024e-09
255	0x2b5c28ef	7.821651e-13

exp_avg f4 [128]
0	0xb9576113	-0.00020540161
1	0x3994b97f	0.00028366965
2	0xb96bf29c	-0.00022501725
3	0xb8a85627	-8.0269114e-05
4	0xb96541d2	-0.00021863662
5	0x38ca18db	9.63674e-05
6	0x39868211	0.0002565538
7	0x398523dd	0.00025394457
8	0x392a8d9a	0.00016265214
9	0xb95c917d	-0.00021035034
10	0xb94fcc2f	-0.00019817123
11	0xb9801f68	-0.00024437462
12	0x3994877b	0.000283297
13	0xb95741bf	-0.0002052849
14	0x394c5569	0.00019486774
15	0x3910b08b	0.00013798678
16	0xb96c8b4c	-0.00022558606
17	0x392ee969	0.00016680885
18	0xb938f058	-0.00017637142
19	0xb94802ee	-0.00019074578
20	0xb896b16f	-7.185607e-05
21	0xb91b5e1d	-0.00014817012
22	0xb951ab7e	-0.00019995679
23	0x390ffc8b	0.00013731622
24	0xb95da2ab	-0.00021136801
25	0xb94a07fe	-0.00019267199
26	0x397f892d	0.00024369797
27	0x392e1952	0.00016603366
28	0x3963a262	0.000217089
29	0xb94e9d6b	-0.00019704334
30	0xb9354d1c	-0.0001729023
31	0x39419237	0.00018460384
32	0xb94421e3	-0.0001870464
33	0xb939188d	-0.00017652121
34	0x396522f5	0.00021852164
35	0xb969ee68	-0.00022309425
36	0x39460904	0.0001888611
37	0xb932d177	-0.00017053435
38	0x396c91ba	0.00022561001
39	0xb958f597	-0.00020690855
40	0x39448a24	0.00018743478
41	0x3938ece0	0.0001763585
42	0xb8d069bb	-9.937907e-05
43	0xb8ea7aef	-0.00011180888
44	0x3927d5d2	0.00016006015
45	0x3956beab	0.0002047966
46	0xb961603b	-0.00021493521
47	0x3995f966	0.0002860531
48	0x39418184	0.00018454163
49	0x391e9573	0.00015123728
50	0x3988fc3a	0.00026127865
51	0x3908cf14	0.00013047113
52	0xb970108a	-0.00022894345
53	0x3938a721	0.00017609868
54	0xb954392f	-0.00020239198
55	0xb942ebdb	-0.00018589145
56	0x398ebf84	0.0002722704
57	0x395e9ce8	0.00021230022
58	0xb986e3a8	-0.0002572809
59	0x399344b5	0.00028089216
60	0xb96758ea	-0.00022063
61	0x3988a08d	0.0002605956
62	0x39347764	0.00017210614
63	0xb9625400	-0.00021584332
64	0xb9868191	-0.00025655006
65	0x398119c4	0.00024623994
66	0x394fb9a8	0.0001981022
67	0x3985639d	0.00025441954
68	0xb9492eac	-0.0001918624
69	0x398d7877	0.0002698337
70	0xb9129098	-0.0001397751
71	0x3969e752	0.00022306785
72	0x398355b3	0.00025050118
73	0x3985c0f5	0.000255115
74	0x398220bb	0.00024819918
75	0xb950e9b3	-0.00019923486
76	0xb91f6163	-0.00015199701
77	0xb93fcb01	-0.00018290804
78	0x396922e7	0.00022233614
79	0xb9502ffc	-0.00019854301
80	0xb9252d86	-0.00015752585
81	0x3965e905	0.00021925948
82	0x393e9a74	0.0001817735
83	0xb94ce291	-0.00019539359
84	0x39779222	0.00023610194
85	0x398bd151	0.000266681
86	0xb8f8ce14	-0.000118639466
87	0x394e1f6c	0.00019657396
88	0x3941b16f	0.00018472013
89	0xb92f868e	-0.00016739426
90	0x39532c6d	0.00020139078
91	0xb9387c0a	-0.00017593816
92	0xb93cbac0	-0.00017998647
93	0x396d9e3c	0.00022661028
94	0xb932fee0	-0.00017070351
95	0x397af19d	0.00023931866
96	0xb93423a9	-0.00017179422
97	0xb969bdeb	-0.00022291362
98	0xb96059c5	-0.00021395746
99	0x39799d6c	0.00023805135
100	0xb916e531	-0.00014390495
101	0xb93b96d7	-0.00017889902
102	0xb92dca25	-0.0001657387
103	0xb9144d2a	-0.00014143126
104	0xb8e8e1f3	-0.000111047084
105	0x394f5e4e	0.0001977619
106	0xb90f73ca	-0.00013680678
107	0x39917773	0.00027745552
108	0xb979a056	-0.0002380622
109	0xb95c1ca4	-0.00020991504
110	0xb939bc6f	-0.00017713172
111	0x39705841	0.00022921061
112	0x394bea29	0.0001944682
113	0x3952eb67	0.00020114855
114	0xb96f2d7e	-0.00022809763
115	0x394f9034	0.00019794778
116	0x39724803	0.00023105745
117	0x3966de3d	0.000220173
118	0xb8d9de74	-0.000103888015
119	0x395920fe	0.00020707023
120	0xb94917fb	-0.00019177787
121	0x38e4579a	0.00010888204
122	0x3912a410	0.00013984763
123	0xb91d8883	-0.00015023541
124	0x399a4b75	0.0002942939
125	0xb96d640e	-0.00022639355
126	0x39493c35	0.00019191283
127	0xb963271a	-0.00021662973

exp_avg_sq f4 [128]
0	0x3608fd5a	2.041305e-06
1	0x3688ca4f	4.0766677e-06
2	0x361f0abd	2.3699097e-06
3	0x34714a35	2.247187e-07
4	0x361719f8	2.251587e-06
5	0x34bf57c6	3.5640386e-07
6	0x364ba828	3.0347237e-06
7	0x364ebed2	3.0807464e-06
8	0x35908113	1.0766402e-06
9	0x360e7815	2.1229546e-06
10	0x36047702	1.9738804e-06
11	0x3640be9d	2.872118e-06
12	0x367957ca	3.7154991e-06
13	0x360b701d	2.0777873e-06
14	0x35f31891	1.8112061e-06
15	0x35628ac3	8.4393486e-07
16	0x3624af1d	2.4539834e-06
17	0x35b955c1	1.3808532e-06
18	0x35bfa595	1.42788e-06
19	0x35db1c07	1.6324929e-06
20	0x3449c86d	1.8792498e-07
21	0x3580401b	9.5554e-07
22	0x36003404	1.9103763e-06
23	0x35604612	8.354847e-07
24	0x360e2f27	2.1187095e-06
25	0x35f483a5	1.821773e-06
26	0x36351ac5	2.6986684e-06
27	0x35a65a51	1.2394249e-06
28	0x36133b1b	2.193911e-06
29	0x35f63c9c	1.8346068e-06
30	0x35b024d5	1.3123741e-06
31	0x35d1e196	1.5637368e-06
32	0x35e38325	1.6950986e-06
33	0x35cdcd70	1.533348e-06
34	0x360c5fb3	2.091733e-06
35	0x3621b098	2.409366e-06
36	0x35fd5812	1.8875601e-06
37	0x35bba531	1.3980663e-06
38	0x361b2bb2	2.3122234e-06
39	0x36042465	1.9690717e-06
40	0x35da409a	1.6261067e-06
41	0x35bb7179	1.3965611e-06
42	0x34d2e94b	3.928529e-07
43	0x3506aae0	5.0167546e-07
44	0x3597123a	1.1255681e-06
45	0x360ae131	2.069468e-06
46	0x36136a23	2.1966487e-06
47	0x36801f38	3.8183316e-06
48	0x35c93349	1.4990593e-06
49	0x3590531a	1.0753022e-06
50	0x3653918b	3.1526167e-06
51	0x3537e582	6.850679e-07
52	0x36313208	2.6404177e-06
53	0x35b86499	1.3738346e-06
54	0x36058091	1.989338e-06
55	0x35d4bf22	1.5850858e-06
56	0x366718df	3.443616e-06
57	0x3619dfce	2.2929048e-06
58	0x3656a482	3.198424e-06
59	0x367bf53c	3.754466e-06
60	0x36211743	2.400441e-06
61	0x365152c7	3.119161e-06
62	0x35c649d9	1.4773642e-06
63	0x3615ebf0	2.2340064e-06
64	0x3653b775	3.1548236e-06
65	0x36392fec	2.7595042e-06
66	0x360224e1	1.9392976e-06
67	0x3644f375	2.9347987e-06
68	0x35ed6d3a	1.7689665e-06
69	0x3666b8ba	3.4380196e-06
70	0x356ad159	8.7476434e-07
71	0x3621841b	2.4067765e-06
72	0x364447fd	2.9248179e-06
73	0x3655eae2	3.1876193e-06
74	0x3637bec6	2.738017e-06
75	0x35fd95b5	1.8893539e-06
76	0x358237ba	9.701973e-07
77	0x35c392bd	1.4571339e-06
78	0x360f70b2	2.1374258e-06
79	0x35fb5cf1	1.8728007e-06
80	0x358b13da	1.0362085e-06
81	0x36154b32	2.22465e-06
82	0x35dc5429	1.6415771e-06
83	0x35eebfde	1.7788223e-06
84	0x3629eecf	2.5321967e-06
85	0x366751b1	3.4469233e-06
86	0x3512226c	5.443933e-07
87	0x35d4b422	1.5847656e-06
88	0x35d95333	1.6191974e-06
89	0x359e3cf3	1.1789656e-06
90	0x36051cae	1.9835238e-06
91	0x35bc2a13	1.4019337e-06
92	0x35cad3c1	1.5111801e-06
93	0x361e0a74	2.354992e-06
94	0x35b4e5a3	1.3477878e-06
95	0x362bdfc9	2.5611246e-06
96	0x35b3c684	1.3394315e-06
97	0x36233e38	2.4325109e-06
98	0x360f7121	2.137451e-06
99	0x362af3d4	2.54739e-06
100	0x3578a41c	9.262601e-07
101	0x35bd6827	1.411191e-06
102	0x35aabbaf	1.272061e-06
103	0x355d1629	8.2361163e-07
104	0x3506cc60	5.0216295e-07
105	0x35e6c303	1.7193091e-06
106	0x3564b253	8.5196115e-07
107	0x3671195a	3.5926555e-06
108	0x3637478c	2.731077e-06
109	0x360c5b5a	2.09148e-06
110	0x35c52163	1.4687361e-06
111	0x362ddf52	2.5908998e-06
112	0x3602576c	1.9422396e-06
113	0x35f0db4f	1.7945221e-06
114	0x362e27b7	2.5951138e-06
115	0x35fa2dd8	1.8639794e-06
116	0x362a3122	2.5360573e-06
117	0x361a1e98	2.2965596e-06
118	0x34e9544d	4.346097e-07
119	0x360bedce	2.0851035e-06
120	0x35e1c0ae	1.6819884e-06
121	0x34fbe434	4.6918433e-07
122	0x3550e1f6	7.7814855e-07
123	0x35808caa	9.577682e-07
124	0x3689e9bf	4.11013e-06
125	0x36229ce7	2.423121e-06
126	0x35e046ba	1.6709885e-06
127	0x3612cfc1	2.1876624e-06
