ML-Game/results/ppo/My Behavior/My Behavior-499991.onnx (onnx, 187731 bytes, 6 tensors)

network_body._body_endoder.seq_layers.0.weight f4 [128, 225]
-0.017971354 0.0032369983 -0.0058213444 -0.03488295 0.06468393 0.083855964 0.16809629 0.03776624
-0.0039014956 0.05883905 0.08316431 0.06546738 -0.060358178 0.014397939 0.04581017 0.032276742
-0.02427866 0.010199898 0.0027306306 -0.02617299 -0.00987412 0.06029565 0.06479417 0.03403025
-0.03952058 -0.020212099 0.04004839 0.08176372 0.08034119 0.10681869 0.0006438121 0.09312567
0.117488876 -0.06891501 -0.083705164 -0.13856322 0.059218735 0.02282388 0.0027339382 0.095725276
0.13429616 -0.014425854 0.0109105 0.049571183 -0.059441544 0.087974235 0.10274004 0.049452703
0.023996424 0.054838363 0.04444926 -0.07762511 -0.033338808 -0.02912291 0.06309374 -0.030908676
0.009352316 0.12266861 -0.048850875 0.020606935 0.073152564 0.019002583 0.017903587 -0.09199325
0.0044596097 0.030649051 0.124196604 0.03778708 0.03526781 0.0594587 0.036731135 -0.0128206685
0.07308417 0.07809963 -0.046956856 -0.032374885 0.007926589 0.004284479 -0.004097308 -0.035242368
0.047830164 -0.016506197 0.0067651332 -0.15564123 0.012007678 -0.03622509 0.020453734 -0.05573009
-0.13790412 -0.019630482 -0.03548728 0.02897426 0.018923322 -0.023127435 -0.010479969 0.0010273079
-0.07092315 0.036605503 0.098571226 0.095965035 0.044362113 -0.055839654 0.031746384 0.0021180045
-0.07834733 0.1054276 -0.028046042 -0.05042827 -0.08251798 0.21002242 0.092860796 -0.043308746
0.0852081 0.0017214923 0.019741163 0.038702093 0.050600342 0.04880559 0.049738254 -0.009621604
-0.09468765 0.035861697 0.09092361 -0.05016895 0.005295356 0.15093586 -0.062335514 -0.058276974
-0.042537082 0.116380624 0.012198628 0.02617051 -0.0138172265 -0.019885968 -0.07067985 0.1159777
-0.08459326 -0.051476315 -0.0030392355 0.00021780096 -0.03077639 -0.056551363 -0.018307546 -0.01817758
0.049445707 0.027688103 -0.07527821 -0.06642311 0.09751931 0.019351365 0.003875922 -0.18614176
0.09499454 0.05891971 -0.053671528 0.028405014 -0.04431941 -0.081261985 0.005124413 -0.0046325023
0.017523464 -0.061353102 0.0058790627 0.026912283 -0.059830092 0.041754816 0.045842126 -0.080146275
-0.052499548 -0.050089244 0.008338413 -0.0955293 -0.009098738 -0.014158377 0.09658357 0.060313053
0.08371122 0.1240876 0.010388149 0.13496362 0.07048949 0.033789266 -0.12078896 0.09881468
-0.024394708 0.04778372 -0.05326678 0.1450915 -0.14295405 0.115806796 -0.06370839 0.05015014
-0.08755977 0.016836386 0.14192338 0.022865444 0.024172688 -0.0810546 -0.014662188 0.016939301
-0.03465571 0.114042275 0.030968038 0.11167521 -0.20325972 0.086436495 -0.04675564 -0.02807696
-0.075765 0.1471869 -0.08424319 0.04157801 -0.058255404 0.009386855 -0.056807 -0.06365059
0.10490936 0.07706546 -0.024405504 0.07265077 0.014940101 0.056192417 0.0627193 -0.023318073
0.08446842 -0.047366887 0.045245804 0.03354731 -0.15515187 0.0047466876 -0.1101099 0.01910626
-0.020340106 0.0987054 0.003203612 0.0020648206 0.045583323 -0.049125716 -0.040687457 -0.076250255
0.042493775 -0.0946951 0.20638494 -0.024032272 0.10284205 0.057917316 0.07862606 0.10992857
-0.048032302 -0.045508478 -0.023890482 0.021697639 0.0109595 0.027103808 0.030035395 0.15074994
00000000: a938 93bc d223 543b fac0 bebb 6de1 0ebd
00000010: 0279 843d adbc ab3d 6f21 2c3e c6b0 1a3d
00000020: 3cb0 7fbb 3701 713d 0d52 aa3d c313 863d
00000030: 233a 77bd 55e5 6b3c 72a3 3b3d 9e34 043d
00000040: 0ae4 c6bc 791d 273c 61f4 323b bd68 d6bc
00000050: 10c7 21bc 92f8 763d ceb2 843d 4e63 0b3d
00000060: 55e0 21bd d893 a5bc c809 243d bd73 a73d
00000070: ec89 a43d c2c3 da3d 80c5 283a acb8 be3d
00000080: 029e f03d 5023 8dbd 9d6d abbd 84e3 0dbe
00000090: 588f 723d 25f9 ba3c df2b 333b 9d0b c43d
000000a0: ef84 093e 6b5a 6cbc f4c1 323c 270b 4b3d
000000b0: fa78 73bd d62b b43d 5f69 d23d eb8e 4a3d
000000c0: 2694 c43c 319e 603d 6d10 363d eaf9 9ebd
000000d0: 468e 08bd 2b93 eebc 4a37 813d 3134 fdbc
000000e0: 753a 193c ae39 fb3d db17 48bd e0cf a83c
000000f0: 03d1 953d 4eab 9b3c 8baa 923c f566 bcbd
00000100: eb21 923b b813 fb3c ca5a fe3d a0c6 1a3d
00000110: fb74 103d f78a 733d 6373 163d c80d 52bc
00000120: 27ad 953d b3f2 9f3d d555 40bd 879b 04bd
00000130: 86de 013c d164 8c3b b642 86bb 4d5a 10bd
00000140: 90e9 433d 0138 87bc 0dae dd3b 6a60 1fbe
00000150: dabb 443c c360 14bd 978e a73c 3c45 64bd
00000160: bd36 0dbe 1bd0 a0bc 1c5b 11bd 6d5b ed3c
00000170: 1505 9b3c bf75 bdbc 2db4 2bbc bca6 863a
00000180: 2840 91bd a7ef 153d b6df c93d 5189 c43d
00000190: 0cb5 353d 1fb8 64bd 7f08 023d 38ce 0a3b
000001a0: 9174 a0bd 6dea d73d d0c0 e5bc e08d 4ebd
000001b0: 30ff a8bd 1e10 573e cd2d be3d 8364 31bd
000001c0: 9681 ae3d b2a3 e13a 38b8 a13c 1686 1e3d
000001d0: 4e42 4f3d 5fe8 473d 57ba 4b3d efa3 1dbc
000001e0: 99eb c1bd b7e3 123d 2836 ba3d f57d 4dbd
000001f0: aa84 ad3b ee8e 1a3e 8653 7fbd d6b3 6ebd
00000200: 5d3b 2ebd f758 ee3d c1dc 473c 8a63 d63c
00000210: a661 62bc e6e7 a2bc 99c0 90bd b785 ed3d
00000220: 3b3f adbd d4d8 52bd e92d 47bb 8061 6439
00000230: c51e fcbc 67a2 67bd b5f9 95bc 26e9 94bc
00000240: 9587 4a3d 29d2 e23c 762b 9abd d708 88bd
00000250: 34b8 c73d c186 9e3c 2e03 7e3b f29b 3ebe
00000260: 7f8c c23d cb55 713d add6 5bbd a2b1 e83c
00000270: 4588 35bd af6c a6bd b1ea a73b 3fcc 97bb
00000280: 5e8d 8f3c 644d 7bbd 27a5 c03b 2677 dc3c
00000290: 6610 75bd 1907 2b3d f4c4 3b3d bb23 a4bd
000002a0: c409 57bd 612a 4dbd d79d 083c dea4 c3bd
000002b0: e012 15bc 8af8 67bc 9bcd c53d d20a 773d
000002c0: ca70 ab3d a421 fe3d 0e33 2a3c e733 0a3e
000002d0: cb5c 903d 9d66 0a3d 3460 f7bd 5a5f ca3d
000002e0: 69d7 c7bc ddb8 433d 442e 5abd de92 143e
000002f0: 8c62 12be 1d2c ed3d 8b79 82bd 3c6a 4d3d
00000300: 8952 b3bd 76ec 893c 5d54 113e 5050 bb3c
00000310: cd05 c63c f4ff a5bd ac39 70bc 4ac4 8a3c
00000320: 25f3 0dbd ff8e e93d afb0 fd3c f9b5 e43d
00000330: 5123 50be 9e05 b13d d882 3fbd a701 e6bc
00000340: ae2a 9bbd 2ab8 163e b287 acbd b44d 2a3d
00000350: 389d 6ebd 53cb 193c 75ae 68bd 3e5b 82bd
00000360: b8da d63d 7fd4 9d3d 0dee c7bc edc9 943d
00000370: 53c7 743c 052a 663d fa72 803d 8b05 bfbc
00000380: c7fd ac3d c803 42bd aa53 393d e768 093d
00000390: 22e0 1ebe 1a8a 9b3b 4d81 e1bd bb84 9c3c
000003a0: 4ba0 a6bc 0f26 ca3d b1f3 513b f151 073b
000003b0: 94b5 3a3d 0c38 49bd e4a7 26bd 1829 9cbd
000003c0: f40d 2e3d 81ef c1bd 9356 533e 54df c4bc
000003d0: da9e d23d b53a 6d3d b306 a13d 3b22 e13d
000003e0: 85bd 44bd 1967 3abd f9b5 c3bc 3fbf b13c
000003f0: 7a8f 333c ce08 de3c ca0c f63c 315e 1a3e

network_body._body_endoder.seq_layers.0.bias f4 [128]
0.019406496 0.018576788 -0.0022509168 0.0012476575 0.017204521 0.01365984 0.018810542 0.0016035018
0.018211115 0.013580816 -0.0004369642 0.002295222 0.011800788 0.0009467447 0.016788691 0.018444456
0.0049206847 0.0144896675 0.009396353 -0.01140179 -0.0016548842 0.008208125 -0.014984809 -0.023596073
0.0070546917 -0.021321429 0.015079296 0.011697973 -0.018312033 -0.010641991 0.015740296 0.02902157
0.0051079583 0.0006304723 -0.00019912132 0.0052009374 0.01660674 -0.002320194 0.01737883 0.012709434
0.014024025 0.019834438 0.01854447 0.023377521 0.022160813 -0.00096924906 0.016079174 0.013824177
0.020858822 0.020233698 -0.025817908 0.0052058906 0.02084607 0.013313803 0.0282414 -0.0017829587
0.017274708 0.023515387 0.008389951 0.020741267 0.012001186 -0.012815436 0.01277834 0.018229213
-0.012577434 0.017173141 0.00034069334 0.002307468 0.0024655072 -0.024472877 -0.024404187 0.0046590655
-0.0013981587 -0.0070707616 -0.022629205 -0.0016304222 0.002754275 0.01469292 -0.012532489 0.025678176
0.013846172 -0.015416873 -0.010664092 0.00054379797 0.008928302 0.009826321 0.0092542935 -0.011016499
0.0014884281 0.017560542 0.018284403 -0.01880739 0.011642342 0.025858141 0.017848283 -0.000602666
0.020619467 0.021372385 -0.023245579 -0.017105702 0.024233973 0.018780535 0.012315469 0.014752352
0.02612114 0.016784346 0.019146906 0.011822352 0.0216401 -0.0063488446 -0.014678975 0.019528547
0.022723245 0.0190262 -0.012252927 0.009447815 0.019606248 0.023870999 0.01534622 -0.0038403352
0.014887142 -0.015932696 0.013091966 0.012676637 -0.016264219 -0.0009869718 0.024849793 0.01622567
00000000: 5ffa 9e3c 592e 983c 1e84 13bb 7088 a33a
00000010: 7ff0 8c3c 86cd 5f3c 9118 9a3c 982c d23a
00000020: 7a2f 953c 1282 5e3c 5818 e5b9 6f6b 163b
00000030: 1858 413c f62e 783a 7088 893c d418 973c
00000040: b23d a13b 1266 6d3c 29f3 193c 93ce 3abc
00000050: b3e8 d8ba 5f7b 063c d882 75bc 8d4c c1bc
00000060: 0b2b e73b 47aa aebc 270f 773c dba8 3f3c
00000070: 1e03 96bc bf5b 2ebc cbf1 803c a5be ed3c
00000080: a960 a73b 4846 253a 39cb 50b9 a06c aa3b
00000090: dc0a 883c 650e 18bb 0c5e 8e3c 3b3b 503c
000000a0: 06c5 653c d57b a23c 93ea 973c 3782 bf3c
000000b0: 988a b53c 3415 7eba 79b8 833c cd7e 623c
000000c0: 1fe0 aa3c 24c1 a53c 1480 d3bc 2d96 aa3b
000000d0: 61c5 aa3c 2322 5a3c 825a e73c 2bb2 e9ba
000000e0: b083 8d3c 57a3 c03c 0176 093c 97e9 a93c
000000f0: 9fa0 443c d6f7 51bc 3e5c 513c 6e55 953c
00000100: 9511 4ebc b0ae 8c3c 169f b239 e438 173b
00000110: 5994 213b 587b c8bc 4aeb c7bc 13ab 983b
00000120: 6c42 b7ba d9b1 e7bb e260 b9bc e4b3 d5ba
00000130: 1181 343b 93ba 703c 1255 4dbc 0a5b d23c
00000140: 0edb 623c 0d97 7cbc 72b8 2ebc aa8d 0e3a
00000150: 0348 123c 94fe 203c 529f 173c 8c7e 34bc
00000160: 5c17 c33a 20db 8f3c 2cc9 953c f511 9abc
00000170: 86bf 3e3c 74d4 d33c 9036 923c 3bfc 1dba
00000180: 28ea a83c 2415 af3c 836d bebc 4221 8cbc
00000190: 5386 c63c a3d9 993c d2c6 493c d9b3 713c
000001a0: 00fc d53c 537f 893c f9d9 9c3c 8ab2 413c
000001b0: 9446 b13c f809 d0bb 1580 70bc 55fa 9f3c
000001c0: 1926 ba3c d5dc 9b3c 80c0 48bc 02cb 1a3c
000001d0: 489d a03c 1d8d c33c b66e 7b3c 22ae 7bbb
000001e0: 33e9 733c 4985 82bc af7f 563c abb1 4f3c
000001f0: 8a3c 85bc 475d 81ba cb91 cb3c b2eb 843c

network_body._body_endoder.seq_layers.2.weight f4 [128, 128]
-0.002893892 0.1478239 0.046671066 0.1125658 -0.031475082 -0.062354416 -0.02024415 0.044988457
-0.0033986927 0.0049125655 0.12025848 0.032256026 -0.065544106 0.10558266 -0.010358935 -0.0021702328
0.04211623 -0.08013019 0.036361203 -0.076188385 -0.1187763 0.103029765 0.09023346 -0.022333356
-0.06990744 0.023638189 -0.078922465 -0.038507305 0.04480533 0.16161907 0.052675057 0.13580436
0.14601839 0.064740665 0.01842453 0.012638498 -0.106108844 0.0019845827 0.02363353 -0.046632666
0.13829868 0.020095497 0.08755847 0.013634325 0.1177995 0.07270792 0.064515695 0.06660898
0.14533404 -0.046089277 0.029510085 0.10658462 -0.072414845 0.006480488 -0.04764916 0.15425654
0.12243345 0.034780957 0.13278711 0.08304662 -0.090783335 0.035651416 -0.032772504 -0.083930574
0.028763289 -0.080561936 0.034343522 -0.21233335 0.019866532 -0.057202958 -0.16962418 0.12169322
-0.069143035 0.025361832 -0.17318583 0.015577142 0.015672471 -0.033933226 0.016202174 0.07230415
-0.11222196 -0.01854544 -0.006729105 0.07786705 -0.03773997 -0.09947698 -0.009556218 -0.1945173
-0.056374554 0.21280664 -0.011458137 -0.029433165 -0.05216473 -0.09215857 -0.14891577 0.047379605
-0.100110725 -0.17693926 0.01866446 -0.026620701 -0.16089469 0.018094532 -0.13648252 0.16102874
-0.04391116 0.20032488 -0.09810984 -0.0035758438 -0.01945379 0.10739634 0.05615382 -0.120349824
0.024551557 0.026382003 -0.006208403 0.12019217 0.1584971 0.013351784 -0.15582475 0.06919137
-0.024068588 0.10956246 -0.06810026 0.0038692546 0.010023166 0.15027216 -0.078262545 0.0013336779
-0.026760438 0.0012118317 0.049886774 -0.13419136 0.00041773904 0.050861284 0.037175745 0.054575205
0.14208236 0.015962306 -0.083740994 0.06274414 0.09069164 -0.012990837 -0.042787727 0.100370064
-0.21161768 -0.020720532 0.18909845 0.03155715 -0.011422235 -0.0036792385 0.09876893 -0.1428705
-0.05625329 -0.069069885 0.010086127 -0.10746513 0.06674498 -0.055541575 0.15960634 0.13251007
-0.083129704 0.013878152 0.012266252 0.061079323 -0.1260484 -0.06756704 0.06188728 0.032022066
0.0061424975 0.103859365 -0.0007299565 0.0776334 -0.03077193 0.18012565 -0.023439886 0.168634
-0.0064169806 0.084172204 -0.023738507 -0.008597498 0.0022256207 0.08735596 0.13864177 -0.020051213
0.011607599 0.07437098 0.046727806 0.044170804 0.1567859 -0.11141837 -0.07642521 0.024119027
-0.047850344 0.04996172 0.024429208 0.0069481772 -0.06440925 -0.08911787 -0.17222832 -0.121544674
0.09015002 -0.082448065 0.010904795 -0.0423126 0.14281003 -0.020452503 -0.020643791 -0.094739795
0.064121194 -0.08039687 -0.033017717 0.0058398214 -0.1349812 0.061201334 -0.0631007 0.05731008
-0.11089302 0.13158429 0.05760438 -0.12897053 0.113630116 -0.11891032 -0.003526611 -0.006722743
0.02824317 -0.12519151 -0.06534845 -0.19184108 0.024433147 0.0915746 0.030266874 -0.056691512
0.07280774 0.0783312 0.1242502 -0.06713981 -0.036332488 0.033176173 0.01885161 0.089234576
-0.0403796 -0.024822976 -0.014874732 -0.08000388 -0.08222885 -0.005858258 0.018525055 0.034711435
0.16766977 0.055254847 -0.11981694 0.06421906 -0.045227736 -0.060567725 0.087099336 -0.039411623
00000000: 73a7 3dbb 265f 173e 292a 3f3d e688 e63d
00000010: 04ec 00bd 5867 7fbd 0fd7 a5bc d145 383d
00000020: 9abc 5ebb 96f9 a03b 144a f63d e51e 043d
00000030: fd3b 86bd b93b d83d 86b8 29bc 773a 0ebb
00000040: 1182 2c3d 4c1b a4bd 7cef 143d a808 9cbd
00000050: fd40 f3bd 4501 d33d 52cc b83d 71f4 b6bc
00000060: a22b 8fbd e0a4 c13c 1aa2 a1bd d6b9 1dbd
00000070: cb85 373d 787f 253e cdc1 573d 4c10 0b3e
00000080: d885 153e c196 843d 0aef 963c b411 4f3c
00000090: 984f d9bd c60f 023b 1b9b c13c e501 3fbd
000000a0: 2b9e 0d3e 509f a43c db51 b33d 8162 5f3c
000000b0: dd40 f13d e4e7 943d ce20 843d 4a6a 883d
000000c0: 72d2 143e 1cc8 3cbd 22bf f13c 0a49 da3d
000000d0: 3c4e 94bd 465a d43b c42b 43bd 6df5 1d3e
000000e0: 63be fa3d 7a76 0e3d 58f9 073e 5914 aa3d
000000f0: 9dec b9bd 3807 123d 763c 06bd cbe3 abbd
00000100: fda0 eb3c a8fd a4bd cbab 0c3d ea6d 59be
00000110: 23bf a23c a64d 6abd f6b1 2dbe 4c3a f93d
00000120: dd9a 8dbd 9ec3 cf3c a057 31be 4537 7f3c
00000130: 8e63 803c 91fd 0abd 6cba 843c 3314 943d
00000140: a1d4 e5bd 9bec 97bc d37f dcbb c378 9f3d
00000150: 3a95 1abd 96ba cbbd af91 1cbc 8b2f 47be
00000160: 01e9 66bd fce9 593e e9ba 3bbc d21d f1bc
00000170: afaa 55bd a2bd bcbd 607d 18be 1e11 423d
00000180: da06 cdbd 912f 35be 36e6 983c a813 dabc
00000190: 94c1 24be fc3a 943c 13c2 0bbe b8e4 243e
000001a0: 30dc 33bd f721 4d3e d0ed c8bd b458 6abb
000001b0: 8e5d 9fbc 9df2 db3d 8c01 663d f879 f6bd
000001c0: 5920 c93c 121f d83c dc6f cbbb 5027 f63d
000001d0: 104d 223e 71c1 5a3c 8690 1fbe 34b4 8d3d
000001e0: 7d2b c5bc 4862 e03d 2678 8bbd 5293 7d3b
000001f0: 3538 243c f2e0 193e 1d48 a0bd cece ae3a
00000200: b538 dbbc 53d6 9e3a 1356 4c3d 7669 09be
00000210: fc03 db39 ec53 503d 9845 183d 408a 5f3d
00000220: 0a7e 113e 62c3 823c 6680 abbd 0080 803d
00000230: 8abc b93d 85d7 54bc 2f42 2fbd d28e cd3d
00000240: 4eb2 58be 1bbe a9bc 06a3 413e 1242 013d
00000250: 5324 3bbc 611f 71bb 5d47 ca3d a54c 12be
00000260: da69 66bd 8374 8dbd 4840 253c ae16 dcbd
00000270: 98b1 883d 907f 63bd d86f 233e b8b0 073e
00000280: e83f aabd 3061 633c 64f8 483c 502e 7a3d
00000290: d512 01be 9760 8abd 847d 7d3d 9229 033d
000002a0: 0147 c93b 38b4 d43d 8d5a 3fba 43fe 9e3d
000002b0: 6a15 fcbc dc72 383e 0105 c0bc 64ae 2c3e
000002c0: 8945 d2bb 7a62 ac3d 4277 c2bc 85dc 0cbc
000002d0: b8db 113b aee7 b23d 1cf8 0d3e 7142 a4bc
000002e0: cd2d 3e3c d04f 983d a865 3f3d 72ec 343d
000002f0: 7c8c 203e 502f e4bd d284 9cbd 4495 c53c
00000300: b9fe 43bd a9a4 4c3d c31f c83c 89ad e33b
00000310: ffe8 83bd 6e83 b6bd 9f5c 30be 6aec f8bd
00000320: 93a0 b83d 88da a8bd 06aa 323c fa4f 2dbd
00000330: cb3c 123e 028c a7bc 2b1d a9bc f006 c2bd
00000340: f951 833d 1da7 a4bd 963d 07bd f95b bf3b
00000350: 8338 0abe 40ae 7a3d f13a 81bd f9bd 6a3d
00000360: e11b e3bd 08be 063e 92f2 6b3d da10 04be
00000370: e8b6 e83d 4187 f3bd b71e 67bb 754a dcbb
00000380: 385e e73c 3432 00be 68d5 85bd fd71 44be
00000390: 0628 c83c 778b bb3d 3cf2 f73c 5c35 68bd
000003a0: 391c 953d 1c6c a03d e476 fe3d 9980 89bd
000003b0: 60d1 14bd bde3 073d b16e 9a3c 9ec0 b63d
000003c0: 1465 25bd 8e59 cbbc 26b5 73bc 13d9 a3bd
000003d0: 9967 a8bd a1f6 bfbb dbc1 973c 942d 0e3d
000003e0: a0b1 2b3e e852 623d 9562 f5bd 4885 833d
000003f0: b840 39bd dd15 78bd 2361 b23d 156e 21bd

network_body._body_endoder.seq_layers.2.bias f4 [128]
-0.002184377 0.011182228 -0.0013926983 0.018864095 -0.00034940758 0.019229583 0.017326066 -0.005415883
0.0032417653 -0.0042726407 -0.0039898385 0.026272314 0.02004505 0.016554695 -0.0076792454 -0.0042556548
0.016350282 -0.00017897478 0.0183912 0.0055511454 0.023275618 0.016017199 -0.0057558683 -0.0022974813
0.017572256 0.02124141 0.02348217 -0.017307706 -0.0022478625 0.019326763 0.016314503 0.019801844
-0.01860485 0.0039062172 -0.016848901 -0.006982159 0.0012799206 0.011703265 -0.0027490205 0.014610076
0.0047260756 0.007444403 -0.017993305 0.019172482 -0.00011284052 -0.0012330146 -0.006872277 -0.009072073
0.016727433 -0.00013910988 -0.010578999 0.015380505 0.022669813 0.036330305 0.006810049 -0.01468981
-0.011175289 -0.0026195943 -0.010679789 -0.0044997428 0.014876626 -0.010757182 0.020488279 0.018194012
-0.0032882723 0.0055625304 -0.0070759607 0.005309792 0.0020817183 0.018313736 0.008036917 0.018003529
-0.019473635 0.017099006 0.015173319 0.019742034 -0.0044180127 -0.012287973 0.006454952 0.009882394
-0.012935932 0.016805625 -0.0023487369 -0.00275936 -0.00095708726 -0.0006857812 -0.0032136429 -0.007117554
-0.011918204 -0.0043484387 0.021932065 0.0236217 0.020043751 0.0065091006 -0.013761774 0.01766565
0.015285153 -0.0008997314 -0.0011161265 0.0020030125 0.023341855 0.0006056726 -0.0054073036 -0.0022915285
-0.013219107 0.018162109 0.018867593 -0.00045664853 -0.015621091 -0.007576109 0.0017249386 0.027096186
0.019507067 0.01660411 0.02505919 0.018477617 0.02689789 0.021104557 0.023261975 0.019797754
0.0053872494 -0.0076236227 -0.0069305194 -0.0010746972 -0.0028958924 0.018852765 -0.0009594451 0.017640743
00000000: c427 0fbb aa35 373c 338b b6ba e088 9a3c
00000010: b130 b7b9 5c87 9d3c 65ef 8d3c b877 b1bb
00000020: cc73 543b 8201 8cbb 31bd 82bb 0939 d73c
00000030: 8435 a43c b69d 873c 2ea2 fbbb 0573 8bbb
00000040: 07f1 853c 2dab 3bb9 24a9 963c 62e6 b53b
00000050: 82ac be3c 8036 833c b99b bcbb 5791 16bb
00000060: b1f3 8f3c 7702 ae3c ae5d c03c e4c8 8dbc
00000070: e050 13bb 2953 9e3c fea5 853c 7a37 a23c
00000080: 3369 98bc 73ff 7f3b b506 8abc 98ca e4bb
00000090: 02c3 a73a 0dbf 3f3c e928 34bb 1a5f 6f3c
000000a0: 32dd 9a3b 2ef0 f33b b266 93bc 9c0f 9d3c
000000b0: cba4 ecb8 1b9d a1ba d630 e1bb 08a3 14bc
000000c0: f807 893c 06de 11b9 8a53 2dbc 83fe 7b3c
000000d0: 0bb6 b93c 16cf 143d d526 df3b 87ad 70bc
000000e0: 8f18 37bc 80ad 2bbb 48fa 2ebc 9472 93bb
000000f0: 18bd 733c e43e 30bc 09d7 a73c 9c0b 953c
00000100: 0e80 57bb e345 b63b 76dd e7bb c3fd ad3b
00000110: 706d 083b b006 963c 46ad 033c 237c 933c
00000120: 2c87 9fbc 3713 8c3c 8399 783c 0cba a13c
00000130: fac4 90bb 7f53 49bc 1084 d33b c4e9 213c
00000140: 3bf1 53bc f3ab 893c 44ed 19bb 61d6 34bb
00000150: 0ae5 7aba ffc5 33ba fb9b 52bb 5f3a e9bb
00000160: 9244 43bc 597d 8ebb e0aa b33c 4c82 c13c
00000170: cb32 a43c 4b4a d53b 1079 61bc 8eb7 903c
00000180: 946e 7a3c f4db 6bba fe4a 92ba f944 033b
00000190: 6b37 bf3c 00c6 1e3a c02f b1bb 782d 16bb
000001a0: f494 58bc b4c8 943c 3690 9a3c 546a efb9
000001b0: 9bef 7fbc 0241 f8bb 5617 e23a d2f8 dd3c
000001c0: 49cd 9f3c 5805 883c ee48 cd3c 5f5e 973c
000001d0: f758 dc3c 77e3 ac3c e68f be3c e62e a23c
000001e0: 8687 b03b 95cf f9bb 6919 e3bb dbdc 8cba
000001f0: 03c9 3dbb 1d71 9a3c 4583 7bba 5283 903c

action_model._discrete_distribution.branches.0.weight f4 [2, 128]
-0.034288116 0.022007076 -0.033969257 0.033239987 -0.030606614 0.03650083 0.03997149 -0.029178614
0.004313594 -0.054928806 -0.017795926 0.052084737 0.039801117 0.025245247 0.006425296 -0.038534936
0.023886384 -0.033286724 0.020126497 -0.018833006 0.033808563 0.017853115 -0.027290486 -0.019713841
0.01395394 0.030166967 0.03311717 -0.010051295 -0.048932947 0.04402165 0.019810276 0.02873232
-0.014348352 0.017191231 0.0007115903 -0.015875557 0.026394187 -0.01949804 -0.04663274 0.036608506
-0.021134572 -0.0036079744 -0.008561448 0.03572571 -0.04456905 -0.008887913 -0.0312637 -0.013766452
0.032351557 0.0028686048 -0.0011334638 0.016416488 0.026421243 0.052004755 -0.005246118 -0.012249941
-0.013868584 -0.0035034039 -0.011337499 -0.025607442 0.020299688 -0.031355865 0.03189014 0.027380487
-0.036500197 -0.023847206 -0.018531987 -0.014567693 -0.033759307 0.032522757 0.028594492 0.032837406
-0.024160791 0.028064976 0.031857792 0.032005094 -0.023253705 -0.03251928 -0.019510286 -0.036417503
-0.027895218 0.021509202 -0.037243217 -0.03871206 -0.012768943 -0.056105874 -0.044521052 -0.028224647
-0.008072507 -0.03053386 0.02262743 0.042536713 0.02573145 0.018968837 -0.016873777 0.033424195
0.015789794 0.01368772 -0.036205653 0.019015903 0.034290258 0.03512009 -0.034205347 -0.019269776
-0.013378137 0.024099907 0.02544929 -0.036998782 -0.01609238 -0.030139048 -0.038265377 0.03696898
0.04363864 0.021825042 0.049255427 0.028302401 0.038539793 0.033027068 0.03324836 0.029642537
-0.00222659 -0.024722148 -0.011208274 -0.032196276 -0.03641492 0.026904356 -0.04518957 0.026788216
0.02612391 -0.023097893 0.03518705 -0.04232776 0.02825725 -0.023915313 -0.031997874 0.016248599
-0.019898336 0.040942397 0.020691816 -0.04314148 -0.036454156 -0.029451942 0.01727882 0.059464548
-0.039072555 0.034797978 -0.03763195 0.034703773 -0.038182553 -0.040148508 0.021407502 0.040207595
-0.024055889 -0.032453954 -0.035254277 0.021646662 0.0310419 -0.04087253 -0.013212366 -0.034374
0.019530192 -0.035935085 0.031501155 0.011861803 -0.02755688 0.03897399 0.030556668 -0.028866375
0.028867533 0.0017907429 0.011427918 -0.014865267 0.032917824 0.03599744 0.025056062 0.014634916
-0.033183828 -0.01891536 0.0060986876 -0.023917153 -0.04234138 -0.029725304 0.0057902522 0.01251244
0.011801462 0.01650631 0.020608826 0.023306115 -0.006974416 0.021929296 -0.031925976 -0.04190189
0.03563836 0.038799793 0.03249195 0.010607085 0.035042904 -0.018014355 -0.025511915 -0.027629275
0.012360582 -0.04260494 -0.027788613 -0.028220726 0.023325259 0.01745265 0.03149625 0.02959126
0.018466096 -0.019810455 0.034868997 0.035246454 0.055536196 0.04191297 0.04692118 0.024128234
0.011787159 0.030060332 -0.04942844 -0.02408375 -0.038320314 -0.020367775 0.011467063 -0.02729228
-0.029143386 -0.024255496 0.016092012 -0.017631453 -0.057012893 -0.0102546895 0.020794341 0.03174434
0.009014343 -0.029342035 -0.034578517 0.047244214 0.014268713 0.03565204 0.04958377 -0.049089182
-0.040551923 -0.030675404 -0.049603157 -0.030988848 -0.04550324 -0.016467184 -0.04252538 -0.027847337
0.009855823 0.032163493 0.020449104 0.03266298 0.016208215 -0.027162338 0.036077056 -0.029701598
00000000: b271 0cbd 2f48 b43c 5923 0bbd a726 083d
00000010: b9ba fabc e581 153d 25b9 233d fd07 efbc
00000020: 0d59 8d3b 07fd 60bd c3c8 91bc ce56 553d
00000030: 7f06 233d 1fcf ce3c 4a8b d23b cfd6 1dbd
00000040: 61ad c33c a957 08bd 53e0 a43c ad47 9abc
00000050: d97a 0a3d b240 923c 4c90 dfbc ec7e a1bc
00000060: 119f 643c b720 f73c dfa5 073d 30ae 24bc
00000070: ea6d 48bd 0c50 343d 2949 a23c 0b60 eb3c
00000080: 5a15 6bbc a0d4 8c3c 048a 3a3a 750d 82bc
00000090: 9f38 d83c 5bba 9fbc f901 3fbd cdf2 153d
000000a0: 6922 adbc c473 6cbb 5145 0cbc 1f55 123d
000000b0: 098e 36bd 9c9e 11bc 5e0e 00bd af8c 61bc
000000c0: 1183 043d 34ff 3b3b bc90 94ba df7b 863c
000000d0: 5d71 d83c f002 553d a1e7 abbb fab3 48bc
000000e0: 0f39 63bc 5d99 65bb ebc0 39bc b3c6 d1bc
000000f0: 884b a63c 026f 00bd 3c9f 023d 0b4d e03c
00000100: 3b81 15bd 375b c3bc 65d0 97bc 55ad 6ebc
00000110: 3347 0abd 9536 053d ff3e ea3c 8480 063d
00000120: daec c5bc 85e8 e53c 517d 023d c617 033d
00000130: 8e7e bebc f032 05bd 09d4 9fbc 852a 15bd
00000140: 8384 e4bc 1134 b03c 588c 18bd 8990 1ebd
00000150: d434 51bc 46cf 65bd b55b 36bd 6037 e7bc
00000160: 8c42 04bc 2522 fabc 295d b93c fa3a 2e3d
00000170: c3ca d23c 8964 9b3c e03a 8abc cfe7 083d
00000180: 9959 813c 7542 603c 614c 14bd 3dc7 9b3c
00000190: f173 0c3d 15da 0f3d e81a 0cbd a6db 9dbc
000001a0: f92f 5bbc 2b6d c53c 087b d03c 098c 17bd
000001b0: 2bd4 83bc 2ae6 f6bc 28bc 1cbd c96c 173d
000001c0: 6ebe 323d 6eca b23c 0fc0 493d 70da e73c
000001d0: e7db 1d3d 6447 073d 6f2f 083d e8d4 f23c
000001e0: fbeb 11bb 1a86 cabc e9a2 37bc 3ee0 03bd
000001f0: d027 15bd 8666 dc3c b318 39bd f672 db3c
00000200: cf01 d63c cb37 bdbc 4c20 103d e05f 2dbd
00000210: c07b e73c 0cea c3bc 3410 03bd c81b 853c
00000220: d601 a3bc 37b3 273d e281 a93c 1fb5 30bd
00000230: f450 15bd 3345 f1bc 508c 8d3c 1991 733d
00000240: 8b0a 20bd 5388 0e3d f623 1abd 8b25 0e3d
00000250: 4f65 1cbd c372 24bd c95e af3c b8b0 243d
00000260: db10 c5bc 70ee 04bd ca66 10bd 5754 b13c
00000270: 954b fe3c f469 27bd ae78 58bc c0cb 0cbd
00000280: c8fd 9f3c ab30 13bd 5b07 013d 0258 423c
00000290: f7be e1bc 31a3 1f3d fa51 fa3c 2d79 ecbc
000002a0: 9b7b ec3c 5cb7 ea3a 2a3c 3b3c 738d 73bc
000002b0: d7d4 063d 0d72 133d 5f42 cd3c 49c7 6f3c
000002c0: c4eb 07bd 63f4 9abc 80d7 c73b e8ed c3bc
000002d0: 286e 2dbd 7b82 f3bc 28bc bd3b fa00 4d3c
000002e0: eb5a 413c 3e38 873c d7d3 a83c 77ec be3c
000002f0: a489 e4bb 11a5 b33c d0c4 02bd 51a1 2bbd
00000300: 87f9 113d 88ec 1e3d 4716 053d 57c9 2d3c
00000310: 2689 0f3d d792 93bc 5dfe d0bc ca56 e2bc
00000320: 0a84 4a3c 8482 2ebd f2a4 e3bc 272f e7bc
00000330: 9d14 bf3c dcf8 8e3c 3602 013d 5f69 f23c
00000340: 3646 973c 8949 a2bc cbd2 0e3d 965e 103d
00000350: ec79 633d efac 2b3d 6c30 403d 93a8 c53c
00000360: ee1e 413c 1641 f63c 7a75 4abd 494b c5bc
00000370: c3f5 1cbd 52da a6bc 59e0 3b3c 0f94 dfbc
00000380: 1cbe eebc 76b3 c6bc 65d3 833c d66f 90bc
00000390: 5a86 69bd 4903 28bc e558 aa3c 5a06 023d
000003a0: e5b0 133c b55e f0bc 34a2 0dbd 2683 413d
000003b0: 52c7 693c e007 123d 5a18 4b3d bd11 49bd
000003c0: c619 26bd fc4a fbbc ae2c 4bbd 53dc fdbc
000003d0: 9b61 3abd 30e6 86bc 182f 2ebd 1920 e4bc
000003e0: 517a 213c debd 033d e184 a73c 9ec9 053d
000003f0: 17c7 843c 8d83 debc 89c5 133d c450 f3bc

action_model._discrete_distribution.branches.0.bias f4 [2]
0.013555666 -0.013555664
00000000: 9618 5e3c 9318 5ebc
