ML-Game/results/ppo/My Behavior/My Behavior-46045.onnx (onnx, 75599 bytes, 6 tensors)

network_body._body_endoder.seq_layers.0.weight f4 [128, 6]
00000000: 5b26 d23e d316 a53d 55a6 133f bdee e8bd
00000010: c1a5 873f 857f 473e 9343 083e 3e73 8ebd
00000020: 4711 2cbe c101 69bb d1ba 4e3f c03e 713d
00000030: a460 09bf 0362 483e 9928 c63d d183 443f
00000040: 3b54 a8be 339c d2be 9af1 57bd 253f 4e3e
00000050: e6cf 213f 1f0f 8dbe f47a 453d 6652 983e
00000060: 4cfe ef3e a24d e23c 984e 46bf a12d c63d
00000070: ef5f 13bf 8ebf bfbe 48f5 3d3f 0324 97be
00000080: 06b2 963e 3f85 10bd 9f21 21bc 605d 7b3e
00000090: 69ac 793e 1adf 973e 5be8 1f3f 070a dbbe
000000a0: c1fe a13d 1cf3 b0bc 5fad fe3e 9cee 09bf
000000b0: 8505 0e3f 185d 10bf d143 d3be 0c8a ed3c
000000c0: b4d2 9abe 3817 2cba 8964 3bbf deb7 80be
000000d0: 7283 bcbc 69d6 133f 9e47 a7be fc44 2e3f
000000e0: 1fec 8fbe ccf0 a0be 04e7 20bf 3876 a53e
000000f0: c95c 0bbe 488f 4bbf 18c3 043f 8ab7 93be
00000100: f059 93be afd3 083f a2f0 dc3e 4f45 83be
00000110: 06b7 8bbe add3 a13d eec2 2e3e 3d3f 4cbe
00000120: 1486 0bbf 5959 25bd 8013 343e 716d f93e
00000130: 520f 20bf b474 b7be 6b61 163e 4df6 b0be
00000140: 2f51 17bf aceb 593d b036 613f 3324 9ebe
00000150: 295b 413e 65e7 943e 4a90 44be 9954 a93c
00000160: 77d9 0bbe 7159 a0bc acc8 05bf d411 703e
00000170: 88da 67bd f395 a4bf 6316 d83d b300 38bf
00000180: 6f19 36bf 386d 89bd 8861 1a3f 59ee a8be
00000190: 3621 3dbe cd81 7ebf 9e33 5ebe 9cd7 86bc
000001a0: 0598 473f 1bd1 503f e4ef 8ebe bbbd 98bd
000001b0: cb8f 14bd ac37 17bf 597f 62be d050 073d
000001c0: 4971 7e3d ab43 20be 6b17 cdbc 6598 bc3e
000001d0: 56a2 ebbd 2e13 8dbe eacf 113f e0cf b63e
000001e0: 3a2e fabe 2f0c 19bf 072c d2be 0ead 203e
000001f0: cd2c 033e 7755 d93e 1b97 03bf e967 b03e
00000200: bba0 e43e ea00 9ebc 6591 dd3e 86f7 733f
00000210: 4632 29bf 1643 a13d 0f80 d13e 22b9 14bb
00000220: 67ae da3e 4c66 8f3c 6f2e edbe 182e 86bd
00000230: 9fa5 fbbc b963 9bbe b465 e5bd 88a2 1ebf
00000240: 879e 5bbf c3a7 083f 552c 09bf 827c aabe
00000250: c57d f73e 2875 493e 8d58 c0bd fc68 67bf
00000260: 0335 093f c14c 513f a9ba c13e 2627 44bf
00000270: 1e61 60be 67df e9be fbbb 0c3d e819 61bf
00000280: e1c7 0e3f cbb3 abbd 2ce5 003f 4487 8c3e
00000290: e6ec 0abf dbc8 febe f1a0 a03d 3fe0 163e
000002a0: 1910 023f 8357 8fbe afbd 563e b4d1 a0bd
000002b0: 9027 fbbe 657a aabf f73f 3fbf d492 893f
000002c0: d16c 673e bc0c 38be e879 47bf b65f 06bd
000002d0: b75b d1be b38b f5be a8b3 4a3f 71b1 a63e
000002e0: 5b52 2abe 61c7 2a3a e2ac 203f 7317 7fbd
000002f0: 0da4 3cbd 941f 7ebd 2cf5 2f3f cc26 8fbe
00000300: 9f9d b03e 6799 6ebe 8ba0 823e 693c eebd
00000310: a619 113f 050f 1d3f 3a29 4a3e 768a e4be
00000320: c550 bebc f0a9 e3be ade9 5c3c 5e2a 063f
00000330: 8498 a5bd 6018 88bf 5fc9 7abe 29f2 03bf
00000340: f154 243f 1150 bcbd ee42 843d 9250 553e
00000350: 0585 093e 8bc1 80bc d5ce 833e aa0f 55b8
00000360: 879c 4b3e d390 3a3e 3460 89be ffa7 0d3e
00000370: 3447 103f 3153 843d b8dc db3d b55c b23e
00000380: 631d 493d 11b8 f93e 6340 7c3e 46a0 45bd
00000390: 96b5 fcbd 8ad4 0d3e 6822 8fbe d68e 943e
000003a0: cba7 2dbc 9dd8 153d 28d5 e2be 205c c1be
000003b0: 8dd4 16be c1ce c63e 955f 683f 9c63 583f
000003c0: 9a82 09bf f60b b23d dc66 8b3e c23d 44be
000003d0: 3c07 c43d e014 96be 3d2c 29bf 47fc 0c3d
000003e0: b08f debd 29dc 49bf 15d2 37bf da57 00be
000003f0: 1993 b53e bc48 72be ed1d 1a3e 317f 8e3e
0.41044888 0.08060994 0.5767568 -0.11373661 1.0597459 0.19482239 0.13307028 -0.069555745
-0.16803466 -0.0035554024 0.8075381 0.058897734 -0.53663087 0.19568639 0.09675712 0.76763636
-0.32876763 -0.41134796 -0.052720644 0.20141275 0.6320785 -0.275506 0.04821296 0.29750365
0.468737 0.027624909 -0.77463675 0.09676672 -0.5756826 -0.37450832 0.74202394 -0.29519662
0.29432696 -0.035283323 -0.009834676 0.24547338 0.24382176 0.296624 0.6246392 -0.42781088
0.079099186 -0.021600299 0.49741647 -0.53879714 0.5547717 -0.5639205 -0.41262677 0.02899649
-0.3023888 -0.0006564739 -0.7320028 -0.2514028 -0.023011897 0.5774904 -0.32671827 0.6807401
-0.28109834 -0.31433713 -0.628525 0.32316756 -0.13609613 -0.79515505 0.5186019 -0.28850967
-0.28779554 0.53448004 0.43152338 -0.25638816 -0.27288073 0.07901702 0.17066547 -0.19945998
-0.5450146 -0.04036841 0.17585564 0.4871631 -0.62523377 -0.35831225 0.146856 -0.34562913
-0.5910825 0.05320327 0.8797407 -0.30886993 0.18882431 0.2908279 -0.19195667 0.020670222
-0.13657175 -0.019573899 -0.52259326 0.23444301 -0.056604892 -1.2858261 0.10551145 -0.71876067
-0.7113256 -0.06710285 0.6030507 -0.32994345 -0.184697 -0.9941681 -0.21699378 -0.016460232
0.7796634 0.8156907 -0.27917397 -0.07458063 -0.036269944 -0.59069324 -0.22118892 0.033036053
0.062119756 -0.15650813 -0.02503558 0.36835018 -0.115055725 -0.27553695 0.56957877 0.3570547
-0.48863393 -0.59784216 -0.41049215 0.15691015 0.12810059 0.42448017 -0.51402444 0.34454277
0.44653878 -0.019287545 0.4327499 0.95299566 -0.66092336 0.07874124 0.40918013 -0.0022693356
0.42711183 0.017504834 -0.4632449 -0.065517604 -0.030718623 -0.3034952 -0.11201039 -0.61966753
-0.8578877 0.53380984 -0.5358327 -0.33298117 0.48338142 0.19673598 -0.0939189 -0.9039457
0.53596514 0.8175774 0.37837723 -0.76622236 -0.21912047 -0.45678255 0.03435896 -0.87930155
0.5577374 -0.08383902 0.5034969 0.2744695 -0.5426773 -0.49762616 0.07843197 0.1473398
0.50805813 -0.27996454 0.20970796 -0.07852498 -0.4905362 -1.3318602 -0.7470698 1.0747933
0.22600104 -0.17973608 -0.7792039 -0.03280612 -0.40890285 -0.47958145 0.79180384 0.32557252
-0.16632979 0.0006514695 0.627638 -0.062278222 -0.04605489 -0.062041834 0.6873348 -0.27959287
0.34495255 -0.23300706 0.2551311 -0.11632616 0.5667976 0.61351043 0.19742289 -0.44636887
-0.023231873 -0.4446559 0.013483447 0.524084 -0.08085731 -1.0632439 -0.2449088 -0.5154138
0.6419211 -0.09194959 0.06458078 0.20831516 0.13429649 -0.015717288 0.25743738 -5.0797746e-05
0.19883929 0.18219309 -0.2683121 0.13833617 0.5635865 0.0646118 0.10735458 0.34836355
0.04910029 0.48773244 0.24633937 -0.04824855 -0.12339322 0.13850608 -0.27955937 0.29015225
-0.010599087 0.03658353 -0.4430325 -0.37765598 -0.14729519 0.38829616 0.90770847 0.8452699
-0.5371491 0.086936876 0.27226913 -0.19164184 0.09571692 -0.293128 -0.6608313 0.034420278
-0.1086725 -0.7885156 -0.71804935 -0.12533513 0.3546379 -0.23660558 0.15050478 0.27831414

network_body._body_endoder.seq_layers.0.bias f4 [128]
00000000: 41b6 343c cb4e bfb9 b8da 113c 86e6 6dbb
00000010: 4c02 ebb9 c2b4 0fbc c682 023c dbf8 2bbc
00000020: 30be 2dbc 8b87 153a 9dbd 6cbc 35c8 4c3c
00000030: 6d7a 273c 1e78 713c 53d0 2f3b 26ce 12bc
00000040: bb99 6938 e093 563c fa0e 123c b237 4e3c
00000050: 8ba9 4dba 5db4 183c 48e5 213c 1a0c 0f3c
00000060: f912 3bbc 9f7b 683c 2718 c7bb 17ca a43b
00000070: a8f2 2cbc 3b97 0d3c 00f7 f5bb 0ece 2d3c
00000080: bde5 5e3b 46f7 943c 578a 1c3c 1297 68ba
00000090: 83e9 50bc 2355 20bc 0a96 3b3c a054 423c
000000a0: bb67 f4bb 4c57 243c 5549 513c 8931 b23c
000000b0: 1a72 2d3c 1125 9ab8 9a33 2f3c 3790 593c
000000c0: 9d53 fabb ea78 1a3c e666 95bb bcee c53b
000000d0: c525 093c ec64 803a 00f9 443c 7289 203b
000000e0: 59f2 293c a009 893b 9734 0dbc 0dff 953b
000000f0: 915b 46bc 04f1 363c 7b52 44bc a695 503c
00000100: 9faa e73b 4ee2 efbb cff1 dfbb af9c 523c
00000110: 82e8 9a3b abd9 613c 4d05 203a 3e34 173c
00000120: 76b3 aa39 bc47 23bc 8f48 2b3c 9f5e b23c
00000130: 30ca e13c 0d17 f1ba 8ca8 3f3c 8b99 203c
00000140: 0fe4 afbb f07c 41bc 244b 303b b18b f43b
00000150: 12fb 403c e493 ebbb 54a5 b13c 5f01 363b
00000160: 42c4 1b3a ad72 e23a 5963 c3bb be94 0cbc
00000170: 75fe 073b 1b68 413c 4780 bcbb a8ce 043c
00000180: c0ff 4fbc 0da3 bd3b e5f0 3e3c 62c0 8f3c
00000190: b6f8 f73b 8ed0 1f3c e737 dcbb b6d8 0a3c
000001a0: 11f5 24bc 14b2 a7bb 8005 8a3c 32f9 fd3b
000001b0: c067 573b da4d f13c a5c8 2abc 5e74 a3bc
000001c0: 5a1a d43b ac3c 1fbc 874a 353c fa06 343c
000001d0: 4bff 833c 9caa 0a3c edaf edbb bbd0 beba
000001e0: 526c 7e3c d1e5 8d3a 244b c7bb 9909 403c
000001f0: 0411 173c 735b ed3b 6dac 4bbb 4ba7 2bbc
0.011029781 -0.00036489064 0.008902244 -0.0036300733 -0.00044824404 -0.008771123 0.007965749 -0.0104963435
-0.010604426 0.00057040964 -0.014449504 0.012498905 0.01022206 0.014738111 0.0026827052 -0.008960282
5.56947e-05 0.01309678 0.0089147035 0.012586521 -0.0007845393 0.009320346 0.009881325 0.008730913
-0.011418098 0.01418963 -0.006075877 0.005028974 -0.010555901 0.008642013 -0.0075062513 0.010608209
0.0034011446 0.018184315 0.009554467 -0.0008872609 -0.012750986 -0.009785923 0.011449346 0.0118609965
-0.0074586547 0.010030579 0.012773831 0.021752136 0.010586286 -7.3501964e-05 0.010693455 0.013279012
-0.007639362 0.009428242 -0.0045593856 0.0060404222 0.008370821 0.0009795702 0.012022257 0.0024495986
0.010372722 0.0041820556 -0.008618495 0.0045775236 -0.012106792 0.011165861 -0.0119825555 0.0127309915
0.0070699 -0.007320679 -0.0068342458 0.012854739 0.004727424 0.013784806 0.00061043055 0.009228764
0.00032558636 -0.009965833 0.010454311 0.021773634 0.02756223 -0.001839371 0.0116979 0.0098022325
-0.005367763 -0.011809573 0.0026900256 0.0074629416 0.01177861 -0.007189261 0.02168528 0.0027771813
0.00059420255 0.0017276608 -0.005962771 -0.008580385 0.0020751033 0.011804606 -0.0057525965 0.008105911
-0.012695253 0.0057872594 0.011654113 0.01754779 0.0075674905 0.009754313 -0.0067205313 0.0084745195
-0.010068194 -0.005117664 0.016848326 0.0077506537 0.0032868236 0.029456068 -0.010423814 -0.01995295
0.006472868 -0.009719055 0.011065132 0.0109879915 0.016112944 0.008463528 -0.007253638 -0.0014558056
0.015528755 0.0010825937 -0.0060819555 0.011721038 0.009220365 0.0072435676 -0.0031078116 -0.0104768975

network_body._body_endoder.seq_layers.2.weight f4 [128, 128]
00000000: 4b56 ef3d 9bfc 733d 7237 1c3d 871e 10be
00000010: 7622 d73c 8f6d 843e 2c65 2ebd d704 5bbd
00000020: f6e7 543e dceb 043d 6920 15bc c651 163c
00000030: d54d 8abc cde1 023d 6cdc 4cbd a83e f83c
00000040: bef3 c5bd 1232 52bd ffe6 893d 0610 483c
00000050: 9204 be3d c829 bdbd b384 083e 1f37 0cbd
00000060: 6795 26bd 4718 9a3d e8b9 3dbc 8059 e9bd
00000070: fbf2 a0bd 01e6 efbd 7740 93bd d98e 0a3e
00000080: a043 40be 547f 1d3d 9a53 053c d223 0dbe
00000090: 9f8f 95bd 0138 3c3d dedd 053d 7452 debc
000000a0: 4ce9 673d 39f8 85bd b70f f23c 16a4 213e
000000b0: 3424 e8bc 33e5 223e 93b5 1bbd 52f6 3e3d
000000c0: b1c0 9c3d ab85 5e3c 5b3f 793d 5a60 70bd
000000d0: 787a 8b3d 36e1 bfbd bb8c dabc 2b38 89be
000000e0: a404 8ebd a92d db3d 399d 7abd 7509 173e
000000f0: 6f53 913d e9b1 dc3c 0d15 8d3d 260c d23d
00000100: 2ac6 4e3c 70c8 ebbb e9c4 e3bb 8039 2abe
00000110: 9542 bb3c 4f0f 28bd 884b 0b3d 5086 203d
00000120: b898 413c a35b ddbd 847a 44bd 994c 3d3d
00000130: 50e8 bf3c 19b7 08be 5b22 053d c120 053d
00000140: 062b 193d 3f31 5a3c e216 d83d be0f 5fbb
00000150: 3ac6 48bd 2167 c6bd fd8c a7bd 7492 8c3b
00000160: f756 3ebc ca19 d3bc f527 b03d 65e3 b63b
00000170: 34ff 2c3e 3972 f7bd 34a7 0abd 51e9 bbba
00000180: f6da ea3d b69a 18bd ef9e 0d3e 8f55 b43d
00000190: c1dd 803d debb 48bd f3bb ccbd afb9 34bd
000001a0: 0b16 30bd 67e2 853d 0215 48bd 654c ae3d
000001b0: 650c 203e 3430 f13c 687c b93c c738 81bd
000001c0: 7917 f3bd b4b0 65b9 171f 54bd c325 36bb
000001d0: 3d2b a33d 8081 06bd 29ef f6bd 9c90 e03d
000001e0: 7f96 f6bd 544f d93c 7745 f23d 8853 77bd
000001f0: 5511 1bbe efc9 1e3d 8935 053c 5c40 11bc
00000200: ccca ddbc ad28 a93d 2775 02bd aa31 cebd
00000210: e17e f63c e762 81bd d166 a63d 9430 89bb
00000220: 1199 9d3d c0b0 d1bd b678 ac3d 0cf7 f2bd
00000230: 6a6c c9bc 531f 4ebd b353 97bd 0239 d0bc
00000240: 3281 ff3d 0570 013e 7448 debd 6d8c 90bd
00000250: e15c 28bd af1b a83b 33bf a1bc 70a6 073d
00000260: 192c 89bc 2149 a73b 90c3 063d a532 36bd
00000270: 0d1a 413e 2c88 c6bc d2e0 6abc 6a6a b23c
00000280: 8763 c7bb d825 f0bc 7fec 293e b93f ff3d
00000290: c894 1c3d f1cd a4bd 10d3 ba3d d0fd c5bb
000002a0: 7ece 593c 4f73 ccbb ca7c 2c3a 2f4b 9cbd
000002b0: b570 393d 8584 f0bb 1ebd 853b c8a6 4dbd
000002c0: fa75 b13d 6a6a b43d d4a9 bb3d 72de a5bd
000002d0: 57d7 813c 646f 003e e1e1 4dbc e8c4 4c3e
000002e0: 4ad4 09bc d9c8 0d3e 9d01 0f3e 9e8b 313e
000002f0: d224 a53d a669 eb3d 5b71 93bc 1df8 1abe
00000300: bf80 2ebd 95d2 19bb 9420 8cbd 01b6 cb3d
00000310: 6366 31be 6298 07be a24b bcbd fafb 193d
00000320: 75c9 023d 4174 72bc 34c5 493d 5066 c33d
00000330: 0c15 1dbd 0b90 8c3d baea eabc 29c9 393d
00000340: 603c dd3d 81ca c8bd 39ff dc3d c4e1 303d
00000350: 7035 c43d 743b 3b3d 9495 ee3c 5dfc 3fbd
00000360: faa9 be3a 1ebd b43d e865 e13d 5157 16be
00000370: 4861 2ebd 3071 0a3e 042b b8bd 8404 0dbd
00000380: fb95 8cbd 5e65 88bd 95df 9cbd a197 623d
00000390: fae5 d63d 3590 853d 700c 0cbc 2542 90bc
000003a0: 1a25 a93c be93 cfbc fc65 4b3d 2143 433b
000003b0: b087 383b e117 103e d01b 263e 9828 783c
000003c0: caaa 453d c5d5 8c3d 1efb 29bd 334a 903d
000003d0: eda1 e03b 10e5 7c3d ba33 4a3c b97d 813e
000003e0: 376a 8bbd c40e b9bd 39a1 12bd 9649 30bd
000003f0: 6f70 623c 4669 e2bd faee f3bd a8bc 373b
0.11686381 0.059567075 0.038138814 -0.14074145 0.02626155 0.25864837 -0.042576954 -0.053471413
0.20791611 0.032451496 -0.009101965 0.00917477 -0.016882816 0.03195362 -0.0500149 0.030303314
-0.09665631 -0.051317282 0.06733512 0.012210852 0.092782155 -0.09236485 0.1333187 -0.034232255
-0.040669825 0.07524162 -0.011579968 -0.11394024 -0.07858845 -0.11713792 -0.0719003 0.13531055
-0.18775797 0.038451508 0.008137608 -0.13783196 -0.07302784 0.045951847 0.032682292 -0.027138926
0.056618974 -0.06541485 0.029548509 0.1578525 -0.028337575 0.15907745 -0.03801496 0.046621628
0.076539405 0.013581674 0.060851436 -0.058685638 0.068104684 -0.093691275 -0.026678434 -0.26800665
-0.06934479 0.10702068 -0.061185095 0.14749701 0.07095992 0.026940303 0.06888781 0.102562234
0.012620488 -0.007195525 -0.0069509638 -0.16623497 0.022858897 -0.041030224 0.03400758 0.03919059
0.011816196 -0.10808494 -0.047968403 0.046215627 0.023426205 -0.13351096 0.032503467 0.03250194
0.037394546 0.013317405 0.105512396 -0.0034036483 -0.04901717 -0.09687639 -0.08181188 0.0042899195
-0.011617414 -0.025769133 0.08601371 0.0055813068 0.16894227 -0.12082333 -0.033850864 -0.0014336501
0.11467545 -0.03725692 0.1383016 0.088053815 0.06292296 -0.04900729 -0.09996786 -0.044122394
-0.04298977 0.065373234 -0.04884816 0.08510665 0.15629728 0.02944193 0.02264233 -0.063096575
-0.118697114 -0.00021904969 -0.051787462 -0.0027793504 0.079672314 -0.032838345 -0.12057335 0.10965082
-0.120404236 0.026527084 0.118296556 -0.060382396 -0.1514333 0.038766798 0.00813044 -0.008865442
-0.02707424 0.082597114 -0.031850006 -0.100680664 0.030089797 -0.06317692 0.081250794 -0.004186699
0.07695211 -0.102387905 0.08421461 -0.11863527 -0.024587829 -0.05032284 -0.07389011 -0.025417808
0.12475814 0.12640388 -0.10853663 -0.07058034 -0.0411042 0.0051302533 -0.019744491 0.03311771
-0.01674466 0.005105153 0.032901347 -0.044481892 0.18857594 -0.024234854 -0.014335828 0.021779258
-0.0060848626 -0.02931492 0.16594122 0.12463326 0.038227826 -0.08047093 0.09122288 -0.0060422197
0.0132938605 -0.006239332 0.00065798743 -0.07631528 0.0452735 -0.0073400163 0.0040813824 -0.050207883
0.0866508 0.08809359 0.091632515 -0.08099069 0.015849752 0.12542492 -0.012566061 0.19996989
-0.00841243 0.13846149 0.13965459 0.17338416 0.080636635 0.1149476 -0.017998388 -0.1513371
-0.04260325 -0.0023471464 -0.06842151 0.09946824 -0.17324214 -0.13241723 -0.09194113 0.03759382
0.031930406 -0.014798225 0.049260333 0.09540999 -0.03835015 0.068634115 -0.02867638 0.045357857
0.10802531 -0.098042496 0.10790867 0.043184057 0.09580505 0.045710996 0.029124059 -0.04687153
0.0014546507 0.08825134 0.11005765 -0.14681746 -0.042573243 0.1351974 -0.089925796 -0.034428135
-0.06864544 -0.06659959 -0.076598324 0.055320386 0.10493083 0.06521646 -0.008547887 -0.017609665
0.020647574 -0.025339004 0.049657807 0.002979465 0.0028157048 0.14071609 0.16221547 0.015146397
0.04825858 0.06876711 -0.04149925 0.070454024 0.0068552406 0.06174189 0.012341434 0.2529123
-0.06807368 -0.090360194 -0.035798285 -0.043038927 0.013820752 -0.110552356 -0.119108155 0.0028036032

network_body._body_endoder.seq_layers.2.bias f4 [128]
00000000: 7d41 22b9 9487 d5bb 7053 20bc 1e5c de3b
00000010: ac3c 273c 0d8d b53c 0e6c d73b a80c b5bb
00000020: 1044 e83b be05 783c 942f 463b 012e 11bc
00000030: a21c 013c 718e a2bb bf43 29ba 145f d3bb
00000040: b24b eabb 4569 253c df3c e9bb 2ae6 333c
00000050: 3aa1 f8bb 841a 043c 9a92 9e3a 31da 3a3c
00000060: d270 c7bb da4b d7bb 6f66 183c 9a72 4dbb
00000070: ee85 fa3b 5b62 dabb 726c 523c f077 c2bb
00000080: 041f 4a3c a70b 0ebc c48a 49bb 9484 273c
00000090: 8788 6dbb e52c 5d3b 9dc7 d6bb 09d7 edbb
000000a0: 5919 03ba 748a 03bc 03b7 b6bb 3cc7 133c
000000b0: 1380 c63a af9d 19bb 607b edbb c426 b43b
000000c0: a164 edbb 45c3 943b 4a5c bc3b 9897 bd3b
000000d0: bfe0 cfbb b2c9 d83a 68ca 0a3c ec4a ecbb
000000e0: fc53 2fbb 2024 d8bb 6953 ccbb 6809 ddbb
000000f0: a711 553c c0fb 323a c84a f03b 5176 393c
00000100: b91b 083c da8f 0c3c 0d4d d7bb cd0a 463c
00000110: 09e1 1d3c d535 ecba 41fd 233c 29ae ae3c
00000120: 81f9 093c e95d 353c 9596 91bb 39ac 103c
00000130: 4f6d ecbb 0555 4a3b bb56 2abb 84a5 343c
00000140: c8a3 eb39 f954 413c 900b 0a3b 24b2 a83b
00000150: 9fcb d1bb 4ea4 2a3b 0e7c b03b ba9f 8f39
00000160: 785f 093c 6793 f83b af57 273c a082 003c
00000170: 90c0 223c ce54 e1bb f97d b4bb 97dc 143c
00000180: a315 fd3b a6dc 753c a690 acbb f861 1a3c
00000190: 5b83 cfbb b94d 853b f31d e2ba 9ce9 f8bb
000001a0: 084f fbbb 6081 99b8 c34f 1a3c b9c1 1c3c
000001b0: 684b 373b 6e31 1abb ce26 7fbb c74b 7f3a
000001c0: 2463 6d3c be82 d3bb 3f07 e0bb 2e6a fabb
000001d0: 59e4 33bc 00e2 6a3c b8dc 233c 386a 163c
000001e0: 87b2 323c 0755 cebb 7b7d f9bb 8b09 fe3b
000001f0: 107f cd3b eda1 b6bb a8dd 8d39 cc47 743c
-0.0001547392 -0.0065164063 -0.009785518 0.0067858836 0.010207336 0.022161985 0.0065741604 -0.0055251904
0.007088192 0.015138088 0.003024076 -0.008861066 0.007880362 -0.004960828 -0.00064569333 -0.006450543
-0.007150137 0.010095899 -0.007117852 0.010980168 -0.007587579 0.008062962 0.0012098134 0.01140456
-0.0060864473 -0.0065703215 0.009301766 -0.0031348825 0.00764536 -0.006664557 0.012843238 -0.005934708
0.012336496 -0.00866977 -0.0030752877 0.01022448 -0.0036244707 0.0033748683 -0.0065545575 -0.0072583
-0.00050010305 -0.008028615 -0.005576016 0.009019669 0.001514437 -0.0023439934 -0.0072473735 0.0054977853
-0.007244662 0.0045398795 0.0057483064 0.0057858936 -0.0063439305 0.0016539602 0.008471109 -0.00721108
-0.002675294 -0.0065961033 -0.006235529 -0.006745506 0.013004697 0.0006827675 0.0073331334 0.011319713
0.008307391 0.008579219 -0.0065704645 0.012087536 0.009636172 -0.0018021414 0.010009111 0.02132328
0.008421303 0.011069753 -0.0044429996 0.008830124 -0.007215179 0.003087343 -0.0025991637 0.01102579
0.0004494472 0.011800044 0.002106402 0.005148189 -0.0064024474 0.0026037875 0.005385882 0.0002739409
0.008384578 0.007585931 0.0102137765 0.007843643 0.009933606 -0.0068765646 -0.005508181 0.009085796
0.0077235266 0.01500622 -0.005266267 0.009422772 -0.0063327975 0.004068103 -0.0017251357 -0.007596208
-0.0076693334 -7.3197065e-05 0.009418431 0.009567671 0.002796853 -0.0023527998 -0.0038933042 0.000973877
0.014488969 -0.0064547947 -0.0068368013 -0.007642052 -0.010979735 0.014336109 0.010001354 0.009180598
0.010906822 -0.006296757 -0.0076138354 0.0077526025 0.0062712505 -0.0055735023 0.00027058762 0.014909696

action_model._discrete_distribution.branches.0.weight f4 [2, 128]
00000000: 002b 9fbc 1aea a7bc 11a1 4b3a 687a 2fbc
00000010: ccbb 6d3c 5ea7 d3bc 3e24 ecbc 0ede 3b3c
00000020: f827 183c 319e 4a3d 5f69 623b 5b9b 97bc
00000030: ff3c 113c 7d5c 18bb 52aa 8bbc cacb 5bbc
00000040: db11 9ebb 7c9f 8d3c 2a58 3a3c be4d 34bc
00000050: 15d1 e1bb 72d4 4a3c 2e52 31bc 2280 913c
00000060: 5445 d5bc 4fc6 67bc a952 c83c 5a92 37bc
00000070: 997f 703c 8581 41bc dca8 df3b 78ed b53b
00000080: 2ab4 473c 4f44 10bc a112 24bc f8f7 09bd
00000090: 187f af3b b359 60bc 76dc 22bc bf6b e9bb
000000a0: 6b58 bbbc 0f57 f8ba 3767 b4bc 3164 c93b
000000b0: e6fc 943b 5c28 74bc f6d6 06bc 3af4 73bc
000000c0: 0185 75bc 5e02 c03b ad0e 483a 7454 603b
000000d0: 0370 88bc b0ba 7fbc 2968 0abc 592f 26bc
000000e0: 4c1e abbc 65ee d03a a23a 50bc 1ee3 38ba
000000f0: 1c87 e83b 57c4 36bc c207 c83b cc96 ebbc
00000100: fc63 ddbc 494e ca3c 97d7 1cbc fa9e 083c
00000110: 0df6 313c 613c 90bc 80e5 8f3b 8ea0 dfbc
00000120: 9a92 773c 5448 c0bc a26f 7bbc 6f94 81ba
00000130: 3c41 53bc a3e7 2bbc ff22 963b b503 953c
00000140: 525b 63bb cded c7ba 8801 bfb9 2347 3cba
00000150: dded 263a f094 f6bc 4af2 4dbc 0c3b f8bc
00000160: 9c0a 173b 664c 7e3c a730 1ebb cb26 de3b
00000170: d17d c63b d332 d7bc fb06 89bb 6229 f33b
00000180: 4bfa 923c bbbd 46bc f699 3f3c d821 2b3b
00000190: 7bed 34bc 9ad4 cbbc 74c9 6bba a6eb 02bc
000001a0: 3e64 5dbc 29f5 383b 2774 2a3c 9753 713c
000001b0: 1ec7 7abc 631c 423b cb51 04bd 27a4 b7bc
000001c0: 89cc 043d 100a f63a a18a 21bc 3c96 8dbc
000001d0: c62d 923b 0b9b 8e3b b024 c83c 3cdc 8ebc
000001e0: 758b e53c 98fe b8bc 45d6 76bc a980 2e3c
000001f0: 392f b4bc 2497 043c bc13 86bc 61a4 443c
00000200: 71b5 223c 109f 783c 361c 02bc 8217 853c
00000210: 90c0 dbbc c287 e63b aef1 cd3c bf4b 1d3c
00000220: 1263 3fbc bf01 7dbc 7a4e d93b 208b ac3b
00000230: 0347 6ebc 9505 d9bb d2c7 5c3b 8592 453b
00000240: cb62 2fbc 298a dfbb d1c0 193c 7113 403c
00000250: 9c96 473c 99de 29bc 97ea c5ba 7823 99bc
00000260: 5183 153c b28d b23c f8c8 a4bc 8373 f43b
00000270: 989d e6b8 322d 2f3c e307 44bc c930 dc3b
00000280: 27d1 a1bc b509 d2b9 5b30 253c fdb3 ca3c
00000290: 6263 e43b 58a4 58ba 95e3 f83b 7042 1bba
000002a0: 194a e33c 60c5 f03b 38c4 eb3c 472b bdbc
000002b0: 074b 783c 373a 0d3d bbbd 0c3c bc83 a53c
000002c0: 84f1 873c 81ea e0bb 4391 8ebc cf6e f7bb
000002d0: abc1 b23c cf7b 9a3c b301 ad3c 1db7 c0ba
000002e0: 37d6 cb3c 0a4d 7e3c e4d6 bb3b 02e5 8e3c
000002f0: 36f4 81bc 7af8 c43b dfb1 cfbb 6bc1 ea3b
00000300: 7d50 ff3b 90dd 69bb 817e 3f3c 2da4 b8bc
00000310: 49c8 f1bc 953a abbb a2af f4bc 4346 883c
00000320: 4753 36bc 36df 3b3c 7592 4d3b 7050 afbc
00000330: 2407 953c 7938 b8bb 84c4 19bb 93fd 16bc
00000340: cb2f 513b 2079 57bc a8cf 5dbc 1743 813c
00000350: a191 c53b d7c8 b13c 33de b33c dcce 263b
00000360: 58e5 21bd ba2d bbbb c8e6 8d3c f3c1 71bc
00000370: 9ae3 44bc 1b9c 3f3c 4848 8f3c 4d89 72bc
00000380: c464 b7bb 4771 a03c 7af8 ef3b 54d2 9fbc
00000390: f1ba 393c daa1 d83b de99 c33b 9dc4 cc3c
000003a0: 44c7 953c 5368 cabb 744b 23bc 9dde 59bc
000003b0: acb9 8c3c e411 90bb 4340 1b3d 6bd7 8b3b
000003c0: 4721 cfbc 5db8 863b 9517 1c3c 6d8e 1a3c
000003d0: b451 e83c c801 08bc 3b10 a2bc e708 ec3b
000003e0: 774e d03b 8a72 b03b bb42 c53b 7775 08bc
000003f0: 2946 493c 271e 3b3b fe65 26bb 9867 7ebc
-0.019429684 -0.02049737 0.0007767836 -0.010710336 0.014510106 -0.025836643 -0.028825875 0.011466516
0.009286873 0.04946727 0.003454767 -0.018506696 0.00886464 -0.0023248487 -0.017048988 -0.013415286
-0.004823906 0.017287962 0.011373559 -0.011004863 -0.0068913796 0.0123797525 -0.010822816 0.017761294
-0.026034035 -0.014146402 0.024453478 -0.0112043265 0.014678859 -0.011810665 0.0068255495 0.00555199
0.012188951 -0.008805349 -0.010014207 -0.033683747 0.005355727 -0.013693261 -0.009940257 -0.00712344
-0.02286931 -0.0018946844 -0.022021873 0.006145977 0.0045467494 -0.014902201 -0.008229962 -0.014889771
-0.014985324 0.005859657 0.00076315814 0.0034230025 -0.016654974 -0.015608475 -0.008447685 -0.0101431245
-0.02088847 0.0015940188 -0.012709292 -0.0007052886 0.0070961844 -0.0111552095 0.0061044404 -0.028758429
-0.027025215 0.024695532 -0.009572885 0.008338684 0.010861886 -0.017606916 0.004391372 -0.027298238
0.015110636 -0.023471989 -0.01534644 -0.0009886156 -0.012893971 -0.010492238 0.0045818086 0.018190244
-0.0034691882 -0.0015253365 -0.000364315 -0.0007182231 0.0006367842 -0.030100316 -0.012569973 -0.030301593
0.0023047095 0.0155211445 -0.0024137886 0.006779527 0.006057479 -0.026269352 -0.0041817403 0.0074207047
0.017941615 -0.012130196 0.011694422 0.0026112702 -0.011042948 -0.02488165 -0.00089945574 -0.007990753
-0.013512669 0.0028222299 0.010403669 0.014729402 -0.015306262 0.002961897 -0.032304566 -0.022417141
0.032421622 0.0018771309 -0.009859712 -0.017283551 0.004461023 0.0043519787 0.024431556 -0.017439
0.0280206 -0.022582337 -0.015065734 0.010650792 -0.021995174 0.008092675 -0.016366832 0.012002082
0.009930954 0.015174642 -0.007941296 0.016246561 -0.02682522 0.0070352266 0.025139656 0.009600579
-0.011681335 -0.015442311 0.0066316696 0.0052656084 -0.014543298 -0.00662298 0.0033688438 0.0030147147
-0.010704706 -0.00682189 0.00938435 0.011723385 0.012181904 -0.010368013 -0.001509982 -0.01869367
0.009125547 0.021796081 -0.02011536 0.007460059 -0.00010996609 0.010691928 -0.011964771 0.006719683
-0.019753052 -0.00040061554 0.01008233 0.024744028 0.006969855 -0.0008264235 0.0075954893 -0.0005922681
0.027745293 0.0073477477 0.028780088 -0.023091925 0.015154607 0.034479346 0.008590157 0.020204417
0.016594656 -0.0068638925 -0.01740325 -0.007551051 0.021820864 0.018857865 0.021118974 -0.001470301
0.024882419 0.015521297 0.005732404 0.017443184 -0.01586352 0.006011066 -0.0063383426 0.0071641705
0.0077915774 -0.003568504 0.011687876 -0.022539223 -0.029514449 -0.0052254894 -0.029868905 0.016635066
-0.011128253 0.011466792 0.0031367813 -0.02140066 0.018191881 -0.0056219664 -0.002346308 -0.00921573
0.0031919356 -0.013151437 -0.013538279 0.015779061 0.006029323 0.021702213 0.021956539 0.0025452888
-0.03952536 -0.005712238 0.01732196 -0.014755714 -0.012017155 0.011694933 0.017490521 -0.014803243
-0.005596729 0.019585265 0.007323322 -0.019509472 0.011336074 0.006611091 0.00596927 0.024996096
0.018283494 -0.006176987 -0.00996672 -0.013297704 0.017178379 -0.004396664 0.03790308 0.004267623
-0.025284423 0.0041113333 0.009527107 0.009433371 0.028359272 -0.008301206 -0.01978313 0.0072032097
0.00635701 0.005384748 0.006019918 -0.008328787 0.012284794 0.0028551908 -0.0025390382 -0.015527628

action_model._discrete_distribution.branches.0.bias f4 [2]
00000000: c159 fd3b c359 fdbb
0.0077316468 -0.0077316477
