ML-Game/results/ppo/My Behavior/My Behavior-2766.pt (torch, 213673 bytes, 11 tensors)

network_body._body_endoder.seq_layers.0.weight f4 [128, 69]
00000000: 6e3e ccbd 6bc3 b33c 3c30 fc3d 03db d8bd
00000010: 5ac2 10be 63b4 23be 12ad 2abc e0ce d0bc
00000020: 2d91 5cbd a576 debd e4a9 67be 648b ff3d
00000030: d1b6 ab3d 4c51 d6bd ac68 14be bfee da3d
00000040: 687e 5dbe 320d 0dbe 8bc4 3f3e 7104 b6bd
00000050: ab41 693d 0caf c63c 72f3 ad3d e109 b1bc
00000060: a17b e9bd 02b1 083c 08e4 173b 02a9 d73d
00000070: cf63 a03c cff9 3a3d 4587 823d a263 d5bd
00000080: e519 45bc cff7 69bc 693d 323e 5558 8f3e
00000090: 939a 64bd 3a1a 2f3e 18bc 16be 3c1e 153e
000000a0: 1010 2b3e 26b2 053e 4686 0bbe 878e 19be
000000b0: d797 17bd 1850 e6bd 195d 203e c121 993d
000000c0: 0009 66bd ccde aa3d 3f01 62be 1f89 00be
000000d0: e66a 333d b460 94bd 3ec5 0dbc ff85 913c
000000e0: 00a2 89be af29 723e 5a57 2fbe 5adf 943d
000000f0: c73f 59be 325c 0ebe df07 c93c 0df0 113d
00000100: 881d 8c3c 4567 c83d cc13 26be 03db 323d
00000110: 47bd cfbd 7309 d4bd 534e 15be c4b1 dcbd
00000120: cc1b e9bd ab2c 03be 6383 293e 23ae a63d
00000130: e754 083d 24e4 e43d 474a 183d 1608 ea3d
00000140: 4687 e0bc 4159 4a3e 9c41 4b3d f432 163e
00000150: 3aaa 2ebe f7b3 963d a79e 183e 29d1 de3c
00000160: 7034 033e 373e 413e 252c dbbd bcc8 ff3c
00000170: 7e7a abbd f343 083d 6560 403e e583 d4bd
00000180: 1ff7 aebd 3011 4e3e d5c5 6e3d d996 133c
00000190: ede5 3bbe 97dc debd 46ef 5fbe 76aa 00be
000001a0: b3dd 2dbd c10f 69bd c1ff 13be 2566 ba3d
000001b0: 62c5 93be 0d76 f23c 1740 9dbd af13 063d
000001c0: 1d68 9d3e c427 52be 2410 12be 7b2a e23d
000001d0: daac 92bc 0079 d43d d585 c13e 7594 193e
000001e0: 7572 bebd f25f 99bd 739c 50bd 8cd9 e23d
000001f0: 261d 14bc 0bc7 31be 630a 0c3d d4c7 d2bc
00000200: 5ad6 b2bd 4680 983d 6cf1 97bc c444 03bd
00000210: 5603 b0bc 8570 143e 91df 32bd eb67 993d
00000220: 647f a7bd 9dc7 60bd a0de c9bd 3912 133d
00000230: 6d84 b9bc 1975 10be 1403 b5bd df67 11be
00000240: 38c3 883c eeb4 1e3e aedd 673d 700d a63c
00000250: 0af9 013b 3ae4 0b3e 622c 073e 9878 d83b
00000260: 83a3 5b3e f3c9 ab3d 64b2 9b3e 196e 14be
00000270: 40df 2a3e 9d89 49be 2b8e a3bd 2fee 53bd
00000280: bfb9 3fbe dbda fa3d c033 d03d 5278 473e
00000290: 274c 02be 8f23 01be ff3e bb3e 490c 9f3c
000002a0: 137e 743c a039 5b3c 91c2 1a3e f6e4 163d
000002b0: 8caa 323d b4fc b13e cd52 e73d baae 9fbd
000002c0: ad62 a23d d353 c5bd 4412 18bc 0599 99bc
000002d0: 1eb4 d63d dd45 093c 5318 7fbc 3fa0 e4bd
000002e0: 7ad0 123d 67bf 45be 020f f0bb 69bd 253e
000002f0: 214c e8bd 1365 69bd a8a9 4e3d 4459 12be
00000300: 0d38 c4bd 8562 9bbd edee 8fbd e3f3 39be
00000310: 5d63 af3d 6fc3 d83d 79e0 d1bd a49e 2ebd
00000320: b73c bc3d 7162 8dbd bcf7 95bc 380d 6839
00000330: f881 7d3d 7abe 8dbd e126 94ba 096d d63d
00000340: 7c17 83bc c2f6 4b3e a983 c3bd 895d 103d
00000350: 9cb5 4fbe 35c9 12bd f5cf 82bd 2f11 8d3c
00000360: d947 54be a80d bdbd c551 53bd 098e 493e
00000370: 0995 ffbd f533 81bc 0a8b f4bd 30b4 ed3d
00000380: a54a a93d dd83 af3d 655b 0d3e 7eab 6cbd
00000390: d8c2 92bd eca8 5a3d 02fd a9be 577e 613c
000003a0: 9766 5cbe 966f 39be ebce 083e 235b 853c
000003b0: a163 3d3b 11c3 b7bd 8016 b83c 644d 013c
000003c0: d8d6 9dbd efe8 d13d fdb2 023e 39b0 eebd
000003d0: cdd5 163e 18f3 d13c fc9d 5cbd 0c8a d0bd
000003e0: be66 1d3e a189 6d3d 3572 61bd a16d 233e
000003f0: 99d8 093e d4bc e53d b31c c2bc 481b b9bc
-0.09972845 0.021943768 0.123138875 -0.10588648 -0.14136639 -0.15986781 -0.01041724 -0.02548927
-0.053849388 -0.108624734 -0.22623402 0.124777585 0.08384479 -0.10464725 -0.14493054 0.106900685
-0.21630251 -0.13774565 0.18727319 -0.08887566 0.05694739 0.02425339 0.08493699 -0.021611156
-0.114005335 0.008342983 0.0023176689 0.105302826 0.019578842 0.045648392 0.06373457 -0.10419394
-0.0120300995 -0.014280274 0.17406239 0.2799708 -0.055811476 0.17099848 -0.1472019 0.14562315
0.16705346 0.1305624 -0.1362544 -0.14995776 -0.03701004 -0.112457454 0.15660514 0.07477141
-0.056160927 0.083432764 -0.22070788 -0.12552308 0.04380312 -0.07245007 -0.008652983 0.01776409
-0.2688141 0.23648714 -0.17123166 0.072691634 -0.21215735 -0.13902357 0.024539886 0.03562932
0.017103925 0.09785322 -0.1621849 0.043665897 -0.10143524 -0.10353365 -0.1458066 -0.107760936
-0.11382255 -0.12810008 0.16554026 0.08138683 0.033284094 0.11176327 0.03718021 0.114273235
-0.027408253 0.1976061 0.049623117 0.14667875 -0.17057124 0.07358544 0.14904271 0.027199345
0.12812972 0.1887139 -0.10701779 0.031223647 -0.08372973 0.033267926 0.18786772 -0.103767194
-0.08543228 0.20123744 0.058294136 0.009008133 -0.18349428 -0.10881918 -0.2186862 -0.12565026
-0.042447757 -0.05689979 -0.14453031 0.09101514 -0.2886153 0.029597307 -0.0767824 0.032733615
0.30743495 -0.20522982 -0.1426397 0.11043259 -0.017904688 0.103746414 0.37797418 0.14998038
-0.09299175 -0.07489003 -0.05093045 0.1107665 -0.009040153 -0.17361085 0.034189593 -0.025730051
-0.087322906 0.07446341 -0.018547736 -0.032048002 -0.021485966 0.14496048 -0.04367024 0.07490524
-0.08178595 -0.054877866 -0.098569155 0.03590605 -0.022646153 -0.14107169 -0.08838478 -0.1419978
0.01669465 0.15498707 0.056607895 0.02027008 0.0019832277 0.1366128 0.13200524 0.006606173
0.21449094 0.08388128 0.3040954 -0.14495124 0.16686726 -0.19681402 -0.07986101 -0.05174082
-0.187232 0.122487746 0.101661205 0.19479492 -0.12724362 -0.12611221 0.365715 0.019415038
0.014922637 0.013380438 0.15113284 0.036839448 0.043619677 0.3476311 0.1129509 -0.07796998
0.07928977 -0.09635129 -0.009281699 -0.018749723 0.104835734 0.008378473 -0.015569764 -0.11163377
0.03584335 -0.19311295 -0.007326008 0.16185535 -0.113426454 -0.056981158 0.050454766 -0.14291865
-0.09581003 -0.075871505 -0.07027993 -0.18159442 0.08563874 0.10584151 -0.10247893 -0.04263176
0.09191268 -0.06903542 -0.018306606 0.00022130169 0.061891526 -0.06921096 -0.0011303091 0.104700156
-0.01600241 0.1991835 -0.095465966 0.035245452 -0.20284122 -0.035836417 -0.06387321 0.017220108
-0.20730533 -0.0923112 -0.051591653 0.19683088 -0.12479598 -0.015771845 -0.11940582 0.11606634
0.082661904 0.08570073 0.13804395 -0.057780735 -0.0716607 0.053383753 -0.33200842 0.013763032
-0.2152351 -0.18108973 0.13360183 0.016278809 0.0028898495 -0.08972753 0.022471666 0.0078919865
-0.07706994 0.10249507 0.12763591 -0.116547056 0.14729996 0.025628611 -0.053861603 -0.1018258
0.15371224 0.05799258 -0.055040557 0.15959789 0.13461532 0.11217657 -0.023695325 -0.022596017

network_body._body_endoder.seq_layers.0.bias f4 [128]
00000000: 0000 0000 0000 0000 0000 0000 0000 0000
00000010: 0000 0000 0000 0000 0000 0000 0000 0000
00000020: 0000 0000 0000 0000 0000 0000 0000 0000
00000030: 0000 0000 0000 0000 0000 0000 0000 0000
00000040: 0000 0000 0000 0000 0000 0000 0000 0000
00000050: 0000 0000 0000 0000 0000 0000 0000 0000
00000060: 0000 0000 0000 0000 0000 0000 0000 0000
00000070: 0000 0000 0000 0000 0000 0000 0000 0000
00000080: 0000 0000 0000 0000 0000 0000 0000 0000
00000090: 0000 0000 0000 0000 0000 0000 0000 0000
000000a0: 0000 0000 0000 0000 0000 0000 0000 0000
000000b0: 0000 0000 0000 0000 0000 0000 0000 0000
000000c0: 0000 0000 0000 0000 0000 0000 0000 0000
000000d0: 0000 0000 0000 0000 0000 0000 0000 0000
000000e0: 0000 0000 0000 0000 0000 0000 0000 0000
000000f0: 0000 0000 0000 0000 0000 0000 0000 0000
00000100: 0000 0000 0000 0000 0000 0000 0000 0000
00000110: 0000 0000 0000 0000 0000 0000 0000 0000
00000120: 0000 0000 0000 0000 0000 0000 0000 0000
00000130: 0000 0000 0000 0000 0000 0000 0000 0000
00000140: 0000 0000 0000 0000 0000 0000 0000 0000
00000150: 0000 0000 0000 0000 0000 0000 0000 0000
00000160: 0000 0000 0000 0000 0000 0000 0000 0000
00000170: 0000 0000 0000 0000 0000 0000 0000 0000
00000180: 0000 0000 0000 0000 0000 0000 0000 0000
00000190: 0000 0000 0000 0000 0000 0000 0000 0000
000001a0: 0000 0000 0000 0000 0000 0000 0000 0000
000001b0: 0000 0000 0000 0000 0000 0000 0000 0000
000001c0: 0000 0000 0000 0000 0000 0000 0000 0000
000001d0: 0000 0000 0000 0000 0000 0000 0000 0000
000001e0: 0000 0000 0000 0000 0000 0000 0000 0000
000001f0: 0000 0000 0000 0000 0000 0000 0000 0000
0.0 0.0 0.0 0.0 0.0 0.0 0.0 0.0
0.0 0.0 0.0 0.0 0.0 0.0 0.0 0.0
0.0 0.0 0.0 0.0 0.0 0.0 0.0 0.0
0.0 0.0 0.0 0.0 0.0 0.0 0.0 0.0
0.0 0.0 0.0 0.0 0.0 0.0 0.0 0.0
0.0 0.0 0.0 0.0 0.0 0.0 0.0 0.0
0.0 0.0 0.0 0.0 0.0 0.0 0.0 0.0
0.0 0.0 0.0 0.0 0.0 0.0 0.0 0.0
0.0 0.0 0.0 0.0 0.0 0.0 0.0 0.0
0.0 0.0 0.0 0.0 0.0 0.0 0.0 0.0
0.0 0.0 0.0 0.0 0.0 0.0 0.0 0.0
0.0 0.0 0.0 0.0 0.0 0.0 0.0 0.0
0.0 0.0 0.0 0.0 0.0 0.0 0.0 0.0
0.0 0.0 0.0 0.0 0.0 0.0 0.0 0.0
0.0 0.0 0.0 0.0 0.0 0.0 0.0 0.0
0.0 0.0 0.0 0.0 0.0 0.0 0.0 0.0

network_body._body_endoder.seq_layers.2.weight f4 [128, 128]
00000000: 7012 a9bb 9419 e63d dadf b43d 76e4 d93d
00000010: ece3 0db9 dc92 eebc ceb8 a7bd f330 c73d
00000020: 93fa 593c dd00 b83d c8b6 463d 3545 0abd
00000030: 1c68 49bd 011e 843c b4c5 72bc ca7b 173e
00000040: bf8c b7bd a450 6f3d dba8 1fbd a7b8 01bd
00000050: 026b 463d 4fb9 d5bd f652 f1bc 3ed0 f6bc
00000060: bbce 68bd 9aaa 3b3b 31f5 90bd f79b 483e
00000070: bd13 d1bd d3aa 0abe b79d d03d 02f4 4a3e
00000080: a1c6 00be 2f82 8f3d 5fc6 6fbd e91a 0e3e
00000090: 7134 f43d 2e0c c93c 937e f8bd 01dc 82bd
000000a0: ce86 ba3d f4f7 ff3b 9365 de3b 35bc 72bc
000000b0: e729 e8bd f11e 94bd 8994 ef3d 4851 5c3d
000000c0: ec37 1b3e 62d8 b1bd bf7d 303d a9d7 00bd
000000d0: 83af 8dbd 1b4a 99bd 81e4 ddbc d05a 39bd
000000e0: c6b8 11bd 2cf5 6cbd df29 3a3e 4212 e13d
000000f0: a9cc af3d e98e 673d d5c9 963d ff47 b5bd
00000100: 01b1 d33d f0cd 4b3d 0095 733c 36b0 3e3e
00000110: dd7d a13d 3aeb 15bc e779 07be 83c1 91bd
00000120: 5df5 d13d 0965 243d beef af3d 8620 5abd
00000130: 92c4 dbbc 7db7 0a3e 468d 84bd e8a5 08bd
00000140: 504c f3bd 4557 a13d 1437 5ebd 51af 203e
00000150: ff81 ab3c a4c7 263a e6c6 57bd 2ec2 053e
00000160: 2b58 9c3d 347b b93d e5a4 a9bd 786e b03c
00000170: a2a7 c0bd 7af7 923d a161 a83c 788b bebb
00000180: a141 e5bd 8908 4fbc 157c 0f3e c909 173e
00000190: 3096 19bd c305 a6bd 0145 7b3d 2e30 bdbd
000001a0: e7ad 48be f52f 2e3d 3463 89bd f06c cabb
000001b0: 7b59 b4bc 1607 c73d cbe0 4a3d cb6d 8abd
000001c0: e1f3 30bd 5c78 40bd e0a2 afbd 4a8f 01be
000001d0: b4ba b7bc bd5e 683d 8500 053d 524d 9e3d
000001e0: 35f3 413d f8cd 1cbe 41ee 8d3d 49f9 2fbd
000001f0: 613a 2a3d 4d1b 823c 947a 323c 6874 073d
00000200: 2402 483c 405e f53c abbf 873d 32da eabd
00000210: 5011 c33b 90e8 61bd fdda 483d 4cf6 bf3d
00000220: 5cd0 3f3d 7e4c c3bd f72f 2dbc 1724 7abc
00000230: 16a6 80bd b997 93bd ff15 c3bd 58e3 c33d
00000240: 5640 babd be13 0dbe b284 3dbc 2dce 343d
00000250: 1fd4 a53c 5bf2 3bbd b260 8d3d cd52 07bd
00000260: e5a9 8dbd a83a 6fbd c8f2 29bd ee32 3c3d
00000270: 5ef3 03bd 6cab 1ebd cd8d c83b 682f d13d
00000280: 4fca ec3d 50d7 f03d 0901 8dbc 4ebd b5bd
00000290: 6833 e83d 1662 bcbb 7bb1 2e3d 1420 9abd
000002a0: 3960 1dbc a16b bc3d 4a7c afbc feb8 e5bd
000002b0: f7f0 e8bd 37b0 42bd f1c9 e33d c0d2 cc3d
000002c0: 5a65 9e3d 628e 28bd 2d2e afbd c60a f63d
000002d0: a35d d1bd 1399 283e 4375 9c3d 2255 bfbd
000002e0: 6020 b3bb d827 b23c df52 2fbd 2294 af3c
000002f0: 6d74 4e3c 4c9f d7bc 496c 94bd 8221 9dbc
00000300: 5baa 2cbd fae6 4ebd 10aa fe3d 4418 12bc
00000310: aa73 e53d 8a82 b53d d321 d9bd 609f ac3d
00000320: 4d69 923d e035 3abe 4a36 d83c 477e 1fbd
00000330: 075d ec3d 872c 44bd 465a 3fbc e3bb 9f3d
00000340: 25f8 983d 8eda c2bd 9f62 e5bd 2f2e 94bd
00000350: 3a44 9abd 6122 ca3c c900 193d b2d9 16bd
00000360: daeb 583b 514c a23d f40d 29bb bf08 cb3d
00000370: 5e9b 90be 7f2c 2cbe 84a0 8e3d daf8 ef3d
00000380: e7f4 8cbd e138 cd3c 366f 873d 32a0 03bd
00000390: 980e c1bd 511e 183d 6644 40bd 05e0 f2bc
000003a0: 550d 6bbe d149 643e cdcc 1c3e 29c2 7f3d
000003b0: 5d77 18bb ba15 27be 69ba 063c e0c6 94bd
000003c0: eafa 2fbd ae89 2dbd 0e2e 91bd 7d5b bfbd
000003d0: 50e8 b8bc c0fb 123e ae86 463d 173b 6d3d
000003e0: 71d6 bbbd 8bab b53d b70d fbbb 32d2 d5bd
000003f0: adc9 9dbb 6a2d 73bd 9825 bc3d 0f63 65be
-0.0051596686 0.112353474 0.08831759 0.106392786 -0.00013531715 -0.029122762 -0.081895456 0.09726133
0.01330437 0.0898454 0.048514158 -0.033757407 -0.049171552 0.016127588 -0.014817644 0.14793316
-0.08962392 0.058426514 -0.038979392 -0.03167024 0.048441894 -0.104357354 -0.029458504 -0.030128594
-0.05683778 0.0028635622 -0.070780165 0.19590746 -0.10208843 -0.13541727 0.10186332 0.19819644
-0.12575771 0.070072524 -0.05853879 0.13877453 0.11924065 0.02454194 -0.12133517 -0.06389619
0.09107743 0.0078115407 0.006787011 -0.01481538 -0.11336117 -0.07232464 0.11698253 0.053788453
0.15158051 -0.0868385 0.04308867 -0.03145567 -0.06918242 -0.074848376 -0.027086498 -0.04525262
-0.035576604 -0.057851 0.18180035 0.109898105 0.08583958 0.056532774 0.07362715 -0.08851623
0.10336495 0.049756944 0.014867067 0.18621907 0.07885335 -0.009150321 -0.13230096 -0.071169876
0.102518775 0.040135417 0.08590649 -0.053253673 -0.02682713 0.13546558 -0.06472258 -0.033361346
-0.1187979 0.078779735 -0.054251745 0.15691878 0.02093601 0.0006362146 -0.05267992 0.13062355
0.07634004 0.09056702 -0.08283404 0.02153705 -0.094069734 0.07176109 0.020554366 -0.005814966
-0.11194158 -0.012636312 0.14012177 0.14749826 -0.037496746 -0.08106568 0.061345104 -0.09237705
-0.19597588 0.042526204 -0.067083746 -0.006177537 -0.022015324 0.097181484 0.049530786 -0.067592226
-0.04320133 -0.046989784 -0.08575988 -0.12652317 -0.022427894 0.056730974 0.0324712 0.077295914
0.04735108 -0.15312946 0.06930209 -0.042962346 0.04155958 0.015882159 0.010893483 0.033069998
0.012207542 0.029952168 0.06628355 -0.11467399 0.0059529915 -0.05515343 0.04903697 0.09373149
0.046829566 -0.09536074 -0.010570518 -0.015267394 -0.062816784 -0.07206673 -0.0952568 0.09564847
-0.09094302 -0.13777062 -0.011567282 0.044141937 0.020242749 -0.045885425 0.06903209 -0.03303795
-0.069171704 -0.05840555 -0.0414913 0.045947008 -0.032214515 -0.0387377 0.0061204196 0.1021412
0.11562025 0.117598176 -0.017212408 -0.08873998 0.1133793 -0.0057489974 0.042649727 -0.0752565
-0.009605461 0.09200216 -0.02142157 -0.11216925 -0.113740854 -0.047531333 0.11122502 0.10001135
0.07734175 -0.04115141 -0.08553729 0.120137736 -0.10222938 0.16464643 0.076395534 -0.0934241
-0.005466506 0.021747515 -0.04280364 0.02143294 0.012601 -0.026321076 -0.07247216 -0.019181017
-0.04215465 -0.050513245 0.124347806 -0.008916918 0.11203702 0.08862789 -0.106021546 0.08428836
0.07148991 -0.18184614 0.026393075 -0.038938787 0.11541181 -0.047894027 -0.011679238 0.077995084
0.07469205 -0.09514342 -0.11200451 -0.07235371 -0.075325444 0.024674596 0.037354264 -0.036828704
0.0033099563 0.079247124 -0.002579567 0.099137776 -0.28243536 -0.16813849 0.0696421 0.117173865
-0.06882649 0.025051536 0.06613009 -0.032135196 -0.09426612 0.037138287 -0.04694023 -0.029647836
-0.22954305 0.22293784 0.153125 0.062441025 -0.0023264505 -0.16316882 0.008223155 -0.07264495
-0.0429639 -0.04236763 -0.07088862 -0.09343622 -0.022571713 0.14353848 0.048468284 0.05791768
-0.09171761 0.0887061 -0.007661547 -0.10440482 -0.0048153014 -0.059369482 0.09186858 -0.22401069

network_body._body_endoder.seq_layers.2.bias f4 [128]
00000000: 0000 0000 0000 0000 0000 0000 0000 0000
00000010: 0000 0000 0000 0000 0000 0000 0000 0000
00000020: 0000 0000 0000 0000 0000 0000 0000 0000
00000030: 0000 0000 0000 0000 0000 0000 0000 0000
00000040: 0000 0000 0000 0000 0000 0000 0000 0000
00000050: 0000 0000 0000 0000 0000 0000 0000 0000
00000060: 0000 0000 0000 0000 0000 0000 0000 0000
00000070: 0000 0000 0000 0000 0000 0000 0000 0000
00000080: 0000 0000 0000 0000 0000 0000 0000 0000
00000090: 0000 0000 0000 0000 0000 0000 0000 0000
000000a0: 0000 0000 0000 0000 0000 0000 0000 0000
000000b0: 0000 0000 0000 0000 0000 0000 0000 0000
000000c0: 0000 0000 0000 0000 0000 0000 0000 0000
000000d0: 0000 0000 0000 0000 0000 0000 0000 0000
000000e0: 0000 0000 0000 0000 0000 0000 0000 0000
000000f0: 0000 0000 0000 0000 0000 0000 0000 0000
00000100: 0000 0000 0000 0000 0000 0000 0000 0000
00000110: 0000 0000 0000 0000 0000 0000 0000 0000
00000120: 0000 0000 0000 0000 0000 0000 0000 0000
00000130: 0000 0000 0000 0000 0000 0000 0000 0000
00000140: 0000 0000 0000 0000 0000 0000 0000 0000
00000150: 0000 0000 0000 0000 0000 0000 0000 0000
00000160: 0000 0000 0000 0000 0000 0000 0000 0000
00000170: 0000 0000 0000 0000 0000 0000 0000 0000
00000180: 0000 0000 0000 0000 0000 0000 0000 0000
00000190: 0000 0000 0000 0000 0000 0000 0000 0000
000001a0: 0000 0000 0000 0000 0000 0000 0000 0000
000001b0: 0000 0000 0000 0000 0000 0000 0000 0000
000001c0: 0000 0000 0000 0000 0000 0000 0000 0000
000001d0: 0000 0000 0000 0000 0000 0000 0000 0000
000001e0: 0000 0000 0000 0000 0000 0000 0000 0000
000001f0: 0000 0000 0000 0000 0000 0000 0000 0000
0.0 0.0 0.0 0.0 0.0 0.0 0.0 0.0
0.0 0.0 0.0 0.0 0.0 0.0 0.0 0.0
0.0 0.0 0.0 0.0 0.0 0.0 0.0 0.0
0.0 0.0 0.0 0.0 0.0 0.0 0.0 0.0
0.0 0.0 0.0 0.0 0.0 0.0 0.0 0.0
0.0 0.0 0.0 0.0 0.0 0.0 0.0 0.0
0.0 0.0 0.0 0.0 0.0 0.0 0.0 0.0
0.0 0.0 0.0 0.0 0.0 0.0 0.0 0.0
0.0 0.0 0.0 0.0 0.0 0.0 0.0 0.0
0.0 0.0 0.0 0.0 0.0 0.0 0.0 0.0
0.0 0.0 0.0 0.0 0.0 0.0 0.0 0.0
0.0 0.0 0.0 0.0 0.0 0.0 0.0 0.0
0.0 0.0 0.0 0.0 0.0 0.0 0.0 0.0
0.0 0.0 0.0 0.0 0.0 0.0 0.0 0.0
0.0 0.0 0.0 0.0 0.0 0.0 0.0 0.0
0.0 0.0 0.0 0.0 0.0 0.0 0.0 0.0

action_model._discrete_distribution.branches.0.weight f4 [2, 128]
00000000: 0e9e 08bc dfd5 943b 6ffe 38bc 3373 623b
00000010: d732 883c 9429 1bbc a972 833b 2846 793c
00000020: ce36 3bbb 9f1d 6abb 0c53 343c 4748 b0ba
00000030: 5b89 e138 889f d4ba dfba 1d3a e360 71ba
00000040: 6599 fcbb c71d ebbb 80b2 50bb 11d9 9fbb
00000050: 9f21 25bb 79b4 32bc 5078 973c 9226 7dba
00000060: eb9c f4bb 1bf2 413b 93ae 46bc 6a15 f13b
00000070: d18b a83b 8873 563b 8429 3ebc 57ea ce3b
00000080: 5223 b0bc 096c acb8 9b08 3c3a 7a45 4fbb
00000090: c79b bdbb 97d6 3c3c 7fae 1ebb f329 19bb
000000a0: f3f2 3bbc 8ee0 40bc 0393 67bb be8d 18bc
000000b0: 45a4 abbb 30d7 07bc 7698 0ebc c5e3 f63a
000000c0: f479 243c 4e8e b1bb 9803 a7bc 2e29 97bb
000000d0: 17a5 e3bb 7f16 f4bb fa2d 3bbc 8d45 b13b
000000e0: 83d8 98bb 702e e83a df8d c33b 1218 4eba
000000f0: c9f6 c1ba 88b7 be3b 069e 07bc 9b7a 18bc
00000100: 4abb 633c adbe 44bc 25f9 ef3b 5b8b 4bba
00000110: 7ba3 a33b a495 263c 9b18 b33b f7e2 4f3c
00000120: d4d6 15bc 3d76 67bc dbfb 41bc 7bec 63bc
00000130: 55c4 0f3c 1b6a 2ebb 273e 9b3b 2096 9d3b
00000140: fc5c 9a3b b1b4 bdba 142b 46bc bdfe f0bb
00000150: 17f1 a8bb 2211 7f3b 33cd 593b f322 643c
00000160: 6f55 e33b b7df 2bbc 63e9 363c d0b4 7aba
00000170: 7f43 d0bb 4880 913b 6f6a 933c c241 7bbb
00000180: 0e09 0f3c f811 ffbb 0d41 743c 93f9 6f3c
00000190: a71b 8b3c de8e 83bc 9de7 63bb 13aa 66bb
000001a0: 8c22 0b3c d833 21bb ced2 47bc f8df 793c
000001b0: 6826 f6bb 5f6f 9cba 138c 18bc 4b2e 99bb
000001c0: 3e9d 92bb 5952 053c d9ca 86bc d3d8 413c
000001d0: 3fa2 8ebb 3d46 edbb 6dfd daba 0f04 6dbb
000001e0: 805d 213b da16 213c 2d84 1b3c f04f fb3a
000001f0: 3076 e9ba cfe9 79bb 352f 7b3b 478c 093b
00000200: 372a c23a d48b cc3b df72 f33b b3b7 9ebb
00000210: a03d 2eba edc4 d6b9 c161 283c d31c 80bb
00000220: 8d70 d63b 9836 db3b b0ae 383c f25b 32ba
00000230: 07f1 1dbb 7b97 033c 3886 38bc e3db 57bc
00000240: 4a3d 0e3c d32c 6d3c ffa3 4839 b8f4 2c3b
00000250: 6d02 aabb 0c37 22b8 db04 343a 3b19 f0b9
00000260: fafe 98ba 3bca 533b 9fe7 ebbb d541 01bc
00000270: 18bf 0ebc a60b 8cbb 2a16 253c 4538 723c
00000280: 4def a7bb 5f91 e2bb c70a 153a 0e8d 98bb
00000290: b7e6 29bc 6444 2bbc 072d 87bb 9ac1 5dbb
000002a0: 5ba4 0f3c 2f27 8e3b a945 303c d38a 5dbc
000002b0: 9bb7 32bc a370 3abc 5d29 f13b 4a6d 51bb
000002c0: c6a9 1bbc 64cc 38bc ef31 6b3b 53a2 07bc
000002d0: 00c5 1ebb 9773 f33b 98e9 97ba 6b99 c23a
000002e0: a67e aaba 9baa de3b efda 8dbb 2876 e83b
000002f0: 0730 c8bb 7b06 313b 0d7b 393b 8d53 b939
00000300: add5 fcbb 2b65 81bb db93 39bb 8735 d435
00000310: fd83 53bb 9214 c53b f06e 7e3a ad09 513b
00000320: a76b 223b 653f 2ebc 52bc 58bc 7f72 333c
00000330: 28cd d7ba 13a5 e03b 82b6 113c 12b4 14bc
00000340: f398 e9bb b233 59bc db29 1dbc ad81 be39
00000350: 1405 98bb b19f af3b 8372 33bb d407 beba
00000360: ef2c 7a3b 1098 2bbc 39c4 c939 8452 993b
00000370: 6883 273c 13b3 423a bf75 1fbc 0bba 41ba
00000380: 1ff9 8dbc 0282 353c 8741 2ebb a347 43bc
00000390: 7334 a43a db2d d73a 8a72 d6bb de6a 30bb
000003a0: 13f8 993b 1823 d9ba 9752 bebb c203 68ba
000003b0: e73e 2bbc 3361 a03b 6fb1 4bba f342 133c
000003c0: ab1a 1c3c 4523 00b9 4bd5 723c dfc9 7f3c
000003d0: d70a aa3c fd5b 1c3c 510e 05bb 37e1 1d3b
000003e0: 18a2 80bb 27e4 c33b eb0c cabc 64d9 a1ba
000003f0: 0d3e 49bc 9784 9fbc bf28 a4ba 75c0 95b8
-0.008338464 0.004542097 -0.01129113 0.0034553527 0.016625805 -0.009470362 0.0040114713 0.01521448
-0.0028566602 -0.0035723222 0.011006128 -0.0013449275 0.000107544205 -0.001622186 0.00060169207 -0.00092078577
-0.0077087157 -0.0071751806 -0.0031844676 -0.0048781713 -0.0025197042 -0.010907286 0.018489987 -0.00096569315
-0.007464995 0.002959377 -0.012126583 0.007357289 0.0051436205 0.003272267 -0.011606578 0.0063145566
-0.021501217 -8.221722e-05 0.0007172913 -0.0031627105 -0.0057863924 0.011525772 -0.0024212894 -0.002337095
-0.011471498 -0.011772288 -0.0035335429 -0.009311138 -0.0052380883 -0.008291051 -0.008703342 0.0018836191
0.0100388415 -0.0054185754 -0.020387456 -0.0046130633 -0.0069471705 -0.007448971 -0.011424536 0.0054099024
-0.004664482 0.0017714035 0.00596784 -0.0007861863 -0.0014798279 0.0058202185 -0.008277422 -0.009306575
0.013899634 -0.012008351 0.0073234015 -0.0007764601 0.0049938536 0.010167513 0.0054655797 0.01268839
-0.009145457 -0.014127311 -0.011839832 -0.013911362 0.008774837 -0.0026613537 0.0047376337 0.004809156
0.0047107916 -0.0014473406 -0.012095232 -0.007354586 -0.0051556933 0.0038920124 0.003323388 0.013924348
0.0069376747 -0.0104903495 0.011164042 -0.00095636863 -0.0063557024 0.004440341 0.017995087 -0.0038338755
0.008730186 -0.0077841245 0.014908087 0.0146469055 0.01698096 -0.016059335 -0.0034775503 -0.0035196587
0.008492123 -0.0024597552 -0.012196256 0.015251152 -0.0075119026 -0.0011935047 -0.00931074 -0.004674708
-0.004474311 0.008137309 -0.016454147 0.01183148 -0.0043528373 -0.007241039 -0.0016707607 -0.003616575
0.002462238 0.009832108 0.009491962 0.0019173604 -0.0017811712 -0.0038133746 0.0038327698 0.0020988153
0.0014813606 0.0062422547 0.007429465 -0.004843676 -0.0006646756 -0.00040963982 0.010277213 -0.003909686
0.006544179 0.0066898577 0.0112721175 -0.0006803862 -0.0024099962 0.008031721 -0.011262469 -0.013174984
0.008681605 0.014476019 0.0001913458 0.002639098 -0.0051882775 -3.8675076e-05 0.00068671786 -0.00045795165
-0.0011672669 0.0032316584 -0.0071992422 -0.007889231 -0.0087125525 -0.0042738495 0.010076085 0.0147839235
-0.0051249624 -0.0069143022 0.0005685505 -0.004655487 -0.010369948 -0.010453317 -0.0041252407 -0.003383732
0.008767213 0.004338167 0.010758796 -0.013521868 -0.010908033 -0.011379394 0.007359667 -0.003195601
-0.009500926 -0.011279199 0.0035887917 -0.008278447 -0.0024226308 0.007429551 -0.0011590002 0.0014846748
-0.0013007715 0.00679524 -0.0043290774 0.0070941634 -0.006109241 0.002701192 0.0028302104 0.000353482
-0.007715902 -0.0039488277 -0.0028316888 1.5810809e-06 -0.0032274716 0.006014415 0.0009705862 0.0031896636
0.0024783404 -0.010635232 -0.013228493 0.010952591 -0.001646434 0.006855616 0.008893611 -0.009076135
-0.0071288287 -0.013256954 -0.009592499 0.0003633624 -0.0046392772 0.005359613 -0.0027381487 -0.0014498183
0.0038173755 -0.010473266 0.00038483905 0.004679026 0.010224201 0.0007427197 -0.009732663 -0.0007390088
-0.017330704 0.01107836 -0.002658935 -0.011918935 0.0012527838 0.0016416864 -0.006544416 -0.0026919167
0.004698762 -0.0016566245 -0.0058081853 -0.00088506576 -0.010452009 0.0048943995 -0.0007770275 0.00898813
0.0095278425 -0.0001222017 0.014821361 0.015612095 0.020757122 0.009543416 -0.0020302723 0.0024090537
-0.003925573 0.0059781256 -0.024664363 -0.0012348113 -0.01228286 -0.019472403 -0.001252435 -7.1407216e-05

action_model._discrete_distribution.branches.0.bias f4 [2]
00000000: 0000 0000 0000 0000
0.0 0.0

network_body._body_endoder.seq_layers.0.weight f4 [128, 69]
00000000: 9d28 b0bd 6e6b bd3d 3c7f 84bd ed7e bc3d
00000010: 6f0a c43d 06a8 debc 447d e9bd 69da bdbd
00000020: ae07 b2bc 6956 323d 376c 983d bb1a 48bd
00000030: 4d35 df3c 2f06 bcbd 2a01 e0bd dd2f 123d
00000040: a8e5 433d 23b1 a33e 472f cb3c 9940 a2bd
00000050: 03f2 2dbe fdfd 493e 55f2 3cbe c8e9 713e
00000060: a988 9dbb b68d 32be 1be4 b1bc cf1d e13d
00000070: 7c8f 13bd 9783 5bbe 79f3 14be a1c8 e6bd
00000080: bdea 133e 0ce1 0f3e 1fb7 2fbe 51a6 8cba
00000090: 790a 83bd 4972 5f3e 7dca b5b8 4a47 d63d
000000a0: 2d64 1abc 7154 813d 5f42 80bc 304f 523e
000000b0: 11f2 0cbe c9a1 db3d 9dff 62be 7bd2 27be
000000c0: 212a 523d ed06 0d3e 467a e7bd 89c0 d9bd
000000d0: d257 f3bb 4884 cebd d617 153e da06 dd3d
000000e0: 8e0d 483e 8c25 ebbc c2c2 4dbd d6ee 113e
000000f0: 4af4 b8bd bddd 3dbe 005b 24be 8aaa 88bd
00000100: eac7 c1ba 6af5 b6bd 74ee 8f3d da4a 06be
00000110: 11b7 3d3d f487 b0bc 9255 6abe 6169 c13d
00000120: cb77 9fbd 091d 6a3d 7867 a0bd cfb8 ecbd
00000130: 6240 01bd 7473 3b3e cfb4 4bbe 90fe c13d
00000140: d772 5b3d e900 8f3e 5427 84bd 3b4b 8dbd
00000150: 62bf 3c3e 4b75 923d c34e 633e fbbf 393d
00000160: c1a8 923e 3871 493e ace8 923d 0e68 08ba
00000170: 489a cebd 9fd1 33be 9cb1 00be 9ed9 653e
00000180: 2b6d 953d 2180 973e c759 05be 5d1d 563e
00000190: c49a 1b3c edd0 22be 931f 5fbe 68cc 043e
000001a0: bb09 05be 2cde 56be afa0 e0bc 8aad d0bc
000001b0: 8837 cb3c 7f90 d4bc a8e1 e7bd a1c2 7cbc
000001c0: 1aeb 453e 3648 26bd 99fe a1be f2a6 543e
000001d0: 550f d5bc c279 b13d b591 fc3c 4b19 4d3e
000001e0: 2e55 9cbd 2d90 523d cc4a b03c af3e f23d
000001f0: f594 7b3d 877d 71be a82c 59bd 4bba 09bd
00000200: 119c 30bb 70e6 0abe 3c5a 54be c773 a73d
00000210: f9da 4bbe 9e0c cabd af66 7abe 741e 0d3c
00000220: eade 04be 4b03 0fbd d2b1 9dbc 48ac 423e
00000230: d6c1 283e 81cc 1b3e 0826 533e ad23 cebd
00000240: 3064 e9bd 073c 19be bbbd ecbd e86e 3bbc
00000250: ef26 bf3d 9b0f b63e 7af3 11be 5d39 293d
00000260: a5f0 25be 1ee5 113d d1ff cc3d 7359 f0bd
00000270: a89c 5f3d 61ef d1bc 1e91 dd3d a007 ae3d
00000280: e3a3 1fbd 298d 053d e1cf ecbc 9885 c8bc
00000290: 494c 44bd 71fd be3d 5d43 bcbd c9a8 57be
000002a0: e75f 623e 48a3 ebbd cd7b 8e3d c9f4 a3bd
000002b0: 8cfc 023d 0f66 f0bd 9266 78be 29a1 2bbd
000002c0: be9e e03c f184 103e 6f46 993d 196c eb3d
000002d0: d0a0 78bd df2a 483d 278a 28bd ca67 2a3d
000002e0: 6638 753d b001 86bd cd53 6c3e e41c eb3d
000002f0: 1455 19be 595d 5c3c be94 2d3d ca89 93bd
00000300: 12a0 b73d 61aa 393d 32d8 0e3e 5761 803e
00000310: 4998 383e f6c8 303d c081 643d 7b29 8a3d
00000320: 7ad7 13be b74c 263d 8b17 dc3d a99a e83d
00000330: 1204 163e 5154 90be bc36 32be 1b0c 053d
00000340: fdd2 62bd 50dd 6fbd f626 673d 8eb1 b63c
00000350: 12d4 80bd e95c b63c 0e6f 08bd fbee 063d
00000360: 6bdb 1abe 3e3e 013e 6079 9abc 4bcf 443d
00000370: b7bb 2a3e dd6c 9bbc f70f 81bc 2f8e 1dbe
00000380: c647 db3c 4131 a63e 4419 233d a8dc 803d
00000390: cb8b 7bbd 53fc fa3c 7bcd 21bd b1bd 45bd
000003a0: 78a0 86bc 48a7 55be cc69 313e 1d56 16be
000003b0: f34b c43c fcb9 8abe b206 013e aca0 5f3d
000003c0: de2b a4bd 0965 79bd e3c7 f63c 6aa9 033e
000003d0: 53cf 3c3c f1b5 94bd c5fb 613c 89db d3bd
000003e0: b572 eebd a1f7 1bbd 86f8 993d d523 88bd
000003f0: b8af 613e 2154 35bd 1061 d2bd 0eb6 3e3e
-0.08601496 0.09249006 -0.064695805 0.09203897 0.095723026 -0.02717973 -0.11400846 -0.09270174
-0.021732178 0.04353944 0.07442515 -0.048853617 0.027247095 -0.09180867 -0.10937722 0.035690177
0.04782644 0.31971082 0.024802817 -0.07922477 -0.16986851 0.19725795 -0.18451817 0.23624337
-0.004807551 -0.17436871 -0.021715214 0.10992014 -0.03602551 -0.21436916 -0.14546002 -0.11268736
0.14445014 0.14050692 -0.17159699 -0.0010730718 -0.06398482 0.2182094 -8.668469e-05 0.10462816
-0.009423298 0.06314934 -0.015656648 0.2053802 -0.13764216 0.107242174 -0.22167821 -0.16388886
0.05130971 0.13772173 -0.11302619 -0.10632426 -0.0074262405 -0.100838244 0.14559874 0.107923225
0.1953642 -0.028704427 -0.050234564 0.14251265 -0.090309694 -0.18541618 -0.16050339 -0.06673153
-0.001478431 -0.08933528 0.07027903 -0.13114491 0.046317164 -0.021549203 -0.22884205 0.094439276
-0.077865206 0.057156596 -0.07832235 -0.11558687 -0.03155554 0.1830576 -0.19893192 0.09472382
0.053576317 0.27930382 -0.06452814 -0.06899115 0.18432382 0.07151278 0.22198014 0.045349102
0.28644374 0.19672096 0.07173285 -0.00052034936 -0.100880206 -0.17560433 -0.12567753 0.22446296
0.07296213 0.29589942 -0.13022529 0.20909639 0.009497348 -0.15900011 -0.21789388 0.129686
-0.12991993 -0.2098319 -0.02742037 -0.025473375 0.024806753 -0.025947807 -0.113223374 -0.0154272625
0.19327965 -0.04059621 -0.31639555 0.2076681 -0.026008287 0.086658016 0.030831197 0.2002918
-0.07633434 0.051407028 0.02152004 0.11828362 0.061421353 -0.23583041 -0.053021103 -0.03362493
-0.0026948492 -0.13564467 -0.20737547 0.0817638 -0.1990775 -0.09865688 -0.24453233 0.008613218
-0.1297566 -0.03491525 -0.01924983 0.19011033 0.16480193 0.15214731 0.20619977 -0.10065398
-0.113960624 -0.14964305 -0.11559626 -0.011440016 0.09333598 0.3555878 -0.14253035 0.04131447
-0.1620508 0.035618894 0.100097306 -0.11735811 0.05459276 -0.02562684 0.108186945 0.08497548
-0.038974654 0.032605324 -0.028907718 -0.024477765 -0.047924314 0.09325684 -0.09192536 -0.2106048
0.22106896 -0.11505753 0.06957207 -0.080056734 0.03197913 -0.11738216 -0.24257877 -0.04190174
0.027419444 0.14113213 0.07484137 0.11495227 -0.060700238 0.04886901 -0.041147377 0.041602887
0.05986824 -0.065432906 0.23078842 0.1148012 -0.14973861 0.01344999 0.04237818 -0.072040156
0.08966078 0.0453285 0.1394966 0.25074264 0.18026842 0.0431604 0.0557878 0.06746193
-0.14437667 0.040600505 0.10746678 0.11357624 0.1464999 -0.28189328 -0.17403692 0.032482248
-0.055376995 -0.05856067 0.05643364 0.022301462 -0.06290449 0.0222611 -0.033309035 0.032942753
-0.15122764 0.126214 -0.018856704 0.048049252 0.1667317 -0.018972808 -0.015754683 -0.1538627
0.026767623 0.32459453 0.039819017 0.06292087 -0.061412614 0.030637896 -0.039502602 -0.048276607
-0.01643394 -0.20864594 0.17325515 -0.14681287 0.023961997 -0.2709502 0.1260021 0.054596588
-0.080161795 -0.06088737 0.03012461 0.12857595 0.011524039 -0.07261265 0.013792937 -0.103446074
-0.116429724 -0.038077954 0.07518105 -0.066474594 0.22039688 -0.044269685 -0.102724195 0.18624136

network_body._body_endoder.seq_layers.0.bias f4 [128]
00000000: 0000 0000 0000 0000 0000 0000 0000 0000
00000010: 0000 0000 0000 0000 0000 0000 0000 0000
00000020: 0000 0000 0000 0000 0000 0000 0000 0000
00000030: 0000 0000 0000 0000 0000 0000 0000 0000
00000040: 0000 0000 0000 0000 0000 0000 0000 0000
00000050: 0000 0000 0000 0000 0000 0000 0000 0000
00000060: 0000 0000 0000 0000 0000 0000 0000 0000
00000070: 0000 0000 0000 0000 0000 0000 0000 0000
00000080: 0000 0000 0000 0000 0000 0000 0000 0000
00000090: 0000 0000 0000 0000 0000 0000 0000 0000
000000a0: 0000 0000 0000 0000 0000 0000 0000 0000
000000b0: 0000 0000 0000 0000 0000 0000 0000 0000
000000c0: 0000 0000 0000 0000 0000 0000 0000 0000
000000d0: 0000 0000 0000 0000 0000 0000 0000 0000
000000e0: 0000 0000 0000 0000 0000 0000 0000 0000
000000f0: 0000 0000 0000 0000 0000 0000 0000 0000
00000100: 0000 0000 0000 0000 0000 0000 0000 0000
00000110: 0000 0000 0000 0000 0000 0000 0000 0000
00000120: 0000 0000 0000 0000 0000 0000 0000 0000
00000130: 0000 0000 0000 0000 0000 0000 0000 0000
00000140: 0000 0000 0000 0000 0000 0000 0000 0000
00000150: 0000 0000 0000 0000 0000 0000 0000 0000
00000160: 0000 0000 0000 0000 0000 0000 0000 0000
00000170: 0000 0000 0000 0000 0000 0000 0000 0000
00000180: 0000 0000 0000 0000 0000 0000 0000 0000
00000190: 0000 0000 0000 0000 0000 0000 0000 0000
000001a0: 0000 0000 0000 0000 0000 0000 0000 0000
000001b0: 0000 0000 0000 0000 0000 0000 0000 0000
000001c0: 0000 0000 0000 0000 0000 0000 0000 0000
000001d0: 0000 0000 0000 0000 0000 0000 0000 0000
000001e0: 0000 0000 0000 0000 0000 0000 0000 0000
000001f0: 0000 0000 0000 0000 0000 0000 0000 0000
0.0 0.0 0.0 0.0 0.0 0.0 0.0 0.0
0.0 0.0 0.0 0.0 0.0 0.0 0.0 0.0
0.0 0.0 0.0 0.0 0.0 0.0 0.0 0.0
0.0 0.0 0.0 0.0 0.0 0.0 0.0 0.0
0.0 0.0 0.0 0.0 0.0 0.0 0.0 0.0
0.0 0.0 0.0 0.0 0.0 0.0 0.0 0.0
0.0 0.0 0.0 0.0 0.0 0.0 0.0 0.0
0.0 0.0 0.0 0.0 0.0 0.0 0.0 0.0
0.0 0.0 0.0 0.0 0.0 0.0 0.0 0.0
0.0 0.0 0.0 0.0 0.0 0.0 0.0 0.0
0.0 0.0 0.0 0.0 0.0 0.0 0.0 0.0
0.0 0.0 0.0 0.0 0.0 0.0 0.0 0.0
0.0 0.0 0.0 0.0 0.0 0.0 0.0 0.0
0.0 0.0 0.0 0.0 0.0 0.0 0.0 0.0
0.0 0.0 0.0 0.0 0.0 0.0 0.0 0.0
0.0 0.0 0.0 0.0 0.0 0.0 0.0 0.0

network_body._body_endoder.seq_layers.2.weight f4 [128, 128]
00000000: 368e 90bd 8abe 4bbd 8463 1ebe dec7 4abd
00000010: 5997 1d3d 1518 c0bc 32d8 4f3d ad63 4a3c
00000020: fab0 0bbd 7041 32bc 9e2c fc3d a5d8 f0bd
00000030: 14d9 44be 6a62 5dbd 27c7 393c 317d 9dbd
00000040: aaa5 7d3e 5e11 a9bc 274a 4c3e 71c0 7b3d
00000050: 3523 cbbd 011c 793c 03c1 95bc 562f 85bb
00000060: 0509 983d 6bb2 1abc db9f 2dbc 7228 a73d
00000070: 99a1 863c 7086 9f3d 667b 46be 41ed 18be
00000080: 66d7 643c fb64 0bbc 09c3 bebd 4b3c 3bbd
00000090: 209a 0abe 96be d83d 6a37 f1bc 76e7 77bd
000000a0: e32c 15be 6037 4e3d 8ed9 72bd 9701 adbc
000000b0: 966f dd3d 4bcd cc3d 9595 80bd b64a f73d
000000c0: f0fa a0bb 444d a0bd e0e7 593e 6a0d 673d
000000d0: 9c95 ab3d d9c5 65bd 31e3 f7bd 4b92 203d
000000e0: f2ac 01bd 402c b8bc ae1b 0bbe 8a60 453e
000000f0: 52b2 1d3e 0f97 3f3e dce9 623c 2d8f 02be
00000100: feb2 083c 7945 f23b fe61 883d 3a09 0f3c
00000110: cb3f a83d 8e1b 1e3e 107f 5d3c a52d 7d3d
00000120: a485 b43d a356 21bd 5835 153c 52b9 053e
00000130: e6b8 23bc 2558 73bd 5e25 873d 7013 fe3d
00000140: 5be0 3f3d e982 85bc 2537 b53c 2a95 d3bb
00000150: 1ef0 993d 6c3d 853c 2040 df3d 4180 aabc
00000160: 3b99 493c 3b2b 5d3c 9c9c bcbd af4e 313d
00000170: 5f71 bcbd 9f2d bb3d 91d5 a43d 465c a03d
00000180: e144 fabd 327f 493d 7593 963c e7d2 c23d
00000190: 86c5 273e 0955 bd3d edc5 aa3c 673a b0bc
000001a0: 809a aa3d 1674 99bd 4bd3 84bd f4a5 f13d
000001b0: 56d8 f2bb 4730 b73d 9c68 b8bd 3b33 cabd
000001c0: 43fa 8e3c 2fbf 16be c878 1fbc 4879 ff3d
000001d0: 50f0 35bd c360 19be e01e 4c3e aa2e c93d
000001e0: 5a7f 27be 49a3 0fbd 43cb 1ebe 73d0 03bd
000001f0: ccd6 443d 8147 1abd 5313 0ebe bc9f 243d
00000200: 5f2a 0bbe 5837 ffbb c2ab 6abc 7641 54bd
00000210: 2087 18bd a5fb 023d 4f98 2a3e 2db4 b7bd
00000220: 92a4 8ebd e059 dc3b f5bc 12bd 4e91 9a3d
00000230: 5103 0bbc f160 ecbd 7db3 f03b 1d1c 4c3d
00000240: 7903 de3c caad c83d 80fb 8ebd 1671 493d
00000250: e422 873e 0c32 0c3c 58d9 eb3d 8ce7 3f3e
00000260: 4edf 1ebc 8a01 323c 5485 28be 4986 18bc
00000270: c073 c4bd 1364 383d bea1 953d 05a2 0bbd
00000280: 562b 35bd 6538 0d3e 1ef1 9b3b 52ef 0abd
00000290: 8b0a 2a3e 1614 f33c 5305 1dbd 1c39 34be
000002a0: c050 04bd 4cf2 acbc 5922 dcbb 0208 44be
000002b0: 4c4b 40be 726d 24bd 3ead 22be 8047 1e3d
000002c0: 27e7 5d3c 036e 183d 6ae2 bf3d 82bd 0cbe
000002d0: fae3 e8bc 4d06 073e d8e7 ccbc 67e6 a53d
000002e0: fe96 883c 8d0a b63d 3c88 a53d 0c2f da3d
000002f0: eab2 1dbe c5a2 1c3d 549e 1c3e 4fe2 113c
00000300: 6bf3 993c bafa ac3d 69d2 ff3c ec35 ef3c
00000310: 6bd7 f63d 8f63 da3d 377a 38ba 04a8 be3b
00000320: 483d c9bc 141f 8abd 2eb4 343d 3934 43bd
00000330: a1a3 4b3d b35c 42be 9bad 893d f7d5 903c
00000340: 1fa5 943c 7b82 e33c 5523 1abc e874 3c3d
00000350: f898 073d cd06 02bd 2d1f cf3c 59e2 f93a
00000360: b321 cd3d a657 4f3e 89bc bcbd 4eb4 693d
00000370: d93f 1d3d 1109 53be 45e3 653d 0905 23bd
00000380: cf33 c33c 7b6d 74ba e216 ad3b d534 c3b9
00000390: dfd5 dcbb 06e5 c3bd 61af c5bc 3981 85bc
000003a0: 9c92 95bc 9150 e13d 7c07 4dbe 3d8c dabd
000003b0: b54a 433d 313f c4bc 4ae8 373d 00d7 0ebd
000003c0: 6263 383d 5ff5 b73c 9745 9bbc 4cb7 9a3d
000003d0: 987b 6f3d b396 1dbe 4052 13bd a542 35be
000003e0: f2dd d03d 0722 0d3e 866c 74bc 2c36 41be
000003f0: 323d be3c f6c6 893d 2bdc 213c 5fdf e5bd
-0.070583746 -0.04974226 -0.1546765 -0.049507014 0.038474414 -0.023448983 0.05074329 0.012352866
-0.034104325 -0.010879859 0.123131976 -0.11760072 -0.19223434 -0.054048933 0.0113389855 -0.07689894
0.24770227 -0.020638164 0.19950162 0.061462823 -0.099188246 0.015204431 -0.018280512 -0.004064481
0.07423595 -0.009441952 -0.010597195 0.08162011 0.016434478 0.07789314 -0.1938301 -0.14934255
0.013967371 -0.008507962 -0.09314544 -0.045711797 -0.13535357 0.105832264 -0.029445369 -0.060523473
-0.14567904 0.05034578 -0.059289508 -0.021118922 0.10812299 0.10000094 -0.062785305 0.12074797
-0.0049127266 -0.07827237 0.2127986 0.056409277 0.08378145 -0.056096885 -0.1210388 0.039202016
-0.031659074 -0.022482038 -0.13584778 0.19275108 0.15400055 0.18709968 0.013849702 -0.1274993
0.008343456 0.0073935357 0.066593155 0.008730227 0.082152925 0.15440199 0.013519064 0.06181111
0.088145524 -0.039389264 0.009106956 0.13058975 -0.009992814 -0.059410233 0.06598924 0.12406051
0.04684482 -0.016297774 0.022121022 -0.0064569907 0.07516502 0.01626464 0.10900903 -0.02081311
0.012304599 0.0134990765 -0.09209558 0.04328793 -0.09201311 0.09139561 0.08048547 0.078301
-0.12220169 0.04919357 0.01838086 0.09512883 0.16383943 0.09244735 0.020846331 -0.021512223
0.0833025 -0.07492845 -0.064856134 0.11799231 -0.007411043 0.08944755 -0.09004328 -0.09873053
0.017453318 -0.14721368 -0.009733386 0.124743044 -0.044418633 -0.14978318 0.19933653 0.098233536
-0.16357175 -0.03506783 -0.15507226 -0.032181215 0.04805641 -0.037665848 -0.13874559 0.040191397
-0.13590382 -0.00778858 -0.014323177 -0.05182024 -0.03723824 0.03197827 0.16659664 -0.08969913
-0.06964983 0.006724581 -0.035824735 0.07547246 -0.008484677 -0.115419276 0.0073456154 0.0498315
0.027101265 0.09798773 -0.069815636 0.049180113 0.26393807 0.008556854 0.115160644 0.18740672
-0.009696795 0.010864625 -0.1645711 -0.00930936 -0.0959239 0.045017313 0.073062405 -0.03409006
-0.04423078 0.13791044 0.004758968 -0.03391964 0.16605584 0.029672664 -0.038335156 -0.1759991
-0.03230357 -0.02111163 -0.0067179617 -0.1914368 -0.18778723 -0.040143438 -0.15886399 0.038642406
0.013543881 0.03721429 0.09369357 -0.13744166 -0.02842902 0.13185997 -0.025012895 0.081005864
0.016673561 0.08888731 0.08082625 0.10653505 -0.15400282 0.038241167 0.15294772 0.008904054
0.018792829 0.0844626 0.031228261 0.029200517 0.120528065 0.106635205 -0.00070372544 0.005818369
-0.024565354 -0.06744209 0.044117145 -0.047657225 0.049716596 -0.18980674 0.06722566 0.017680151
0.018145142 0.027772179 -0.009407838 0.046009928 0.033104867 -0.031744767 0.02528342 0.0019064649
0.10016193 0.20248279 -0.09215648 0.057056718 0.038390968 -0.20608927 0.056124944 -0.039799724
0.023828415 -0.0009324175 0.005282269 -0.0003723266 -0.0067393626 -0.09565167 -0.024131479 -0.01629697
-0.018258385 0.11001695 -0.20022386 -0.106712796 0.047678668 -0.023955913 0.044899262 -0.03487301
0.045016654 0.02245587 -0.018954081 0.07554492 0.058467478 -0.15389518 -0.03596711 -0.17701204
0.10198583 0.13782512 -0.014918452 -0.18868321 0.02322254 0.06727402 0.009879152 -0.11224245

network_body._body_endoder.seq_layers.2.bias f4 [128]
00000000: 0000 0000 0000 0000 0000 0000 0000 0000
00000010: 0000 0000 0000 0000 0000 0000 0000 0000
00000020: 0000 0000 0000 0000 0000 0000 0000 0000
00000030: 0000 0000 0000 0000 0000 0000 0000 0000
00000040: 0000 0000 0000 0000 0000 0000 0000 0000
00000050: 0000 0000 0000 0000 0000 0000 0000 0000
00000060: 0000 0000 0000 0000 0000 0000 0000 0000
00000070: 0000 0000 0000 0000 0000 0000 0000 0000
00000080: 0000 0000 0000 0000 0000 0000 0000 0000
00000090: 0000 0000 0000 0000 0000 0000 0000 0000
000000a0: 0000 0000 0000 0000 0000 0000 0000 0000
000000b0: 0000 0000 0000 0000 0000 0000 0000 0000
000000c0: 0000 0000 0000 0000 0000 0000 0000 0000
000000d0: 0000 0000 0000 0000 0000 0000 0000 0000
000000e0: 0000 0000 0000 0000 0000 0000 0000 0000
000000f0: 0000 0000 0000 0000 0000 0000 0000 0000
00000100: 0000 0000 0000 0000 0000 0000 0000 0000
00000110: 0000 0000 0000 0000 0000 0000 0000 0000
00000120: 0000 0000 0000 0000 0000 0000 0000 0000
00000130: 0000 0000 0000 0000 0000 0000 0000 0000
00000140: 0000 0000 0000 0000 0000 0000 0000 0000
00000150: 0000 0000 0000 0000 0000 0000 0000 0000
00000160: 0000 0000 0000 0000 0000 0000 0000 0000
00000170: 0000 0000 0000 0000 0000 0000 0000 0000
00000180: 0000 0000 0000 0000 0000 0000 0000 0000
00000190: 0000 0000 0000 0000 0000 0000 0000 0000
000001a0: 0000 0000 0000 0000 0000 0000 0000 0000
000001b0: 0000 0000 0000 0000 0000 0000 0000 0000
000001c0: 0000 0000 0000 0000 0000 0000 0000 0000
000001d0: 0000 0000 0000 0000 0000 0000 0000 0000
000001e0: 0000 0000 0000 0000 0000 0000 0000 0000
000001f0: 0000 0000 0000 0000 0000 0000 0000 0000
0.0 0.0 0.0 0.0 0.0 0.0 0.0 0.0
0.0 0.0 0.0 0.0 0.0 0.0 0.0 0.0
0.0 0.0 0.0 0.0 0.0 0.0 0.0 0.0
0.0 0.0 0.0 0.0 0.0 0.0 0.0 0.0
0.0 0.0 0.0 0.0 0.0 0.0 0.0 0.0
0.0 0.0 0.0 0.0 0.0 0.0 0.0 0.0
0.0 0.0 0.0 0.0 0.0 0.0 0.0 0.0
0.0 0.0 0.0 0.0 0.0 0.0 0.0 0.0
0.0 0.0 0.0 0.0 0.0 0.0 0.0 0.0
0.0 0.0 0.0 0.0 0.0 0.0 0.0 0.0
0.0 0.0 0.0 0.0 0.0 0.0 0.0 0.0
0.0 0.0 0.0 0.0 0.0 0.0 0.0 0.0
0.0 0.0 0.0 0.0 0.0 0.0 0.0 0.0
0.0 0.0 0.0 0.0 0.0 0.0 0.0 0.0
0.0 0.0 0.0 0.0 0.0 0.0 0.0 0.0
0.0 0.0 0.0 0.0 0.0 0.0 0.0 0.0

value_heads.value_heads.extrinsic.weight f4 [1, 128]
00000000: 853c 25be 124a 433e 25b8 583e 951d 903c
00000010: 4df6 32be 33d6 2bbe 2671 113c 0c10 413e
00000020: cb68 133e d463 45be 727d 903b 2a32 a6bd
00000030: 2ce8 77bd 66bc 53be aaf2 3dbe 5645 f2bd
00000040: 4660 dc3d 56c8 90bc 6965 cc3d 1b8a 253e
00000050: acba 15be c5ee 8f3d f045 0c3e df0b 35be
00000060: 7fe5 47be 303f 183c b1e7 d4bd 2c7b 8f3d
00000070: ce08 2dbe cc16 54be 917b 2f3c d7aa 54be
00000080: 12fb f43d 9e1f a0bd 8637 4f3d 95e8 fbbd
00000090: 2327 9ebd 07c7 29be 11c4 a2bd bf16 363e
000000a0: acce 8abc 2bcc 2a3d 3b48 953d 1dc2 c53d
000000b0: 12e5 413e b22a b5bd 4fed 0d3e 8c62 c1bd
000000c0: 9fd5 243e 8055 24bd 1bc9 8ebd ec82 493e
000000d0: 070d ccbd 514e 593e 2854 42be db1a e23c
000000e0: d8fc f53d 49dc 303c d9b4 10be 0c04 4ebe
000000f0: 9494 b03c d73c 98bc 9379 03bc 7cd4 cd3b
00000100: 0f3a 4cbd 1477 373d 56f8 98bc 846b 3ebe
00000110: f890 58bd cb57 99bd d8ed 57bd 497f c73d
00000120: 6de5 b03d 0682 1bbe 6741 22bd cc13 b7bd
00000130: cbe0 bfbc fff2 a2bd b503 aa3d d3d9 08be
00000140: e1cd 3d3b e3d1 7a3c 1a8f 20be 9f2e a5bd
00000150: cb7c 86bd 7a27 d33d d0c6 bebd 2ff7 72bd
00000160: 9a98 1c3e 5f14 d23d 5322 3c3e d0c2 353e
00000170: d3d2 76bd c3da 323e 1c24 eb3d e76e 193e
00000180: 87d4 053e d2d5 703d c9ac 46bc 2e2d cfbd
00000190: b9b5 14be 2003 163e 9d1b 04be 004b 2c3d
000001a0: 15af 8dbd 797e 30bd 3a84 093e 62f6 923d
000001b0: b80f 2bbe d878 8ebd 6df1 65bc 2854 83bd
000001c0: 456c 2d3e afb5 8abc 78c3 fbbd fb2d 5b3e
000001d0: d5ee de3d ae43 c53d 4f2e 61bd d643 b63c
000001e0: c36a 18be e3bc 25be ed9a 4f3e 15ed 18be
000001f0: 9973 81ba e1b1 283e 6515 cf3b ccb6 37be
-0.16136368 0.19071224 0.21163996 0.01759223 -0.17476769 -0.1678093 0.008877074 0.18853778
0.14395444 -0.19276363 0.0044094855 -0.08115037 -0.06052415 -0.20677337 -0.185496 -0.11829631
0.1076055 -0.017673653 0.0998028 0.16165964 -0.14621991 0.070279635 0.13698554 -0.1768031
-0.1952114 0.009292409 -0.10395754 0.07005915 -0.1689789 -0.20711821 0.010710613 -0.20768295
0.1196195 -0.078185305 0.05059006 -0.12300221 -0.077223085 -0.16579829 -0.07947553 0.17782114
-0.016944252 0.041698616 0.072891675 0.09656165 0.1893504 -0.08846034 0.13860057 -0.094426244
0.16097115 -0.0401206 -0.069719516 0.19678849 -0.09963422 0.21221282 -0.18977416 0.027600696
0.12011117 0.010794708 -0.14131488 -0.20118731 0.021555223 -0.018583698 -0.008024591 0.0062814336
-0.049860056 0.044791296 -0.018673103 -0.18595701 -0.052872628 -0.07487448 -0.05271706 0.097410746
0.086375095 -0.15186319 -0.039613154 -0.08939323 -0.02342262 -0.07956504 0.08301488 -0.13364343
0.0028961825 0.01530883 -0.15679589 -0.08065533 -0.06566771 0.10310264 -0.09315264 -0.059317764
0.15292588 0.10257792 0.18372469 0.17750096 -0.06025965 0.17466263 0.11481497 0.14983712
0.13069354 0.058797665 -0.012126156 -0.10116039 -0.14522447 0.1464963 -0.12901159 0.042063713
-0.0691816 -0.043089364 0.13429347 0.071759 -0.16705215 -0.06956643 -0.014034611 -0.06412536
0.16935833 -0.016932337 -0.12293142 0.21404259 0.10885397 0.096320495 -0.054975804 0.022249144
-0.14884476 -0.16185336 0.20273943 -0.1493419 -0.000987637 0.16474105 0.006319689 -0.17940825
