ML-Game/results/ppo/My Behavior/My Behavior-2337.onnx (onnx, 107404 bytes, 5 tensors)

network_body._body_endoder.seq_layers.0.weight f4 [128, 69]
000000 14 16 70 be e6 f9 e5 bd e3 2b 20 3e 09 f7 03 3d
       -0.23445922 -0.11229305 0.15641741 0.032218013
000010 45 b2 5f bc 7d 05 07 be 51 47 80 3d cb 0d 9a bd
       -0.013653343 -0.13185687 0.062636025 -0.07522162
000020 4d 8c e0 bd ee 15 7a bd fe ad 53 3e 7f 0d 2b 3e
       -0.1096426 -0.06105607 0.20671842 0.16704367
000030 5f b5 e3 3c 33 1a 90 bd b5 46 0c 3e a1 51 94 3d
       0.027796445 -0.07036247 0.13698848 0.07242132
000040 b1 ef 13 3d 84 9a 1a be 79 84 6b bd d9 56 dd 3d
       0.03611726 -0.15098006 -0.057499383 0.108075805
000050 3a 95 85 bd d4 78 63 bd de 6e ce 3d ed 7b 54 be
       -0.06522603 -0.055535153 0.1007974 -0.20750399
000060 43 f8 85 3d de b5 5c be 7c ee 0c 3e 74 9e 65 be
       0.06541493 -0.21553752 0.1376285 -0.22423726
000070 d7 d9 38 bd 1b 35 43 3d c4 65 e7 bd b8 11 87 bc
       -0.045129623 0.047658067 -0.11298707 -0.016487941
000080 6c 08 1f 3e a3 55 35 be e7 f4 1b 3d 28 51 fb bd
       0.15530556 -0.17708449 0.038075354 -0.12271339
000090 af 21 8f 3d 62 33 95 be 5b 53 d4 bd 1b 22 2d 3b
       0.069888465 -0.29140764 -0.10367461 0.0026418034
0000a0 fa d5 8e 3d e5 4f 00 3e 5b f8 13 3d 43 b2 1a be
       0.069744065 0.12530477 0.036125522 -0.15107064
0000b0 0f 1a 8f bd 5a 11 30 3e 87 f3 cb 3d 0c 6a fa bd
       -0.06987392 0.17194119 0.099585585 -0.12227258
0000c0 34 69 0a 3e 65 98 54 be e7 32 79 3d fe 44 82 3e
       0.13516694 -0.20761259 0.06083956 0.25443262
0000d0 8c 5a 17 bd a2 43 84 bd 41 7c 5c 3e 13 1a 72 bd
       -0.036951587 -0.064582124 0.21531774 -0.059106898
0000e0 f3 37 24 be 14 19 d4 3c 7a ca 21 3e 05 3d 9a bd
       -0.16036968 0.025890864 0.15799895 -0.0753117
0000f0 f2 7f b9 3d 4f 78 95 bc a8 cf 8e bd 04 ca 8a 3d
       0.09057607 -0.018245844 -0.06973201 0.06776813
000100 c5 dd 87 bd 27 b3 a4 bd be c5 9d 3d ce 6f 9f bd
       -0.06634096 -0.08041983 0.07703732 -0.07784997
000110 34 25 e1 bd fb bc c8 3e 83 ac e1 ba 28 1c c2 bd
       -0.10993424 0.3920668 -0.001721755 -0.09478027
000120 a1 c3 c7 3d b3 37 ef 3b 12 36 e4 bd fb 5a 90 be
       0.0975411 0.007300341 -0.111431256 -0.28194413
000130 79 cb 59 bb 1c bd 18 bd 95 b0 4d ba c9 8c 0a 3e
       -0.0033232851 -0.037289724 -0.0007846442 0.13530268
000140 f1 8d 3e 3e a0 07 ce 3c 1d ac bf bd 1e 94 ba 3d
       0.18608834 0.02515012 -0.09359 0.09110282
000150 4f c6 b0 bc bc a9 c7 3d 5a 15 bd bd 36 1f 94 3d
       -0.021578936 0.09749171 -0.09232588 0.072325155
000160 4f ef 05 3e 60 d8 9f bc dd 37 0d 3d cf 24 39 be
       0.1307957 -0.019512355 0.034477104 -0.18080448
000170 f7 04 2d 3d 2f 7d c2 3d 59 19 56 3e 0d a7 38 be
       0.042241063 0.09496533 0.20908107 -0.18032475
000180 60 8c 29 3d 5f 26 8c bd 10 eb f8 3d c8 83 4b be
       0.041393638 -0.06843256 0.121542096 -0.1987449
000190 89 8f 14 3e 4e eb 04 3e 21 b6 8d 3c 6a 5a e8 3c
       0.1450788 0.12980387 0.01729876 0.028363425
0001a0 45 a6 b4 bd b7 7d 78 3d 93 e6 bf 3d e3 af 14 3d
       -0.08820776 0.060666766 0.093701504 0.03630055
0001b0 24 66 c1 bc 82 ef f8 3d 3e ad f7 3d f4 55 6d 3e
       -0.023608275 0.121550575 0.1209359 0.2317732
0001c0 32 4a 84 3d b0 44 8d bc a3 d6 74 bd 87 86 55 be
       0.06459464 -0.017244667 -0.059775006 -0.208521
0001d0 1c f3 63 3d 11 99 16 3e a5 a1 ff 3d ed 08 a0 3d
       0.05565177 0.14706828 0.12482003 0.078142025
0001e0 7a 2c 5f bc e7 e4 d7 bd b5 38 ed 3d 9f 09 e4 3c
       -0.013621444 -0.105417065 0.11583082 0.027836619
0001f0 c4 76 13 bd 71 ac 82 be 4a b5 a3 3d 41 e0 25 be
       -0.036001936 -0.25522187 0.079935625 -0.16198827
000200 de 32 01 bc d3 aa c3 3b 5f bb 46 3d e5 a7 05 3e
       -0.007885663 0.0059712916 0.048518535 0.13052328
000210 ce ef e6 ba f2 e4 37 3e 0b 4e d9 bd 42 4e d0 3b
       -0.0017619075 0.1795843 -0.10610589 0.0063569853
000220 8a 4b 1a bd a2 19 66 ba 4d 6f 1e 3d 21 b4 95 bd
       -0.037669696 -0.00087776233 0.038680363 -0.073097475
000230 9e 22 e7 bd fa 8a 70 bd d7 67 ff 3c e8 fe 36 bd
       -0.112858996 -0.05872629 0.031177444 -0.04467669
000240 5c 96 c8 3d 0f eb de 3d 7b 2b 8f 3d cf 4b cd bd
       0.09794304 0.108846776 0.06990715 -0.10024225
000250 9e f0 b4 bc 15 4f 0c bd 8b a9 be 3c eb c2 ee bd
       -0.022087391 -0.034255106 0.023274204 -0.116582714
000260 cb 37 2f be f0 a1 29 be ed 58 ff 3d c0 2a 39 bd
       -0.17111127 -0.1656568 0.12468133 -0.045206785
000270 b4 fc ff 3c ca 72 22 3e 4e 90 0c be c3 9f 82 3e
       0.031248428 0.15864101 -0.13726923 0.25512514
000280 1a 7d db 3d bf f8 2d bc bf ea e0 3d e8 ba 54 bd
       0.107172206 -0.010618388 0.10982274 -0.05193606
000290 b0 05 a3 3b 2e 8f 33 be 50 13 57 3c 26 00 69 bd
       0.0049750432 -0.17535087 0.013127163 -0.056884907
0002a0 41 8e 84 bd 82 08 15 3e 53 0f 8b bd e4 5b a7 3d
       -0.06472445 0.14554027 -0.06790032 0.081718236
0002b0 65 b6 2e be b4 de 1d 3d f3 93 ea bd 03 b6 f0 3d
       -0.17061765 0.038542464 -0.11454 0.11753466
0002c0 29 8b 5f 3e ef 81 89 bd 8a 89 27 3d b2 c0 0f 3e
       0.21830429 -0.06714236 0.04090265 0.14038351
0002d0 21 ed 47 be fc 39 b2 bc a4 e8 1e bd 08 97 09 be
       -0.19524051 -0.021756165 -0.038796082 -0.1343652
0002e0 0d d4 08 bd f4 30 c1 3d 93 9d d7 bd 02 8b 50 3e
       -0.033405352 0.09433165 -0.10528102 0.20365527
0002f0 9b 6b 87 bd 53 a3 90 3d a2 df 31 bd f8 8c 27 bd
       -0.06612321 0.070624016 -0.043426163 -0.040905923
000300 be 33 27 bd 61 66 0d bd 1d f0 ec 3d e3 e3 54 3c
       -0.04082083 -0.034521464 0.115692355 0.012993786
000310 06 06 43 bd f3 07 ab bd 08 51 f2 bc ec e0 09 3e
       -0.047613166 -0.083511256 -0.029579654 0.13464707
000320 3b b2 5e 3c d7 2f d1 3c 32 90 49 bd 5e d2 8e bd
       0.013592298 0.025535507 -0.04920978 -0.06973718
000330 1f c3 68 3c ec 82 1b 3e c5 92 4e be 5c d0 aa 3d
       0.014206677 0.15186661 -0.20173176 0.08340523
000340 c0 ac 8b 3d 99 a6 da 3d 25 6f 4d bd 6a 1e 4b be
       0.06820059 0.10676307 -0.050154824 -0.19835821
000350 02 01 6a be 4f 9e aa 3d 0b a2 8a 3d 28 30 82 bd
       -0.22851947 0.08330976 0.067691885 -0.06356841
000360 1e 83 3d 3e d0 5a ce 3c 87 ba eb bd 36 ba 96 bd
       0.18507048 0.025189787 -0.11510187 -0.07359736
000370 3d 77 12 3e 9b 96 16 3e e7 93 55 3d 9c ed 89 bd
       0.14303298 0.14705889 0.052143004 -0.067347735
000380 1d 13 81 be b6 41 77 3d 61 2d dd bd 04 1a df 3d
       -0.25209895 0.0603654 -0.10799671 0.10893634
000390 c2 5f 60 3d 9f e5 3b be 79 d4 da bd 74 c5 57 bb
       0.05477882 -0.18349312 -0.10685057 -0.0032924088
0003a0 a5 5c 40 3e 79 9d 08 be 29 55 31 3e 99 4b 65 bd
       0.18785341 -0.13341321 0.17317642 -0.0559803
0003b0 3a b9 f5 bd b9 e0 1c be be c6 34 3e 38 de 66 be
       -0.1199822 -0.153201 0.17653939 -0.22545707
0003c0 04 23 7e bc 78 1b 33 bd 29 df fa 3d de 24 9b bd
       -0.015511278 -0.043727368 0.12249596 -0.07575391
0003d0 a8 17 59 bd 5b b0 60 bd 1a 2f 60 bc ec 25 0d bd
       -0.053001076 -0.054855686 -0.013683105 -0.034459993
0003e0 bd 32 7b be 0d df a1 3d 56 0b 9b bb 2d c0 4d 3d
       -0.24531074 0.07903872 -0.004731576 0.0502321
0003f0 3c ca b7 bd 2a 4a 12 3e eb fd bc 3d d9 4b 00 bd
       -0.0897412 0.14286104 0.092281185 -0.031322334

network_body._body_endoder.seq_layers.0.bias f4 [128]
000000 00 00 00 00 00 00 00 00 00 00 00 00 00 00 00 00
       0.0 0.0 0.0 0.0
000010 00 00 00 00 00 00 00 00 00 00 00 00 00 00 00 00
       0.0 0.0 0.0 0.0
000020 00 00 00 00 00 00 00 00 00 00 00 00 00 00 00 00
       0.0 0.0 0.0 0.0
000030 00 00 00 00 00 00 00 00 00 00 00 00 00 00 00 00
       0.0 0.0 0.0 0.0
000040 00 00 00 00 00 00 00 00 00 00 00 00 00 00 00 00
       0.0 0.0 0.0 0.0
000050 00 00 00 00 00 00 00 00 00 00 00 00 00 00 00 00
       0.0 0.0 0.0 0.0
000060 00 00 00 00 00 00 00 00 00 00 00 00 00 00 00 00
       0.0 0.0 0.0 0.0
000070 00 00 00 00 00 00 00 00 00 00 00 00 00 00 00 00
       0.0 0.0 0.0 0.0
000080 00 00 00 00 00 00 00 00 00 00 00 00 00 00 00 00
       0.0 0.0 0.0 0.0
000090 00 00 00 00 00 00 00 00 00 00 00 00 00 00 00 00
       0.0 0.0 0.0 0.0
0000a0 00 00 00 00 00 00 00 00 00 00 00 00 00 00 00 00
       0.0 0.0 0.0 0.0
0000b0 00 00 00 00 00 00 00 00 00 00 00 00 00 00 00 00
       0.0 0.0 0.0 0.0
0000c0 00 00 00 00 00 00 00 00 00 00 00 00 00 00 00 00
       0.0 0.0 0.0 0.0
0000d0 00 00 00 00 00 00 00 00 00 00 00 00 00 00 00 00
       0.0 0.0 0.0 0.0
0000e0 00 00 00 00 00 00 00 00 00 00 00 00 00 00 00 00
       0.0 0.0 0.0 0.0
0000f0 00 00 00 00 00 00 00 00 00 00 00 00 00 00 00 00
       0.0 0.0 0.0 0.0
000100 00 00 00 00 00 00 00 00 00 00 00 00 00 00 00 00
       0.0 0.0 0.0 0.0
000110 00 00 00 00 00 00 00 00 00 00 00 00 00 00 00 00
       0.0 0.0 0.0 0.0
000120 00 00 00 00 00 00 00 00 00 00 00 00 00 00 00 00
       0.0 0.0 0.0 0.0
000130 00 00 00 00 00 00 00 00 00 00 00 00 00 00 00 00
       0.0 0.0 0.0 0.0
000140 00 00 00 00 00 00 00 00 00 00 00 00 00 00 00 00
       0.0 0.0 0.0 0.0
000150 00 00 00 00 00 00 00 00 00 00 00 00 00 00 00 00
       0.0 0.0 0.0 0.0
000160 00 00 00 00 00 00 00 00 00 00 00 00 00 00 00 00
       0.0 0.0 0.0 0.0
000170 00 00 00 00 00 00 00 00 00 00 00 00 00 00 00 00
       0.0 0.0 0.0 0.0
000180 00 00 00 00 00 00 00 00 00 00 00 00 00 00 00 00
       0.0 0.0 0.0 0.0
000190 00 00 00 00 00 00 00 00 00 00 00 00 00 00 00 00
       0.0 0.0 0.0 0.0
0001a0 00 00 00 00 00 00 00 00 00 00 00 00 00 00 00 00
       0.0 0.0 0.0 0.0
0001b0 00 00 00 00 00 00 00 00 00 00 00 00 00 00 00 00
       0.0 0.0 0.0 0.0
0001c0 00 00 00 00 00 00 00 00 00 00 00 00 00 00 00 00
       0.0 0.0 0.0 0.0
0001d0 00 00 00 00 00 00 00 00 00 00 00 00 00 00 00 00
       0.0 0.0 0.0 0.0
0001e0 00 00 00 00 00 00 00 00 00 00 00 00 00 00 00 00
       0.0 0.0 0.0 0.0
0001f0 00 00 00 00 00 00 00 00 00 00 00 00 00 00 00 00
       0.0 0.0 0.0 0.0

network_body._body_endoder.seq_layers.2.weight f4 [128, 128]
000000 29 33 13 bd 2a 2f 73 bc c0 05 03 be 7f cf 4d 3c
       -0.035937462 -0.014842788 -0.12795162 0.012561678
000010 f6 1d 53 3d 6a bc 26 3d 78 cf 74 bd eb 9f b7 bd
       0.051542245 0.04070703 -0.05976817 -0.08966049
000020 5b 27 a4 bd 27 91 57 3d b1 92 87 bd 82 1a 90 3d
       -0.08015319 0.052628662 -0.06619776 0.07036306
000030 3a 3a 90 3c 4f 39 4f bd ab 1d 55 bc 89 f3 a0 3c
       0.01760589 -0.050591763 -0.013007562 0.019647377
000040 20 39 84 bd 33 7a d4 3d 4d a8 9a 3d 44 7b 2b b7
       -0.06456208 0.1037487 0.07551632 -1.0221094e-05
000050 fb 74 ad 3c fb 9d e3 bd b2 ec 3e bd 64 49 b9 3d
       0.021173945 -0.11114117 -0.04661245 0.09047201
000060 38 18 a7 3c 8a d8 05 3e 9c 88 cf 3c 23 1d be bb
       0.02039729 0.13070884 0.025333695 -0.005801813
000070 e0 ca b6 3c 47 c8 fa 3c 89 07 c7 bd 7c 56 05 3d
       0.022313535 0.030613078 -0.09718234 0.03255318
000080 2b 26 b6 3b 69 e1 23 bd 7f 1c a8 3d 25 07 4e 3d
       0.005558749 -0.04000989 0.0820856 0.050299782
000090 28 80 94 3d 1b 04 06 bd a2 da 86 3c 5d 0b 87 bd
       0.07251006 -0.03271876 0.016461674 -0.06593964
0000a0 ff b7 c4 3d 1f 25 4a bb 24 14 43 bc d3 47 92 bd
       0.09605407 -0.003084488 -0.011906657 -0.07142606
0000b0 df 76 58 bd 95 b0 b5 3d f6 63 db bc 62 25 25 bd
       -0.05284774 0.08871571 -0.026781064 -0.040318854
0000c0 10 40 c6 bc 47 c1 09 3d 9b 45 81 3d 42 b2 1e 3c
       -0.02420047 0.03363159 0.06312104 0.009686055
0000d0 35 10 c4 bd 82 17 80 bd fc 30 d3 bd f9 f9 ad bd
       -0.09573404 -0.06254484 -0.103120774 -0.08494944
0000e0 5d e3 9b bb 8d 4a bb bc fc 7e 12 3e 2e f9 51 3d
       -0.0047573284 -0.022862697 0.14306253 0.051263027
0000f0 b2 0c e0 3b 0b a2 91 bd c8 70 9d 3d 01 d1 d7 3d
       0.006837451 -0.07110985 0.07687527 0.10537911
000100 2b fe e6 3d 85 52 6e 3d 52 c9 f2 3c 8c 1a 34 3d
       0.112789474 0.058184166 0.029637013 0.04397063
000110 cf 79 c3 bc 36 0f a6 bd d2 f3 b7 bd 07 99 89 3d
       -0.023861794 -0.0810837 -0.08982052 0.06718641
000120 08 d3 13 3e 85 50 fb bd ae 8a 98 bd 76 ee 29 be
       0.14435971 -0.12271217 -0.07448326 -0.16594872
000130 75 89 26 3e c6 2d 5f 3c 39 7a 23 3c 6a 55 32 3d
       0.16263373 0.013621753 0.009977871 0.04353849
000140 19 c9 c0 3c 84 b6 6e bd c8 54 0b 3e 18 0a 88 3d
       0.02353339 -0.05827953 0.1360656 0.0664255
000150 0a 76 0f be 1b 7d a8 bd d4 8e 95 bd 0f 7b a7 bd
       -0.14009872 -0.08226987 -0.07302633 -0.081777684
000160 56 15 4b bd b8 4f 69 3d d5 61 ab 3c 60 86 05 bd
       -0.049580894 0.05696079 0.020920673 -0.032598853
000170 91 04 a3 3d 7d 5a 4c be 66 90 9e bb 0e 81 26 3d
       0.07959855 -0.19956394 -0.004838991 0.04065042
000180 b2 b7 3e be b5 3e e0 bd fe d4 54 3d b1 55 c9 bd
       -0.18624762 -0.109494604 0.051960938 -0.098307975
000190 79 07 c1 bd 84 49 61 3d b2 e7 d1 3d b4 3e 05 3e
       -0.094252534 0.05500175 0.102492705 0.130122
0001a0 12 31 10 bd 67 30 c8 bd 11 e6 1d be 99 89 de 3d
       -0.035203047 -0.09774857 -0.15419795 0.108660884
0001b0 8e aa fb bd e5 6e e6 3c 7f 7a 8b 3d 62 dd 0d 3d
       -0.1228839 0.02812905 0.06810474 0.034634955
0001c0 6a d9 80 bd 17 21 27 3e 32 a5 3e bd d6 a9 56 3d
       -0.062914684 0.16321217 -0.04654426 0.052408062
0001d0 ff 82 b6 3c 13 cb c3 bd bb 31 60 bc e0 4e 0d bc
       0.02227926 -0.09560218 -0.013683732 -0.008624762
0001e0 cb 3c 02 3e 85 2f 3d bd 2e d0 33 3e 7e f3 07 3e
       0.12718503 -0.046187896 0.17559883 0.13276479
0001f0 0a 79 8f bd 4e 7d 04 3e 7a 0d db bc 55 ec 03 3e
       -0.07005508 0.12938425 -0.026739825 0.12883122
000200 25 50 5d bd f6 66 2b 3d 33 fc 1b bd 30 a7 dc 3c
       -0.05403151 0.041846238 -0.038082313 0.02693519
000210 05 33 b0 3d 77 80 5a 3b 97 21 07 3e c4 36 48 3c
       0.08603481 0.0033340731 0.13196407 0.012220088
000220 2f 36 7a bd 5b 2b b7 3c 7c 9c 25 bc bb 5d a4 3d
       -0.06108683 0.02235954 -0.01010811 0.0802569
000230 8b c5 00 be a6 a1 30 3d 11 93 20 be 8f 5c 08 3d
       -0.12575357 0.04312291 -0.15681101 0.033291396
000240 f1 b0 1a 3d fc 81 c7 3c 74 1a 34 be 45 e7 2d bd
       0.0377664 0.024353974 -0.17588216 -0.042456884
000250 fa f5 32 be ec bb 8f bd 09 b1 ac bc 4e 2e ac bd
       -0.17476645 -0.07018265 -0.02108051 -0.084072694
000260 a3 c3 27 3d 77 8e 5b 3d 12 96 2c 3e 5c b5 e4 bc
       0.040958058 0.053602662 0.16854122 -0.02791851
000270 1a d5 af bd 46 75 57 3d 49 53 61 3d 03 28 03 be
       -0.08585568 0.052602075 0.055011068 -0.12808232
000280 62 6d 98 bd 34 61 fe bc 3a ab 54 3d 19 27 11 be
       -0.07442738 -0.03105221 0.051921107 -0.14175071
000290 73 18 75 3b 41 6f 0c bd e8 dc 1c 3d 36 21 98 3d
       0.0037398606 -0.034285787 0.03829661 0.074282095
0002a0 8d 14 9b bd dd 12 08 3e 0a 48 fe 3c 40 57 c6 bd
       -0.07572279 0.13288446 0.03104021 -0.0968461
0002b0 38 d8 c6 3d 7c af d0 bd ad 75 dd bd f4 2e d2 3d
       0.09709209 -0.10189721 -0.108134605 0.10262862
0002c0 df 09 c3 bd b8 92 c4 3b 50 1f 97 bd f3 c5 d3 3d
       -0.09523367 0.0059989356 -0.07379019 0.1034049
0002d0 3f 3e 8a 3c f0 a2 89 3d b6 08 95 3c d0 76 8d 3c
       0.016875384 0.06720531 0.01819263 0.017268568
0002e0 a7 32 b4 3c 34 e1 17 bd fc 30 e7 3d 8d 87 38 bc
       0.02199681 -0.037080005 0.1128864 -0.011262787
0002f0 c8 7d 45 3d 54 a4 41 bc ab c1 11 be 99 4f a2 bd
       0.048215657 -0.011818964 -0.14234035 -0.07925338
000300 41 8f 6f bd c2 85 10 be b4 12 29 bd 3a 6f 69 3d
       -0.058486227 -0.14113525 -0.041277602 0.05699084
000310 ad bd 14 3e ef 4e d8 bd 11 d6 c9 bd 77 24 00 3e
       0.1452548 -0.105619304 -0.09855283 0.1251391
000320 bf dc e1 3c 8e 46 aa 3d 28 0f c9 3d b2 93 04 3e
       0.02757108 0.083142385 0.09817344 0.12946966
000330 87 dd 98 bd 0e 19 02 be 04 ff 19 bd 8e f3 0f be
       -0.07464128 -0.1270487 -0.037596717 -0.14057752
000340 4d b9 4d 3c 0f 15 03 3e 6a 76 64 bc 9c 4b b7 bd
       0.012556386 0.12801002 -0.013944248 -0.08949968
000350 6b 65 f1 bc e7 11 a0 bd 98 9d 65 bd 97 85 ed bc
       -0.029467305 -0.078159146 -0.056058496 -0.028994365
000360 03 c6 b1 3d 58 06 ff 3c c3 1d 3c be 61 3e 85 bd
       0.08680346 0.031130955 -0.18370728 -0.065060385
000370 82 4c a6 3d 05 4f ce 3d 47 f9 83 bd bb c6 83 bd
       0.081200615 0.100736655 -0.0644403 -0.06434389
000380 12 18 17 3e cc a2 fc 3d 2f 45 b2 bd c6 70 61 3d
       0.14755276 0.123357385 -0.08704602 0.05503919
000390 73 22 0a be 46 8f 0e 3e bc fc b2 bd 19 6d 9f bd
       -0.13489704 0.13921842 -0.087396115 -0.077844806
0003a0 40 cf a6 bd 7b e5 cd 3b 98 f2 f2 bb 09 41 aa bc
       -0.081449986 0.0062834597 -0.0074141733 -0.020782964
0003b0 2d fa 0e bd f8 76 9b 3c a7 2c 1b 3d 61 7e df bd
       -0.034906555 0.018977627 0.03788438 -0.10912777
0003c0 8c 47 e5 3d 2f 0a ba 3c 5b f2 6e bc 92 00 b6 bc
       0.11195287 0.022709934 -0.014584149 -0.022217069
0003d0 7f 7c 9e bd 16 da ea bd 89 51 87 3d d7 20 ea bc
       -0.077385895 -0.11467378 0.066073485 -0.028580112
0003e0 c5 2e 98 bd 47 e0 f1 3d 8a ec 49 bc cf 59 cb 3d
       -0.074307956 0.11810356 -0.012324462 0.09929239
0003f0 2d f9 49 be 07 d8 cf 3d 84 ca 4b 3d 94 19 a9 3d
       -0.1972396 0.10148626 0.04975368 0.08256832

action_model._discrete_distribution.branches.0.weight f4 [2, 128]
000000 c9 b0 17 3c 92 80 36 bc 1d 2d 16 3c 56 69 83 bb
       0.009258457 -0.011139052 0.009166029 -0.0040103598
000010 c9 e0 36 bb b7 d8 fd 3b 22 b4 eb 3b 62 72 59 b8
       -0.0027904978 0.0077467817 0.0071931044 -5.184336e-05
000020 eb da 46 3c ac 63 b5 3a 8d 4f 4f 3b 41 b5 35 bb
       0.012137155 0.0013838909 0.003163311 -0.0027726444
000030 62 e0 69 3c 62 a9 63 3c 8d 42 40 39 8a 7c 0e 3c
       0.014274688 0.0138953645 0.00018335339 0.008696685
000040 7d 8f d4 bc 8b 95 7d 3b 33 87 f9 bb a7 1a 86 bb
       -0.025947327 0.003869387 -0.007614994 -0.0040925327
000050 aa 63 16 3c 7b 48 c5 bb ea bf 1b bc ed ec 10 bb
       0.009179035 -0.0060206032 -0.009506205 -0.0022113875
000060 23 70 9b 3a 27 7a e3 3b 5b 88 9b 3c 2f cd de bb
       0.0011858981 0.006942052 0.018985918 -0.006799362
000070 44 ae c9 3b 2a 77 63 3b 79 64 c8 3c ef 55 20 3c
       0.0061548073 0.0034708478 0.024461972 0.009786113
000080 8a 9e 34 3b 2b 7e 93 3c 34 74 a2 bc 1b 06 be bb
       0.0027560317 0.018004498 -0.0198308 -0.0057990677
000090 8c 41 98 3a a3 3c c9 3b 38 cc 9d 39 4c f9 a6 3b
       0.0011616214 0.0061412617 0.00030097528 0.0050956365
0000a0 f7 da b3 3b df 04 41 bc 7f 86 9d bc bb 14 78 3a
       0.005488749 -0.0117809465 -0.019229172 0.00094635383
0000b0 7b dd 44 3c 1b 42 45 bb 73 11 eb b9 63 5d 35 bb
       0.012015696 -0.0030099216 -0.00044835694 -0.002767407
0000c0 17 33 83 3c 7a 26 5d bc f7 78 3f bb dd 4b d2 bb
       0.016015572 -0.013497943 -0.0029216388 -0.006417735
0000d0 d3 87 b6 bb fb 5b 1d 3c 22 e5 bb 3b ab 7e 70 bc
       -0.0055703907 0.009604449 0.005734102 -0.0146786375
0000e0 64 7d a8 3b f2 d2 33 3c b2 f2 93 ba 86 70 22 3c
       0.005141901 0.010975586 -0.0011287539 0.009914523
0000f0 0f 95 0e bc 32 87 26 bb 53 75 40 ba de 52 1c bc
       -0.0087025305 -0.0025410173 -0.00073417014 -0.009541241
000100 93 24 8d 3b 13 de e7 b9 c3 c3 ae 3b 90 22 dc 3b
       0.0043073385 -0.00044225212 0.005333395 0.0067179874
000110 b4 7e 20 3c d7 00 fe 3b aa 07 b4 bb 69 cd 2f 3b
       0.009795833 0.007751565 -0.0054940777 0.0026825315
000120 35 fa 75 3a b3 b0 d9 bb d3 50 9c 3c b5 96 2a bc
       0.0009383292 -0.0066433786 0.019081509 -0.010411908
000130 e3 5b 6d bc d0 7d e8 3a d0 1f b8 bb 7e 15 05 3c
       -0.0144872395 0.001773769 -0.0056190267 0.0081228
000140 fb 63 99 bb 0f 9b 50 bb 0b c7 66 3a 5b ca 2e 3c
       -0.004681108 -0.0031830703 0.00088034634 0.0106683625
000150 4e da 03 bc 65 39 51 3b 8d 2b 12 bc 24 14 37 bc
       -0.008047653 0.003192508 -0.008921516 -0.0111742355
000160 7f 7a a0 3b 99 99 30 3c 56 29 05 3c 6d 18 ed b9
       0.004897415 0.010778808 0.008127531 -0.0004522236
000170 2f f8 80 bb 42 e7 ae bb fb a6 41 bc b0 f0 a6 3b
       -0.003935836 -0.0053376267 -0.011819596 0.00509461
000180 7a f4 a4 bb d8 72 f1 bb 4b 8c 04 3a 55 f3 18 bc
       -0.0050340267 -0.007368427 0.00050563057 -0.009335359
000190 d3 d6 7f ba e2 be 40 bb 27 73 76 3c 3b 31 58 bc
       -0.00097594893 -0.002941065 0.015042103 -0.013195331
0001a0 bf da 04 3c 7b 52 0b 3c 1d ff 60 3c 25 48 08 3c
       0.008108794 0.008503552 0.013732699 0.008317982
0001b0 cf ca 06 bc 9b cd 52 bb 93 9a 23 3b ff 6d c9 bb
       -0.008227064 -0.0032166007 0.002496396 -0.0061471458
0001c0 1d c4 1e 3c a3 5b cf 3a d3 f5 07 3c a8 99 54 bc
       0.009690312 0.0015820157 0.008298355 -0.012976088
0001d0 6d 96 2c 3c e3 3f a8 3b 83 d6 83 bb 86 af 8a 3b
       0.010533911 0.005134569 -0.0040233745 0.00423235
0001e0 79 73 ac 3b 43 a9 2b bc 3d 2b 53 ba e2 13 9c bb
       0.005262789 -0.010477367 -0.0008055454 -0.0047631124
0001f0 02 58 32 3b f8 ff ea 39 75 be dc 3b ab 64 ed 3b
       0.0027213101 0.0004482267 0.0067365714 0.0072446666
000200 c3 c7 6e 3c e7 f5 a1 3b 44 b8 90 bc 8e dc 81 3b
       0.014573994 0.004942644 -0.01766599 0.0039630597
000210 5d 52 c0 3b 52 ab 86 bc f0 72 77 3c d6 9c 08 3b
       0.0058691935 -0.016439114 0.015103087 0.0020845435
000220 14 fc 10 3c 30 3a 91 3c 73 01 cc 3b a2 1b 80 3c
       0.008849163 0.017727941 0.0062257587 0.015638176
000230 aa 94 c0 3a 7b a5 c3 bb b8 7f 3c bc 44 1f 15 3c
       0.0014692743 -0.0059706545 -0.01150506 0.009101693
000240 87 81 5c 3c 73 fc 36 bc 3a 46 02 3c 23 53 39 bc
       0.013458616 -0.011168587 0.007951314 -0.011311325
000250 df c6 06 bb 6b b6 a9 3b 17 b2 fc bb f0 60 d4 ba
       -0.0020565314 0.0051792166 -0.0077116597 -0.0016203206
000260 b7 de 24 3b 28 b4 c2 bb da b2 de bb 62 3a c3 3b
       0.0025157162 -0.0059418865 -0.006796223 0.0059578875
000270 8e de 82 39 92 80 03 3b b0 c3 d6 bc a7 3a 02 3c
       0.00024961348 0.0020065648 -0.026216358 0.007948554
000280 1f ad 1d bc a7 87 8e bb 12 60 76 bb 03 55 fc 3a
       -0.009623795 -0.004349667 -0.0037593883 0.001925141
000290 c3 6c e0 3a 5b f4 91 3b f7 98 75 ba ff 7a 00 3c
       0.0017122257 0.0044541783 -0.0009368802 0.007841825
0002a0 4f 57 dc bb 8b 64 20 3a f7 60 2a bc 43 a6 1b 3b
       -0.006724275 0.00061184977 -0.010399095 0.0023750223
0002b0 15 5c c6 bc 63 99 83 bb cb e6 1b bc fd 9f 09 3c
       -0.02421383 -0.004016088 -0.009515475 0.008399961
0002c0 ed 8f 6f bc 8f e5 14 bb 48 00 71 3a d8 03 eb 3a
       -0.014621717 -0.0022719835 0.00091934623 0.0017930223
0002d0 0d 88 0c bb 18 82 30 3c fd 83 8e bb fb 78 fd bb
       -0.0021443397 0.010773204 -0.0043492303 -0.0077353693
0002e0 3b be 95 3c 15 c9 fd ba c1 c2 28 3c 8b 59 ac bc
       0.018279186 -0.0019362295 0.010300339 -0.021038791
0002f0 fd ca 0a bc a9 14 4b bb 43 6d 9c bb db df 85 3c
       -0.008471248 -0.0030987656 -0.004773767 0.016342094
000300 1f d2 4f 3c dc c6 1b 3b 7b 7a 55 bb 3a b1 87 3c
       0.012684374 0.0023769652 -0.0032574225 0.016564
000310 00 23 05 bc d3 7c 63 3c 2b 79 00 3c c9 2d 0f 3c
       -0.00812602 0.013884741 0.007841389 0.008738943
000320 d8 75 f2 3b 23 32 70 ba 4f 7d 2c 3b 5c 40 11 3a
       0.007399302 -0.00091627444 0.0026319807 0.00055409013
000330 39 d4 8c 39 2d d1 cd 3b 6f 94 29 bc 7c 65 49 bc
       0.00026861 0.006281039 -0.010350331 -0.012292262
000340 a7 68 e7 bb 55 18 8b 3c c6 f6 89 3b 96 e1 8e bc
       -0.007062036 0.016979376 0.004210326 -0.017441552
000350 5a 55 d9 3b 3c 36 be b9 27 92 d6 3b 1f ed ec ba
       0.006632489 -0.00036280032 0.0065481844 -0.0018076039
000360 5b 00 1f bb 42 7b f3 3b 8f 34 05 3b 75 37 8c bc
       -0.0024261686 0.007430465 0.0020325517 -0.017116288
000370 33 79 91 bb 52 70 41 bc af 23 16 3c 33 58 3a 3b
       -0.004439497 -0.011806564 0.009163781 0.0028433918
000380 fd 7a 4e ba 15 89 26 3c 33 a7 54 39 c1 12 1f 3c
       -0.0007876603 0.010164519 0.00020280182 0.009709061
000390 1f 8c 6c 3c 57 dc 07 bc 4f e0 07 3a fb ba 79 ba
       0.014437704 -0.008292279 0.0005183266 -0.00095264585
0003a0 5b c6 5c bc cd 9c b4 3a 8b 5c 9e bb d0 04 ed ba
       -0.013475026 0.001377964 -0.0048328093 -0.0018083099
0003b0 2a a9 f0 3b 4b c8 98 3c c8 3f e2 bb 10 66 da bb
       0.0073443847 0.018650195 -0.006904576 -0.006664999
0003c0 45 6d ee 3b 3c 70 92 bb 9a 83 82 3c ff 83 4b 3b
       0.0072762095 -0.004468946 0.015931893 0.0031054018
0003d0 88 61 0c bc ae cf 88 3b 2b b3 67 3c 77 f2 5c bb
       -0.008568175 0.004175148 0.014141838 -0.0033713856
0003e0 b7 5c 43 bc d9 59 80 bc 82 8c 0c bc d2 e9 66 3c
       -0.01192396 -0.015667843 -0.008578422 0.014093833
0003f0 93 83 d6 3b 13 16 13 bc f7 68 87 39 f0 88 4f bb
       0.0065464466 -0.008977431 0.0002582741 -0.0031667314

action_model._discrete_distribution.branches.0.bias f4 [2]
000000 00 00 00 00 00 00 00 00
       0.0 0.0
