ML-Game/results/ppo/My Behavior/My Behavior-1283.pt (torch, 268969 bytes, 11 tensors)

network_body._body_endoder.seq_layers.0.weight f4 [128, 123]
00000000: 506c cabd 9fb6 9c3c 2879 14bc 8062 623d
00000010: beed 97bc 8c73 a73c fe5b b83c b8ee 913d
00000020: 4167 9a3c f4a9 2abc 676b 0e3d cb74 5bbd
00000030: 0c26 463d dcfb a4bc d4db 93bd d3cb a4bd
00000040: b6e1 863b db96 0e3d 18c4 3b3d 4a1c eb3d
00000050: c60a c43c add9 e53d 7462 4fbd 3cd5 7ebd
00000060: b75e a9bd 7ca3 8abd 1844 1c3e 029f d4bd
00000070: 8f5b adbb bcf3 cc3d 1235 153e cc58 14bb
00000080: a442 513c 3b43 ccbd 043d 2c3c ce18 ed3b
00000090: 0ad0 e63d 842b 9ebd 7dcd 093e 8f99 923d
000000a0: 0cbf ca3d 418a 4bbd 4910 06be 4b22 8abd
000000b0: c6fe 9ebc 01d0 973b 6c01 18bd e898 5c3d
000000c0: 58a7 3abe cd0a 113e 01d3 903c fc3f 8dbd
000000d0: 6efe 32be a854 99bd 4518 2bbd b26c d83b
000000e0: 29f4 ddbd c7d1 cfbd 50b7 923d 060b 0a3c
000000f0: 23b7 f83b 2123 503a 2b96 bb3d f0cd 58bd
00000100: 7c48 0dbe 8939 6cbd 0b08 423e 99a6 6ebd
00000110: 06dd 9dbd 25cd d53d 2f5d 5bbd f4cf 1ebe
00000120: 7ada 9dbd 12d6 ec3d 24da 023c eaad 8dbe
00000130: 97b9 1fbd 79a4 0f3d b24d e93d 2e52 693c
00000140: ff8e 5abc 5c3c 99bc e7ef 24be e90f e43d
00000150: e029 e6bd b46e e0bd d812 c8bd d496 e1bd
00000160: 57a9 093e ea9a a6ba 244f d2bb 4b6e 913d
00000170: 9454 29bd 6443 06be f11c 0eba aacc f0bc
00000180: 240b c9bd a61d b1bd 0ae9 e6bd 9620 8ebd
00000190: 60d5 ecbb 6210 7f3c b1b7 b0bd 8c80 a13d
000001a0: 67a1 563c 93f7 afbd 28f9 273e ccd2 6e3d
000001b0: 2b59 d6bd fcd3 c63d 0e24 a6bd a80c 523d
000001c0: 7871 a43d e69d 5cbd 02ac ba3d 7f7d 0fbd
000001d0: f632 1ebd 42de c13d 5325 f93c c8bd 11be
000001e0: 1903 943d 6b14 103e a71e e0bc f0e1 4e3d
000001f0: 614b 173e a51a c7bd b14b 8f3d 7678 fabc
00000200: b225 17bc 4a40 563d 0918 1e3d 52b2 63bd
00000210: 2b0d bc3d ff0b 8ebe 1f92 94bc b8b6 73bd
00000220: f67c 45bd fbb5 193d fc27 063d fe34 3f3d
00000230: 3931 653d 28c0 083d 374b e73d 543e c63c
00000240: 4fb1 ce3b 98e9 1bbd 9ff9 a73d f4f6 b7bc
00000250: 5da6 aebd 515f 4a3e 65ea 9bbd 53a9 213d
00000260: 9187 0fbe 2f95 393e f3cf b63d 4213 30bd
00000270: ab01 fbbc 2208 afbd 2bfb f4bc c49a eebc
00000280: c283 cbbd 4a57 67bd c9c1 6a3c dafe 45be
00000290: f6e1 6cbd 7c82 88bd dd3a acbc b845 77bc
000002a0: ebb2 4e3d 93c7 163e ffc4 73bb 549a 81bd
000002b0: def3 c33d 4611 22be 19d9 e1bd 6415 1f3d
000002c0: dbca ed3c 72be 78bd 7e7c 36bd 3bb6 18be
000002d0: 5be8 e63a c487 3bbd 32a9 603d d436 4dbe
000002e0: 9ae8 adbd fbb0 f43c 0f0c 913d 3210 ddbd
000002f0: c299 643e 09a9 77bd 98a7 23bd e051 5bbd
00000300: f1eb 88be 2dec e5bd 7d8f 3e3e 695f 2a3d
00000310: 1eb5 563e 9942 6f3d 9bc4 02bd 364b cabc
00000320: ca9c dd3d a03b 9bbd 619c 963d 6386 0dbd
00000330: d2ce 0fbe 9ec8 0d3c ce74 bdbd fee0 c3bd
00000340: 54f2 ee3c 658c 2f3d 65c7 883c ede0 a33c
00000350: 2f9c 8e3b 1629 16bd 5791 183e 04c7 753d
00000360: d1ce 07bd 8f19 e13c 4967 25be 3d0e 383c
00000370: 834c 0b3b ad7a 8ebc 5338 663d eb07 053d
00000380: 10e7 5d3e b400 e23d 9a65 08be 2c94 993d
00000390: 6086 723d e88e 83bd 9cec 0fbd c3e3 eb3c
000003a0: 9544 6ebd c29e 093c 030f 33be dcad f8bd
000003b0: a89f dc3d 5d63 4fbd b4b3 86bd 6051 023d
000003c0: 8c40 d0bd 5c32 a43d f934 efbd 3625 683c
000003d0: dca8 773d dd3b ad3c c2cb 2e3d ede7 45bb
000003e0: ac2c 3e3d 609d 803c 0986 6abd 49e6 bd3d
000003f0: 78f4 c73d 5ef4 803d 7d61 873d d248 a1bd
-0.0988394 0.01913005 -0.009062089 0.05526972 -0.018545981 0.02044084 0.022504803 0.0712561
0.018848063 -0.010416497 0.034770396 -0.05357818 0.048376128 -0.020139627 -0.07219663 -0.08046689
0.0041162623 0.034811836 0.045841306 0.11480005 0.023930918 0.11223159 -0.050631 -0.062215075
-0.082700185 -0.067694634 0.1526035 -0.10381891 -0.0052904557 0.10007426 0.14571026 -0.0022635935
0.012772236 -0.09973761 0.010512594 0.007235623 0.11270149 -0.07723144 0.13457294 0.07158195
0.098997205 -0.049692396 -0.1309215 -0.06744822 -0.019408595 0.0046329503 -0.03711073 0.05385676
-0.18227899 0.14164276 0.01767874 -0.0689697 -0.1747987 -0.0748685 -0.041771192 0.0066047544
-0.108375855 -0.10147434 0.0716387 0.00842548 0.007590191 0.0007939805 0.09159502 -0.052930772
-0.13797182 -0.057672057 0.1894838 -0.05826435 -0.077081725 0.10439519 -0.053555664 -0.15509015
-0.07707687 0.11564268 0.007986579 -0.27671748 -0.03899535 0.035068963 0.11391772 0.014240785
-0.013339757 -0.01870554 -0.1610714 0.11135847 -0.11238456 -0.10958615 -0.09769219 -0.11015096
0.13443504 -0.0012710963 -0.0064181257 0.07101115 -0.041340426 -0.13111645 -0.0005421183 -0.029394466
-0.09816578 -0.08648233 -0.112749174 -0.06939809 -0.0072275847 0.015567871 -0.08628786 0.078858465
0.013100005 -0.08592143 0.1640364 0.0583065 -0.10466226 0.097084016 -0.08112346 0.0512816
0.08029455 -0.05386152 0.09114839 -0.03503179 -0.03862282 0.094662204 0.030413305 -0.14232552
0.07227153 0.14070289 -0.027358366 0.05050844 0.14774849 -0.09721879 0.06996859 -0.030575018
-0.009225296 0.052307405 0.03859714 -0.05558998 0.09182199 -0.27743527 -0.018136082 -0.059500426
-0.048214875 0.037527066 0.032752976 0.046681397 0.055955146 0.03338638 0.11293643 0.024199642
0.006307758 -0.03806457 0.08201908 -0.022456624 -0.08527825 0.19762923 -0.076130666 0.03946812
-0.14016558 0.18123315 0.08926382 -0.042987116 -0.030640444 -0.08546473 -0.029904922 -0.029126532
-0.0993724 -0.05647973 0.014328429 -0.193355 -0.05783268 -0.06665513 -0.021024162 -0.015092306
0.0504636 0.14724569 -0.0037196276 -0.06328264 0.09567998 -0.15826902 -0.11027736 0.03883876
0.029027393 -0.060728498 -0.04455232 -0.14913265 0.0017616855 -0.045783773 0.054848857 -0.20040447
-0.08491631 0.029869547 0.07082378 -0.10794105 0.22324279 -0.06046394 -0.03995475 -0.05354488
-0.2674251 -0.112266876 0.18609424 0.041594896 0.20967528 0.05841312 -0.03192578 -0.024694066
0.10820921 -0.07579732 0.07354046 -0.03455199 -0.1404374 0.008653788 -0.09250794 -0.09564398
0.029168285 0.0428585 0.016696641 0.020004714 0.0043521146 -0.036660276 0.14899193 0.06000425
-0.03315622 0.027478008 -0.16152681 0.011233863 0.0021255321 -0.01739248 0.05620606 0.032478254
0.21670175 0.1103529 -0.13320008 0.07498965 0.05921018 -0.064237416 -0.035137758 0.028795129
-0.058170874 0.008399667 -0.17486195 -0.12142536 0.107726395 -0.05063187 -0.065772444 0.031815886
-0.10168561 0.08017418 -0.116800256 0.014169028 0.06046377 0.02114671 0.042674787 -0.0030198053
0.04642932 0.015700042 -0.057256732 0.09272439 0.097634256 0.06296609 0.06610391 -0.078752175

network_body._body_endoder.seq_layers.0.bias f4 [128]
00000000: 0000 0000 0000 0000 0000 0000 0000 0000
00000010: 0000 0000 0000 0000 0000 0000 0000 0000
00000020: 0000 0000 0000 0000 0000 0000 0000 0000
00000030: 0000 0000 0000 0000 0000 0000 0000 0000
00000040: 0000 0000 0000 0000 0000 0000 0000 0000
00000050: 0000 0000 0000 0000 0000 0000 0000 0000
00000060: 0000 0000 0000 0000 0000 0000 0000 0000
00000070: 0000 0000 0000 0000 0000 0000 0000 0000
00000080: 0000 0000 0000 0000 0000 0000 0000 0000
00000090: 0000 0000 0000 0000 0000 0000 0000 0000
000000a0: 0000 0000 0000 0000 0000 0000 0000 0000
000000b0: 0000 0000 0000 0000 0000 0000 0000 0000
000000c0: 0000 0000 0000 0000 0000 0000 0000 0000
000000d0: 0000 0000 0000 0000 0000 0000 0000 0000
000000e0: 0000 0000 0000 0000 0000 0000 0000 0000
000000f0: 0000 0000 0000 0000 0000 0000 0000 0000
00000100: 0000 0000 0000 0000 0000 0000 0000 0000
00000110: 0000 0000 0000 0000 0000 0000 0000 0000
00000120: 0000 0000 0000 0000 0000 0000 0000 0000
00000130: 0000 0000 0000 0000 0000 0000 0000 0000
00000140: 0000 0000 0000 0000 0000 0000 0000 0000
00000150: 0000 0000 0000 0000 0000 0000 0000 0000
00000160: 0000 0000 0000 0000 0000 0000 0000 0000
00000170: 0000 0000 0000 0000 0000 0000 0000 0000
00000180: 0000 0000 0000 0000 0000 0000 0000 0000
00000190: 0000 0000 0000 0000 0000 0000 0000 0000
000001a0: 0000 0000 0000 0000 0000 0000 0000 0000
000001b0: 0000 0000 0000 0000 0000 0000 0000 0000
000001c0: 0000 0000 0000 0000 0000 0000 0000 0000
000001d0: 0000 0000 0000 0000 0000 0000 0000 0000
000001e0: 0000 0000 0000 0000 0000 0000 0000 0000
000001f0: 0000 0000 0000 0000 0000 0000 0000 0000
0.0 0.0 0.0 0.0 0.0 0.0 0.0 0.0
0.0 0.0 0.0 0.0 0.0 0.0 0.0 0.0
0.0 0.0 0.0 0.0 0.0 0.0 0.0 0.0
0.0 0.0 0.0 0.0 0.0 0.0 0.0 0.0
0.0 0.0 0.0 0.0 0.0 0.0 0.0 0.0
0.0 0.0 0.0 0.0 0.0 0.0 0.0 0.0
0.0 0.0 0.0 0.0 0.0 0.0 0.0 0.0
0.0 0.0 0.0 0.0 0.0 0.0 0.0 0.0
0.0 0.0 0.0 0.0 0.0 0.0 0.0 0.0
0.0 0.0 0.0 0.0 0.0 0.0 0.0 0.0
0.0 0.0 0.0 0.0 0.0 0.0 0.0 0.0
0.0 0.0 0.0 0.0 0.0 0.0 0.0 0.0
0.0 0.0 0.0 0.0 0.0 0.0 0.0 0.0
0.0 0.0 0.0 0.0 0.0 0.0 0.0 0.0
0.0 0.0 0.0 0.0 0.0 0.0 0.0 0.0
0.0 0.0 0.0 0.0 0.0 0.0 0.0 0.0

network_body._body_endoder.seq_layers.2.weight f4 [128, 128]
00000000: 53cd d6bd 4a7d 0dbe a74b 5bbe 1727 33bd
00000010: 9c51 bb3b c093 583d 944b 343d 1899 92bd
00000020: 6045 adbc 67c2 293e 501d f63c 1ab9 ef3c
00000030: 3b35 0dbd a1a8 f1bb d12e ffbc 4870 fa3d
00000040: 6270 a7bc 89c1 adbd 9914 8d3d 3d11 9dbc
00000050: 04b9 5abc 2a7e 3f3e 73eb 6f3d 6e5b 87bb
00000060: b63a 9bbd 662d b93b c94c a3bc 25eb 69bd
00000070: 5ed6 733c b7c6 0ebe d86f 503e 5e6b 32be
00000080: c1ba 82bd a753 5c3d 6137 7b3c 0d27 773b
00000090: 077a 4f3e e07d 89bc 5fb0 ecbd f152 613d
000000a0: 2aa0 80bc a031 81bc baa8 0cbe 53eb 613d
000000b0: e5cb 2a3e c9b8 0dbe 3cfa ffbc b4f2 ee3b
000000c0: 4f7f abbd 6133 a2bc a957 aa3d f247 8abd
000000d0: 3155 4fbc a52d 13be 12ff 67bd dd28 613d
000000e0: 0e51 153d 0ad7 89bd d138 813d d48c d6bc
000000f0: feb6 3b3d 92f7 11be 4f73 4e3d 6847 193b
00000100: b1da e83d 9462 9d3d b4b5 203e 1f4f da3c
00000110: ce1e 973d 0c97 a73d 4c66 70bd 6c00 a7bd
00000120: 2126 483b 01db 6fbd 6b9c 3e3d b1ce f0bb
00000130: fd12 10bd 8793 b0bd 3d38 ccbc e656 64bd
00000140: 01e3 023e 2c44 503d aaba 273d 5b93 c93c
00000150: cca9 a13d b167 e53c e63d 4bbd faee c03c
00000160: f65a 97bd d700 5bbd f323 0fbe 1406 823e
00000170: 60e0 babd 8ff9 1bbe 9d38 ab3c 18a1 36be
00000180: a7aa a63d 5a51 23bd a925 963d 2090 04bc
00000190: 7c20 ae3d 878b b7b9 8ecb a43c 72bf 533d
000001a0: c3d3 f2bc af70 f3bd 06e8 8c3d b0ab f13b
000001b0: 24c4 0b3e 6514 a43d e7e8 f03c e9f7 febb
000001c0: dc65 ee3c 4002 3ebd 8275 0f3e 7648 8ebc
000001d0: 95b6 90bd 4738 243d c53b 1e3e ee40 b33d
000001e0: 5834 093e 17a2 3a3d 454f 80bd de08 14be
000001f0: 5ad3 063d 8ba7 bb3d 7561 92bd 2b9a dabd
00000200: 1b27 92bd e66b b8bd 6b88 56bc 599f 6dbd
00000210: 28fe 99bd c621 8fbd 7e93 f43d 9710 4bbd
00000220: 411e f1bd c5ac 45bd 2bc0 02be 5bc1 09bb
00000230: 9591 a13d 8a84 98b9 fcd1 563c f565 053d
00000240: 8e2c d7bc 68cd e7bb f3c3 02be f115 043e
00000250: 0c41 993d 129f a53c e045 453c d96c d13b
00000260: d8ae 98bd dab5 2f3d fe44 a8bd 6494 863d
00000270: a585 66bc 6b6e e23c 1a19 c5bd a627 abbd
00000280: bf69 203c e80b 95bd fe8a ab3c 2d22 7c3d
00000290: 44d6 963d d41b d6b9 51d5 ed3a 79ae 2bbd
000002a0: 691c dabd ba2e 82bd fa94 823d 6025 b23d
000002b0: 6f4f 613c 5c3a 9f3d 2f4e 94bd 01b9 053e
000002c0: 569c a43c 829c 253d a622 0dbd 3469 873a
000002d0: e9be e9ba fbd1 433d d3a2 cd3d 872d f8bb
000002e0: c3b2 15be 97ee 273d 4b92 81bd 1c28 bf3b
000002f0: 2516 16bd 676d d0bd 9868 18bc cfa7 513d
00000300: 8c6b b9bb 6d37 cebd 48bc 7b3d 9f9c 42be
00000310: ee69 1cbe 43d0 a63d 8b07 663c 5f0b 533d
00000320: 8cab 84bb 6c5a 77be 8e86 63bd 57c3 dfbd
00000330: bbba f3bd ae00 dcbb 796f 19be 7a7e 0b3e
00000340: e658 fbbc 9edb cb3d e36c 1fbe 8428 34bd
00000350: ea12 eb3d a244 eb3d a327 acbc a370 9dbd
00000360: 2001 21ba b4f7 a43d a977 dd3d e683 163d
00000370: fa6d 05be 92cd 1c3e 1c5e 023e 51b4 833d
00000380: b8c0 7e3d 0c90 43bd 351c ce3d cf33 b2bd
00000390: f8c2 7bbd 6803 8abc 52ca 1f3d fc7a 093d
000003a0: ce73 863d 58ab 143e 5af6 3fbd cffd 6b3e
000003b0: 7892 703d 6ca7 a53b ca18 f7bb f3ad 773d
000003c0: 34eb e43d c22c b63d 5455 733d 7fef 33be
000003d0: 7e51 9b3d 8537 bebc ad43 8bbd 9162 9ebd
000003e0: 19e1 ba3d 6257 6d3d 35d7 013d 399a a2bd
000003f0: 4ffb c33d ee71 12be 246f 1abe 8f12 9cbd
-0.10488381 -0.13817325 -0.21415578 -0.04373845 0.0057165157 0.05287528 0.04401739 -0.071581066
-0.021151245 0.16578065 0.030043274 0.029263068 -0.034474593 -0.0073748385 -0.031150253 0.12228447
-0.02043933 -0.084841795 0.06888694 -0.019173259 -0.013349775 0.18700472 0.05857415 -0.0041307723
-0.075795576 0.005651164 -0.019934075 -0.057109017 0.014882652 -0.13942991 0.20355165 -0.1742377
-0.06383277 0.053790715 0.015333028 0.0037712485 0.20261393 -0.016783655 -0.115570776 0.05501074
-0.015701372 -0.015770733 -0.13736239 0.055156063 0.16679342 -0.13840021 -0.03124725 0.007292116
-0.083738916 -0.01979989 0.08317501 -0.06752004 -0.012654589 -0.14372881 -0.05663974 0.05497061
0.036454253 -0.067304686 0.06309665 -0.026190199 0.04582881 -0.14254597 0.050402936 0.0023388509
0.11369837 0.07684818 0.15694314 0.026649056 0.073789224 0.08183107 -0.058691308 -0.08154377
0.0030540305 -0.058558468 0.04653589 -0.0073488583 -0.03517436 -0.086218886 -0.02492916 -0.055746935
0.12781908 0.050846264 0.0409495 0.024606397 0.07893714 0.028003545 -0.049619578 0.023551453
-0.07390396 -0.053467598 -0.13978557 0.25395262 -0.091248274 -0.15231918 0.020901019 -0.1783489
0.08138018 -0.039872505 0.07331402 -0.008091003 0.0850229 -0.00035008436 0.020116594 0.05169625
-0.029641991 -0.11886727 0.068801925 0.007375203 0.1364904 0.080117024 0.029407931 -0.007781018
0.029101305 -0.046388865 0.1400967 -0.017368536 -0.07066075 0.040092733 0.15452488 0.08752619
0.13398874 0.045564737 -0.062651195 -0.14456508 0.032916404 0.09162816 -0.07147495 -0.106739365
-0.07136365 -0.09004955 -0.013094048 -0.058013294 -0.075191796 -0.06988864 0.119421944 -0.04957637
-0.117733486 -0.04826047 -0.12768619 -0.002101979 0.07889096 -0.00029090449 0.013111588 0.032567937
-0.026266363 -0.007074047 -0.12770061 0.12898995 0.0748311 0.020217452 0.012040585 0.0063911495
-0.07455224 0.042898037 -0.08216284 0.06571272 -0.014069949 0.027640542 -0.09623928 -0.08357172
0.009790837 -0.072776616 0.0209403 0.06155603 0.07365087 -0.00040837994 0.0018145238 -0.041914437
-0.1064995 -0.06356569 0.06376071 0.08698535 0.013751849 0.07774803 -0.07241475 0.13058855
0.020094078 0.04043246 -0.03445687 0.0010331036 -0.0017833385 0.047807675 0.10040822 -0.0075737867
-0.14618973 0.04099902 -0.06326731 0.005833639 -0.036642212 -0.10177117 -0.009302281 0.051185425
-0.0056585725 -0.100691654 0.061458856 -0.19005059 -0.15274784 0.081451915 0.014039884 0.051524516
-0.0040487703 -0.24155587 -0.055548243 -0.1092593 -0.119008504 -0.006713948 -0.1498393 0.13622466
-0.030682039 0.09953998 -0.1556888 -0.04398395 0.11478217 0.114877 -0.021014994 -0.076874994
-0.000614183 0.08055058 0.10813839 0.036746882 -0.13030234 0.15312794 0.12731212 0.06430877
0.06219551 -0.047744796 0.10063974 -0.08701288 -0.061465234 -0.016847327 0.039011307 0.033564553
0.06565057 0.14518487 -0.0468658 0.23046039 0.058733433 0.0050553586 -0.007540797 0.060468625
0.11177674 0.088952556 0.059407547 -0.1757183 0.07583903 -0.023219833 -0.068000175 -0.07733644
0.09124965 0.057944663 0.031699378 -0.07939572 0.09569418 -0.14301273 -0.1508146 -0.07620727

network_body._body_endoder.seq_layers.2.bias f4 [128]
00000000: 0000 0000 0000 0000 0000 0000 0000 0000
00000010: 0000 0000 0000 0000 0000 0000 0000 0000
00000020: 0000 0000 0000 0000 0000 0000 0000 0000
00000030: 0000 0000 0000 0000 0000 0000 0000 0000
00000040: 0000 0000 0000 0000 0000 0000 0000 0000
00000050: 0000 0000 0000 0000 0000 0000 0000 0000
00000060: 0000 0000 0000 0000 0000 0000 0000 0000
00000070: 0000 0000 0000 0000 0000 0000 0000 0000
00000080: 0000 0000 0000 0000 0000 0000 0000 0000
00000090: 0000 0000 0000 0000 0000 0000 0000 0000
000000a0: 0000 0000 0000 0000 0000 0000 0000 0000
000000b0: 0000 0000 0000 0000 0000 0000 0000 0000
000000c0: 0000 0000 0000 0000 0000 0000 0000 0000
000000d0: 0000 0000 0000 0000 0000 0000 0000 0000
000000e0: 0000 0000 0000 0000 0000 0000 0000 0000
000000f0: 0000 0000 0000 0000 0000 0000 0000 0000
00000100: 0000 0000 0000 0000 0000 0000 0000 0000
00000110: 0000 0000 0000 0000 0000 0000 0000 0000
00000120: 0000 0000 0000 0000 0000 0000 0000 0000
00000130: 0000 0000 0000 0000 0000 0000 0000 0000
00000140: 0000 0000 0000 0000 0000 0000 0000 0000
00000150: 0000 0000 0000 0000 0000 0000 0000 0000
00000160: 0000 0000 0000 0000 0000 0000 0000 0000
00000170: 0000 0000 0000 0000 0000 0000 0000 0000
00000180: 0000 0000 0000 0000 0000 0000 0000 0000
00000190: 0000 0000 0000 0000 0000 0000 0000 0000
000001a0: 0000 0000 0000 0000 0000 0000 0000 0000
000001b0: 0000 0000 0000 0000 0000 0000 0000 0000
000001c0: 0000 0000 0000 0000 0000 0000 0000 0000
000001d0: 0000 0000 0000 0000 0000 0000 0000 0000
000001e0: 0000 0000 0000 0000 0000 0000 0000 0000
000001f0: 0000 0000 0000 0000 0000 0000 0000 0000
0.0 0.0 0.0 0.0 0.0 0.0 0.0 0.0
0.0 0.0 0.0 0.0 0.0 0.0 0.0 0.0
0.0 0.0 0.0 0.0 0.0 0.0 0.0 0.0
0.0 0.0 0.0 0.0 0.0 0.0 0.0 0.0
0.0 0.0 0.0 0.0 0.0 0.0 0.0 0.0
0.0 0.0 0.0 0.0 0.0 0.0 0.0 0.0
0.0 0.0 0.0 0.0 0.0 0.0 0.0 0.0
0.0 0.0 0.0 0.0 0.0 0.0 0.0 0.0
0.0 0.0 0.0 0.0 0.0 0.0 0.0 0.0
0.0 0.0 0.0 0.0 0.0 0.0 0.0 0.0
0.0 0.0 0.0 0.0 0.0 0.0 0.0 0.0
0.0 0.0 0.0 0.0 0.0 0.0 0.0 0.0
0.0 0.0 0.0 0.0 0.0 0.0 0.0 0.0
0.0 0.0 0.0 0.0 0.0 0.0 0.0 0.0
0.0 0.0 0.0 0.0 0.0 0.0 0.0 0.0
0.0 0.0 0.0 0.0 0.0 0.0 0.0 0.0

action_model._discrete_distribution.branches.0.weight f4 [2, 128]
00000000: cdbc 90bb 0a4c 48bc 9f4b 7f3b 0576 27bc
00000010: f5f8 f43b 827e ef39 1dbb 0fbc 4a8b 253a
00000020: 9cb3 babb 7e44 4b3b 4301 003c 0a56 fc3b
00000030: 6838 e33b 2da7 e33b 50a2 70bc 2387 b2bb
00000040: 2d28 6fbc 2b2b be3a a592 973b 83e4 f9bc
00000050: df71 8e3b f78e 9c3c 97b8 4939 3783 f1b8
00000060: c2c1 20ba 4bca fcb8 836c 413c 430f 8ebc
00000070: 3119 243c 673c 29bc f5f3 5dbb 0c8d 23bc
00000080: 5dd3 893c a542 8b3c 7088 dfbb 67cd 46ba
00000090: ff2a 8dbc 1b84 0aba d0b3 4bbb 4a65 babb
000000a0: 47c5 773b 902d 53bc 2392 4d3a b8b1 afbc
000000b0: 4c6f 883b 827c 53bb a114 25bc 90dc 453c
000000c0: 570a 613b dd09 7e3c 6b82 143c 38e2 de3b
000000d0: 4539 0ebc f38e 243c 1b5a d63b 156b d2bb
000000e0: 72aa dc3c 5769 533c f4c4 a9bc 2a46 d2ba
000000f0: 5a07 70bc b8bb 553c 98aa 543a 9ad9 f63b
00000100: e3c4 88bb 12f7 273c a864 5bbc aa5d 54bb
00000110: 0833 e5bb 2549 d3bb eda6 82bc 7031 e93b
00000120: 0889 a5bb e746 eb3b 8657 953b cf00 e03a
00000130: f14f c1bb a4eb c93b 30f4 4c3c bd0f 013c
00000140: e4cd 043c 1575 f339 8b2b 0b3c 7709 6dbb
00000150: 2b9e 013b 1bae 773b 575b 8ebb 671a 063c
00000160: 30ad 4dbb c61f 983b 7d76 e5bb c014 513b
00000170: abe0 1a3b d5e0 50bb d0e8 e23b 5647 b4bb
00000180: 0f2a 493c 9363 833b 9593 593c ec04 c23b
00000190: d784 433a 6775 7fba c8c6 623b 809a d83b
000001a0: 8165 273b cfc1 643c e7b8 2dbb 5226 2ebc
000001b0: 6a3a 68bb 8710 903b 4459 33bc 376e 153c
000001c0: 8bb9 c53b a61e 8b3b 4339 cdbb 9eae 18bc
000001d0: c314 2f3a cb92 68bc e99e 383c 4c63 8c3c
000001e0: 87ee 483c 37b5 fd3b f6ba c8ba 1039 373c
000001f0: 9700 82ba 122c a63c a68e 0a3b d01d 57bb
00000200: 2d6b 72bc f733 9ebb 6d57 1f3c 487b 12bc
00000210: 0ff4 8dba efab 9f38 3b5f d93b c830 ed3b
00000220: cb4e 23bb b424 33bb 7bbd 113c 6f99 f9bb
00000230: c004 e1b9 785f ca3b 7356 1dbb 3f7b 5d3c
00000240: 3f66 00bc 38fc b63c e2b9 d0bb ea38 d8bb
00000250: 5d7a 98bb fc95 a3bb 3046 4c3b a0eb 0f3c
00000260: 5a08 d43a 17fd 203b 53c4 a33b e2a5 42bb
00000270: 4a05 5fb6 2f7a 943b 8d33 7c3b f35c 76bc
00000280: f30b 433c a356 ee3b c777 ab3b c0c8 73bc
00000290: 8892 19bc 63ba f2bb eda1 693b 429d 2a3a
000002a0: 1325 22ba 0308 213c 7fde 55ba b075 263a
000002b0: b719 66bb d501 6f3c 6943 2f3c abcd 74bc
000002c0: 2801 54bc 820e f53b d7b3 d93a df46 493b
000002d0: 8f1e 35bc 7227 aebb 5a70 073c 2310 bbba
000002e0: b793 52bc 8a1c fabb b8c6 4dbc 4af3 cabb
000002f0: c3f3 623c ae64 883c 03b8 84bb 1356 1c3c
00000300: 3fb4 833c 54ba 9fbc 821e 4ebc af3b 03bc
00000310: c391 cbbb 6067 adbb 351b cdbc 50de dbbb
00000320: a912 833a c81c e5bb 1052 513c 6229 97bb
00000330: fb8d c03b f028 9937 429b 55b8 ad6e 3e3b
00000340: 5fa6 edbb 63fe fabb 6d2e 74bb 31a2 3dbc
00000350: 1de2 67bb 962f 183b 13ec 043c 27e6 e73b
00000360: 9363 01bc 13f6 22ba 4798 143c 9fde 21bc
00000370: 8ab1 d43b 18ce 513c 8571 e5bb f27b e33b
00000380: 9cd8 0b3c a5c3 9a3b 506a f2b9 07ee 803c
00000390: bafc e7bb 5baf 163a ae4e 113c 10df da3b
000003a0: 1259 bbbb 0fe2 3c3b 03df 9ebb cab3 ee3a
000003b0: c44b 843c 93ff 88ba 00c9 04bc af23 573c
000003c0: 6887 2a3c 9571 74bb 2fc8 7f3b 27e0 42bc
000003d0: b244 113a 2b42 d3ba 7a3c 763c 0f9d cebb
000003e0: b1c1 1fbb 9315 a8ba d5ac 8a3b b1b0 333c
000003f0: b93b 9d3a da8f 6e3b 27f6 a9bb 0015 2f3b
-0.004417038 -0.01222516 0.0038954986 -0.010221009 0.007475967 0.00045679888 -0.008772639 0.0006315006
-0.0056976806 0.0031016166 0.007812801 0.0077006863 0.0069342144 0.006947419 -0.014687136 -0.0054482385
-0.014596981 0.0014508715 0.0046256357 -0.03050447 0.0043470706 0.01911114 0.00019237619 -0.00011516216
-0.0006132388 -0.000120539764 0.011805656 -0.017341262 0.010015772 -0.010329342 -0.0033867334 -0.009982359
0.016824419 0.016999552 -0.0068216845 -0.0007583708 -0.017232416 -0.00052839675 -0.0031082518 -0.005688344
0.0037806795 -0.012889281 0.00078419055 -0.021447048 0.0041636582 -0.0032270257 -0.010075719 0.012076512
0.0034338438 0.015505281 0.009064297 0.0068018697 -0.008680646 0.010043847 0.006541503 -0.0064214566
0.026936743 0.012903533 -0.020723797 -0.0016042639 -0.01465019 0.013045244 0.00081125787 0.0075332643
-0.0041738614 0.010251777 -0.013390698 -0.003240446 -0.006994609 -0.0064479285 -0.015948737 0.007116489
-0.005051736 0.007180083 0.0045575527 0.0017090085 -0.0058994223 0.0061621238 0.012509391 0.007877287
0.008105729 0.00046435805 0.008494268 -0.0036168972 0.0019778113 0.0037792984 -0.0043443847 0.008185006
-0.0031383745 0.0046424596 -0.0070026503 0.0031903237 0.0023632448 -0.0031872292 0.006924726 -0.005501668
0.012278094 0.004009673 0.013279815 0.005920997 0.00074584543 -0.00097449723 0.0034603346 0.0066102147
0.0025542679 0.013962223 -0.0026507915 -0.010629253 -0.0035435208 0.0043965015 -0.010946576 0.009120516
0.0060340813 0.004245597 -0.0062629296 -0.009318976 0.0006678814 -0.014195154 0.011268356 0.017137192
0.012263901 0.0077425498 -0.0015314508 0.011183038 -0.0009918389 0.020284686 0.0021142154 -0.0032824166
-0.0147960605 -0.004827972 0.009725434 -0.008940525 -0.0010830181 7.613736e-05 0.006633667 0.007238481
-0.002491879 -0.002733511 0.008895273 -0.0076171677 -0.00042918883 0.0061759315 -0.0024007827 0.013518154
-0.007836877 0.022337064 -0.006369815 -0.0065985816 -0.0046532587 -0.0049922448 0.0031169765 0.008784205
0.0016176805 0.0024564916 0.004997769 -0.0029700925 -3.3232668e-06 0.004531167 0.0038482875 -0.015036809
0.011904704 0.0072735115 0.0052327844 -0.0148794055 -0.009373315 -0.007407473 0.0035649494 0.00065084186
-0.0006185334 0.00982857 -0.00081584597 0.0006349934 -0.0035110542 0.014587839 0.010697224 -0.014941613
-0.012939729 0.007478536 0.0016609383 0.0030712408 -0.011054649 -0.005314761 0.008266533 -0.0014271777
-0.012852601 -0.0076327967 -0.012559585 -0.006193553 0.013852063 0.01664957 -0.004050256 0.009542006
0.016077159 -0.019498028 -0.012580516 -0.008009835 -0.0062124445 -0.0052918643 -0.025037387 -0.0067098513
0.0010000068 -0.0069919564 0.012775913 -0.0046130875 0.0058763004 1.8258084e-05 -5.0927752e-05 0.0029057667
-0.007252499 -0.00765972 -0.0037259117 -0.011574314 -0.0035382577 0.0023221723 0.008112925 0.007076997
-0.0078972755 -0.00062164775 0.009069509 -0.009879737 0.006490891 0.012805484 -0.007002058 0.0069422657
0.00853553 0.0047230297 -0.00046237046 0.0157385 -0.007079688 0.0005748176 0.008868856 0.006679423
-0.005717405 0.0028821265 -0.0048483624 0.001821154 0.01614941 -0.0010452144 -0.008104563 0.013131066
0.01040826 -0.0037299145 0.003902923 -0.011894262 0.00055415474 -0.0016117742 0.015029067 -0.006305344
-0.0024376924 -0.0012823812 0.004232029 0.0109674195 0.0011995948 0.003640166 -0.0051868143 0.0026715398

action_model._discrete_distribution.branches.0.bias f4 [2]
00000000: 0000 0000 0000 0000
0.0 0.0

network_body._body_endoder.seq_layers.0.weight f4 [128, 123]
00000000: 0736 c03b 8d84 d5bd d8c8 8c3d 3871 1c3d
00000010: b251 203e 5603 463d c4ad c93b 98b3 f4bd
00000020: a6dc ad3a e69d 8ebd 3e87 dfbd 6e64 99bd
00000030: 0091 393d 708e ecbd 4310 a8bd 1fa6 8dbd
00000040: a889 b73d 024a 85bb da7c e2ba 0c69 43bc
00000050: fc75 a0bd c826 933c f005 d43d 9032 babd
00000060: d74f 4d3e 9d23 9e3d c814 a1bd 78b7 423d
00000070: 1743 bdbc a482 f7bc a25f 683d 6344 fdbd
00000080: 2fa0 0c3e 0c14 d23d dc25 653c 5c0c 93bd
00000090: 1a45 19bc 887a d83d 9455 74bc 8aab f7bd
000000a0: 16d1 823d c5eb 1f3d efad a9bb 1113 553d
000000b0: 5829 163d 8574 103e 9549 be3d f327 59bd
000000c0: 67f9 ca3c fa2d db3d 5ceb a3bd 0227 69bd
000000d0: 42c2 c5bd 6bf9 3c3e 2aec a03d ac35 a23d
000000e0: 42d6 273d 62f3 d03d 5135 07bc 8735 6d3d
000000f0: 4e82 e13d 320d 80bd 62e5 a53d 4c2a 8cbc
00000100: 90b9 373e 5c80 8e3d a127 b13a a80d 1abc
00000110: d835 bbbc 971b debc 0f17 113d b36d 9ebd
00000120: 6b72 f0bd 75cf 1b3e 20a8 9c3d 96c4 e53d
00000130: bddb 293d 9f9a ac3c 1c3e 31bc 5a06 463d
00000140: 7042 fd3d 2f3b 2e3d 07b4 933d 41d4 81bd
00000150: 4628 793d 219e 98bd ded9 993d e924 1fbd
00000160: 9cca 443d 79d3 4abe 7983 cd3d 486b f43d
00000170: 8eed 643c 341e 9dbd 33eb 3e3d e170 203e
00000180: 1d3d b63d 9a9c b4bd c712 e9bc 8230 96bc
00000190: 4b0f 03be 623a 9e3d 24bf 17bd 10f7 153e
000001a0: 37ab 8ebc 35f9 e13b 284b 4f3e 34b6 973d
000001b0: 81a2 b4bc ecff a3bc 15f4 723d 6cb7 063e
000001c0: 83b1 c0bc be3b 9cbd 3a27 6dbd fc50 003e
000001d0: fac4 f0bc bd20 dbbd e623 fdbd df8c 4dbd
000001e0: 4423 363d 4d3b 61bd 21fc 023c 9e73 ffbb
000001f0: 5b9b 333c 126c c93d bb60 d03d 0d0f 0dbd
00000200: 07eb 3bbd 4877 cdbd 10a6 663b c0da 04be
00000210: 8452 293e 3062 fe3d 0895 07be 25aa 103d
00000220: a1e4 adbd 2bd1 c4bc 6ada d93c dd2b cf3c
00000230: 7622 c1bd 177d aebc 1d48 943d 49c6 ae3d
00000240: abba 903d 95eb 94bc 05ed 1d3d 38d6 d8bd
00000250: 580f f93d 8425 6cbd 5aac ecbd a62d 663e
00000260: 0694 3ebd 2ffc 353d 308a 783d 0397 e83d
00000270: e9f5 10bc 4993 5abd c29f a0bd b12f d5bd
00000280: 45a0 47bd f158 4a3c 0e9d 7f3d 6af1 4abe
00000290: 47e5 1d3d 6939 b43b c84b 703d bb0d 283d
000002a0: 91a1 74bd bcb2 cbbd 1e13 1abc 627e e13c
000002b0: efca d93d cd86 fc3d dd13 563d 1984 723d
000002c0: a81e 20be d8bc c63d 4c27 e3bd 85fd 61bc
000002d0: 030a 80bd cf73 803d 519e 98bc 8f87 e8bd
000002e0: dda2 25bc 7c3b 553e 847d 193e 2ba6 fd3d
000002f0: 7ba9 9f3c 2a7f c63b 69ce f8bb 7bf2 ed3c
00000300: 4416 cd3d aea4 603c 7522 2cbe f508 b5bd
00000310: b58f ecbd d68c 6cbc 8a50 84bd b98c a5bc
00000320: f0d6 94bc 36b9 6d3d a471 7fbd e14a 10be
00000330: b01a 2abd 4920 62bd f35b 8e3d 3c50 59be
00000340: 3c5f 093e 17e3 82bd 1345 223c c8a1 50bd
00000350: 59b9 aabd 7e1b 953c 9799 7e3d babb 053e
00000360: 6d8e 5bbe 85e9 fabc f689 9d3d 9829 94bd
00000370: 5553 e9bd 4032 ac3d 5242 23bd a1b4 a5bd
00000380: 7d1c 443d 0e26 04be a277 afbd 07c7 f7bb
00000390: b002 a13b 6ca6 b3bc 102b d43d a3f7 db3b
000003a0: 41f2 5d3d 5e90 613d a428 afbd 6b7d 843d
000003b0: 13aa a83d c5f2 2e3d 4314 393e 4695 583d
000003c0: 0bf4 963d 2fd0 02bd d4b0 1e3d db7e 0ebd
000003d0: a7d0 aebc 4c8a dbbd e661 46be b67d f6bb
000003e0: 905d f4bb aaf5 a6bd 513b 49be bc07 783d
000003f0: cb00 d5bb 5b34 0bbe bcf8 e23d b184 afbc
0.0058658156 -0.10425673 0.068742454 0.03819391 0.15656164 0.048343025 0.0061547477 -0.11948317
0.0013264611 -0.069637105 -0.10914467 -0.074898586 0.0453043 -0.11550605 -0.08206227 -0.06916451
0.08961803 -0.0040676603 -0.001727964 -0.011926901 -0.07835004 0.017962828 0.10352695 -0.09091675
0.20049988 0.077216364 -0.07865292 0.04753825 -0.02310328 -0.030213661 0.056731828 -0.12366559
0.1373298 0.1025773 0.013986077 -0.07180092 -0.009354854 0.10570246 -0.014912982 -0.12093265
0.06387536 0.039043207 -0.005178205 0.052020136 0.036660522 0.14106949 0.092913784 -0.053016614
0.024777127 0.10702129 -0.080038756 -0.056921966 -0.09656192 0.1845452 0.07857545 0.07920393
0.040975817 0.102026716 -0.008252458 0.057912376 0.11011182 -0.06252517 0.08100392 -0.017110012
0.1794188 0.06958076 0.0013515839 -0.00940267 -0.022852823 -0.027112765 0.03542238 -0.07735767
-0.117405735 0.15215857 0.07649255 0.112191364 0.041469324 0.021069823 -0.010818031 0.0483459
0.123661876 0.04253691 0.07212072 -0.06339312 0.060829423 -0.07452036 0.07512258 -0.03885356
0.048044786 -0.19807233 0.10034842 0.11934525 0.013972653 -0.076717764 0.046611022 0.1566806
0.08898375 -0.08818932 -0.028451337 -0.018333677 -0.12798803 0.077259794 -0.03704752 0.14645028
-0.017415626 0.006896163 0.20243514 0.07407799 -0.022050144 -0.020019494 0.059314806 0.13155907
-0.023522144 -0.076285824 -0.057898737 0.12530893 -0.0293908 -0.10699604 -0.12360363 -0.050183173
0.044467226 -0.054988194 0.0079946825 -0.007795765 0.010962333 0.09835066 0.101747 -0.03443818
-0.045878436 -0.10032517 0.0035194196 -0.12974072 0.16535383 0.124210715 -0.13240445 0.035318512
-0.08490873 -0.02402552 0.026593406 0.02528947 -0.09430401 -0.021299882 0.07240317 0.08533914
0.07066854 -0.01817874 0.038556118 -0.10587734 0.1216113 -0.057652965 -0.11556311 0.22478351
-0.046527885 0.044429954 0.06067866 0.11356928 -0.008847692 -0.05336312 -0.078429714 -0.10409487
-0.04873683 0.012350307 0.06240564 -0.19818655 0.038548734 0.005500008 0.05866602 0.04102872
-0.059724394 -0.099462 -0.009403972 0.027526084 0.1063441 0.12330399 0.052265037 0.05920801
-0.15636694 0.09703988 -0.1109148 -0.013793354 -0.062519096 0.06272089 -0.018630179 -0.11353981
-0.01010963 0.20823473 0.14989287 0.1238521 0.019489994 0.0060576396 -0.0075929654 0.029046288
0.100140125 0.013711138 -0.1681002 -0.08839599 -0.115508474 -0.014437875 -0.06460674 -0.020208703
-0.018168896 0.05803796 -0.062364236 -0.14091064 -0.041529357 -0.05520657 0.06951132 -0.21222013
0.13415235 -0.0639097 0.009904164 -0.050935537 -0.083361335 0.018201586 0.062158193 0.13059893
-0.2144105 -0.030628929 0.076923296 -0.07234496 -0.113928474 0.08408022 -0.03985817 -0.08091093
0.04787873 -0.12905142 -0.0856774 -0.0075615677 0.0049136505 -0.021929942 0.10359776 0.00671287
0.05418611 0.05506932 -0.085526735 0.06469234 0.08235564 0.04271199 0.18074135 0.052876733
0.07370766 -0.03193682 0.038742855 -0.034788948 -0.021339728 -0.107197374 -0.19373283 -0.00752231
-0.0074574426 -0.081523255 -0.19651534 0.06055425 -0.0065003387 -0.13594191 0.110825986 -0.021425577

network_body._body_endoder.seq_layers.0.bias f4 [128]
00000000: 0000 0000 0000 0000 0000 0000 0000 0000
00000010: 0000 0000 0000 0000 0000 0000 0000 0000
00000020: 0000 0000 0000 0000 0000 0000 0000 0000
00000030: 0000 0000 0000 0000 0000 0000 0000 0000
00000040: 0000 0000 0000 0000 0000 0000 0000 0000
00000050: 0000 0000 0000 0000 0000 0000 0000 0000
00000060: 0000 0000 0000 0000 0000 0000 0000 0000
00000070: 0000 0000 0000 0000 0000 0000 0000 0000
00000080: 0000 0000 0000 0000 0000 0000 0000 0000
00000090: 0000 0000 0000 0000 0000 0000 0000 0000
000000a0: 0000 0000 0000 0000 0000 0000 0000 0000
000000b0: 0000 0000 0000 0000 0000 0000 0000 0000
000000c0: 0000 0000 0000 0000 0000 0000 0000 0000
000000d0: 0000 0000 0000 0000 0000 0000 0000 0000
000000e0: 0000 0000 0000 0000 0000 0000 0000 0000
000000f0: 0000 0000 0000 0000 0000 0000 0000 0000
00000100: 0000 0000 0000 0000 0000 0000 0000 0000
00000110: 0000 0000 0000 0000 0000 0000 0000 0000
00000120: 0000 0000 0000 0000 0000 0000 0000 0000
00000130: 0000 0000 0000 0000 0000 0000 0000 0000
00000140: 0000 0000 0000 0000 0000 0000 0000 0000
00000150: 0000 0000 0000 0000 0000 0000 0000 0000
00000160: 0000 0000 0000 0000 0000 0000 0000 0000
00000170: 0000 0000 0000 0000 0000 0000 0000 0000
00000180: 0000 0000 0000 0000 0000 0000 0000 0000
00000190: 0000 0000 0000 0000 0000 0000 0000 0000
000001a0: 0000 0000 0000 0000 0000 0000 0000 0000
000001b0: 0000 0000 0000 0000 0000 0000 0000 0000
000001c0: 0000 0000 0000 0000 0000 0000 0000 0000
000001d0: 0000 0000 0000 0000 0000 0000 0000 0000
000001e0: 0000 0000 0000 0000 0000 0000 0000 0000
000001f0: 0000 0000 0000 0000 0000 0000 0000 0000
0.0 0.0 0.0 0.0 0.0 0.0 0.0 0.0
0.0 0.0 0.0 0.0 0.0 0.0 0.0 0.0
0.0 0.0 0.0 0.0 0.0 0.0 0.0 0.0
0.0 0.0 0.0 0.0 0.0 0.0 0.0 0.0
0.0 0.0 0.0 0.0 0.0 0.0 0.0 0.0
0.0 0.0 0.0 0.0 0.0 0.0 0.0 0.0
0.0 0.0 0.0 0.0 0.0 0.0 0.0 0.0
0.0 0.0 0.0 0.0 0.0 0.0 0.0 0.0
0.0 0.0 0.0 0.0 0.0 0.0 0.0 0.0
0.0 0.0 0.0 0.0 0.0 0.0 0.0 0.0
0.0 0.0 0.0 0.0 0.0 0.0 0.0 0.0
0.0 0.0 0.0 0.0 0.0 0.0 0.0 0.0
0.0 0.0 0.0 0.0 0.0 0.0 0.0 0.0
0.0 0.0 0.0 0.0 0.0 0.0 0.0 0.0
0.0 0.0 0.0 0.0 0.0 0.0 0.0 0.0
0.0 0.0 0.0 0.0 0.0 0.0 0.0 0.0

network_body._body_endoder.seq_layers.2.weight f4 [128, 128]
00000000: 0400 19be a99f 143d 4bb9 54bd 8353 b9bc
00000010: 9fee 96bd 5339 0f3e f321 d8bd 21bc 37bd
00000020: 414b 29be d830 2cbc 630b b33d 7287 873c
00000030: 40d9 3f3c dad6 27bd 2102 bcbd 2eec 88bd
00000040: 033a c23d 61dd 443d 7128 823d 7c01 b8bc
00000050: 19e5 e0bc f850 98bc 8a69 65bd b258 7bbd
00000060: 0bae fc3d bce5 3b3e 0c9b 18bd 96c7 b7bd
00000070: 2302 f0bd 7135 05bd 5ede 36be c3ad d03d
00000080: fb42 43bc 5803 8e3d b919 e9ba 2652 d03d
00000090: e03f 34be 7121 ec3d 263e b23d b9fa 103e
000000a0: 6aff 64bd c09c cabd 2d3c f8bd c2a7 d5bb
000000b0: 4407 23bd 0f4f 5cbe 82b9 6dbc 6a63 eebc
000000c0: ce50 9dbd e875 9bbd 40a5 dabc fb02 c13d
000000d0: 7002 52bd 086a 6e3d 5c26 ef3b 4b92 233d
000000e0: cd12 c03d d47d e7bd 9c5d b63c 6c32 243d
000000f0: aaff 4ebe 0c48 1f3b 661e 18be b01f 2ebd
00000100: aab8 c0bc 4c75 5a3e ad6f 553d b0ba 1cbe
00000110: e82f 5abd bd21 f7bc 868d 9eba 8c04 2c3d
00000120: b554 04bd 2253 19be f558 babc 15dd 223c
00000130: e87b ecbc 7027 cabb b2de 503d c514 30be
00000140: 7a7f dc3d dffb 3cbd 85e2 813d c565 10bd
00000150: 4fba 3a3d dd75 003e d56f 603d 5b18 0fbe
00000160: 5206 2a3e 3c17 c8bd efeb 143e 6d43 273d
00000170: 0ba2 9ebd da65 953d c440 09be 36a0 d63d
00000180: 4874 c93a 64c8 443d f6dd 603c b174 3e3d
00000190: 7a86 39bd 2fab 223a c001 c23d fabc 13bd
000001a0: e21c d03d c882 653b a1a5 50bd 3818 e83b
000001b0: 8fea 5f3d fe76 75bc 726f 0d3d 74fb f63d
000001c0: bdfb d23d 6692 ee3b a655 96bd e121 593d
000001d0: 54dd 2b3d 0585 5dbe c0d4 9b3d 72a4 86bd
000001e0: 96b9 cb3d 38c4 a6bc 00b2 9c3c 586b 903d
000001f0: 648b 933c ff06 793d 2970 763c f036 1d3c
00000200: 6763 4bbd be57 c63b fde9 18bc 0543 363e
00000210: b839 10be 9985 c53d e5df 13bb 5c1e 213c
00000220: 7664 cc3c 9803 fdbd b8c2 833d 266e 28bd
00000230: 6f3b 193e 3475 c6bd 2a5c e53c 5194 863d
00000240: 8fe0 8c3d 58c8 333e 650b 69bd 4b9a 883d
00000250: f5dc 8b3d a246 81bc 4e9b 2f3c 375d c73d
00000260: 3366 8a3d 6e6c a43d c656 683d df36 24be
00000270: 88c4 f43c 3bb5 0f3e fab3 6bbd 26e9 febd
00000280: 57b7 dbbd 019a 333d 1b50 533c 49f1 13be
00000290: e4e6 fc3d c02c 293e f8fd 0dbd da04 3bbe
000002a0: 8401 3ebc 2956 97bd d3ad 143d 828e c3bd
000002b0: 648a d73d a591 eb3a c433 11bc 3fc1 dfbd
000002c0: ae6a 3abe 146f 10be 4ef3 11bd 2fe8 8fbb
000002d0: 1b89 acbd 359c 1abe 5529 13be bd0f 62bc
000002e0: 5e53 803d a556 39bc 8949 10bd 13a7 e83d
000002f0: 1291 3bbd 7746 28bc a5b1 f9bb f83b afbd
00000300: 761f 323d b345 933c 59fb 253d cb95 b03d
00000310: ccdf 54bd a39b 4bbd 4097 ba3d 20b5 763d
00000320: e527 06be 6f4c 9bbc 59b4 93bd d523 52bc
00000330: 680c 4abd eac2 e73c c9ce 843d b5f6 eabc
00000340: 375a b2bd 9a2e 1d3e aa03 4dbd 750e 293d
00000350: 0af3 a1bb f110 ea3c 3cf2 e23d e4ac 15be
00000360: b9eb b43c 1031 f5bd 2aa8 ca3d 94ac 83bd
00000370: 3530 16bd 99a2 813c feb8 97bd c3bf eabc
00000380: 740e d5bd b384 87bd b916 9fbe 3715 f83d
00000390: 5760 123c 50d7 ed3d 42ca af3d a16e 5e3d
000003a0: d7b8 ef3d 6be8 d1bc a02e ca3d 4d23 ba3d
000003b0: ce45 df3d aaf6 1a3e 050e 253d e92b 453c
000003c0: 4f10 23bd e3be a13d 0f34 c8bd 9ac0 d13c
000003d0: 4b92 8c3c b551 f93d 73d4 583c 9856 cbbd
000003e0: 2e20 1ebe 5ec0 0a3e d147 843d 4e60 833d
000003f0: 3673 8dbc f741 103c aad0 973d 565c 8bbd
-0.14941412 0.036285076 -0.05193452 -0.02262283 -0.07369732 0.13986711 -0.1055335 -0.044857148
-0.16532613 -0.010509692 0.08742406 0.016544078 0.011709511 -0.040976383 -0.091800936 -0.06685673
0.09483721 0.048062686 0.0635537 -0.022461645 -0.027452992 -0.018593296 -0.056008853 -0.061363883
0.123378836 0.18349355 -0.03725724 -0.08973615 -0.117191575 -0.03252167 -0.17858264 0.101893924
-0.011917825 0.069342315 -0.0017784155 0.101719186 -0.17602491 0.11529816 0.0870326 0.14158143
-0.055907644 -0.09893179 -0.121208526 -0.0065202424 -0.03980185 -0.21514533 -0.014509561 -0.029100139
-0.07681428 -0.07590848 -0.026690125 0.094243966 -0.051271856 0.058206588 0.007298274 0.039934438
0.09378586 -0.11303297 0.022261433 0.04008715 -0.20214716 0.0024304418 -0.14855346 -0.04251069
-0.023525555 0.21333808 0.052108455 -0.1530559 -0.053268343 -0.030167455 -0.0012096621 0.041996524
-0.032307345 -0.14973119 -0.022747496 0.009940405 -0.028867677 -0.006169252 0.05099363 -0.17195423
0.10766502 -0.04613864 0.06342033 -0.035253305 0.045587834 0.12544961 0.05479415 -0.13974135
0.16603974 -0.097700566 0.14543127 0.040835787 -0.07745751 0.07294817 -0.13403612 0.104797766
0.0015369738 0.04804267 0.013724795 0.046498004 -0.045294262 0.0006205318 0.0947299 -0.036068894
0.10161759 0.0035020579 -0.050939206 0.007082965 0.054667052 -0.014981983 0.03453011 0.120596796
0.103019215 0.0072806356 -0.07340555 0.053010825 0.04195912 -0.21632774 0.07608938 -0.06574334
0.09947507 -0.020357236 0.019127846 0.07051724 0.018010803 0.060797688 0.0150413895 0.009595618
-0.049655344 0.00605294 -0.009333131 0.17799003 -0.14084518 0.09644622 -0.0022563871 0.009833898
0.024950247 -0.12354201 0.06433624 -0.04112067 0.14964078 -0.096903235 0.027998049 0.06571258
0.06878769 0.17556894 -0.056895632 0.06670054 0.068292536 -0.01578075 0.01071818 0.09734576
0.06757774 0.08028494 0.05672338 -0.16036557 0.02987887 0.14033978 -0.057544686 -0.12446813
-0.10728329 0.04384804 0.012897517 -0.14447512 0.123487264 0.16520977 -0.03466603 -0.1826357
-0.011597041 -0.073894806 0.036298584 -0.095486656 0.10524443 0.0017972483 -0.00886244 -0.10925531
-0.18204758 -0.14104873 -0.035632424 -0.004391692 -0.08424588 -0.15098651 -0.14371236 -0.013797698
0.06265901 -0.011312162 -0.03522638 0.11359992 -0.045792647 -0.010270706 -0.007620054 -0.0855636
0.043487035 0.017977571 0.040522907 0.08622321 -0.05197124 -0.049708974 0.0911088 0.060231328
-0.13101156 -0.018957345 -0.07212133 -0.012825926 -0.049328238 0.028291184 0.06484754 -0.028682092
-0.08708613 0.15349808 -0.050052322 0.041273553 -0.0049423026 0.028572531 0.11081359 -0.14616734
0.022085058 -0.119722486 0.09895356 -0.06429401 -0.036667068 0.015824603 -0.07408331 -0.028655892
-0.10403147 -0.06617107 -0.31072024 0.121134214 0.008934102 0.11613333 0.085834995 0.054304723
0.11705177 -0.02562352 0.09872174 0.09088764 0.10901986 0.15133157 0.040296573 0.012034395
-0.039810475 0.07897737 -0.097755544 0.025604535 0.017159602 0.121737875 0.013234246 -0.09928626
-0.15441963 0.13549945 0.064590104 0.06414853 -0.01726685 0.00880479 0.074128464 -0.06804721

network_body._body_endoder.seq_layers.2.bias f4 [128]
00000000: 0000 0000 0000 0000 0000 0000 0000 0000
00000010: 0000 0000 0000 0000 0000 0000 0000 0000
00000020: 0000 0000 0000 0000 0000 0000 0000 0000
00000030: 0000 0000 0000 0000 0000 0000 0000 0000
00000040: 0000 0000 0000 0000 0000 0000 0000 0000
00000050: 0000 0000 0000 0000 0000 0000 0000 0000
00000060: 0000 0000 0000 0000 0000 0000 0000 0000
00000070: 0000 0000 0000 0000 0000 0000 0000 0000
00000080: 0000 0000 0000 0000 0000 0000 0000 0000
00000090: 0000 0000 0000 0000 0000 0000 0000 0000
000000a0: 0000 0000 0000 0000 0000 0000 0000 0000
000000b0: 0000 0000 0000 0000 0000 0000 0000 0000
000000c0: 0000 0000 0000 0000 0000 0000 0000 0000
000000d0: 0000 0000 0000 0000 0000 0000 0000 0000
000000e0: 0000 0000 0000 0000 0000 0000 0000 0000
000000f0: 0000 0000 0000 0000 0000 0000 0000 0000
00000100: 0000 0000 0000 0000 0000 0000 0000 0000
00000110: 0000 0000 0000 0000 0000 0000 0000 0000
00000120: 0000 0000 0000 0000 0000 0000 0000 0000
00000130: 0000 0000 0000 0000 0000 0000 0000 0000
00000140: 0000 0000 0000 0000 0000 0000 0000 0000
00000150: 0000 0000 0000 0000 0000 0000 0000 0000
00000160: 0000 0000 0000 0000 0000 0000 0000 0000
00000170: 0000 0000 0000 0000 0000 0000 0000 0000
00000180: 0000 0000 0000 0000 0000 0000 0000 0000
00000190: 0000 0000 0000 0000 0000 0000 0000 0000
000001a0: 0000 0000 0000 0000 0000 0000 0000 0000
000001b0: 0000 0000 0000 0000 0000 0000 0000 0000
000001c0: 0000 0000 0000 0000 0000 0000 0000 0000
000001d0: 0000 0000 0000 0000 0000 0000 0000 0000
000001e0: 0000 0000 0000 0000 0000 0000 0000 0000
000001f0: 0000 0000 0000 0000 0000 0000 0000 0000
0.0 0.0 0.0 0.0 0.0 0.0 0.0 0.0
0.0 0.0 0.0 0.0 0.0 0.0 0.0 0.0
0.0 0.0 0.0 0.0 0.0 0.0 0.0 0.0
0.0 0.0 0.0 0.0 0.0 0.0 0.0 0.0
0.0 0.0 0.0 0.0 0.0 0.0 0.0 0.0
0.0 0.0 0.0 0.0 0.0 0.0 0.0 0.0
0.0 0.0 0.0 0.0 0.0 0.0 0.0 0.0
0.0 0.0 0.0 0.0 0.0 0.0 0.0 0.0
0.0 0.0 0.0 0.0 0.0 0.0 0.0 0.0
0.0 0.0 0.0 0.0 0.0 0.0 0.0 0.0
0.0 0.0 0.0 0.0 0.0 0.0 0.0 0.0
0.0 0.0 0.0 0.0 0.0 0.0 0.0 0.0
0.0 0.0 0.0 0.0 0.0 0.0 0.0 0.0
0.0 0.0 0.0 0.0 0.0 0.0 0.0 0.0
0.0 0.0 0.0 0.0 0.0 0.0 0.0 0.0
0.0 0.0 0.0 0.0 0.0 0.0 0.0 0.0

value_heads.value_heads.extrinsic.weight f4 [1, 128]
00000000: 8528 5dbc d0a4 febd 813f 243d 9bde 14be
00000010: 4df8 d53c cfa3 613d 6f65 df3d cdf9 003d
00000020: 09e7 ac3d 1d3b d43b e9e0 33be be82 2b3e
00000030: 4b4e 403e 8471 e2bd 5071 513e 7d2b 0d3e
00000040: 1356 0e3e b561 4fbe 5f09 89bc c53e e93d
00000050: f47d 193e 3f72 fe3d bc27 ebbd 9647 5b3e
00000060: 329c 383d f9cb 323e 06ae 0b3d 97e1 1d3e
00000070: 4f38 31be 15ae 3cbe 29f1 b9bc b8e0 363e
00000080: 3aff 453d 5dea a3bd 9502 1abe 04c2 8d3d
00000090: a964 40bd 79fc 44be f386 cb3d edc3 39bc
000000a0: 94a5 a7bc ea66 7b3d 57eb 29be 4fc8 523e
000000b0: 7963 243e db1c 5bbd 3c9c 42be ee4d 90bd
000000c0: 68fa d43c a00c 003c b822 17be a40d eb3d
000000d0: 9936 53be 0de8 b33d a6ac 393e 40b1 873d
000000e0: 2377 2ebd 05aa 0bbd 3a84 443e a498 16be
000000f0: 2746 b13d dec8 0c3e be7c b13d 2fc9 463e
00000100: bbae 46be 343c cf3d 360f 413d d450 44be
00000110: 896a 59bb fa9b 8cbd 4049 3c3c a296 44bc
00000120: 9638 12bc c295 4f3e e98b 2bbd 3783 9b3b
00000130: cb95 30be 77a9 5cbe ba6d c13c 9738 33be
00000140: 5fbf 053e 4dea 2abe 28d0 c33d 74fb 463e
00000150: c118 b1bd 5d5c b1bc 2a66 293e 44fc bbbd
00000160: a144 233e b6ed 8ebb fe7f 033c 55e8 443e
00000170: e933 e53b 4354 013e eaf0 47be 4089 123e
00000180: ba35 323e 9d78 ddbd b19e 60bb 4275 3b3e
00000190: 8fa6 183e c33e b0bd 82c4 d93d 49db ab3d
000001a0: a74f 333e bae6 193e 7520 4d3e dc0a 883d
000001b0: 34ea 0e3d 8dbf 09be d67c 29be 84bb 9fbd
000001c0: b3c7 1d3e 1e6e 4bbe 35b7 52be 4c77 30be
000001d0: e589 e23d f300 483e c029 e0bd d60e 4a3e
000001e0: 299f e9bd 4a40 413e 1334 2c3e 45c3 153e
000001f0: debd 19be 3cc4 9e3d 74c7 fd3d 71e5 5d3b
-0.01349843 -0.12433779 0.040099625 -0.14538042 0.026119376 0.05508786 0.10908019 0.03148823
0.08442504 0.0064767734 -0.17566265 0.16749093 0.18779866 -0.11056808 0.20453382 0.1378612
0.13900022 -0.20252116 -0.016728101 0.113889255 0.14989454 0.124241345 -0.11482188 0.21414027
0.045070834 0.17460622 0.03410151 0.15418087 -0.17306636 -0.18425782 -0.022698002 0.17859161
0.048339106 -0.080036856 -0.15040047 0.06921771 -0.046970997 -0.19236936 0.09937849 -0.011338216
-0.020464696 0.061377443 -0.16593681 0.20584224 0.16053571 -0.053494316 -0.19004911 -0.07046114
0.02599831 0.00781551 -0.14759338 0.11477211 -0.20626296 0.087844945 0.18132266 0.06625605
-0.042594086 -0.03409769 0.19191065 -0.14706665 0.086559586 0.137485 0.08666371 0.19412683
-0.19402592 0.10118905 0.047133647 -0.19171458 -0.0033175072 -0.06865688 0.011492074 -0.011998804
-0.008924624 0.20271972 -0.041881476 0.0047458666 -0.17244641 -0.2154902 0.023611892 -0.17502056
0.13061284 -0.16690941 0.09561187 0.19431859 -0.086472996 -0.021650488 0.16542879 -0.09178975
0.15944149 -0.0043618334 0.008026121 0.19229253 0.0069947136 0.126298 -0.19525495 0.14310169
0.17403308 -0.10814021 -0.0034274275 0.18306449 0.14907287 -0.08605721 0.10633184 0.08391435
0.17510854 0.15029421 0.20031913 0.06642696 0.034891322 -0.13451977 -0.16551527 -0.07799438
0.1540821 -0.19866225 -0.205777 -0.17233008 0.110614575 0.19531612 -0.10945463 0.19732222
-0.114073105 0.1887218 0.1681674 0.1462527 -0.15013835 0.077522725 0.12391558 0.0033858682
