ML-Game/results/MLBrain1/MLGameTest1/MLGameTest1-499991.onnx (onnx, 233811 bytes, 6 tensors)

network_body._body_endoder.seq_layers.0.weight f4 [128, 315]
000000 ad d2 bb bb 49 2b 1a 3d f4 c7 db 3b 60 85 38 bd
       -0.0057319016 0.037638936 0.006707186 -0.04504907
000010 78 fd fe 3c 9b 3e e9 3c ac f7 aa bd 5c 26 1d bd
       0.031126723 0.028472235 -0.08348021 -0.03836666
000020 8c 5a cb bc b2 8e 29 bd 19 27 51 bc 6b 49 df 3a
       -0.02482345 -0.04139585 -0.012765669 0.001703543
000030 df b6 29 bd 61 d0 35 3d 59 e1 55 bd b2 d3 0b bc
       -0.041434165 0.04438818 -0.05221686 -0.008534359
000040 47 2b 9a 3d 10 de d6 bb 70 16 89 bd 87 e7 e3 3c
       0.07527786 -0.0065572336 -0.06693733 0.027820362
000050 c1 71 e1 bc af c1 35 bc a8 35 a4 bd 9f 8e 62 bd
       -0.027520062 -0.011093541 -0.080180466 -0.055311795
000060 62 ef 4c 3b 24 64 aa 3d 1e 7b 97 bb 9a f6 94 bd
       0.0031270613 0.083198816 -0.004622831 -0.07273598
000070 f8 e5 a9 bd ac f7 91 3c e6 b5 92 bd 01 fe 70 3c
       -0.08295816 0.017818294 -0.071636006 0.014708997
000080 ef 49 02 3c de 8b 8c 3c 9a aa 26 bc ae 3a 1b bc
       0.007952197 0.017156538 -0.0101725105 -0.00947444
000090 dc 40 d5 3d bd 02 47 bc db 25 3f 3d 84 b1 ec 3c
       0.104127616 -0.012146649 0.04666696 0.02889324
0000a0 8a 4d bb bc 72 60 f3 bc d9 c1 79 be d0 2a f5 3d
       -0.022864122 -0.029709075 -0.24390353 0.119710565
0000b0 8d 74 89 3d 5d 20 c8 3a 31 4b 9c bd 25 3e c5 3d
       0.067116834 0.0015268434 -0.07631529 0.09630994
0000c0 e7 81 92 bd 0f 4b 93 3c 72 29 87 bd 7b 04 c5 3b
       -0.07153683 0.017980127 -0.06599702 0.006012497
0000d0 5c a5 bc 3c 44 bf 91 bc 13 d4 94 bd f5 c3 25 bc
       0.023028068 -0.017791398 -0.072670124 -0.010117521
0000e0 c1 db 02 bd 6b 03 4d bd e9 70 7f 3d 25 e3 f4 3d
       -0.031947855 -0.050052088 0.06236354 0.11957387
0000f0 e8 f1 7a 3d 1a 83 6c 3c ad e0 53 bc 5c 0a 47 bd
       0.061265856 0.014435554 -0.012931985 -0.048593864
000100 69 5a b1 bd c9 38 c0 bd 5f 9f 07 bd 78 a4 ed bc
       -0.086598225 -0.09385831 -0.033110972 -0.029009089
000110 02 87 b2 bd 45 ef 7e 3d 8e fd de bc 89 0f bc bc
       -0.08717157 0.062239904 -0.027220514 -0.022956626
000120 6d 50 c6 bd 9a 05 c8 3d 4b b6 b0 bd 0f e2 82 bc
       -0.09683309 0.097666934 -0.086285196 -0.015976934
000130 6e e3 63 3b 06 db eb bd 44 d6 d8 3a 9f 23 16 bd
       0.003477301 -0.11516385 0.0016543348 -0.036655065
000140 0f 04 07 bd cb 95 c3 3c 93 a5 66 3c b7 69 c4 bc
       -0.032962855 0.023875138 0.014077562 -0.02397619
000150 ac 35 f6 bd 06 a4 14 bd 65 ee ad bc 89 1b 6d 3d
       -0.12021956 -0.036289237 -0.02123184 0.057887588
000160 8e 9a 16 3c 74 70 fe 3a 37 ea 8f 3d b2 3e 98 bd
       0.009192122 0.0019412176 0.07027095 -0.07433833
000170 77 34 de 3d 05 5d 89 bc f9 70 b0 bd fa 20 a0 bd
       0.108498506 -0.016767988 -0.08615298 -0.0781879
000180 d3 5a f8 bd dc a1 2a bd f1 e9 af 3c 52 4d e9 3c
       -0.12126698 -0.041658267 0.021473857 0.028479252
000190 38 46 b5 bd cf 4a 35 bd 6e 13 b3 bd ae 5a 47 3d
       -0.08851284 -0.044260796 -0.0874394 0.048670463
0001a0 85 e7 2a 3e f6 fb 54 3d d1 1f aa bd 46 71 4e 3b
       0.1668988 0.0519981 -0.0830685 0.0031500622
0001b0 df 72 72 3d 4a 09 48 bd a1 0e 87 3d 62 b0 10 bd
       0.05919158 -0.048836984 0.06594587 -0.03532446
0001c0 14 61 29 bb 8b a6 19 bd f3 90 3f bc 7a c3 16 bd
       -0.0025845217 -0.037512343 -0.011692273 -0.036807515
0001d0 86 d8 8e 3d f0 d5 46 3d 1c 97 ab bd 9d b0 da 3c
       0.06974892 0.04854387 -0.08378431 0.026695544
0001e0 f4 6b 0d be b5 75 eb 3c d6 7d 25 bd e6 44 d7 bd
       -0.13810712 0.02874265 -0.04040321 -0.10511188
0001f0 1b 9c 61 3c 8a 4a 10 be c3 b3 a8 3d 1d 76 63 bb
       0.013770129 -0.14090934 0.08237412 -0.0034707852
000200 d7 9d e4 3b 58 bf 9f bd 90 ae 52 3c fd 33 dc bd
       0.006976824 -0.07800168 0.012859002 -0.107521035
000210 77 32 5e 3d 1e dd 3d be 70 40 e8 bc f4 a3 f6 bc
       0.054247346 -0.18541381 -0.028351039 -0.030107476
000220 e7 cf 03 bd 70 b5 b3 3d d5 01 3b 3d 18 21 f5 3c
       -0.032180693 0.08774841 0.045656044 0.029923007
000230 49 ba ae 3b 60 b5 8c bd 44 c7 58 3c 44 0e c4 bb
       0.0053322655 -0.06870532 0.013231102 -0.005983146
000240 0b 43 8e 3d 5d 32 c6 bc 97 bb ca 3d 42 4b a0 3d
       0.06946381 -0.024193937 0.09899061 0.07826854
000250 d4 99 89 bd f9 c1 e1 3c cd 8c 99 bd b5 01 e4 3d
       -0.067187935 0.027558314 -0.07497559 0.11133138
000260 04 57 64 3e 8b e9 8e 3d 81 5b 4a be df 6e 66 3d
       0.22298819 0.069781385 -0.19761468 0.05625808
000270 81 c7 80 3c 93 5a c2 3d c9 f9 88 3b 6f 80 a3 bb
       0.01572013 0.09489932 0.0041801673 -0.0049896757
000280 cf 01 83 bd 6e 0b 0d 3e 79 64 11 be 57 0f c9 3d
       -0.06396829 0.13773891 -0.14198484 0.09817379
000290 a7 bb 7e 3d 21 63 01 be 65 d7 8a 3c 49 68 0f 3e
       0.062190678 -0.12635471 0.016948411 0.14004625
0002a0 3d 02 64 be e0 b0 45 bc df d5 14 bd 89 ae d9 3c
       -0.22266479 -0.012066096 -0.036336776 0.026572483
0002b0 d1 02 bd bd 60 27 49 3d 2a 73 d7 bd 5c 95 66 bc
       -0.09229053 0.049109817 -0.10520013 -0.014073696
0002c0 be 89 bc bd 7a 31 72 bd 8a a7 19 3e a3 64 98 3d
       -0.0920596 -0.059129216 0.15005317 0.0744107
0002d0 79 a0 42 bc da fe a1 bc df 63 aa bd 20 bf dc bd
       -0.01187908 -0.019774843 -0.0831983 -0.10778642
0002e0 51 d1 21 3e c6 7f 6e 3d 8f d1 24 bd 36 31 a4 3c
       0.15802504 0.058227323 -0.040238913 0.020042997
0002f0 c6 84 41 bd 01 00 4c 3d 1a fd b4 bd 95 8d 82 3d
       -0.047245763 0.04980469 -0.08837338 0.06374661
000300 9f 96 85 bc ee d4 0d be 33 24 82 3d a3 71 f7 ba
       -0.016307173 -0.13850757 0.06354561 -0.0018878471
000310 d3 99 a2 3c bb 24 a7 3d b1 cb 93 bc 02 f8 94 3b
       0.01984874 0.08161303 -0.018041464 0.0045461664
000320 eb 51 8c bb 65 2f 4f 3d 19 41 6c be 8e 80 94 bd
       -0.0042822263 0.05058231 -0.23071708 -0.07251082
000330 27 11 ef bc 01 2a 05 3e cf 7a 90 3d 21 a2 8d 3c
       -0.029182984 0.13004304 0.07054674 0.017289223
000340 3d 8e 4c be f9 4b dd bd 63 f7 ef bd e5 e7 4b 3d
       -0.19976135 -0.10805506 -0.11717107 0.0497817
000350 78 41 91 3d a4 b8 22 3d d5 80 05 be 64 b6 8d bd
       0.07092565 0.03972687 -0.13037427 -0.06919554
000360 02 7f 92 3d 16 50 a5 3d 8f 4f 10 3e aa 4a 8b 3c
       0.07153131 0.08071916 0.14092849 0.017003376
000370 da 54 1a 3e f2 9d bd 3d 4e e1 00 bc 68 9e 6f bb
       0.15071431 0.09258641 -0.007866217 -0.0036562923
000380 77 29 5c 3d 5c 03 a7 bd 6c 4d 83 3d 6e a1 02 3e
       0.05375048 -0.081549376 0.064112514 0.12756893
000390 77 4d 0a bd 6b 6a eb 3d 62 ff 8a 3d 54 9a 8f 3c
       -0.033765282 0.11494907 0.06786992 0.017529644
0003a0 2b c8 4c 3d 78 bd 34 3c bb a3 1d bb 88 d0 11 3e
       0.049995583 0.011031501 -0.002405389 0.14239705
0003b0 08 b3 67 3d a8 25 fb 3c fb 30 0a 3d 0f 3f 61 3d
       0.056567222 0.030657604 0.033738118 0.054991778
0003c0 49 37 e0 bd f5 63 5b 3b 3d c8 b3 3d cf bb dd 3d
       -0.10948045 0.0033476327 0.08778427 0.10826837
0003d0 36 2c ef bd 42 f3 8c 3d 6b 5e a9 bd 7b 2c b2 3d
       -0.116783544 0.06882335 -0.08269962 0.0869989
0003e0 bb ee db 3d cc 0a 29 3e b9 ad d6 bd de 46 df 3d
       0.107388936 0.16508025 -0.10482354 0.10902189
0003f0 98 ae a6 ba 31 9a b9 bd 3a f4 cd 3c 80 dd f2 bc
       -0.0012716828 -0.09062613 0.02514087 -0.029646635

network_body._body_endoder.seq_layers.0.bias f4 [128]
000000 d1 4f 2b bd b7 5a 15 bd 96 4f af 3d 40 73 fe bc
       -0.041824166 -0.036463466 0.08560102 -0.031060815
000010 ff 36 76 3b b9 5e b2 3c 68 82 3a 3d 96 ca 0a 3d
       0.0037569401 0.021773683 0.04553452 0.033884607
000020 3e 7f 74 bc b4 6f 22 bd 90 4e dc bb 02 07 0f 3d
       -0.014922915 -0.03965731 -0.0067232326 0.034918793
000030 95 39 02 3d be 33 0a bd 1a c7 03 bd 8a 2c 5b bb
       0.031793196 -0.03374075 -0.0321723 -0.0033443295
000040 b5 31 bd 3b 70 a5 d2 bc 2a b2 a8 3c 11 2e 38 bd
       0.005773748 -0.025713652 0.020592768 -0.044965807
000050 2d ec 7e 3c a4 9a 16 bd b3 a8 47 bd cf 5d 2c bd
       0.015559238 -0.03676857 -0.04874487 -0.04208165
000060 7c 57 60 3b d0 a7 44 3c e9 6f 87 3c 61 fe 5f 3d
       0.0034231832 0.0120029 0.016532855 0.054685954
000070 0e e5 31 3d 1e 90 13 bd 28 f2 9f 3c 37 93 84 bc
       0.043431334 -0.036026113 0.019524649 -0.016183479
000080 a6 ec fb bc 8d 52 bd 3c 34 fa 60 3d 45 b8 13 bc
       -0.030752491 0.023110652 0.054926112 -0.009016101
000090 f5 6d 69 bb e6 9f 8e bc be 9c 30 bc 10 4b 76 bc
       -0.0035618518 -0.01741023 -0.010779558 -0.015032545
0000a0 ea 7f 21 3d 75 5c ee 3c aa 44 04 3d a6 e0 29 3b
       0.03942863 0.029096821 0.032292046 0.0025921254
0000b0 6b 0d 89 3c fa 9d e7 bc fb 4b 54 bd f6 8f 44 bd
       0.016730031 -0.028273571 -0.051830273 -0.047988854
0000c0 36 b0 b1 3c 34 fe 47 3b 4c 37 84 bc e4 c2 8a bd
       0.02169047 0.0030516507 -0.016139649 -0.06775454
0000d0 96 e2 10 bd 80 7c 21 bc 49 cf b4 bc bb 8e fe 3c
       -0.03537234 -0.009856343 -0.022071498 0.031073919
0000e0 e9 ae 30 3d f6 47 25 bc 85 96 37 3d 9d 7d e7 3c
       0.043135557 -0.010087958 0.04482128 0.02825814
0000f0 e0 7e d5 3c 2e f1 32 bd ec 5e 8c 3c e1 ab 6e ba
       0.026061475 -0.043687038 0.017135106 -0.00091045914
000100 bf 1d 6b bc bf a8 6c bc 3d 1c dd 3c 4b 60 51 bc
       -0.014350354 -0.014444529 0.026991004 -0.012779306
000110 30 5a be 3c 56 84 a0 bc 5f ff 34 3d d5 61 5b 3c
       0.023236364 -0.019594353 0.044188853 0.013390024
000120 68 39 7e 3c d8 db 86 bc 0a 1d 38 3d 17 1a 36 bc
       0.015516616 -0.016462252 0.04494957 -0.011114619
000130 41 e6 8f 3d 45 d7 0b bd 2e d6 37 bd c4 7f 1b 3d
       0.07026339 -0.034140844 -0.044881992 0.037963644
000140 29 30 c5 bb 5b 23 f0 bc 2c 84 d5 3c 3c f5 98 bc
       -0.006017704 -0.029313734 0.026064001 -0.018671624
000150 4e e7 0b bd d3 87 76 3c 8b d1 2f bd ee 9c 45 3d
       -0.034156136 0.015047031 -0.042924445 0.048245363
000160 26 57 62 3d 52 7c 3b bd e6 ac e4 bc 66 46 4f 3c
       0.055258892 -0.045772858 -0.027914476 0.012651062
000170 43 0d f8 bc 5d d1 25 3c 3a fe 36 bd 95 07 84 bd
       -0.030279761 0.010120717 -0.044676043 -0.06446759
000180 f4 55 cd 3c d5 13 47 3c 5b 7c 29 bd 91 83 ee 3a
       0.0250654 0.012150724 -0.04137836 0.0018197169
000190 4d 78 70 3d fa 3f 8f bc 58 62 58 bc 22 76 f6 bb
       0.058708478 -0.017486561 -0.013207041 -0.0075214067
0001a0 79 ad 43 3c db 5a 4e bd 23 ce 49 3c 54 af 9d 3c
       0.011943215 -0.050379615 0.012317213 0.019248642
0001b0 c2 c4 d2 bc 63 26 ab bc 6b b1 43 3d a4 90 0d 3d
       -0.025728587 -0.020892328 0.04777662 0.03456177
0001c0 d0 fd 45 3c 4c 9e 4e bd f6 05 ec 3b c1 71 07 3d
       0.012084439 -0.050443932 0.007202859 0.03306747
0001d0 fc 35 8e 3c 72 d3 87 bc 41 31 3b bd 74 58 a3 3b
       0.017359726 -0.016580317 -0.04570127 0.0049849097
0001e0 a8 af bf bb 07 c9 c1 bc 13 df 33 bc 8e 99 cf bc
       -0.0058497973 -0.023655428 -0.010978478 -0.025341775
0001f0 2c 4e 11 3d 56 e7 03 3b 6e b8 f6 3c 4f 3a 8d 3a
       0.03547494 0.00201269 0.03011724 0.0010774824

network_body._body_endoder.seq_layers.2.weight f4 [128, 128]
000000 7e 6d d4 3d 7f 43 02 3e e1 3e 19 be 5e 9e 82 bd
       0.103724465 0.1272106 -0.14965393 -0.063778624
000010 f7 bb 1c 3e c7 dd e3 bd bc 3e 15 bd 1d 94 26 3d
       0.15306078 -0.11126285 -0.03643678 0.040668596
000020 72 92 88 bd de 5b df 3c 01 48 0d 3c 7c 34 45 3e
       -0.06668557 0.027265485 0.008623124 0.19258302
000030 0d 8e 48 bd 7d 09 c0 bd 30 24 56 3d 8d 5e 8a 3c
       -0.048963595 -0.0937681 0.052280605 0.016890788
000040 31 1a 5b 3d 6b 35 4d 3d c2 8e a7 bd 58 65 d2 bd
       0.053491775 0.05009977 -0.08181526 -0.10273236
000050 f7 30 ed bc fc 3a 44 3d d4 6d fe bb e4 bf 57 be
       -0.028954012 0.047907814 -0.0077645574 -0.21069294
000060 ce da 2d 3e 1b aa fd bc a2 ce 0d 3e ca ee 9c 3e
       0.16977999 -0.030964902 0.13848355 0.30650932
000070 30 56 db 3d ec 58 3f bd 09 39 d3 3d 0d 67 7f 3e
       0.10709798 -0.046715662 0.10313613 0.24941655
000080 f3 d2 4e 3e 04 1c 13 3c 54 cc 76 3d 56 35 ec bc
       0.20197658 0.008978847 0.060253456 -0.028834026
000090 b6 fe 46 3e 69 1a ef 3d b7 28 2b be 69 02 7c 3d
       0.19433102 0.11674959 -0.1671475 0.061525736
0000a0 8b ac 7d 3d 91 53 14 be 7d 59 3e 3d b4 fe 5b be
       0.061932128 -0.14485003 0.04647206 -0.2148388
0000b0 28 91 0b be 6a d3 fd bb 27 92 90 3d de e3 d1 bd
       -0.13629591 -0.00774615 0.07059126 -0.1024854
0000c0 02 65 55 bc f6 59 02 be b2 b1 33 3e 7e aa 92 bd
       -0.01302457 -0.1272963 0.17548254 -0.07161425
0000d0 60 5e 12 bb 3d 90 1d 3e ea d5 c5 3d cd 8a 6b be
       -0.0022334084 0.15387054 0.096599415 -0.23002167
0000e0 9a 8d 6b bd 3d 61 46 bd 9e c1 33 bb 2a 2f 8e bd
       -0.05750809 -0.048432577 -0.0027428637 -0.069425896
0000f0 79 ad f5 bd d3 47 e2 bd bc 1f c7 bb 27 5b 97 bd
       -0.11995978 -0.11048856 -0.006076781 -0.07390433
000100 28 8d ea 3d fd af 28 3e 41 ca 30 bd b9 6f 03 bc
       0.11452705 0.16473384 -0.043161634 -0.008022242
000110 06 f7 79 3c ae 9f 4a 3e 42 d9 1c 3d 91 67 d4 bd
       0.015256649 0.19787475 0.03829313 -0.10371316
000120 37 a1 bf bd 93 0e d5 bc 19 6a 13 be ed 25 74 3d
       -0.09356921 -0.026007926 -0.14395942 0.05960648
000130 37 de 1c bd 76 0d a1 3d ad c9 e7 bd 03 97 a0 bc
       -0.038297858 0.078638956 -0.113177635 -0.019603258
000140 a7 84 f4 ba 5f e7 9c bd 47 6a 71 be 5c ec 0d 3d
       -0.0018655256 -0.07661318 -0.23575698 0.034649238
000150 a4 a5 a2 3c 83 c2 ff bc 05 54 ed bc d0 c6 89 3e
       0.019854374 -0.03122068 -0.028970728 0.26909494
000160 a7 90 32 be e2 6b 9c bd ec 6c 76 3d f0 7c d5 3c
       -0.17437993 -0.076377645 0.06016247 0.026060551
000170 7f 47 86 3e 6d 9e cd 3c f1 cb 71 bd 99 f8 6a be
       0.26226422 0.025099957 -0.059032384 -0.22946395
000180 fb 52 51 3d 85 03 05 be d4 bd 93 3d e2 93 8f 3d
       0.051104527 -0.12989624 0.07213941 0.07010628
000190 75 22 49 3e ba 0f 0c 3e 58 4f 0f 3d 30 b8 04 3e
       0.1964205 0.13677874 0.034987777 0.12960887
0001a0 99 55 bf 3d 95 20 04 3e a6 4e d9 bc 59 70 f4 bd
       0.09342498 0.12903054 -0.02652676 -0.11935491
0001b0 39 57 0d 3e dc 1e 4a bd 23 c3 1c bd b1 76 00 be
       0.13802804 -0.049345836 -0.038272034 -0.12545277
0001c0 c6 e8 1b 39 a7 d0 cb bd 56 57 90 3d 03 2a 22 be
       0.00014868667 -0.09951907 0.07047908 -0.15836339
0001d0 35 b1 43 3d ad 1e b6 bc 57 82 6a be 00 e7 4e 3c
       0.04777642 -0.022231424 -0.22901283 0.012628317
0001e0 f1 5b 4a 3e 23 9f da bd c7 94 34 3e 23 1e 88 3d
       0.19761635 -0.10674884 0.17634879 0.06646373
0001f0 2a 04 5a 3d 9c 65 19 be 69 5c 0b bd a6 ab a2 bd
       0.053226627 -0.14980167 -0.034023676 -0.079428956
000200 f4 6a 82 3c b0 ee 2b be a1 b7 b3 3e 78 f5 99 3d
       0.01592014 -0.16790271 0.35101035 0.075175226
000210 db d6 5d be 20 63 40 3d 51 79 8e bc aa 65 ec bd
       -0.21663992 0.046969533 -0.017391833 -0.115428284
000220 8f 55 5c bd 44 f4 20 be 38 e3 97 bd 63 83 b8 3d
       -0.053792533 -0.1571818 -0.074163854 0.09009435
000230 bb 5d 9f 3b 84 c3 a0 3d b7 2e 08 be 85 0c d2 3d
       0.0048634685 0.07849792 -0.1329907 0.10256294
000240 7b 0c 34 be f6 0b 0f 3d 0b a3 5c 3d ff 38 23 be
       -0.17582886 0.034923516 0.053866427 -0.15939711
000250 17 dd 5e be e3 89 c3 bd 58 39 00 3d ec b3 ac bc
       -0.21764027 -0.09547784 0.031304687 -0.021081887
000260 cb b1 91 bd bd 48 37 3e cd c4 9c be de e6 25 be
       -0.071139894 0.17898841 -0.30618897 -0.1620135
000270 b5 6b af 3d 71 67 80 bd a1 9d 11 be 9a 30 42 be
       0.08565465 -0.0626973 -0.14220287 -0.18963853
000280 93 4e 5e be e1 83 17 bd b1 3a 5b 3d 11 9d f5 bc
       -0.21709661 -0.036991004 0.05352277 -0.029982122
000290 87 b3 e9 bd f2 2c 98 3e 4e aa 6b 3d b5 b4 92 be
       -0.11411195 0.2972179 0.057535462 -0.28653494
0002a0 ac 0f bd bd 5a 85 09 be 6b f2 1f 3d 5f 3d a7 bd
       -0.09231505 -0.13429776 0.039049547 -0.081660025
0002b0 2d dd 58 3e 73 7a f7 b9 5a 05 98 bd 13 03 ce 3c
       0.21178122 -0.00047202743 -0.07422896 0.02514795
0002c0 0b d4 1c 3e f1 6c 12 3d e8 e6 11 be e0 fb 5a bd
       0.15315263 0.035748426 -0.1424824 -0.053462863
0002d0 d8 d6 ac 3d 24 7a 91 be 72 e4 8f bd a9 eb d4 3d
       0.08439416 -0.28413498 -0.07025994 0.10396511
0002e0 bd f6 9f 3b 3e bf 8c be 80 f9 74 3e 6b 30 d9 bd
       0.0048817084 -0.27489656 0.23923302 -0.10604938
0002f0 97 9f 80 be eb 53 92 bd ae 24 90 bd ac a4 bc bc
       -0.25121757 -0.07144912 -0.07038246 -0.02302774
000300 b9 37 db bc b4 10 4d 3d c2 7a 03 be e9 58 49 3e
       -0.02675997 0.050064757 -0.12839797 0.19662823
000310 c8 a9 24 be 1e f0 02 bd 01 29 11 be 87 45 c4 bd
       -0.16080391 -0.031967275 -0.14175798 -0.09583574
000320 ad 07 77 bd 61 ab e0 3d 3a 96 01 3e 3a c3 db 3c
       -0.060310055 0.10970188 0.12654963 0.02682649
000330 20 ea c5 bc e9 d9 f3 bd f7 08 53 be 43 3f 5e 3d
       -0.024159491 -0.119067974 -0.20608889 0.05425955
000340 37 2c 6d 3c 66 67 76 bd c0 f7 89 3d 29 19 c4 bd
       0.014475874 -0.060157202 0.06736708 -0.095751114
000350 e5 75 82 bd 4f 68 5f 3d 7a e0 5c 3b c4 1b 6e 3e
       -0.06370143 0.054542836 0.0033703134 0.23252779
000360 d8 40 d9 bd 51 66 94 be 9c 08 61 bb 5a ff c0 bc
       -0.10608071 -0.2898431 -0.0034337407 -0.023559261
000370 fc 7e ae be 12 bc d7 bc 13 19 4e be f7 ea 98 bd
       -0.34081256 -0.026334796 -0.20126753 -0.07466691
000380 c8 27 1c 3e ec 03 0e be 13 da 0e be 28 e9 14 3e
       0.1524955 -0.13868684 -0.13950376 0.14542067
000390 23 d6 90 3e 8f 17 5d be ae 39 0e be 59 d1 6f be
       0.28288373 -0.21591018 -0.1388919 -0.23419704
0003a0 f8 82 7f 3d 53 e3 58 be f8 22 55 be 92 74 a0 3e
       0.06238076 -0.21180467 -0.20814121 0.31338936
0003b0 75 a4 4b 3d ca ab 1d bd 3d 5c 26 3e b8 18 67 be
       0.049717385 -0.03849391 0.16246124 -0.22568023
0003c0 85 a9 4e bd d3 c4 0c be 41 b6 0d be 79 c0 27 bd
       -0.050454635 -0.13746957 -0.13839056 -0.04095504
0003d0 2a 50 95 be d7 ca 13 3d fc de 89 bd 3e 6d 49 3e
       -0.29162723 0.036082115 -0.06731984 0.19670579
0003e0 ee 4b 45 bc 42 39 1e 3e 2a 90 29 3b 75 db 5e bd
       -0.012042029 0.1545153 0.0025873282 -0.05440851
0003f0 01 7f e9 bd c0 1d eb 3b 2a e0 2e 3d e1 77 81 bd
       -0.11401177 0.0071751773 0.04269425 -0.06321693

network_body._body_endoder.seq_layers.2.bias f4 [128]
000000 85 83 03 bd 95 7e c9 3d 01 a7 de 3c 12 30 65 bc
       -0.03210785 0.09838597 0.027179243 -0.013988512
000010 db fe 44 bd 2c 87 ba 3d 1b 5d a7 bb 72 95 aa ba
       -0.04809461 0.09107813 -0.0051075346 -0.0013014509
000020 00 55 f6 3c 3e e7 ec bc 2a df 1d bd bc c4 ef bb
       0.030069828 -0.028918859 -0.038542904 -0.0073171537
000030 09 93 47 bc ea 28 d2 bc 84 a7 78 3d 08 d5 7f 3d
       -0.012181052 -0.025654275 0.06070663 0.06245902
000040 9a 21 94 3c 22 84 2b bd a2 85 5b bd 90 24 81 3d
       0.018082429 -0.04187406 -0.05359424 0.06305802
000050 77 26 b3 bd ea b3 5f 3b 19 ab a5 3d 87 84 40 3d
       -0.08747571 0.0034134337 0.08089275 0.047001388
000060 a4 16 3f 3d b4 13 d6 bc 88 79 41 3c 6d 36 7e 3d
       0.04665245 -0.026132442 0.01180876 0.062063623
000070 17 0e ab 3d a3 66 90 3a 0f 5f da 3a 5d 6f b5 bc
       0.08352297 0.0011016916 0.001666041 -0.022147829
000080 08 2d 48 3d 63 00 65 bd a6 76 9e 3d 6a 1b 1d 3b
       0.04887107 -0.055908572 0.07737474 0.002397264
000090 5e 47 2b 3d aa 32 08 bc c0 f7 2f 3d ec 91 75 3d
       0.041816108 -0.0083128605 0.042960882 0.059953615
0000a0 00 d4 84 bd 16 54 0a bd e6 81 3b 3b da b5 90 3d
       -0.06485748 -0.033771597 0.002861136 0.070659354
0000b0 13 b9 91 bd 65 6a 82 bc a1 68 97 bc 48 63 7e bd
       -0.07115378 -0.015919873 -0.018482508 -0.0621064
0000c0 08 48 3f 3c ba 90 0d bc 36 ca 8d 3c 3b ef a2 3d
       0.011674888 -0.0086404625 0.017308336 0.07955786
0000d0 87 71 a2 bd c2 e9 cc 3b 19 11 d5 3c 6a 19 95 3d
       -0.0793181 0.006253452 0.02600913 0.07280238
0000e0 19 41 3b bc 4d f5 3f 3d e1 58 92 bd 54 c6 c0 bd
       -0.011429095 0.046864796 -0.071458586 -0.09412828
0000f0 0b 01 97 bd 5d d0 eb bc c8 af d9 3c a3 a9 ae bb
       -0.07373246 -0.028785879 0.026573077 -0.005330281
000100 ff a4 ea 3c 36 e8 ab 3d db 60 cf bd 39 d1 36 bb
       0.02864313 0.083939 -0.101258956 -0.0027895703
000110 6e 25 97 bd bb c9 34 3d 40 a8 ac bc a9 ec 84 bd
       -0.07380186 0.044137698 -0.021076322 -0.06490452
000120 d3 7a 82 3b ad 39 ed 3b d5 fe 31 3d 07 a3 87 bb
       0.003981927 0.0072395415 0.043455917 -0.0041393074
000130 e6 b4 0a 3d 8d 81 a1 bd 0d f4 7e 3d 53 55 53 bd
       0.033863924 -0.07886038 0.062244464 -0.051595043
000140 37 61 1a 3d 69 3a 51 3b 1e 28 6a 3d c3 3f f2 3c
       0.037690368 0.0031925684 0.057167165 0.02957142
000150 13 91 00 3e 4b 89 af 3d 71 a7 e3 bc 94 d1 67 3c
       0.12555341 0.085711084 -0.027789803 0.014149088
000160 03 67 1f 3c 03 89 be 3d a5 07 24 bb 10 be 62 3d
       0.00972915 0.09303477 -0.002502897 0.05535704
000170 4c 9a e1 3a 0d 23 87 3d bf 48 01 3d ff 4a 29 3d
       0.0017212122 0.06598482 0.031563517 0.041331287
000180 ff 32 ad bd 73 32 a7 3b ac f1 a5 3c 02 ab b3 3d
       -0.08456992 0.0051024496 0.02025684 0.087728515
000190 28 a0 44 3d 01 ba 38 3c 77 d0 bd bc 25 4c b2 3d
       0.0480043 0.011274816 -0.023170693 0.0870593
0001a0 bd 96 b3 3d a7 6e f2 bc a6 1d 4a bc 63 6f 23 3d
       0.087689854 -0.029593779 -0.01233617 0.03990115
0001b0 89 dd 88 bc cd 87 b8 3c 65 93 c0 bc 8c a1 ec 3c
       -0.016707199 0.022525692 -0.023507783 0.028885625
0001c0 22 67 05 3d df 05 2e 3b c5 c7 52 3d 89 08 79 bd
       0.03256906 0.0026553792 0.051460046 -0.060799155
0001d0 c4 8e 1b bd de 0f c6 3d 9c 23 46 3d 1d 8a 95 bd
       -0.03797795 0.09670995 0.048373803 -0.07301734
0001e0 00 8e 17 bd 87 c1 20 3c cf c0 3d bd c1 69 94 bc
       -0.037000656 0.0098117655 -0.046326455 -0.018116834
0001f0 46 64 33 bd da ec 43 bd 52 91 56 bc 2e 66 6c bc
       -0.0437968 -0.0478333 -0.0130961705 -0.014428658

action_model._discrete_distribution.branches.0.weight f4 [2, 128]
000000 10 15 5d bd 71 47 19 3e c7 fd e2 bd 9d 15 c6 bd
       -0.053975165 0.14968659 -0.110835604 -0.09672091
000010 d8 92 06 be 3d 48 cb 3d 92 38 0a be 19 1c 5e 3c
       -0.13141954 0.09925888 -0.13498142 0.013556504
000020 5d a0 54 3d fc e6 59 bd 5a da 78 bc 9e db 60 bd
       0.051910747 -0.0531988 -0.015188778 -0.054896943
000030 de 31 92 bd 13 3f be bc 48 72 35 3d f9 21 c0 3d
       -0.07138418 -0.023223436 0.04429844 0.0938148
000040 60 83 1b be 83 f6 cb 39 da fb 6b bd 17 10 11 3e
       -0.15186834 0.00038902843 -0.05761323 0.14166294
000050 b1 f4 11 ba 58 02 54 3d 3f 07 05 3e 0d 12 c1 3d
       -0.0005567773 0.051760048 0.12991045 0.09427271
000060 44 f4 49 3d be 70 98 bd 02 3d 64 3d 25 eb e7 3d
       0.049305215 -0.07443379 0.055722244 0.11324147
000070 0f bf ca 3d 2b cd 26 be 10 7a bf bb b9 1d 14 bc
       0.09899723 -0.16289203 -0.0058434084 -0.00904029
000080 5b 3b a5 3d 1e 26 77 bd 29 a1 dc 3d d5 05 06 be
       0.08067962 -0.060339086 0.10772926 -0.13088162
000090 58 df 78 3d 07 8a 76 3c 82 a3 ec bd 3b 53 ee 3d
       0.060759872 0.015047557 -0.11554624 0.11636969
0000a0 e9 0c bd bc 50 f7 0e bd 5b ec 04 be 2b 73 c8 3d
       -0.023077445 -0.034903824 -0.12980787 0.097875915
0000b0 18 9f 90 bc 4b 97 d5 bd ff 37 3b bc cf 3b b0 bd
       -0.017653987 -0.104292475 -0.011426925 -0.086051576
0000c0 54 2d 7a 3d d7 b8 c5 bd 84 36 52 3d 5b 57 f3 3d
       0.061078385 -0.09654396 0.05132152 0.11881896
0000d0 43 24 a6 bd 32 06 11 be cc 66 0c 3d c5 74 fa 3d
       -0.08112385 -0.1416252 0.034277722 0.12229303
0000e0 79 06 6a 3c 45 c5 48 3d 10 01 f2 bd f4 93 39 bd
       0.01428377 0.049016256 -0.11816609 -0.045307115
0000f0 3f 3c 15 bc 83 be 5a bd 83 eb 37 3d 36 cd 55 bd
       -0.009108602 -0.053404342 0.044902336 -0.052197658
000100 1b 63 00 bc ef 8d bd 3d 8b 3c 1e 3b d6 28 cb bd
       -0.007836129 0.09255587 0.0024144973 -0.09919898
000110 43 51 ae bc 1c e1 7d bd c2 e3 01 be 0d 2c fc 3b
       -0.021278983 -0.06198226 -0.12684539 0.007695681
000120 07 80 13 be 17 c7 62 3d 5c fa 44 3d 0b 9c dc bd
       -0.14404307 0.055365648 0.048090324 -0.1077195
000130 e0 ca a2 3d e5 af 2b bd 79 bf d5 3d f6 f6 b8 bd
       0.079488516 -0.041915793 0.10436911 -0.09031479
000140 fe b9 03 3e 35 64 27 be f8 d7 d6 3d c4 c4 f1 bd
       0.12863919 -0.1634682 0.104904115 -0.11805108
000150 40 30 25 3e a2 67 7c 3d ad ce 46 3d 86 1f 97 3d
       0.16131687 0.06162227 0.048536945 0.073790595
000160 8c c2 d0 3c 7b 2e 9e 3d 5a 2e 1c be 36 9a cc 3d
       0.025483392 0.07723709 -0.15252057 0.09990351
000170 92 54 08 be b8 03 fc 3d 99 22 e1 3d 09 5f 78 3d
       -0.13313511 0.12305397 0.10992927 0.060637508
000180 82 d3 94 bc 72 29 ef bd 0a a2 a7 3d 4b c0 31 3d
       -0.018167261 -0.11677827 0.081852034 0.043396275
000190 56 35 28 3d 0f 9e 86 3d 3a 57 56 bd 41 68 3a 3e
       0.04106649 0.06573116 -0.05232928 0.18203832
0001a0 1a a7 41 3e ca b8 20 bd 64 36 99 bd 0d f0 4d 3d
       0.189114 -0.03923873 -0.07481077 0.05027776
0001b0 6f 86 57 bd cb 42 ad bd 1f 75 7c bd e0 8f 95 3d
       -0.05261844 -0.084600054 -0.061635133 0.073028326
0001c0 27 71 be 3c 16 1a 0a be ba 32 e1 3c 98 29 93 bb
       0.023247315 -0.13486513 0.027490009 -0.0044910423
0001d0 91 10 f1 bc 50 3f ce 3d fd 5d 07 3e 9f b2 42 3b
       -0.029426845 0.1007067 0.13219447 0.0029708517
0001e0 f0 93 ca bd f5 82 06 be c9 af d6 bd 29 8c 60 3c
       -0.09891498 -0.13135894 -0.10482747 0.013705292
0001f0 b0 5b 6e bd 73 75 f8 bc 7e 1b d9 bd bc f7 0d be
       -0.05819291 -0.030329442 -0.10600947 -0.13864034
000200 7c c7 35 3d 90 a3 25 be 06 85 ee 3d 01 08 d4 3d
       0.044379696 -0.16175675 0.11646466 0.10353089
000210 61 79 f7 3d 71 ac d3 bd 57 93 1d 3e 9a 33 82 bc
       0.12083698 -0.10335625 0.15388237 -0.015893746
000220 d4 11 36 bd 48 17 d2 3c da 32 dc 3c 6f 91 75 3d
       -0.044450596 0.025645867 0.026879717 0.05995315
000230 1e 1a 81 3d b7 e1 55 3d b4 80 39 bd a7 1d d8 bd
       0.063038096 0.05221721 -0.045288756 -0.10552531
000240 f3 71 05 3e 65 f9 95 3b 7b b6 50 3d c6 b1 fc bd
       0.1303175 0.0045768493 0.050955277 -0.12338595
000250 ee 48 9a bb dd 19 36 bd 0f 62 e7 bd 3d ab b2 bd
       -0.004708401 -0.04445826 -0.11298 -0.08724067
000260 25 27 4e bd e1 db 96 3d 32 87 84 bd f4 e5 db bd
       -0.0503303 0.07366157 -0.06471099 -0.107372195
000270 83 73 c5 bd 6b 6e 29 3e 87 e8 b3 3b b7 36 3a bb
       -0.09641173 0.16546027 0.005490366 -0.002841396
000280 a1 6c 86 bd 67 56 6c 3d c3 13 bb bd 46 f1 03 3e
       -0.06563688 0.057699587 -0.091346286 0.12885007
000290 fe 4b a5 bd b5 69 1c bc d1 55 d1 3d f1 68 d8 bd
       -0.08071135 -0.009546687 0.10221446 -0.10566891
0002a0 f3 92 fa 3c fd d9 35 3d 56 15 09 3e b7 7c e8 bd
       0.030587649 0.044397343 0.13387045 -0.113519125
0002b0 d6 08 02 3d 24 ff ae 3d 35 61 3e 3c 8d b3 8d 3d
       0.031746708 0.08544758 0.011619856 0.06919012
0002c0 64 48 73 bd c8 30 d9 3d 20 24 3d bd 71 54 fb bd
       -0.05939521 0.106050074 -0.04617703 -0.12271965
0002d0 50 2b d3 3d 7f 90 01 3e b9 78 41 bd 26 54 f7 bd
       0.103109956 0.12652777 -0.04723427 -0.12076597
0002e0 f0 91 0d bd e7 88 4f bd ce d4 09 3e 66 59 41 3d
       -0.034563005 -0.05066767 0.13460085 0.047204398
0002f0 c8 93 15 3c 83 df 6d 3d 6b 55 0d bd df 28 86 3d
       0.009129472 0.058074486 -0.03450529 0.06550764
000300 63 7c b7 bb 23 3d b3 bd 3b d8 30 bc 05 c1 c7 3d
       -0.005599545 -0.08751895 -0.010793741 0.097536124
000310 4a 26 c9 3a 3d e8 52 3d 3d 28 fc 3d 1e 53 76 bc
       0.0015346494 0.05149101 0.12312362 -0.015034465
000320 24 f2 f9 3d a4 a1 88 bd de e9 29 bd 18 41 c3 3d
       0.12204388 -0.066714555 -0.0414828 0.095339
000330 b9 ca 8c bd 94 d7 c0 3c 44 62 e1 bd ac 72 cc 3d
       -0.06874604 0.023540296 -0.11005071 0.099828094
000340 a8 1f f2 bd ae 11 17 3e 71 50 cc bd dc e1 dc 3d
       -0.11822444 0.14752838 -0.099762805 0.10785267
000350 ae e4 0d be 3c 3d 86 bd 45 dc 16 bd 6b f9 94 bd
       -0.13856766 -0.06554648 -0.03683116 -0.07274135
000360 6d 93 a1 bc 8e 23 c2 bd ea db 0f 3e 60 15 b7 bd
       -0.019723618 -0.09479438 0.14048734 -0.08939624
000370 80 e0 ff 3d c9 40 e4 bd ef 8d f8 bd cf 18 76 bd
       0.12493992 -0.11145169 -0.12136447 -0.060082253
000380 13 5e d0 3c 1e fa da 3d 56 ec c2 bd 92 1b 3e bd
       0.025435483 0.10692237 -0.09517734 -0.04641301
000390 b1 de 00 bd c7 14 35 bd 31 64 8a 3d be 4b 2d be
       -0.031462375 -0.044209268 0.06757391 -0.16923425
0003a0 74 11 3a be 1e 64 ce 3c e3 9b 79 3d 28 a9 58 bd
       -0.1817072 0.025194224 0.06093968 -0.052895695
0003b0 b6 b4 20 3d 8d 61 b0 3d 23 55 75 3d 3c 8c 9f bd
       0.03923484 0.08612356 0.059895646 -0.077904195
0003c0 99 b3 cc bc 15 23 07 3e e6 bc 08 bd 29 f5 9d 3c
       -0.024987983 0.13196976 -0.033383273 0.01928194
0003d0 6b e8 e6 3a 5e b7 b0 bd a4 48 09 be 6b b3 27 bc
       0.0017616873 -0.086287245 -0.13406616 -0.010235648
0003e0 cf 85 d1 3d 3d 0c fc 3d 48 24 b6 3d 91 66 8e bc
       0.102306 0.12307022 0.08893639 -0.017382892
0003f0 a8 3a 63 3d 18 95 f2 3c 0f 46 c1 3d 75 75 11 3e
       0.05547586 0.029612109 0.09437191 0.14204963

action_model._discrete_distribution.branches.0.bias f4 [2]
000000 ed 92 7e 3d 47 92 7e bd
       0.062151838 -0.06215122
