ML-Game/results/MLBrain3/MLGameTest1/MLGameTest1-499973.onnx (onnx, 233811 bytes, 6 tensors)

network_body._body_endoder.seq_layers.0.weight f4 [128, 315]
-0.026768807 0.1542194 0.005353314 -0.044414997 0.079752855 -0.0075435992 -0.13440907 0.13066013
-0.041764215 -0.012326194 0.004542808 -0.071167015 -0.05921664 0.16221951 -0.105497375 0.022763282
0.036089446 -0.088172585 -0.067173146 0.13510439 -0.09299702 -0.018541802 0.015041628 -0.08536755
0.04656227 0.12055148 -0.0803752 -0.050163202 -0.06067431 -0.043198396 -0.07866374 0.13125843
0.009943768 0.055799786 -0.0110109085 -0.07482674 0.09068241 0.12430777 0.0676516 0.0951216
-0.07633425 -0.11006817 -0.20774245 0.18258147 0.067046456 0.15383683 -0.28794485 -0.020227944
0.030687142 0.0024228706 -0.08941654 0.21296723 -0.2557814 -0.14881179 0.060393784 -0.0338322
-0.07558151 0.09370079 -0.07516295 0.03586915 0.19132334 0.0014243287 -0.059839804 -0.052954324
-0.050372712 -0.12448013 -0.0029326966 -0.08453539 -0.14117737 0.044759527 0.030384135 -0.017198142
-0.108772635 0.13542031 -0.11374552 0.014655681 0.03176077 -0.12975627 0.006758555 -0.0003113263
-0.020046478 0.02345412 0.07146166 -0.028949728 -0.12152606 0.02384476 0.017160248 -0.00541012
0.118072376 0.022648254 0.01680491 0.09351838 0.18962976 -0.056787577 0.00802604 -0.059627302
-0.124664694 0.0068802782 0.07098845 -0.024024589 0.0071352157 -0.016971031 -0.09770726 0.1204577
0.22534567 0.07540025 -0.06637538 -0.0024951354 0.108086914 -0.066890545 0.095314264 0.0022492234
-0.0028411772 -0.046944242 -0.0018584571 0.021233486 0.120289214 0.10144999 -0.09998556 0.02880959
-0.10145587 0.033264022 -0.024666173 -0.07243081 0.0016805227 -0.13689806 -0.03897865 0.17876673
0.056032844 -0.18965153 0.19668542 -0.03337903 -0.063684896 0.017284796 0.038554594 -0.08316427
0.07522712 0.15993175 -0.020344991 0.14560832 0.057115097 -0.012482815 -0.046948735 -0.005077708
0.012446597 0.10041555 0.16330752 0.04845823 0.040508833 0.07892442 -0.14523226 0.21599603
0.28573224 0.1391182 -0.25875533 0.07083519 -0.045906983 0.2178071 0.081926025 0.040184222
-0.107584275 0.17865635 -0.17652439 0.17468181 0.10658357 -0.1448866 0.097043544 0.22584951
-0.118952 -0.06289788 -0.053571858 0.034175858 -0.059252422 0.112183705 -0.046093475 -0.01713689
-0.0780317 -0.024884313 0.13198148 0.10909421 0.05167824 -0.025202638 -0.054012552 -0.11043754
0.18220034 0.10946614 0.0004453307 0.024815885 -0.006625483 0.05711912 -0.11000833 0.02542245
0.0034098343 -0.20743522 0.047007754 -0.007488951 0.07917552 0.06638492 -0.003432698 -0.047667198
0.018409532 -0.011117216 -0.114866555 -0.05874587 0.037679058 -0.06293709 0.059950776 -0.045568105
-0.10547453 -0.07773354 -0.03909391 -0.09241244 0.07637846 -0.07243246 0.034744747 0.00473484
0.11276107 0.04512433 0.16456434 -0.14624734 0.32351685 0.17737006 0.09305333 -0.08535647
0.07818942 -0.1976046 0.1596341 0.17450961 0.07129734 0.072698936 0.11121747 -0.10730911
0.1261933 0.051520433 -0.01647138 0.21100026 0.15037909 -0.000282356 0.036115076 0.051880263
-0.037850752 0.011616186 0.13415886 0.19977325 -0.18329504 0.020933079 -0.23692572 0.21905152
0.19521354 0.41243267 -0.22780317 0.036845516 0.061366946 -0.31622165 -0.058957238 -0.011752757
00000000: 424a dbbc b1eb 1d3e da6a af3b 80ec 35bd
00000010: 7755 a33d 4c30 f7bb 88a2 09be c5cb 053e
00000020: f410 2bbd cef3 49bc d6db 943b 03c0 91bd
00000030: 268d 72bd df1c 263e 020f d8bd 107a ba3c
00000040: 87d2 133d d493 b4bd 1392 89bd ce58 0a3e
00000050: 3975 bebd fae4 97bc 2971 763c 2fd5 aebd
00000060: 14b8 3e3d b2e3 f63d c19b a4bd ee77 4dbd
00000070: a085 78bd cdf0 30bd 741a a1bd 9c68 063e
00000080: 30eb 223c 518e 643d 1967 34bc c33e 99bd
00000090: b3b7 b93d 1295 fe3d ec8c 8a3d 1dcf c23d
000000a0: 2255 9cbd 6c6b e1bd 70ba 54be a3f6 3a3e
000000b0: a74f 893d 6787 1d3e 826d 93be 13b5 a5bc
000000c0: 9a63 fb3c 06c9 1e3b 0520 b7bd 1514 5a3e
000000d0: c8f5 82be 1e62 18be 795f 773d a293 0abd
000000e0: 7bca 9abd 33e6 bf3d 08ef 99bd 88eb 123d
000000f0: 44ea 433e 8ab0 ba3a 951a 75bd a2e6 58bd
00000100: 9e53 4ebd 70ef febd 7c32 40bb e420 adbd
00000110: cd90 10be c455 373d 26e8 f83c 1ee3 8cbc
00000120: 30c4 debd 9fab 0a3e 69f3 e8bd 621e 703c
00000130: 9517 023d d4de 04be de76 dd3b 8239 a3b9
00000140: 8338 a4bc db22 c03c 7e5a 923d fb27 edbc
00000150: a8e2 f8bd 1656 c33c a693 8c3c 6047 b1bb
00000160: eecf f13d d588 b93c 73aa 893c 9086 bf3d
00000170: 4e2e 423e 179a 68bd a77f 033c c23b 74bd
00000180: 3450 ffbd f573 e13b 6462 913d 37cf c4bc
00000190: 87ce e93b d506 8bbc be1a c8bd 87b2 f63d
000001a0: 04c1 663e 726b 9a3d d1ef 87bd 6d85 23bb
000001b0: ac5c dd3d e9fd 88bd 2034 c33d b567 133b
000001c0: 0b33 3abb 9b48 40bd 7997 f3ba d9f1 ad3c
000001d0: 315a f63d 03c5 cf3d 3bc5 ccbd 1702 ec3c
000001e0: 18c8 cfbd db3f 083d b710 cabc 9b56 94bd
000001f0: fc44 dc3a 012f 0cbe 14a8 1fbd a00e 373e
00000200: b282 653d 0334 42be e767 493e 73b8 08bd
00000210: 3a6d 82bd d898 8d3c 6ceb 1d3d 0752 aabd
00000220: ad10 9a3d 26c5 233e 8aaa a6bc 591a 153e
00000230: 85f1 693d b984 4cbc 514d 40bd e762 a6bb
00000240: d0ec 4b3c aba6 cd3d 163a 273e 237c 463d
00000250: 97ec 253d 20a3 a13d c4b7 14be 102e 5d3e
00000260: 7f4b 923e 0075 0e3e 947b 84be 0a12 913d
00000270: f608 3cbd d308 5f3e d5c8 a73d 3698 243d
00000280: 2555 dcbd b1f1 363e cfc2 34be cadf 323e
00000290: 7d48 da3d 275d 14be c4be c63d 1845 673e
000002a0: 1b9d f3bd 9bd0 80bd 2a6e 5bbd fcfb 0b3d
000002b0: abb2 72bd 92c0 e53d 83cc 3cbd aa62 8cbc
000002c0: 15cf 9fbd 30da cbbc 2726 073e c96c df3d
000002d0: 90ac 533d c375 cebc 443c 5dbd 142d e2bd
000002e0: ba92 3a3e c92f e03d 467b e939 af4a cb3c
000002f0: 941a d9bb bdf5 693d 0c4c e1bd be42 d03c
00000300: 8777 5f3b e669 54be 348b 403d e065 f5bb
00000310: c626 a23d d1f4 873d 1ef7 60bb ae3e 43bd
00000320: 96cf 963c fc24 36bc 283f ebbd 829f 70bd
00000330: 5b55 1a3d 29e5 80bd f28e 753d 9fa5 3abd
00000340: 0803 d8bd c332 9fbd f020 20bd bc42 bdbd
00000350: 4f6c 9c3d 7857 94bd 8250 0e3d b726 9b3b
00000360: 47ef e63d 4ad4 383d 8e83 283e ddc1 15be
00000370: 00a4 a53e 7fa0 353e bf92 be3d 5fcf aebd
00000380: c621 a03d dc58 4abe 1f77 233e a6b2 323e
00000390: 5704 923d 2ee3 943d fcc5 e33d e1c4 dbbd
000003a0: d138 013e 1707 533d fdee 86bc 7410 583e
000003b0: fafc 193e 2e09 94b9 67ed 133d 6680 543d
000003c0: 6409 1bbd d151 3e3c f160 093e 5c91 4c3e
000003d0: b2b1 3bbe d97b ab3c a89c 72be 0b4f 603e
000003e0: 0fe6 473e 602a d33e 3c45 69be 53eb 163d
000003f0: e85b 7b3d cee7 a1be 257d 71bd a38e 40bc

network_body._body_endoder.seq_layers.0.bias f4 [128]
-0.06370963 -0.092879474 0.10028533 -0.04855264 0.02166426 -0.023393413 -0.016858405 0.01759052
0.013645775 -0.08615885 -0.042651426 0.041436937 0.060367297 -0.037495825 -0.025070602 -0.014264996
0.033091456 -0.08497345 0.036650177 -0.009247915 0.062198516 -0.025122272 -0.058053672 -0.080348134
0.04142002 0.03933479 0.059657894 0.061840877 0.12961674 -0.017391643 0.04032415 0.006626521
-0.045404147 0.05375357 0.10081661 -0.122474805 0.012056686 -0.025166059 -0.05515464 -0.047281418
0.077728935 0.06919349 -0.0013173209 -0.010659257 0.04715585 -0.028064167 0.010573295 -0.0836567
0.045531046 0.01627147 0.0026789985 -0.059165098 -0.04827248 0.031250957 -0.064882256 0.037181694
0.072459966 0.007997694 0.08649246 0.037277468 -0.0012210065 0.022697533 0.03304683 -0.053527992
-0.011684706 0.021708397 0.040346254 0.017684303 -0.06448588 -0.00251312 0.06500416 0.029708777
-0.0053588245 -0.03734351 0.07599961 -0.009690326 0.057684243 -0.06883152 -0.039425652 0.051424444
-0.09188471 -0.059005637 0.05703818 -0.022895338 -0.008322265 -0.03394075 -0.09302515 0.093583494
0.06111631 -0.03176139 -0.06467002 -0.0030482046 -0.048813164 0.03954787 -0.05146898 -0.019633438
0.08233803 -0.07723302 -0.050703607 0.041315723 0.08083939 -0.006142567 -0.02672484 0.027054438
-0.13032755 -0.10528171 0.008832926 0.04918744 -0.040989034 -0.0068986965 0.0016857228 -0.016381938
0.031271946 -0.09540326 0.0349882 0.06066561 0.01189842 -0.09060386 -0.09698901 0.04521455
0.066107824 -0.09429982 -0.031130001 -0.019822346 0.07018687 0.021796586 0.034483735 0.009686106
00000000: 327a 82bd 9837 bebd 6562 cd3d 22df 46bd
00000010: 3f79 b13c 8ba3 bfbc a31a 8abc ff19 903c
00000020: 8792 5f3c 0d74 b0bd 43b3 2ebd c7b9 293d
00000030: b343 773d 3995 19bd dd60 cdbc bbb7 69bc
00000040: e88a 073d 8f06 aebd 7f1e 163d 9184 17bc
00000050: dfc3 7e3d 39cd cdbc b0c9 6dbd 908d a4bd
00000060: 0aa8 293d 841d 213d d65b 743d dc4c 7d3d
00000070: 40ba 043e eb78 8ebc f02a 253d 4923 d93b
00000080: b3f9 39bd b42c 5c3d f078 ce3d 12d4 fabd
00000090: 6889 453c 0d29 cebc d5e9 61bd 29aa 41bd
000000a0: 5930 9f3d 51b5 8d3d f4a9 acba 2aa4 2ebc
000000b0: 7e26 413d d3e6 e5bc 9d3b 2d3c 3454 abbd
000000c0: c37e 3a3d bf4b 853c 2392 2f3b 1a57 72bd
000000d0: 5db9 45bd 0101 003d fde0 84bd d54b 183d
000000e0: e465 943d c308 033c f522 b13d 42b0 183d
000000f0: 2e0a a0ba 2df0 b93c 1d5c 073d 2b40 5bbd
00000100: 3671 3fbc cfd5 b13c 1d42 253d acde 903c
00000110: 2c11 84bd 28b3 24bb e720 853d d25f f33c
00000120: 1499 afbb 82f5 18bd afa5 9b3d 2cc4 1ebc
00000130: 5046 6c3d 8af7 8cbd cb7c 21bd 70a2 523d
00000140: 0d2e bcbd e5af 71bd dea0 693d 018f bbbc
00000150: 1c5a 08bc 7505 0bbd f883 bebd b4a8 bf3d
00000160: 1955 7a3d 3b18 02bd b771 84bd 63c4 47bb
00000170: 50f0 47bd f3fc 213d 23d1 52bd 4ed6 a0bc
00000180: d7a0 a83d 582c 9ebd 96ae 4fbd ad3a 293d
00000190: 1f8f a53d 9647 c9bb 0dee dabc 45a1 dd3c
000001a0: 9674 05be f09d d7bd fab7 103c c578 493d
000001b0: 1ee4 27bd 760e e2bb 79f3 dc3a 6a33 86bc
000001c0: 0317 003d c962 c3bd c94f 0f3d 817c 783d
000001d0: 97f1 423c 848e b9bd 2da2 c6bd e432 393d
000001e0: 8a63 873d 4420 c1bd 5804 ffbc 7962 a2bc
000001f0: 22be 8f3d c18e b23c d13e 0d3d 79b2 1e3c

network_body._body_endoder.seq_layers.2.weight f4 [128, 128]
0.14959352 0.10331031 -0.041458678 -0.24416554 0.14532158 -0.23252338 -0.15254201 0.080919124
-0.1921864 0.026373435 -0.021957923 0.19237725 -0.032071054 -0.01496621 -0.025476279 -0.03414389
-0.054903243 -0.06521533 -0.30533457 -0.21668936 0.199628 0.12655656 -0.039359495 -0.20451307
0.046316314 0.012493121 0.17628151 0.3186635 0.20803402 -0.1767374 0.12721622 0.27404577
0.08890119 -0.19569147 0.023776252 -0.16050965 0.2044903 -0.010675818 -0.2520154 -0.030892354
0.094152644 -0.28229335 0.05641011 -0.3714958 -0.08532793 -0.091100216 0.038598035 -0.08938396
0.09873501 -0.19611253 0.08386989 -0.20926823 -0.14421917 0.13412262 0.09352976 -0.27848613
-0.2339877 -0.19177014 -0.010265322 -0.2588364 -0.23561765 -0.21885157 -0.1340481 -0.10270669
0.07491678 0.13968305 -0.21786115 -0.14718758 -0.09171509 0.08269268 0.065349124 -0.11868776
-0.18008457 -0.12416868 -0.38432467 0.09194816 -0.15636334 0.1608317 -0.25471312 0.0644721
-0.17347549 -0.14788653 -0.22159946 -0.21124533 -0.012155976 -0.17328702 -0.10962311 0.32725564
-0.3009923 -0.12081696 -0.05395453 0.092771724 0.2527907 0.047163077 -0.1088078 -0.348891
-0.121621996 -0.20357603 -0.059569545 0.056394808 0.29543102 0.10335155 0.022127824 0.21871202
-0.011085268 0.20903929 -0.14248171 -0.14788853 0.20504417 -0.33754635 -0.050566047 -0.18419757
0.011957678 -0.107539296 -0.009642354 -0.16454418 0.12293319 -0.069389865 -0.16828837 -0.03414358
0.41102323 -0.098431095 0.085203364 0.099464186 0.040550612 -0.13872702 -0.1018573 0.005834229
-0.06358435 -0.3693774 0.2984785 -0.03971589 -0.27494174 -0.07583461 0.12709478 -0.23220387
-0.05055198 -0.20840448 -0.077385485 0.15849812 -0.05325144 0.109639265 -0.15295519 0.18727002
-0.13608274 0.06997049 -0.16251406 -0.25438726 -0.1447701 -0.10940894 0.01052029 -0.00031841412
-0.022805857 0.37464467 -0.38669106 -0.31042483 0.10040459 -0.120892726 -0.1486676 -0.26440358
-0.18932112 -0.26038313 0.04175251 -0.012960833 -0.19379967 0.42250007 0.01634974 -0.40856487
-0.11120196 -0.22362088 0.054183424 -0.045716044 0.38665998 -0.060210377 0.019703448 0.016553676
0.28394324 0.015164747 -0.15340038 -0.09340075 0.038266428 -0.48127043 -0.042807214 0.06459349
-0.18685235 -0.36185583 0.3435008 -0.28527704 -0.39315933 -0.010921049 0.019288413 -0.12113518
0.042932272 0.017464025 -0.14758132 0.14140026 -0.13589445 -0.06744476 -0.21376063 0.13370892
-0.03321434 0.088518426 0.04823283 0.08770716 -0.17102836 -0.26224193 -0.27005172 0.020448592
0.0021051073 -0.09211785 0.15814738 -0.15550262 -0.0777805 -0.008473434 0.020455379 0.40729606
-0.1900776 -0.46060523 -0.030759815 -0.10147747 -0.31990352 -0.13055207 -0.29838887 -0.18452431
0.1331442 -0.18746537 -0.13529798 0.13868332 0.31856722 -0.21525893 -0.16179039 -0.13168557
-0.082519226 -0.1251632 -0.38114643 0.49378183 0.07880661 -0.07896749 0.1885618 -0.070280656
-0.13363348 -0.35295057 -0.33690056 -0.060220737 -0.39114776 0.020295361 -0.08579612 0.22239417
-0.075763255 0.04418034 -0.10396245 0.023927657 -0.08884282 0.099706315 0.14978547 -0.2082381
00000000: 0b2f 193e 5b94 d33d 93d0 29bd 8806 7abe
00000010: 2ecf 143e 9c1a 6ebe f933 1cbe edb8 a53d
00000020: 83cc 44be 1a0d d83c 1ae1 b3bc 8bfe 443e
00000030: f05c 03bd d634 75bc a1b3 d0bc 77da 0bbd
00000040: 39e2 60bd 9d8f 85bd d054 9cbe d1e3 5dbe
00000050: 486b 4c3e 0b98 013e 6c37 21bd e06b 51be
00000060: 2db6 3d3d f3af 4c3c 2483 343e dd27 a33e
00000070: df06 553e a6fa 34be f844 023e ba4f 8c3e
00000080: d411 b63d 5863 48be 6ac6 c23c a45c 24be
00000090: e865 513e a0e9 2ebc 2a08 81be f611 fdbc
000000a0: 1ad3 c03d c188 90be 4a0e 673d b334 bebe
000000b0: 69c0 aebd c092 babd f918 1e3d f00e b7bd
000000c0: 9535 ca3d b9d1 48be fac3 ab3d 694a 56be
000000d0: 31ae 13be 7157 093e 888c bf3d bc95 8ebe
000000e0: 799a 6fbe 645f 44be e22f 28bc 3486 84be
000000f0: c145 71be a01a 60be e843 09be e357 d2bd
00000100: f86d 993d 1309 0f3e fe16 5fbe 57b8 16be
00000110: 1fd5 bbbd c85a a93d c3d5 853d 9112 f3bd
00000120: 1768 38be 264c febd 34c6 c4be 514f bc3d
00000130: b61d 20be 11b1 243e c269 82be f309 843d
00000140: 8fa3 31be 916f 17be f8ea 62be b250 58be
00000150: dc29 47bc 2772 31be 1582 e0bd 0d8e a73e
00000160: aa1b 9abe e26e f7bd 6dff 5cbd 1aff bd3d
00000170: c86d 813e 122e 413d a0d6 debd d7a1 b2be
00000180: f414 f9bd 3c76 50be 32ff 73bd 3efe 663d
00000190: bc42 973e faa9 d33d 6945 b53c 0bf6 5f3e
000001a0: fc9e 35bc 650e 563e bae6 11be 1770 17be
000001b0: 19f7 513e e0d2 acbe 581e 4fbd 4a9e 3cbe
000001c0: 23ea 433c 903d dcbd f7fa 1dbc 457e 28be
000001d0: 65c4 fb3d 461c 8ebd c953 2cbe 23da 0bbd
000001e0: a371 d23e 3e96 c9bd 1a7f ae3d e1b3 cb3d
000001f0: 6618 263d 750e 0ebe 8f9a d0bd 0f2d bf3b
00000200: 8338 82bd 091f bdbe 2dd2 983e 21ad 22bd
00000210: 2ac5 8cbe 2d4f 9bbd 2225 023e dac6 6dbe
00000220: 980f 4fbd fc67 55be 487c 9ebd 554d 223e
00000230: 2f1e 5abd 8d8a e03d 49a0 1cbe b6c3 3f3e
00000240: 4659 0bbe b04c 8f3d 166a 26be 0c3f 82be
00000250: 9d3e 14be cb11 e0bd 4b5d 2c3c d2f0 a6b9
00000260: 59d3 babc 6dd1 bf3e 5ffc c5be 01f0 9ebe
00000270: eca0 cd3d 9b96 f7bd 523c 18be e85f 87be
00000280: 65dd 41be f050 85be ae04 2b3d ac59 54bc
00000290: 6c73 46be ee51 d83e e4ef 853c 6a2f d1be
000002a0: dabd e3bd dffc 64be 70ef 5d3d bf40 3bbd
000002b0: 4cf8 c53e 289f 76bd 2069 a13c 939b 873c
000002c0: 0261 913e 8f75 783c fd14 1dbe e448 bfbd
000002d0: 42bd 1c3d 1469 f6be 9e56 2fbd 9749 843d
000002e0: 3956 3fbe 2b45 b9be 56df af3e d50f 92be
000002f0: 2e4c c9be 33ee 32bc bc02 9e3c b915 f8bd
00000300: c0d9 2f3d b710 8f3c 8f1f 17be 3bcb 103e
00000310: ea27 0bbe 7a20 8abd 11e4 5abe feea 083e
00000320: c30b 08bd 2649 b53d ca8f 453d d09f b33d
00000330: 0f22 2fbe 9344 86be 3844 8abe ce83 a73c
00000340: d7f5 093b 49a8 bcbd 63f1 213e 143c 1fbe
00000350: 624b 9fbd 28d4 0abc 0a92 a73c 1c89 d03e
00000360: b4a3 42be 73d4 ebbe 02fc fbbc 6bd3 cfbd
00000370: 65ca a3be 71af 05be 6dc6 98be f1f3 3cbe
00000380: f456 083e ecf6 3fbe 8e8b 0abe 0003 0e3e
00000390: 3e1b a33e d66c 5cbe 61ac 25be 95d8 06be
000003a0: d7ff a8bd c82a 00be a025 c3be f9d0 fc3e
000003b0: 5c65 a13d b5b9 a1bd 5816 413e 4eef 8fbd
000003c0: 37d7 08be f0b5 b4be 3b7e acbe 05aa 76bd
000003d0: 8544 c8be 7542 a63c e0b5 afbd 4cbb 633e
000003e0: c429 9bbd 72f6 343d 44ea d4bd ef03 c43c
000003f0: 39f3 b5bd d332 cc3d 5d61 193e 5e3c 55be

network_body._body_endoder.seq_layers.2.bias f4 [128]
-0.010608598 0.06737985 0.053225968 -0.017001908 -0.10318051 0.020412387 0.049187593 -0.040024295
0.040393192 -0.07559102 0.015547686 -0.06319459 0.060633156 -0.1820792 -0.05561803 0.24096854
0.113906294 -0.21449944 -0.0734628 0.15613143 -0.16529323 0.014952293 0.1513889 0.037589
-0.0060949656 -0.075431295 0.038690776 0.16013852 0.17643182 0.055387534 -0.15934092 -0.17258191
0.14927137 0.084991515 0.090782285 0.110214904 0.1027144 -0.045433808 -0.0017056044 0.14492044
-0.06509856 -0.2447607 -0.023998247 0.17318594 -0.16990833 0.070929624 -0.15866287 -0.03377324
0.0510994 0.01870468 -0.00066560245 0.04993626 -0.121829055 -0.10999298 -0.26839918 0.21703784
0.012611548 -0.08063425 -0.122514255 -0.10725992 -0.12247329 -0.06043707 -0.010382578 -0.03469761
-0.024747573 0.076918 -0.18953717 -0.048792057 -0.21969575 -0.07643094 0.050637238 -0.11915733
0.084541626 -0.10238947 0.023537664 -0.08655385 0.0432842 -0.1771993 0.19149233 -0.015921831
0.044280127 -0.0034037374 0.12834156 0.06477509 0.21408658 0.18679515 0.13238278 -0.0052570477
0.14673398 0.13261442 0.017806092 0.10348413 0.06718354 0.113230035 0.006616871 0.1603711
-0.24631698 0.02511777 0.056810573 -0.012108283 -0.10689801 0.09760642 -0.09943134 -0.01763538
0.1549384 0.03219765 0.022727065 -0.21084614 -0.0130528575 0.16452284 -0.013111481 -0.12635346
-0.02691618 0.0051341807 -0.019440595 -0.24767393 -0.036487505 0.2147231 0.14402378 -0.08910586
-0.07761344 -0.07091497 0.038870238 -0.2036381 -0.24868329 -0.041859597 -0.1370476 -0.054117814
00000000: afcf 2dbc 72fe 893d 7903 5a3d 9647 8bbc
00000010: 4e50 d3bd e137 a73c ee78 493d 84f0 23bd
00000020: 5573 253d 77cf 9abd b9bb 7e3c 2a6c 81bd
00000030: 795a 783d f872 3abe bbcf 63bd 75c0 763e
00000040: b447 e93d bea5 5bbe aa73 96bd ebe0 1f3e
00000050: a142 29be 76fa 743c b105 1b3e ecf6 193d
00000060: 47b8 c7bb b97b 9abd 387a 1e3d 5afb 233e
00000070: 8baa 343e 0ade 623d 442a 23be 50b9 30be
00000080: 98da 183e 0810 ae3d 10ec b93d 5ab8 e13d
00000090: ed5b d23d cd18 3abd 968e dfba 0666 143e
000000a0: 6552 85bd 8da2 7abe f997 c4bc a857 313e
000000b0: 73fc 2dbe 8d43 913d 8578 22be cf55 0abd
000000c0: 9b4d 513d 8f3a 993c d37b 2eba f789 4c3d
000000d0: 8381 f9bd 0044 e1bd 9e6b 89be 2b3f 5e3e
000000e0: aba0 4e3c 9223 a5bd c1e8 fabd 17ab dbbd
000000f0: 47d3 fabd dc8c 77bd b01b 2abc 151f 0ebd
00000100: 6cbb cabc 2f87 9d3d 0816 42be 2eda 47bd
00000110: ecf7 60be d387 9cbd fe68 4f3d c208 f4bd
00000120: 2924 ad3d 92b1 d1bd 0fd2 c03c 2543 b1bd
00000130: c64a 313d bc73 35be 9116 443e 806e 82bc
00000140: 145f 353d 3d11 5fbb f86b 033e cda8 843d
00000150: 8339 5b3e 3a47 3f3e 5a8f 073e 5043 acbb
00000160: 6f41 163e 13cc 073e 15de 913c 7def d33d
00000170: 8697 893d 26e5 e73d 56d2 d83b 5238 243e
00000180: 853a 7cbe c8c3 cd3c 34b2 683d d261 46bc
00000190: 58ed dabd e0e5 c73d a9a2 cbbd 1378 90bc
000001a0: 2ca8 1e3e afe1 033d 1c2e ba3c 0de8 57be
000001b0: a7db 55bc ad78 283e 8ad1 56bc cd62 01be
000001c0: 527f dcbc a13c a83b e241 9fbc 3c9e 7dbe
000001d0: ec73 15bd 5fe0 5b3e f87a 133e 227d b6bd
000001e0: ccf3 9ebd de3b 91bd 6636 1f3d 8286 50be
000001f0: d5a6 7ebe f874 2bbd 3556 0cbe a4aa 5dbd

action_model._discrete_distribution.branches.0.weight f4 [2, 128]
-0.102086 0.19438195 -0.08057018 -0.0017155743 -0.22297087 0.005305578 -0.16898768 -0.06062581
0.05689573 -0.049342755 -0.008814075 -0.04388457 -0.07898286 0.022566156 -0.06001351 0.19950205
-0.17486395 -0.00689496 -0.05513129 0.23412207 0.04921751 0.06805575 0.07987956 0.06650323
-0.059967708 -0.01213266 0.07256084 0.09664932 0.12060687 -0.16443594 0.1527645 -0.10230912
0.13839564 -0.08703726 0.04377215 -0.12106557 0.08992493 -0.042930536 -0.06731784 0.17529885
-0.0920989 0.013625998 -0.076231666 0.20105758 -0.0062021874 -0.059965227 0.009987857 -0.10479018
0.084434815 -0.16296986 0.07714919 -0.0013180022 -0.010053496 -0.035621025 -0.060678538 0.141374
0.11726607 -0.0055815144 -0.047804113 -0.12826559 -0.06543628 -0.06993116 -0.09234883 -0.029164813
0.0021537486 0.11180816 0.013749745 -0.004803566 -0.10642412 0.08284557 -0.116629444 -0.04362736
-0.088837124 -0.0035465832 -0.0153114265 0.019658513 0.055909015 0.065314524 0.09003481 -0.18158625
0.1529927 -0.118743464 0.2036453 -0.021644048 0.19719902 0.07825189 0.1641918 -0.066911094
0.098605186 -0.06417687 -0.12065244 0.10328824 -0.17745721 0.10133788 0.03572901 0.15625758
-0.07757712 -0.032605913 0.0765411 -0.020428248 -0.014580449 0.05440041 -0.016790263 0.027568001
0.24996126 -0.05463115 -0.15413073 -0.006702714 -0.10482351 -0.085190624 0.1085942 0.002306164
-0.08220769 -0.013440047 -0.04166828 -0.05999013 -0.09459669 0.15862332 0.1642234 0.10913681
-0.1373982 -0.119638965 -0.102228455 0.04699713 0.017114721 -0.04637114 0.0013323383 -0.062634595
0.09249329 -0.20645024 0.08620165 0.008527111 0.21238944 -0.009397631 0.18789235 0.05829078
-0.04943068 0.021790149 0.020505788 0.048942104 0.07063872 0.006429014 0.059025936 -0.21120663
0.15331547 0.011861187 0.0484735 -0.2158385 -0.054481898 -0.060751528 -0.06294098 -0.059468262
0.058948353 0.011361067 -0.08154629 -0.0907727 -0.11801799 0.16700637 -0.15311505 0.09042701
-0.12334804 0.084398694 -0.027388081 0.11903481 -0.10987367 0.048432272 0.05398366 -0.16459185
0.09960971 -0.004133248 0.080294155 -0.2166994 0.020295164 0.04112445 -0.009795163 0.08792861
-0.08274978 0.17247632 -0.07200401 -0.0025779768 0.03204225 0.02052214 0.047719393 -0.13984421
-0.13754244 0.003932917 0.064238764 0.13016176 0.06545845 0.07460272 0.102755494 0.04247363
-0.015588336 -0.106769055 -0.022128446 0.0031424237 0.08667865 -0.09333682 0.112907566 0.03628895
0.066841014 -0.0077991313 0.021925285 -0.032038514 -0.04516581 -0.083689906 -0.09571017 0.19110082
-0.14257868 0.10280762 -0.19850028 0.011447229 -0.17444438 -0.08217112 -0.15248528 0.067963496
-0.092838325 0.046625394 0.108622774 -0.09277987 0.16926254 -0.0897308 -0.047163162 -0.15569377
0.084843434 0.022751823 -0.08986123 0.017408816 0.024183322 -0.03287818 0.03203609 -0.014758026
-0.2425454 0.040585995 0.14026284 0.004084746 0.09143922 0.086714685 -0.11033421 -0.007178365
0.080470495 0.010549013 0.03577697 0.07477973 0.0669313 -0.14420155 -0.16609038 -0.11640137
0.14079103 0.111350544 0.08633974 -0.05067336 -0.019832602 0.045654554 -0.01296922 0.06604646
00000000: 7712 d1bd 100c 473e fb01 a5bd 1fdd e0ba
00000010: 7a52 64be 6ada ad3b 1b0b 2dbe c552 78bd
00000020: 7f0b 693d a11b 4abd e968 10bc 4fc0 33bd
00000030: c4c1 a1bd a9dc b83c bad0 75bd 444a 4c3e
00000040: 890f 33be 1eef e1bb 59d1 61bd b2bd 6f3e
00000050: 4d98 493d d060 8b3d e597 a33d d832 883d
00000060: b3a0 75bd 10c8 46bc c79a 943d 14f0 c53d
00000070: bc00 f73d e561 28be 4c6e 1c3e 7287 d1bd
00000080: 96b7 0d3e 9740 b2bd 6d4a 333d 3af1 f7bd
00000090: 902a b83d eed7 2fbd f0dd 89bd 8b81 333e
000000a0: 599e bcbd 943f 5f3c 591f 9cbd 0ae2 4d3e
000000b0: b83b cbbb 199e 75bd 1ca4 233c 3c9c d6bd
000000c0: 29ec ac3d 92e1 26be 6500 9e3d d1c0 acba
000000d0: 6bb7 24bc 5ae7 11bd 0f8a 78bd 59c4 103e
000000e0: 3129 f03d 23e5 b6bb 3fce 43bd 0e58 03be
000000f0: 7503 86bd 1138 8fbd 6221 bdbd 0ceb eebc
00000100: e825 0d3b adfb e43d 9c46 613c 3b67 9dbb
00000110: e4f4 d9bd f0aa a93d 6bdb eebd 9ab2 32bd
00000120: 3df0 b5bd cb6d 68bb c7dc 7abc e40a a13c
00000130: da00 653d 9fc3 853d 2c64 b83d bff1 39be
00000140: 1eaa 1c3e c62f f3bd 6588 503e dc4e b1bc
00000150: 8aee 493e 8742 a03d e521 283e af08 89bd
00000160: 84f1 c93d 2a6f 83bd a018 f7bd c988 d33d
00000170: 58b7 35be 3c8a cf3d 9558 123d fd01 203e
00000180: c1e0 9ebd c78d 05bd 95c1 9c3d 2459 a7bc
00000190: d6e2 6ebc f7d2 5e3d bc8b 89bc 4ad6 e13c
000001a0: d8f5 7f3e eac4 5fbd 72d4 1dbe 71a2 dbbb
000001b0: b5ad d6bd 6c78 aebd a366 de3d 0323 173b
000001c0: 815c a8bd a533 5cbc 5cac 2abd 36b8 75bd
000001d0: e9bb c1bd 276e 223e 2e2a 283e 1f83 df3d
000001e0: 1db2 0cbe 4605 f5bd 275d d1bd 1080 403d
000001f0: 2c34 8c3c aaef 3dbd dba1 ae3a 9146 80bd
00000200: 1f6d bd3d b167 53be 7e8a b03d 4cb5 0b3c
00000210: 9e7c 593e 85f8 19bc da66 403e 50c2 6e3d
00000220: d377 4abd 4181 b23c c1fb a73c 8477 483d
00000230: 09ab 903d 7aaa d23b 2ec5 713d 8d46 58be
00000240: bbfe 1c3e 6d55 423c 268c 463d c504 5dbe
00000250: 6928 5fbd 98d6 78bd 33e7 80bd fe94 73bd
00000260: d473 713d c523 3a3c be01 a7bd 0ae7 b9bd
00000270: 6ab3 f1bd b803 2b3e 31ca 1cbe cc31 b93d
00000280: e69d fcbd 39d9 ac3d f85c e0bc 86c8 f33d
00000290: 7205 e1bd eb60 463d f81d 5d3d c48a 28be
000002a0: 2d00 cc3d 3270 87bb 4371 a43d 73e6 5dbe
000002b0: 0b42 a63c 1c72 283d e47b 20bc ea13 b43d
000002c0: b778 a9bd a29d 303e d776 93bd 46f3 28bb
000002d0: bc3e 033d 0c1e a83c 6975 433d 5233 0fbe
000002e0: edd7 0cbe b3df 803b 9d8f 833d 2049 053e
000002f0: 140f 863d 50c9 983d 7971 d23d d4f8 2d3d
00000300: 3866 7fbc bca9 dabd b746 b5bc 1ff1 4d3b
00000310: 9384 b13d 6027 bfbd 153c e73d b9a3 143d
00000320: f1e3 883d db8f ffbb a89c b33c d13a 03bd
00000330: c9ff 38bd 9d65 abbd b203 c4bd efaf 433e
00000340: 2500 12be cd8c d23d a843 4bbe 298d 3b3c
00000350: 8ca1 32be 5549 a8bd 1a25 1cbe 7230 8b3d
00000360: 0522 bebd 45fa 3e3d 9e75 de3d 5f03 bebd
00000370: 2953 2d3e c8c4 b7bd 292e 41bd 306e 1fbe
00000380: 65c2 ad3d 0862 ba3c 2a09 b8bd ef9c 8e3c
00000390: 1a1c c63c 45ab 06bd 4638 033d a6cb 71bc
000003a0: d25d 78be 803d 263d 10a1 0f3e 55d9 853b
000003b0: 7c44 bb3d 7897 b13d e7f6 e1bd 7d38 ebbb
000003c0: b7cd a43d c4d5 2c3c df8a 123d 1d26 993d
000003d0: 4713 893d 92a9 13be 9913 2abe d763 eebd
000003e0: 862b 103e c10b e43d e4d2 b03d de8e 4fbd
000003f0: fb77 a2bc 4500 3b3d da7c 54bc 5e43 873d

action_model._discrete_distribution.branches.0.bias f4 [2]
0.05323362 -0.05323151
00000000: 7f0b 5a3d 4909 5abd
