ML-Game/results/MLPrototype/PrototypeModel/PrototypeModel-39016.onnx (onnx, 187731 bytes, 6 tensors)

network_body._body_endoder.seq_layers.0.weight f4 [128, 225]
0.04302621 0.00728359 0.01912642 -0.03572758 -0.10328642 0.008526928 -0.016590955 -0.052262206
-0.029307147 0.02079716 0.0057208613 0.00014034145 0.055816755 -0.1319873 0.0017116932 0.017358957
-0.065370835 0.053444542 -0.10280674 0.019379005 -0.076816194 -0.058658753 0.121427886 0.022047658
-0.009962895 -0.022492843 -0.009481274 -0.080145255 -0.14047746 0.037610497 0.007035818 -0.036718324
-0.09141611 -0.02040923 -0.02095195 0.104401864 -0.03280767 -0.09958599 0.05338205 0.16597931
0.02637272 0.087966 -0.019524196 0.045671772 0.11401734 -0.12353373 0.14719163 0.03408114
-0.04296882 -0.084490545 -0.09519315 0.022108018 0.071440846 -0.03238939 0.0702288 -0.098491095
-0.06590605 0.09261948 -0.08248144 0.00094844005 0.11050717 -0.17734021 0.024706 -0.017674405
0.0062140776 -0.07271925 0.11965547 0.034439508 0.050243873 0.029809767 0.063379504 0.07491744
0.12732992 0.07340474 -0.05505406 0.06116687 -0.057950072 -0.08128073 -0.015577414 -0.057065964
0.061633017 0.10134837 -0.061730273 0.004016866 0.12431567 0.0034340275 0.107194744 -0.09676329
-0.0100436 0.036201708 -0.1911311 0.06460186 0.18899655 -0.00406122 -0.027605535 0.026763298
-0.011417126 -0.2290145 0.081295244 -0.0027046755 -0.13484706 -0.04791514 0.040492516 0.116632365
-0.047551744 -0.0059836647 -0.033799734 0.07136329 -0.16685982 -0.032009747 0.06829024 0.045310684
0.011076175 -0.094188005 0.044774625 -0.027110936 -0.05005429 0.07102681 -0.16357212 -0.059134096
-0.13409854 0.07640369 0.029663129 0.12128083 -0.08909703 -0.021791413 0.016004086 0.04762872
0.01654706 0.1249032 -0.06920367 -0.071352646 -0.18439627 -0.03496358 0.1062913 -0.058358822
0.10913389 0.04269821 0.022971133 0.066126764 0.028870134 0.050282516 0.07894589 0.015598192
0.061573446 0.04880349 0.109583564 -0.061034627 -0.06215446 0.059043724 -0.0028621925 0.056420915
0.04193756 0.026724147 0.009074324 -0.051821068 0.1277384 -0.043731406 0.025898958 -0.101500355
-0.0740122 0.014825045 0.0015669626 0.013368466 -0.09173476 -0.09641467 0.06739571 0.027989555
-0.01567069 -0.09392714 -0.007990772 -0.08031437 -0.0041627493 -0.033801585 0.12838395 -0.015977625
0.022469293 -0.013448184 0.19779676 0.09984952 0.0005973212 0.056076683 0.11108493 -0.20835188
0.04415782 0.013930418 -0.20916627 0.031945333 0.13222055 0.005052934 0.0085868845 0.004036141
0.048888575 0.066555426 0.08457198 -0.007686732 -0.14971189 0.03971787 -0.035670005 0.07062103
-0.051585738 0.16792406 -0.016646935 -0.09687632 -0.11082992 0.05065776 0.14100884 0.089234784
-0.024419209 0.026996331 -0.014767231 -0.01779889 0.09732335 0.11386225 0.03656428 0.038626295
-0.21390043 0.018983046 0.039857373 0.02747317 -0.074610725 -0.017232655 -0.035686783 0.02538055
0.0008989078 -0.003229829 0.058722902 0.044386815 -0.060314927 -0.072936505 -0.03000561 -0.109902345
0.018260699 -0.0756512 -0.08589216 -0.074694164 -0.09861498 -0.16231954 -0.05432171 -0.04294517
-0.02496339 -0.058280043 -0.042308033 -0.19118887 -0.06540416 0.06938438 -0.11073256 -0.026582025
-0.029394463 -0.023335468 -0.09263946 -0.03629902 -0.13663755 0.0065324935 -0.17532885 0.012402633
00000000: 403c 303d 2eab ee3b 03af 9c3c 1557 12bd
00000010: d587 d3bd 87b4 0b3c c1e9 87bc e510 56bd
00000020: 8b15 f0bc ce5e aa3c 1076 bb3b 9f28 1339
00000030: 1ca0 643d ae27 07be e55a e03a 5f34 8e3c
00000040: 25e1 85bd aae8 5a3d 578c d2bd b8c0 9e3c
00000050: cf51 9dbd 2944 70bd 2faf f83d 4a9d b43c
00000060: 693b 23bc e942 b8bc 5857 1bbc 3223 a4bd
00000070: 53d9 0fbe 770d 1a3d b88c e63b f465 16bd
00000080: 5f38 bbbd 4231 a7bc 6da3 abbc a5d0 d53d
00000090: 5661 06bd bdf3 cbbd 23a7 5a3d 7bf6 293e
000000a0: 9a0b d83c 8527 b43d 35f1 9fbc 5312 3b3d
000000b0: ec81 e93d 41ff fcbd 67b9 163e aa98 0b3d
000000c0: 1300 30bd 6109 adbd a0f4 c2bd e01b b53c
000000d0: 944f 923d bdaa 04bd 1ed4 8f3d b3b5 c9bd
000000e0: c0f9 86bd 48af bd3d 07ec a8bd bca0 783a
000000f0: 9551 e23d ac98 35be 3d64 ca3c eac9 90bc
00000100: 769f cb3b d5ed 94bd ed0d f53d 7110 0d3d
00000110: 85cc 4d3d 9d33 f43c 1dcd 813d 516e 993d
00000120: c662 023e 3955 963d 5e80 61bd 1d8a 7a3d
00000130: 0e5d 6dbd 8376 a6bd 6938 7fbc 00be 69bd
00000140: e772 7c3d bc8f cf3d e2d8 7cbd ea9f 833b
00000150: 3799 fe3d 6c0d 613b eb88 db3d d52b c6bd
00000160: e98d 24bc 3e48 143d dfb7 43be fb4d 843d
00000170: 5088 413e fc13 85bb 0125 e2bc b43e db3c
00000180: e60e 3bbc c782 6abe 1f7e a63d ed40 31bb
00000190: 5915 0abe aa42 44bd 7bdb 253d f3dc ee3d
000001a0: 9ec5 42bd 9e12 c4bb 9771 0abd eb26 923d
000001b0: 4ddd 2abe a71c 03bd c1db 8b3d b297 393d
000001c0: d878 353c a4e5 c0bd 9965 373d c117 debc
000001d0: ba05 4dbd 8176 913d 737f 27be 9836 72bd
000001e0: 2151 09be 8a79 9c3d 1700 f33c 1562 f83d
000001f0: 8178 b6bd e883 b2bc 001b 833c 5516 433d
00000200: b38d 873c 40cd ff3d a7ba 8dbd 5621 92bd
00000210: 60d2 3cbe f935 0fbd 41af d93d a909 6fbd
00000220: 9781 df3d 51e4 2e3d f52d bc3c 786d 873d
00000230: 0f81 ec3c 0af5 4d3d 62ae a13d 8f8f 7f3c
00000240: 7034 7c3d 2be6 473d 596d e03d 72ff 79bd
00000250: ad95 7ebd d5d7 713d 9f93 3bbb 9e19 673d
00000260: b8c6 2b3d 99ec da3c 79ac 143c 5442 54bd
00000270: dbcd 023e b41f 33bd 0d2a d43c 6bdf cfbd
00000280: b593 97bd bfe4 723c 8a62 cd3a 6907 5b3c
00000290: 6fdf bbbd 0e75 c5bd c306 8a3d 5a4a e53c
000002a0: d25f 80bc df5c c0bd baeb 02bc dc7b a4bd
000002b0: ac67 88bb 8873 0abd 1577 033e 82e3 82bc
000002c0: 8611 b83c c655 5cbc 3c8b 4a3e e87d cc3d
000002d0: 8c95 1c3a aab0 653d 7f80 e33d 325a 55be
000002e0: d5de 343d 683c 643c af2f 56be 1cd9 023d
000002f0: d364 073e 1593 a53b 01b0 0c3c 9b41 843b
00000300: 633f 483d 364e 883d 1334 ad3d fbe0 fbbb
00000310: 134e 19be 35af 223d b61a 12bd c2a1 903d
00000320: 914b 53bd 49f4 2b3e 275f 88bc 1867 c6bd
00000330: ccfa e2bd 837e 4f3d 9f64 103e bac0 b63d
00000340: cb0a c8bc 6927 dd3c 42f2 71bc face 91bc
00000350: 7751 c73d 9c30 e93d 6dc4 153d 9b36 1e3d
00000360: b708 5bbe 5582 9b3c 7c41 233d 6a0f e13c
00000370: 82cd 98bd 7f2b 8dbc 4e2c 12bd dfea cf3c
00000380: aea4 6b3a 8aab 53bb 6d87 703d f3ce 353d
00000390: c90c 77bd bc5f 95bd 53ce f5bc 7b14 e1bd
000003a0: 7697 953c 04ef 9abd 3be8 afbd 41f9 98bd
000003b0: a7f6 c9bd 1837 26be 7180 5ebd 46e7 2fbd
000003c0: 0680 ccbc 0eb7 6ebd 304b 2dbd 04c7 43be
000003d0: 9ef2 85bd 6619 8e3d c1c7 e2bd 8cc2 d9bc
000003e0: a8cc f0bc 062a bfbc c2b9 bdbd 48ae 14bd
000003f0: b7ea 0bbe 870e d63b 6889 33be 6a34 4b3c

network_body._body_endoder.seq_layers.0.bias f4 [128]
0.022263277 -0.0140388 0.027309297 -0.0038510112 -0.03777374 -0.012728735 0.016655838 -0.014822814
0.06674768 -0.026044503 -0.023140596 0.024138913 0.0072906027 -0.0221196 -0.0009805175 0.01763285
-0.009252526 -0.015187316 0.04795614 -0.00671238 -0.04821838 0.024805857 0.015424286 -0.034477327
0.007824395 -0.0081829885 0.029967356 0.0017999281 0.01047982 0.020444065 0.017278891 -0.022612771
-0.004319268 0.019683197 0.04640953 -0.001675527 0.019142546 -0.008021638 -0.03659966 -0.020878369
-0.012618303 0.0039538583 0.024171958 -0.017249435 0.02086553 0.0006526876 0.039294563 0.059364937
-0.02255514 0.027369222 -0.015116004 0.0012953087 0.02597156 -0.011741801 -0.01653385 -0.029075323
0.022297317 0.031928148 0.028943416 -0.002125896 0.009694611 0.026413066 0.020325018 -0.018256815
0.011233844 -0.030812284 0.021378396 -0.06331695 -0.012612435 -0.0027569174 -0.011103527 0.014134413
-0.020988379 0.0026150297 -0.023329452 -0.008545511 0.014910956 -0.016521256 -0.0141791105 0.008794449
-0.02966685 -0.01204206 -0.02183791 -0.019127334 -0.024134552 -0.004650519 -0.007143467 -0.009962949
-0.012969525 -0.013636113 -0.027578387 0.0012279262 0.0021602695 0.008028622 0.05873071 -0.0067954296
-0.019114232 -0.019487727 -0.024042364 -0.048568692 0.029920086 0.017799672 0.03403713 -0.051756773
-0.03604054 0.041941557 0.02602365 0.022244543 0.04410439 -0.0064235805 0.014941626 -0.008323125
-0.017233493 0.006722357 0.00936505 -0.01928339 -0.0037795324 -0.011113925 -0.01791082 -0.023925304
-0.026834985 -0.0022212393 -0.014907173 -0.03936943 0.02190702 0.005705258 -0.021899296 -0.017638693
00000000: 7a61 b63c ff02 66bc bfb7 df3c 3f61 7cbb
00000010: a3b8 1abd 2f8c 50bc d371 883c 63db 72bc
00000020: 02b3 883d 485b d5bc 5991 bdbc f8be c53c
00000030: 02e6 ee3b 2a34 b5bc b584 80ba c472 903c
00000040: e897 17bc 38d4 78bc a86d 443d 86f3 dbbb
00000050: a380 45bd a735 cb3c 25b6 7c3c 1938 0dbd
00000060: e431 003c f111 06bc 1a7e f53c 91eb eb3a
00000070: 8db3 2b3c 507a a73c 768c 8d3c 6b3e b9bc
00000080: a588 8dbb a83e a13c eb17 3e3d 5b9d dbba
00000090: d4d0 9c3c 306d 03bc 86e9 15bd 1d09 abbc
000000a0: 00bd 4ebc 5e8f 813b 4504 c63c b04e 8dbc
000000b0: 30ee aa3c 2019 2b3a 56f3 203d a628 733d
000000c0: 8fc5 b8bc 6b35 e03c 1ea9 77bc 59c7 a93a
000000d0: 4fc2 d43c af60 40bc ff71 87bc 5f2f eebc
000000e0: dda8 b63c 17c7 023d be1a ed3c 9e52 0bbb
000000f0: 25d6 1e3c 3760 d83c a780 a63c 518f 95bc
00000100: 280e 383c 0b6a fcbc bf21 af3c 51ac 81bd
00000110: 63a4 4ebc 66ad 34bb 91eb 35bc 0694 673c
00000120: d2ef abbc eb60 2b3b 681d bfbc 7902 0cbc
00000130: 154d 743c 9657 87bc 804f 68bc 9816 103c
00000140: e507 f3bc 0f4c 45bc 6be5 b2bc edb0 9cbc
00000150: d3b5 c5bc 6263 98bb bf13 eabb a33b 23bc
00000160: 217e 54bc 016a 5fbc 12ec e1bc 5ef2 a03a
00000170: 4f93 0d3b 7b8a 033c 9d8f 703d 32ac debb
00000180: 7395 9cbc baa4 9fbc 7ef4 c4bc f7ef 46bd
00000190: f81a f53c 9ed0 913c 856a 0b3d e9fe 53bd
000001a0: 3f9f 13bd e9ca 2b3d 8d2f d53c 303a b63c
000001b0: cea6 343d e67c d2bb b9cd 743c b75d 08bc
000001c0: 412d 8dbc 3847 dc3b de6f 193c 33f8 9dbc
000001d0: 08b2 77bb 2e17 36bc b6b9 92bc 00ff c3bc
000001e0: 0bd5 dbbc 3692 11bb 373d 74bc d741 21bd
000001f0: 5a76 b33c 2cf3 ba3b 2766 b3bc 057f 90bc

network_body._body_endoder.seq_layers.2.weight f4 [128, 128]
0.026629152 -0.03828671 -0.10765341 -0.016768841 0.00021416026 0.04486337 0.073514335 0.028746242
-0.07081569 -0.11342542 0.14222993 0.08459372 0.12605664 -0.011739984 -0.08560787 0.103838034
0.0014340758 0.065605685 -0.0072724908 0.06925482 -0.02416561 -0.121151716 0.055556495 0.15830505
0.07093413 -0.19570792 -0.01711035 0.07236182 -0.30594906 -0.054611336 -0.04246298 -0.18705516
-0.032419987 0.037736293 0.107681416 0.19945544 0.10962269 -0.030163506 0.1422292 -0.05006733
0.0059907185 -0.02919915 -0.13999403 0.12256638 0.038094986 0.08311857 0.11625469 -0.026893005
-0.09924783 0.058131833 0.09410605 -0.008539308 0.045202367 -0.008442067 -0.15389164 0.0004987063
-0.013695963 0.101232745 0.11969248 -0.09620218 0.012548121 0.07016161 0.033254303 0.056823753
0.014356378 0.16026188 -0.026054816 -0.09209624 0.01890877 -0.06663069 0.044769682 0.007570992
-0.09124372 0.06108514 -0.08768586 0.044173893 -0.08584284 -0.04027157 -0.063535884 0.031101452
-0.011151476 -0.18811488 -0.016504873 0.17182186 -0.011135 -0.004328245 -0.16464676 0.020272303
-0.0065575195 0.06623225 -0.00531158 -0.056112263 -0.047637228 0.04455041 -0.14955714 0.09667239
-0.10973814 0.01880495 -0.096169695 0.042881332 -0.042117734 -0.07270993 0.09886788 0.036816012
0.087579854 -0.05240087 0.033068802 0.1150307 -0.101692595 -0.12390244 -0.12040971 -0.13261542
-0.062302697 0.062056743 -0.01225328 -0.037748564 0.049056288 0.08011467 0.005209505 0.04183231
0.009012379 -0.07683062 -0.02101561 0.060454916 0.034554064 -0.0333748 0.05571379 -0.07364142
-0.03884113 0.05586193 -0.067569874 -0.14321147 0.14513332 -0.026210709 -0.0889727 0.11535689
0.13237223 -0.03269538 0.21141018 0.14123964 -0.14317913 0.15161403 -0.072745256 -0.042077333
-0.0006132497 -0.043181766 0.013467423 0.13091631 -0.057582233 0.073175244 -0.074617885 -0.121313855
0.0027388493 -0.044459216 0.05765623 -0.061723743 0.0062261284 0.005865924 0.060185183 -0.05483224
-0.15175226 0.06998562 -0.037654623 -0.17821492 0.11129489 0.0520479 -0.007208592 -0.097013906
0.11090438 -0.056308087 0.024062434 -0.005551083 -0.07745809 -0.048366744 -0.049797032 -0.068555996
-0.015440054 -0.03084537 0.0050702486 0.029706558 0.031552266 0.058167532 -0.080422565 -0.050668694
0.043561164 -0.12326009 -0.006665228 -0.09170933 0.08966545 -0.16261941 -0.06861987 0.06869332
-0.06923174 -0.066724055 -0.08793442 -0.009459856 -0.075946376 0.093726784 -0.020693643 0.14934503
-0.00756357 0.250346 -0.019753769 0.15290132 0.065070614 0.06906615 -0.09664727 0.004006042
-0.06578086 -0.034272112 -0.10074295 -0.095051706 0.095296904 -0.047880247 -0.090389796 0.18736222
0.072311044 -0.054328177 0.057232194 -0.044079497 0.0114891 -0.1800097 -0.03198378 0.0769541
-0.042495012 -0.14789335 -0.028662765 0.027680585 -0.14138502 0.22364338 -0.07951702 -0.050054736
0.0064210254 -0.12748136 0.03827194 0.060088694 0.007288341 0.10033982 -0.06862955 -0.019847888
0.013548853 -0.16095981 0.024100985 -0.09600838 -0.20957077 0.10661455 -0.05568228 0.07178196
0.02234132 -0.15905228 0.07023016 -0.040088184 0.010350518 0.08984633 0.12476639 -0.0051458683
00000000: 6125 da3c 86d2 1cbd 6479 dcbd cf5e 89bc
00000010: 3590 6039 a7c2 373d af8e 963d 3d7d eb3c
00000020: d107 91bd 964b e8bd b9a4 113e 793f ad3d
00000030: fe14 013e 1059 40bc 2e53 afbd 09a9 d43d
00000040: 99f7 bb3a 465c 863d 134e eebb 79d5 8d3d
00000050: f5f6 c5bc 641e f8bd 358f 633d b81a 223e
00000060: ea45 913d a867 48be 012b 8cbc 6f32 943d
00000070: 5ba5 9cbe 23b0 5fbd a9ed 2dbd 638b 3fbe
00000080: d2ca 04bd 5f91 1a3d 1388 dc3d 0c3e 4c3e
00000090: dc81 e03d 7519 f7bc 88a4 113e 6713 4dbd
000000a0: ca4d c43b 0e33 efbc 985a 0fbe 1504 fb3d
000000b0: 7d09 1c3d 123a aa3d f016 ee3d b84e dcbc
000000c0: 7242 cbbd a51b 6e3d acba c03d 74e8 0bbc
000000d0: 1e26 393d 9850 0abc c595 1dbe 9dbb 023a
000000e0: 0865 60bc 1d53 cf3d 5521 f53d a605 c5bd
000000f0: a296 4d3c e4b0 8f3d aa35 083d 06c0 683d
00000100: 0337 6b3c b11b 243e e970 d5bc f49c bcbd
00000110: 91e6 9a3c ac75 88bd 6a60 373d 1616 f83b
00000120: fddd babd 6934 7a3d a594 b3bd afef 343d
00000130: 5fce afbd cdf3 24bd 1a1f 82bd 79c8 fe3c
00000140: aeb4 36bc 30a1 40be 3a35 87bc 12f2 2f3e
00000150: 936f 36bc f3d3 8dbb 2999 28be 1a12 a63c
00000160: 76e0 d6bb c6a4 873d c30c aebb f9d5 65bd
00000170: 411f 43bd 7e7a 363d 8225 19be 2dfc c53d
00000180: 64be e0bd d70c 9a3c 9ef4 c4bd 56a4 2f3d
00000190: a583 2cbd f2e8 94bd 3e7b ca3d 63cc 163d
000001a0: 115d b33d 4ba2 56bd 2773 073d 3795 eb3d
000001b0: 3544 d0bd 90c0 fdbd 5e99 f6bd 56cc 07be
000001c0: 1d31 7fbd 362f 7e3d fbc1 48bc 3d9e 1abd
000001d0: 3fef 483d 2913 a43d 7fb4 aa3b 5b58 2b3d
000001e0: a8a8 133c 5f59 9dbd ee28 acbc 939f 773d
000001f0: 9088 0d3d 04b4 08bd 2534 643d 50d1 96bd
00000200: e017 1fbd 7bcf 643d 1362 8abd 07a6 12be
00000210: d49d 143e d7b7 d6bc 5237 b6bd 3c40 ec3d
00000220: 968c 073e 97eb 05bd e97b 583e 20a1 103e
00000230: 8d9d 12be b540 1b3e 77fb 94bd 4859 2cbd
00000240: 7ec2 20ba 5ddf 30bd 77a6 5c3c ed0e 063e
00000250: 59db 6bbd e7dc 953d 43d1 98bd 6673 f8bd
00000260: 447e 333b de1a 36bd f028 6c3d 09d2 7cbd
00000270: 8d04 cc3b f036 c03b bd84 763d c597 60bd
00000280: f264 1bbe 9f54 8f3d bc3b 1abd f97d 36be
00000290: 93ee e33d 2e30 553d 0d36 ecbb 3aaf c6bd
000002a0: d621 e33d 4fa3 66bd 951e c53c dce5 b5bb
000002b0: 59a2 9ebd 351c 46bd f9f7 4bbd 1667 8cbd
000002c0: 48f8 7cbc 6eaf fcbc 5424 a63b 2b5b f33c
000002d0: f33c 013d 1441 6e3d 96b4 a4bd fa89 4fbd
000002e0: 316d 323d c96f fcbd fc67 dabb 1ad2 bbbd
000002f0: 85a2 b73d b485 26be 9388 8cbd 15af 8c3d
00000300: 5fc9 8dbd 9fa6 88bd f616 b4bd 83fd 1abc
00000310: c689 9bbd d4f3 bf3d b785 a9bc e7ed 183e
00000320: d3d7 f7bb 5a2d 803e a8d2 a1bc 2a92 1c3e
00000330: be43 853d 8e72 8d3d 01ef c5bd 1e45 833b
00000340: 1eb8 86bd ea60 0cbd 5252 cebd 78aa c2bd
00000350: 062b c33d 141e 44bd 491e b9bd e2db 3f3e
00000360: d017 943d 3987 5ebd 4e6c 6a3d b48c 34bd
00000370: c73c 3c3c 7654 38be 6d01 03bd 1c9a 9d3d
00000380: 400f 2ebd 5b71 17be 2dce eabc 65c2 e23c
00000390: 3cc7 10be c502 653e d2d9 a2bd 3206 4dbd
000003a0: 7767 d23b 798a 02be 0ac3 1c3d 901f 763d
000003b0: 09d3 ee3b f77e cd3d a68d 8cbd 0a98 a2bc
000003c0: 02fc 5d3c a6d2 24be 6e6f c53c 0ba0 c4bd
000003d0: b899 56be bb58 da3d 1a13 64bd 6c02 933d
000003e0: 2505 b73c 9ade 22be d5d4 8f3d 8233 24bd
000003f0: 3895 293c 5a01 b83d 8585 ff3d ac9e a8bb

network_body._body_endoder.seq_layers.2.bias f4 [128]
-0.023694966 -0.04378351 0.0023527124 -0.02059391 0.007858457 -0.014642586 -0.017200395 -0.027434042
-0.040475484 -0.007854743 -0.025999224 -0.043939963 -0.057024732 -0.01973111 0.007781595 -0.0030418057
0.029081548 0.03459527 0.0027557444 -0.052691083 -0.037440613 -0.036295153 -0.042913534 -0.013196016
0.021536114 0.03769833 0.028480396 -0.018005101 0.032805126 -0.025761135 -0.06731634 0.018079028
-0.011460144 0.009756645 -0.0626953 -0.04095716 -0.04390122 0.017276986 -0.015404026 0.029917121
0.038275044 -0.034376625 0.006722603 0.02649281 0.027969753 0.023381894 -0.010150758 -0.044942714
-0.041618284 -0.02731087 0.029676767 0.02248717 -0.030962696 0.019897508 -0.036953505 -0.05737963
-0.03592892 0.015890341 0.017124426 -0.037397135 0.026006663 -0.03369742 -0.029350773 0.0087038195
0.05314155 -0.025180882 -0.06529937 0.0018995921 -0.053304147 0.036196254 -0.04979216 -0.03474906
-0.037160277 -0.048081122 0.024668597 -0.048205417 -0.0015181538 -0.04981172 -0.045292355 -0.013799517
0.025212236 -0.0051029427 -0.017478107 0.01602894 -0.047799304 -0.059315402 0.020331828 0.044757493
-0.0641409 0.034556337 -0.027933173 0.03157805 -0.021133969 0.024570648 -0.013590663 -0.0107449945
-0.024201911 -0.021889273 0.027285894 0.021070922 -0.055831082 -0.04007107 0.0059330747 0.0010245895
-0.04709131 0.02291109 -0.024525471 -0.016345775 -0.024139963 0.026325101 -0.0019861106 -0.0284385
-0.020370446 -0.04770123 0.04128204 -0.05079476 -0.006334624 0.023059268 0.025303947 0.023261845
-0.00609638 -0.024561454 -0.048935737 -0.064036466 -0.019652369 0.029426977 -0.05142903 -0.030269893
00000000: f21b c2bc 5656 33bd f72f 1a3b 8fb4 a8bc
00000010: c2c0 003c 75e7 6fbc d8e7 8cbc 5bbd e0bc
00000020: 9fc9 25bd 2eb1 00bc 53fc d4bc 64fa 33bd
00000030: c492 69bd 23a3 a1bc c0fc fe3b 0859 47bb
00000040: 6d3c ee3c c5b3 0d3d b899 343b 9bd2 57bd
00000050: 545b 19bd 3aaa 14bd 1ac6 2fbd 1a34 58bc
00000060: 816c b03c 9069 1a3d b84f e93c 6f7f 93bc
00000070: ab5e 063d 0409 d3bc 26dd 89bd 781a 943c
00000080: 54c3 3bbc 56da 1f3c 6566 80bd b2c2 27bd
00000090: c4d1 33bd 7788 8d3c 2b61 7cbc c014 f53c
000000a0: 4bc6 1c3d 81ce 0cbd 4849 dc3b 7307 d93c
000000b0: d320 e53c 638b bf3c 5d4f 26bc da15 38bd
000000c0: ef77 2abd 0cbb dfbc b11c f33c 0337 b83c
000000d0: 7ba5 fdbc 1900 a33c 8f5c 17bd e706 6bbd
000000e0: 342a 13bd 762c 823c 8648 8c3c bd2d 19bd
000000f0: ed0b d53c 4e06 0abd 0871 f0bc 779a 0e3c
00000100: f4aa 593d 2348 cebc adbb 85bd bcfb f83a
00000110: 7355 5abd 8642 143d ddf2 4bbd 0855 0ebd
00000120: 6035 18bd b6f0 44bd cc15 ca3c 0b73 45bd
00000130: cafc c6ba 6007 4cbd 7a84 39bd 5f17 62bc
00000140: e489 ce3c 9636 a7bb 3f2e 8fbc 204f 833c
00000150: 34c9 43bd b5f4 72bd ef8e a63c a253 373d
00000160: 4e5c 83bd f28a 0d3d 1cd4 e4bc fc57 013d
00000170: 2521 adbc 6248 c93c 5fab 5ebc c60b 30bc
00000180: 1643 c6bc 2251 b3bc ab86 df3c ed9c ac3c
00000190: 22af 64bd 9021 24bd 3d6a c23b 854b 863a
000001a0: d1e2 40bd 0ab0 bb3c a4e9 c8bc 93e7 85bc
000001b0: 2cc1 c5bc bda7 d73c 6829 02bb dbf7 e8bc
000001c0: ecdf a6bc 5d62 43bd 5b17 293d 2b0e 50bd
000001d0: ad92 cfbb cae6 bc3c 394a cf3c a08f be3c
000001e0: 24c4 c7bb 1a35 c9bc d770 48bd 8d25 83bd
000001f0: 01fe a0bc d810 f13c 3fa7 52bd 91f8 f7bc

action_model._discrete_distribution.branches.0.weight f4 [2, 128]
0.0036380088 -0.026734447 0.0052745934 -0.008381013 0.007000668 0.0035690805 -0.012045463 -0.0011235713
-0.046216078 -0.0032114522 -0.015410942 -0.009943139 -0.02757187 -0.02459415 -0.00544947 0.008507376
0.04283727 0.0082031395 0.0064860606 -0.017409539 -0.022569615 -0.02321334 -0.015643638 -0.014552607
0.036646985 0.0721341 0.012445942 -0.0129399635 0.04654449 -0.00264482 -0.02669674 0.03333179
0.024285171 0.00041664587 -0.02572083 -0.0061482526 -0.028902521 0.023500405 0.0039135 0.0410137
0.05655293 -0.021386662 0.028371869 0.031739555 0.064013235 0.028111024 0.007023132 -0.00970509
-0.030286035 -0.015577182 0.046314944 0.015245136 -0.015950825 0.05371105 -0.02833052 -0.0099697625
-0.016406534 0.018757496 0.0314243 -0.010297053 0.04625227 -0.028891794 0.0051031336 0.0031510943
0.046703354 -0.0024824312 -0.024435999 0.008233689 -0.043284427 0.057276305 -0.007567314 -0.0064516836
0.005358958 -0.008899799 0.026515398 -0.0006021562 0.007404167 -0.023476608 -0.02862349 -0.00566903
0.049240943 -0.0018390177 -0.009246808 0.028457014 -0.033683646 -0.003782078 0.010856334 0.062909186
-0.025103165 0.037195385 -0.00043234247 0.051625796 -0.012096724 0.044170488 -0.008423267 -0.01644971
-0.009781065 -0.009071201 0.03865526 0.034897774 -0.029516516 0.0075054257 0.027218303 -0.014216185
-0.044879094 0.03402143 -0.01832804 -0.0048349453 0.0028281235 0.0008002655 0.011022781 0.0019519652
-0.0047451286 0.0068227043 0.028550375 -0.029103354 -0.0062443796 0.03737255 0.021863176 0.038398158
-0.0033457729 -0.00071877165 -0.02982582 -0.015171184 0.008299572 0.019910324 -0.027048165 -0.022636205
0.004258611 0.045419164 -0.010776542 0.0062636784 -0.0151895825 0.00958959 0.032495413 0.0069371616
0.034792393 -0.004076015 0.018598398 0.013839728 0.02720629 0.026783608 -0.0017283194 -0.0043700114
-0.034595847 -0.009520004 0.0015455651 0.015224392 0.014111219 0.04022188 0.021568142 0.0053018606
-0.042233348 -0.052417852 -0.045129158 0.0021699476 -0.045246433 -0.0016008758 0.02012693 -0.0009728551
0.021234881 0.0030779892 0.028431257 0.0033712233 0.014959075 -0.035933506 -0.00074179284 -0.027769867
-0.06955996 0.03395609 -0.034625478 -0.030023249 -0.05453306 -0.035031542 -0.0060213795 0.0009990559
0.031184196 0.025104236 -0.030760095 -0.024274329 0.032519292 -0.038916707 0.044209544 0.018863037
-0.0022432765 -0.025953846 -0.017942468 0.01013705 -0.022969984 0.035364892 0.007941691 0.0126625905
-0.035268202 -0.0015490673 0.031407498 -0.009338398 0.05561332 -0.03755921 0.020507481 0.017522462
-0.0011409862 0.013938695 -0.025428835 0.0044160318 0.00033565555 0.028550021 0.024521856 0.012816035
-0.02272253 0.009189268 0.04114493 -0.031142188 0.021985564 0.022218993 -0.007281891 -0.05043313
0.028643638 -0.039475504 0.001135907 -0.046913538 0.02379784 -0.026598383 -0.015766058 -0.003051462
0.009705594 0.01665987 -0.046063587 -0.061294097 0.054820552 0.01572295 0.002619023 -0.024932921
0.007969232 -0.03072781 7.686119e-05 -0.0060229856 0.0068542417 -0.0033224598 -0.012282337 0.004444915
0.008335748 -0.00076076115 -0.029058028 0.026848026 -0.008771654 -0.043990366 -0.03828929 -0.017531222
-0.0017678535 0.0053235283 0.023316499 -0.0017927594 -0.004324475 -0.00067263603 0.036520954 0.032901283
00000000: a96b 6e3b 3302 dbbc 7fd6 ac3b 8450 09bc
00000010: dc65 e53b 3ce7 693b 555a 45bc cc44 93ba
00000020: 124d 3dbd 3a77 52bb 2d7e 7cbc 8ce8 22bc
00000030: 67de e1bc ac79 c9bc 7891 b2bb 8562 0b3c
00000040: 2276 2f3d 7666 063c 0589 d43b 739e 8ebc
00000050: eae3 b8bc e729 bebc 1627 80bc 0f6e 6ebc
00000060: 261b 163d 0bbb 933d 10ea 4b3c 2402 54bc
00000070: 6fa5 3e3d b754 2dbb 1fb3 dabc ea86 083d
00000080: b2f1 c63c 4371 da39 7db4 d2bc 4877 c9bb
00000090: fbc4 ecbc ec83 c03c d13c 803b fbfd 273d
000000a0: 0ca4 673d 1533 afbc 1f6c e83c 5601 023d
000000b0: 5f19 833d 1749 e63c 4d22 e63b 1902 1fbc
000000c0: 6b1a f8bc 7037 7fbc bdb4 3d3d bcc6 793c
000000d0: 4eab 82bc 1e00 5c3d 6815 e8bc 3758 23bc
000000e0: ff66 86bc 52a9 993c c4b6 003d f8b4 28bc
000000f0: 0573 3d3d 7cae ecbc 3038 a73b 9782 4e3b
00000100: 044c 3f3d 49b0 22bb 012e c8bc 98e6 063c
00000110: 034b 31bd 8f9a 6a3d 3bf7 f7bb a568 d3bb
00000120: 339a af3b 76d0 11bc d236 d93c 05da 1dba
00000130: a89e f23b 0452 c0bc cf7b eabc 45c3 b9bb
00000140: dfb0 493d 320b f1ba ec7f 17bc af1e e93c
00000150: ddf7 09bd bddc 77bb c4de 313c 88d6 803d
00000160: 27a5 cdbc 305a 183d 06ac e2b9 9275 533d
00000170: 5631 46bc 1dec 343d be01 0abc 8bc1 86bc
00000180: c340 20bc 609f 14bc fa54 1e3d f8f0 0e3d
00000190: 9fcc f1bc 13f0 f53b ebf8 de3c 00eb 68bc
000001a0: 24d3 37bd 0e5a 0b3d b024 96bc 766e 9ebb
000001b0: 0a58 393b e9c8 513a e598 343c 15d9 ff3a
000001c0: 067d 9bbb fe90 df3b 7ae2 e93c 286a eebc
000001d0: a79d ccbb f613 193d 671a b33c 6347 1d3d
000001e0: c144 5bbb f36b 3cba 4755 f4bc 8f90 78bc
000001f0: eefa 073c fa1a a33c 1d94 ddbc 906f b9bc
00000200: d18b 8b3b 7209 3a3d 1890 30bc 8b3f cd3b
00000210: badd 78bc a81d 1d3c e919 053d 2151 e33b
00000220: 7882 0e3d 1890 85bb ab5b 983c 07c0 623c
00000230: badf de3c 4c69 db3c c788 e2ba 5032 8fbb
00000240: 60b4 0dbd caf9 1bbc 8f94 ca3a ba6f 793c
00000250: be32 673c b3bf 243d acaf b03c 3bbb ad3b
00000260: e0fc 2cbd 1ab4 56bd 5ad9 38bd ae35 0e3b
00000270: 5354 39bd 7ad4 d1ba 3be1 a43c 3307 7fba
00000280: c6f4 ad3c 17b8 493b abe8 e83c beef 5c3b
00000290: e816 753c 032f 13bd e074 42ba a27d e3bc
000002a0: 7475 8ebd 8b15 0b3d 72d3 0dbd 51f3 f5bc
000002b0: 0f5e 5fbd 3c7d 0fbd fe4e c5bb c1f2 823a
000002c0: 0076 ff3c 66a7 cd3c 98fc fbbc f5da c6bc
000002d0: f332 053d 2067 1fbd 1115 353d a886 9a3c
000002e0: ef03 13bb 299d d4bc 15fc 92bc df15 263c
000002f0: 8c2b bcbc c7da 103d de1d 023c c176 4f3c
00000300: 6475 10bd 130a cbba 26a5 003d 1500 19bc
00000310: cbca 633d b0d7 19bd 4eff a73c 448b 8f3c
00000320: 258d 95ba 205f 643c 2250 d0bc 5cb4 903b
00000330: edfa af39 bce1 e93c 0fe2 c83c 59fa 513c
00000340: 9924 babc 958e 163c 9687 283d e71d ffbc
00000350: 121b b43c 9b04 b63c ee9c eebb f892 4ebd
00000360: 10a6 ea3c 11b1 21bd b7e2 943a 6928 40bd
00000370: b0f3 c23c dae4 d9bc d227 81bc 09fb 47bb
00000380: 3604 1f3c 487a 883c 2cad 3cbd 850f 7bbd
00000390: 848b 603d 6bcd 803c eaa3 2b3b 2040 ccbc
000003a0: 6291 023c e3b8 fbbc 8a30 a138 775c c5bb
000003b0: 8c99 e03b a0bd 59bb db3b 49bc a6a6 913b
000003c0: a992 083c d16d 47ba 1a0b eebc 64f0 db3c
000003d0: fcb6 0fbc 3e2f 34bd 3bd5 1cbd a39d 8fbc
000003e0: 52b7 e7ba fe70 ae3b 3e02 bf3c 06fb eaba
000003f0: 53b4 8dbb d753 30ba ff96 153d 7fc3 063d

action_model._discrete_distribution.branches.0.bias f4 [2]
0.03514004 -0.035140026
00000000: 01ef 0f3d fdee 0fbd
